DQN_target_net_Pendulum.pt (torch, 76072 bytes, 6 tensors)

layer1.weight f4 [128, 3]
-1.1278199 -0.14620084 -0.061387736 -0.09372623 -0.050609283 -0.6069168 -0.5674259 1.1540171
0.25747573 -0.8644028 1.1511921 0.025542703 -0.5604558 0.2376901 0.62287307 -0.9269709
-0.31140333 -0.06565856 -0.78609186 -0.9641531 -0.26385844 0.88293517 0.32563353 -0.17963745
-1.1202649 0.5599861 0.5759828 -0.5640148 0.72622305 -0.22313493 -0.58910006 -1.2132256
-0.26274118 -0.47267583 -0.46869847 -0.15507698 -0.016533524 0.19921461 -0.714993 -0.13406104
0.1495477 -0.3875366 -0.73904365 0.58335674 0.22505873 0.3973637 0.3587304 -0.7097539
-0.58481324 0.89853364 0.186845 -0.39454287 0.68319166 -0.09945559 -0.27534336 0.46826503
-0.6821443 0.46279922 1.0199974 0.24973607 0.46332154 0.1184604 0.45101327 -0.87738335
0.9765636 0.5108501 0.06958609 0.57150054 0.44575286 -0.2510736 -0.28269976 0.6205308
0.17601112 1.3567052 0.25223705 -0.72109324 -0.4403356 -0.22567938 -0.072465114 0.6811563
-0.3487811 -0.8843685 0.36595428 0.44361782 -0.52100116 1.2276698 0.21684508 -0.2785826
-0.12124629 -0.61343443 -0.61919713 -0.55551744 0.107102886 0.5961471 0.4966635 -0.14673953
-0.37993383 -0.8359875 -0.33994943 0.74201924 -0.6684455 -0.19880353 0.802846 -0.75090104
-0.26940584 0.47463152 -0.20405936 -0.07172742 0.124188095 0.5901573 0.6866267 -0.95613945
-1.0236056 -0.30128437 -0.45170158 0.061135963 0.19451696 -0.55018055 -0.7859611 -0.22504944
0.38742653 -0.3253327 0.2625411 -0.88133323 0.9344751 0.34702066 0.85246027 0.5894777
-0.3091925 0.37982234 -0.3386224 0.3533997 0.094241135 0.5786659 0.08112928 0.0071211504
-0.2635737 -0.736732 -0.06423796 0.52193874 0.67541564 0.55214524 -0.8696457 -0.6828008
0.842431 -1.0387567 -0.30134457 -0.8926392 0.40172789 0.26728576 -0.5160182 0.8922653
0.25818717 -0.37888804 1.4297578 0.2204194 -0.8170088 -0.66862226 -0.24256356 -0.81872845
-0.52621883 0.5862007 -0.5403154 1.4948851 0.3549841 -0.77053595 0.661386 0.3200802
0.6789647 -0.35129312 -0.24977332 -0.92368317 0.7597358 0.24359523 -0.3389724 -0.21333674
0.28201777 0.4534307 -0.16666694 0.4906298 -0.67552143 0.06990873 0.26388362 -0.3710805
-0.8551526 -0.27447006 -0.83765435 -0.84544617 0.26236022 0.8399434 1.164587 0.32208937
-0.49 0.7735519 0.15249072 -0.8185525 0.42013943 0.42553148 -0.55593556 -0.16794807
-0.19139992 0.027702045 -1.7081759 -0.40730613 -0.43772557 0.62076586 0.14898674 -0.6658021
1.129014 0.4279718 -0.4409819 1.3386132 0.29273185 -0.7518472 0.6458244 -0.14084144
-0.672918 0.24278869 0.30571523 -0.63931656 0.5597335 -0.040970832 -0.38389263 -0.7909073
-0.2108577 -0.58003813 -0.065720156 0.23522744 -0.71498406 1.7412845 0.4256299 -0.7524292
1.4827431 0.36388835 -0.28242078 0.073741764 -0.09946474 -0.51250577 1.1435953 0.06663477
-0.71289164 0.43878317 0.20166792 -0.38145855 -1.6018698 -0.27142596 -0.5499879 -0.224378
0.39682323 -0.4441085 0.7672797 0.2868 0.44259918 -0.24270114 0.42578986 -0.65733784
00000000: 675c 90bf acb5 15be b571 7bbd 8af3 bfbd
00000010: ae4b 4fbd e65e 1bbf d342 11bf d5b6 933f
00000020: dcd3 833e 8049 5dbf 435a 933f ee3e d13c
00000030: 087a 0fbf 0965 733e 9c74 1f3f f74d 6dbf
00000040: 4270 9fbe ff77 86bd 513d 49bf bdd2 76bf
00000050: 7418 87be 0a08 623f 70b9 a63e e1f2 37be
00000060: d764 8fbf 405b 0f3f 9c73 133f 4663 10bf
00000070: c1e9 393f 7c7d 64be 43cf 16bf fa4a 9bbf
00000080: 0386 86be 9102 f2be 3ff9 efbe 80cc 1ebe
00000090: 5071 87bc eafe 4b3e c809 37bf 4c47 09be
000000a0: 0823 193e 326b c6be f731 3dbf de56 153f
000000b0: cc75 663e 4173 cb3e 83ab b73e 6eb2 35bf
000000c0: 52b6 15bf 4d06 663f 4c54 3f3e 8601 cabe
000000d0: a6e5 2e3f 5faf cbbd cef9 8cbe 6fc0 ef3e
000000e0: 02a1 2ebf 05f4 ec3e 468f 823f d0ba 7f3e
000000f0: 7b38 ed3e 5e9b f23d 36eb e63e 329c 60bf
00000100: 1200 7a3f 12c7 023f 2783 8e3d dc4d 123f
00000110: b839 e43e b88c 80be 06be 90be 1bdb 1e3f
00000120: 423c 343e 84a8 ad3f 3725 813e 9199 38bf
00000130: ab73 e1be 7f18 67be 9768 94bd 4260 2e3f
00000140: 7093 b2be f965 62bf 5c5e bb3e e021 e33e
00000150: 5560 05bf 4924 9d3f a30c 5e3e 61a2 8ebe
00000160: fa4f f8bd 0a0a 1dbf b483 1ebf 6436 0ebf
00000170: c258 db3d 199d 183f ae4a fe3e e342 16be
00000180: b086 c2be 4703 56bf da0d aebe f9f4 3d3f
00000190: 3f1f 2bbf 2793 4bbe 5187 4d3f 0d3b 40bf
000001a0: 90ef 89be e702 f33e f0f4 50be d3e5 92bd
000001b0: 5456 fe3d 8c14 173f c4c6 2f3f 8ec5 74bf
000001c0: 8205 83bf f241 9abe 6e45 e7be b469 7a3d
000001d0: 742f 473e a2d8 0cbf bf34 49bf 5c73 66be
000001e0: c55c c63e 0292 a6be c96b 863e 0e9f 61bf
000001f0: c339 6f3f b1ac b13e d63a 5a3f 03e8 163f
00000200: 7b4e 9ebe 1378 c23e ea5f adbe cef0 b43e
00000210: 7f01 c13d 7323 143f 1c27 a63d 8a58 e93b
00000220: 22f3 86be 789a 3cbf 318f 83bd c79d 053f
00000230: 0ae8 2c3f 6459 0d3f 1aa1 5ebf 09cc 2ebf
00000240: 8fa9 573f fbf5 84bf d649 9abe 0184 64bf
00000250: 47af cd3e aed9 883e c519 04bf 806b 643f
00000260: 1c31 843e 9dfd c1be 4e02 b73f a0b5 613e
00000270: 7d27 51bf d42a 2bbf 9562 78be 3098 51bf
00000280: 47b6 06bf 4011 163f 1c52 0abf 6558 bf3f
00000290: 7ac0 b53e d841 45bf 9850 293f 8de1 a33e
000002a0: a1d0 2d3f b1dc b3be 94c4 7fbe 8076 6cbf
000002b0: 0c7e 423f 0771 793e ca8d adbe f274 5abe
000002c0: a264 903e 1228 e83e bdaa 2abe d433 fb3e
000002d0: f9ee 2cbf 4f2c 8f3d c11b 873e 43fe bdbe
000002e0: 48eb 5abf 5787 8cbe 8470 56bf 296f 58bf
000002f0: 1454 863e 8806 573f 3011 953f e6e8 a43e
00000300: 48e1 fabe 7f07 463f 8726 1c3e a88c 51bf
00000310: 841c d73e 43df d93e cb51 0ebf 94fa 2bbe
00000320: 57fe 43be 66ef e23c 82a5 dabf 6e8a d0be
00000330: 911d e0be 83ea 1e3f fb8f 183e 0272 2abf
00000340: 8883 903f 1f1f db3e 61c8 e1be ad57 ab3f
00000350: f3e0 953e 0f79 40bf bf54 253f bd38 10be
00000360: 5b44 2cbf 999d 783e b586 9c3e 40aa 23bf
00000370: b24a 0f3f 08d1 27bd 938d c4be e778 4abf
00000380: 15eb 57be 617d 14bf 4a98 86bd 76df 703e
00000390: 3209 37bf 69e2 de3f 2aec d93e 339f 40bf
000003a0: 87ca bd3f 934f ba3e 7599 90be ec05 973d
000003b0: 2bb4 cbbd 9433 03bf 5561 923f cf77 883d
000003c0: 1180 36bf 30a8 e03e 0982 4e3e 894e c3be
000003d0: 120a cdbf 58f8 8abe 02cc 0cbf 59c3 65be
000003e0: 6a2c cb3e 3062 e3be 716c 443f 73d7 923e
000003f0: 5c9c e23e a686 78be 2101 da3e 4b47 28bf

layer1.bias f4 [128]
-0.6496403 -0.26262838 0.6405839 0.22381148 -0.1077138 -0.4759294 0.5931798 -0.20350474
0.28702396 -0.5588092 0.39183626 0.43287688 -0.118529685 -0.7614582 0.51663786 -0.1283651
0.4513735 0.50080687 0.6506224 -0.32958484 0.32841763 0.14792989 0.51780665 -0.21895501
-0.019813493 0.78854 0.06810691 0.383733 -0.36204958 -0.5569091 0.19153641 -0.53444
-0.2858299 -0.4856077 -0.5000565 0.94865596 0.477801 0.7391326 0.6803644 0.6841297
0.8737141 0.05982751 0.24681035 0.6178795 0.84574157 -0.5309202 0.33150265 0.12004571
-0.45985648 0.65670055 -0.13534512 -0.5953545 0.70782036 0.19211318 0.049299873 0.19244194
-0.6749112 0.6184094 -0.35159937 0.15647283 0.904471 0.6107149 -0.56953084 -0.67827594
0.2776456 0.47243956 0.799402 0.45874164 0.4702939 0.29565653 0.531234 0.44748232
0.35393712 0.020395597 0.5569185 0.8965095 0.14575422 0.25159433 0.53295404 0.56027347
0.4322006 0.1816799 -0.49800926 -0.04537229 0.2146115 -0.30878708 0.5064417 0.3706307
-0.43525726 0.87913704 0.37846488 0.82391423 0.3958665 0.19507994 -0.44842133 0.29671597
0.6215992 0.37953863 0.39432436 0.2726484 -0.14037904 0.660629 0.33044744 0.83681554
-0.23925687 0.5987047 0.20890072 0.652027 0.84402734 0.15315868 -0.08940439 0.502835
0.48075452 0.6166262 0.15600811 0.30725476 0.9263325 -0.71402484 0.14946578 0.46355838
0.3470907 0.6865533 0.39685643 0.31791523 0.8721599 -0.6016423 0.5063199 0.86901736
00000000: d44e 26bf 3a77 86be 4efd 233f d62e 653e
00000010: 0e99 dcbd 05ad f3be a2da 173f 8c63 50be
00000020: cef4 923e 1f0e 0fbf c39e c83e 0aa2 dd3e
00000030: b1bf f2bd edee 42bf 6142 043f 2472 03be
00000040: 6d1a e73e e134 003f 318f 263f 58bf a8be
00000050: 5b26 a83e ef7a 173e fa8e 043f be35 60be
00000060: e84f a2bc c2dd 493f a37b 8b3d a778 c43e
00000070: 905e b9be 9891 0ebf 1f22 443e 0fd1 08bf
00000080: 4c58 92be 93a1 f8be b403 00bf 1edb 723f
00000090: 55a2 f43e cb37 3d3f 5c2c 2e3f 2023 2f3f
000000a0: baab 5f3f b10d 753d dabb 7c3e 5a2d 1e3f
000000b0: 8582 583f 63ea 07bf b7ba a93e 86da f53d
000000c0: 4f72 ebbe 871d 283f e997 0abe 2769 18bf
000000d0: b733 353f 51b9 443e aaee 493d 800f 453e
000000e0: fbc6 2cbf 1450 1e3f d504 b4be 6a3a 203e
000000f0: 698b 673f d057 1c3f c6cc 11bf 7ea3 2dbf
00000100: 9027 8e3e 99e3 f13e 9ca5 4c3f 2fe0 ea3e
00000110: 5dca f03e 4b60 973e f4fe 073f 671c e53e
00000120: 3f37 b53e ab14 a73c 3692 0e3f a681 653f
00000130: 9840 153e f9d0 803e ad6f 083f 156e 0f3f
00000140: 6649 dd3e 4c0a 3a3e 12fb febe 4bd8 39bd
00000150: 1ec3 5b3e 5719 9ebe 2aa6 013f 4fc3 bd3e
00000160: 0ada debe 200f 613f 26c6 c13e 0bec 523f
00000170: 04af ca3e 09c3 473e 7b97 e5be 28eb 973e
00000180: 2021 1f3f e352 c23e e2e4 c93e 9298 8b3e
00000190: 86bf 0fbe fb1e 293f 6830 a93e 8b39 563f
000001a0: c1ff 74be b644 193f 12ea 553e 3eeb 263f
000001b0: 2d12 583f a1d5 1c3e a619 b7bd cbb9 003f
000001c0: 7525 f63e 37db 1d3f 97c0 1f3e 7f50 9d3e
000001d0: 2024 6d3f 55ca 36bf 8f0d 193e 8657 ed3e
000001e0: dfb5 b13e f5c1 2f3f c430 cb3e c9c5 a23e
000001f0: df45 5f3f 3b05 1abf 2e9e 013f ec77 5e3f

layer2.weight f4 [128, 128]
0.40266463 -0.37601948 0.3242618 -0.02432846 -0.14791547 0.3294718 0.41070244 0.08066835
-0.25161377 -0.4500012 0.18642062 0.34445292 -0.3039571 -0.42835507 0.35700065 -0.23788098
0.17482969 0.19449015 -0.17219275 0.34051657 -0.09472272 -0.17150936 -0.08599898 0.009931685
0.22284488 0.32489765 -0.34489205 -0.22507216 -0.43435517 -0.403349 0.36577943 0.42784974
-0.43998733 0.5614871 0.6293743 -0.10869733 -0.094142385 0.33758768 0.3158299 0.26355386
-0.11543631 -0.41108075 -0.3412921 0.022582196 0.05121981 -0.31728226 -0.09062332 -0.25720018
0.39912432 0.26881272 -0.63959676 -0.3613733 0.27877602 0.015803201 0.0031518894 -0.2532118
0.6672629 0.40234116 -0.18235978 0.014936026 0.35562834 0.047997173 -0.45927912 0.57674384
0.21588331 -0.032413226 0.05652484 0.004622865 0.25360432 -0.057409763 0.21987665 0.26808444
-0.17107297 0.41268328 0.08051576 0.25849837 0.07444978 0.232116 0.17713854 0.33429676
0.30675125 0.12183502 -0.14695601 -0.23715372 0.067634106 -0.32502502 0.27831164 0.29568338
0.29207328 0.3594064 0.4315303 0.2695137 0.25674897 0.47702858 -0.76869625 0.32387096
0.4266882 0.26885653 0.3329893 0.11430984 -0.2710941 0.29463696 0.3205281 0.006403349
-0.58830583 0.29999593 0.13624404 0.23469612 0.07165012 -0.16292253 -0.017186303 0.18468447
0.08817776 0.26345292 -0.25655982 0.21318308 0.30819505 0.5178311 0.20358877 -0.21472973
0.29969 0.29845864 0.19659182 0.034106288 -0.32062197 -0.78440046 0.32492003 0.20705798
0.055690557 -0.07819141 0.06722665 0.06949003 -0.07851098 -0.03661079 0.06454651 0.008404464
-0.06082427 -0.07697651 0.056443274 -0.02945967 -0.04932098 -0.04738814 0.05504661 0.070446365
0.0072627845 -0.031833638 0.078622796 -0.07280813 -0.004688412 -0.030359603 -0.039118446 -0.013134149
0.025287468 0.0012805307 0.0005665382 -0.040595148 0.07141865 0.056476653 -0.051055104 -0.068107195
-0.030554011 0.029772446 -0.05499441 -0.0020296308 -0.05033671 -0.04017342 0.058325056 -0.019310322
-0.028329996 -0.0635429 0.04670739 -0.02860348 0.0058244253 -0.032686833 -0.011379519 -0.043744676
0.04027591 0.036186725 0.052201767 0.056349076 0.015040546 -0.078274086 0.0076609035 -0.073745795
0.02572761 0.013443328 0.045011505 -0.008410279 0.06265258 -0.041893426 0.060133945 0.00023703481
-0.036776878 0.02350071 -0.05025184 -0.016683545 -0.014325214 -0.061418355 -0.01596042 0.03095526
0.016532945 0.008221319 -0.017401164 -0.045812864 0.06952732 -0.041298993 -0.023042424 -0.056944173
0.0059431456 0.06876668 -0.014458891 0.07573502 0.058596548 -0.0609458 -0.018004343 -0.06922325
0.03324346 -0.056840885 -0.0310695 0.027454216 0.067928314 0.011122348 -0.031864963 -0.06821114
0.06336376 -0.0076218448 -0.063494444 -0.060833637 0.04597433 -0.046559047 -0.08147414 -0.073406756
0.039625216 0.040722612 0.07580513 -0.045707777 -0.07345556 -0.05059599 -0.072721556 -0.00794204
-0.050561264 -0.076642774 -0.008775306 0.07167851 0.043396957 0.03555839 -0.045326166 -0.062592454
-0.007650574 0.014776631 0.06921958 -0.03675378 -0.07466127 -0.025376782 -0.047570966 -0.0040742354
00000000: 0f2a ce3e a085 c0be a505 a63e 7b4c c7bc
00000010: 2777 17be 87b0 a83e 9747 d23e 7335 a53d
00000020: 85d3 80be 8f66 e6be 0ce5 3e3e 225c b03e
00000030: 44a0 9bbe 5b51 dbbe cac8 b63e 1297 73be
00000040: 8e06 333e 6d28 473e 4c53 30be 3058 ae3e
00000050: fcfd c1bd 26a0 2fbe 3c20 b0bd 82b8 223c
00000060: 7331 643e fc58 a63e b195 b0be 5179 66be
00000070: cd63 debe c383 cebe 7147 bb3e 1f0f db3e
00000080: 0546 e1be 9ebd 0f3f ad1e 213f b59c debd
00000090: b9cd c0bd 4bd8 ac3e 75b4 a13e 88f0 863e
000000a0: df69 ecbd 2d79 d2be d7bd aebe 4cfe b83c
000000b0: ddcb 513d d272 a2be b898 b9bd beaf 83be
000000c0: 065a cc3e d2a1 893e 9dbc 23bf ec05 b9be
000000d0: bbbb 8e3e b775 813c ee8f 4e3b faa4 81be
000000e0: bed1 2a3f a9ff cd3e 86bc 3abe 3cb6 743c
000000f0: eb14 b63e af98 443d a226 ebbe 7ca5 133f
00000100: 8410 5d3e bbc3 04bd 9786 673d 677b 973b
00000110: 6dd8 813e 8026 6bbd 5827 613e 5d42 893e
00000120: c12d 2fbe 394b d33e 72e5 a43d e659 843e
00000130: 2079 983d d1af 6d3e ce63 353e f228 ab3e
00000140: 800e 9d3e a484 f93d a37b 16be 6dd8 72be
00000150: c083 8a3d ae69 a6be dd7e 8e3e d063 973e
00000160: a18a 953e 1e04 b83e 8af1 dc3e b3fd 893e
00000170: 9a74 833e 173d f43e 47c9 44bf 6ad2 a53e
00000180: e076 da3e 90a7 893e 937d aa3e 471b ea3d
00000190: d9cc 8abe a8da 963e 421c a43e 2fd3 d13b
000001a0: 369b 16bf 1199 993e 8f83 0b3e 2e54 703e
000001b0: 4cbd 923d 2ad5 26be 4aca 8cbc ed1d 3d3e
000001c0: 8b96 b43d 4de3 863e cf5b 83be aa4c 5a3e
000001d0: becb 9d3e 9490 043f 9379 503e 1ce2 5bbe
000001e0: f870 993e 92cf 983e 5e4f 493e 09b3 0b3d
000001f0: 9028 a4be 78ce 48bf eb5b a63e 0207 543e
00000200: c81b 643d d122 a0bd 20ae 893d ca50 8e3d
00000210: 5dca a0bd 32f5 15bd f630 843d e1b2 093c
00000220: df22 79bd dca5 9dbd 1031 673d 6855 f1bc
00000230: cc04 4abd 111a 42bd 8e78 613d 2f46 903d
00000240: a7fc ed3b fd63 02bd fd04 a13d 6e1c 95bd
00000250: 40a1 99bb b4b4 f8bc aa3a 20bd 9d30 57bc
00000260: aa27 cf3c 7bd7 a73a bc83 143a 1947 26bd
00000270: f143 923d 1054 673d 281f 51bd c97b 8bbd
00000280: 684c fabc 58e5 f33c d241 61bd 8e03 05bb
00000290: de2d 4ebd e28c 24bd 41e6 6e3d ae30 9ebc
000002a0: 4f14 e8bc c822 82bd 4050 3f3d d851 eabc
000002b0: d2da be3b a1e2 05bd 2971 3abc 9e2d 33bd
000002c0: 5af8 243d 8838 143d 85d1 553d 4ace 663d
000002d0: 9f6c 763c 2a4e a0bd 5108 fb3b 0908 97bd
000002e0: b5c2 d23c 6841 5c3c fc5d 383d 44cb 09bc
000002f0: ff4f 803d 7198 2bbd 034f 763d 8c8c 7839
00000300: 5aa3 16bd 9084 c03c e0d4 4dbd eeab 88bc
00000310: 4db4 6abc d091 7bbd 6dbf 82bc e395 fd3c
00000320: 1970 873c b6b2 063c e38c 8ebc 45a6 3bbd
00000330: 5764 8e3d 2229 29bd 77c3 bcbc 4b3e 69bd
00000340: b8be c23b 8cd5 8c3d fce4 6cbc f61a 9b3d
00000350: ef02 703d 4ea2 79bd d87d 93bc ebc4 8dbd
00000360: 4b2a 083d fdd1 68bd 7785 febc aae7 e03c
00000370: 001e 8b3d 823a 363c d684 02bd 48b2 8bbd
00000380: dcc4 813d abc0 f9bb 6009 82bd b12c 79bd
00000390: 944f 3c3d b3b4 3ebd eadb a6bd 4856 96bd
000003a0: 0d4e 223d c1cc 263d b83f 9b3d 1438 3bbd
000003b0: de6f 96bd be3d 4fbd 0aef 94bd 551f 02bc
000003c0: 5419 4fbd e3f6 9cbd 4dc6 0fbc 2fcc 923d
000003d0: 02c1 313d ada5 113d eea7 39bd 7930 80bd
000003e0: abb1 fabb af19 723c ffc2 8d3d 228b 16bd
000003f0: 02e8 98bd f8e2 cfbc c6d9 42bd 2a81 85bb

layer2.bias f4 [128]
0.2528608 -0.009531579 0.19365835 0.15902977 0.16519257 0.22647193 0.49174082 0.0818533
0.003126548 0.22499926 0.06044829 0.08153818 0.196272 0.059681132 0.19276413 0.5603937
-0.04250447 0.0800631 0.13254951 0.115825996 -0.012009325 0.20542979 0.017095516 0.07864251
0.07248777 0.20953886 -0.01647487 -0.0075287116 0.2150092 0.21937035 0.1193834 0.6017226
-0.2075691 0.13335146 0.15972482 0.18220754 0.0781716 -0.053777628 0.09891553 0.040009517
0.06504631 0.09811695 0.017817134 -0.058249954 0.15500201 0.13407686 0.07228681 0.08092633
0.6260787 -0.19742993 0.046601225 0.10854228 0.07872128 0.033649653 0.10286799 0.06687014
0.17274718 0.12555277 0.16990493 0.10111056 -0.043404646 0.119991966 0.08784634 0.0022279378
-0.012640633 -0.035076804 -0.05310301 0.112790346 0.11625734 0.16309175 -0.0761791 -0.01778086
0.029484559 0.033870723 0.12043924 0.16234735 0.0070928456 0.017493486 0.03615568 -0.07384498
0.05033325 0.56845504 0.018866103 0.41646948 0.041750766 0.01395616 0.31342736 -0.048907977
0.013936506 -0.0060126795 0.19622508 0.045183327 0.008990543 0.059682485 0.12941106 0.019339832
0.16173819 0.10147077 0.19605005 0.17935091 0.10066566 -0.0995658 -0.064741306 0.6413381
0.0049670925 0.08820799 0.11002112 0.07910903 -0.005827906 0.14745659 0.12115073 0.073486015
0.13673307 0.17537844 0.024617925 -0.06137261 0.3100878 0.11931751 0.055110052 -0.02814253
0.06763818 0.2660715 0.21090746 -0.2638063 0.10130002 0.14808524 0.0029036321 -0.0009729371
00000000: f976 813e 572a 1cbc 604e 463e b3d8 223e
00000010: 3e28 293e 42e8 673e 74c5 fb3e b4a2 a73d
00000020: c5e6 4c3b 3566 663e a098 773d 7dfd a63d
00000030: 87fb 483e 3474 743d f663 453e f675 0f3f
00000040: 2b19 2ebd 1ff8 a33d 0fbb 073e 2e36 ed3d
00000050: c3c2 44bc 305c 523e e50b 8c3c 530f a13d
00000060: 7874 943d 5b91 563e 4ef6 86bc 69b3 f6bb
00000070: 5f2b 5c3e 9fa2 603e 497f f43d 7e0a 1a3f
00000080: ff8c 54be 498d 083e e78e 233e 9d94 3a3e
00000090: 6f18 a03d ee45 5cbd 3a94 ca3d 05e1 233d
000000a0: 0037 853d 8af1 c83d 3df5 913c 8197 6ebd
000000b0: d9b8 1e3e 724b 093e 1b0b 943d b4bc a53d
000000c0: b246 203f 122b 4abe ede0 3e3d 6a4b de3d
000000d0: 9f38 a13d 38d4 093d 74ac d23d 36f3 883d
000000e0: a3e4 303e e890 003e 8ffb 2d3e 0e13 cf3d
000000f0: 12c9 31bd 59be f53d c8e8 b33d 9802 123b
00000100: a81a 4fbc b2ac 0fbd 8b82 59bd a0fe e63d
00000110: 5418 ee3d 8601 273e ca03 9cbd 2ba9 91bc
00000120: 9a89 f13c 07bc 0a3d d9a8 f63d 623e 263e
00000130: 1a6b e83b 804e 8f3c fa17 143d 093c 97bd
00000140: 3d2a 4e3d 4586 113f 168d 9a3c 7d3b d53e
00000150: da02 2b3d 61a8 643c 8d79 a03e bb53 48bd
00000160: f155 643c 0306 c5bb 3aef 483e 2712 393d
00000170: 124d 133c 9f75 743d 5584 043e 916e 9e3c
00000180: b29e 253e e8cf cf3d 58c1 483e c4a7 373e
00000190: cc29 ce3d 27e9 cbbd 1797 84bd bc2e 243f
000001a0: fec2 a23b 64a6 b43d c152 e13d ea03 a23d
000001b0: 05f8 bebb dcfe 163e e01d f83d d67f 963d
000001c0: c103 0c3e 6896 333e 88ab c93c d961 7bbd
000001d0: d4c3 9e3e bd5c f43d 14bb 613d 2a8b e6bc
000001e0: e385 8a3d 863a 883e 20f8 573e 9f11 87be
000001f0: 6376 cf3d a8a3 173e dd4a 3e3b b40c 7fba

layer3.weight f4 [10, 128]
-0.27347106 -0.07331659 -0.16142817 -0.28060594 -0.25646353 -0.17682104 0.33535838 -0.21363188
-0.031720106 -0.37103182 -0.3204575 -0.3038901 -0.22900607 -0.343324 -0.27414057 0.4854439
0.47969612 -0.22252771 -0.2819181 -0.16386439 -0.03506952 -0.120531455 0.059085306 -0.14161529
-0.4448031 -0.15657423 0.031530716 0.66046405 -0.2537169 -1.5774391 -0.17282906 1.3996363
0.8633381 -0.34683472 -0.30392152 -0.3210601 -0.22873485 0.6804381 -0.30235285 -0.28876972
-0.12649748 -0.1730949 0.02989764 -0.34347388 0.15392624 -0.19809306 -0.28425425 -0.06863464
0.5288071 0.52394474 -0.35502976 0.22996835 -0.30298492 -0.1883384 -0.36565286 0.0474649
-0.19538286 -0.1802569 -0.22302487 -0.21751949 0.25184673 -0.31569168 -0.1978856 -0.21510355
-0.31882602 -1.6237825 -0.01821502 -0.11856394 -0.29713064 -0.1305011 0.43628642 -0.16941106
0.05360793 -0.046258703 -0.34242016 -0.31501594 0.62384784 0.49716145 -0.19071613 0.059543718
-0.2699725 1.1203102 0.47807077 -0.21597223 -0.3392243 -0.30582896 -0.44807586 -0.31635958
-0.15142472 -0.23491709 -0.97825456 -0.16969767 -0.07046266 -0.27848476 -0.16754884 -0.13768846
-0.1935492 -0.29044586 -0.27726904 -0.3505484 -0.22338675 0.3027748 -0.02235434 0.53552866
0.42278033 -0.34378168 -0.3004626 -0.14043751 -0.40025073 -0.296649 -0.20134719 -0.30703172
-0.3824007 -0.11603596 -0.27135393 -0.29907426 -0.09999115 -0.25107697 0.06977518 0.025816472
0.05401143 0.65088713 -0.13406168 0.7614733 -0.13706641 -0.30450055 -0.06518359 -0.2437112
-0.33168074 0.041023653 -0.2985905 -0.19899291 -0.2652387 -0.3273522 0.30888882 -0.26899183
-0.027013136 -0.35642505 -0.21668598 -0.1673053 -0.2512781 -0.26859808 -0.23491418 0.3498974
0.5212383 -0.26745507 -0.25504377 -0.28560078 -0.008171912 -0.2983238 0.026818095 -0.30908895
-0.25520292 -0.30070153 0.0766111 0.40693876 -0.38158458 -0.3464856 -0.32994664 1.4953451
0.4910322 -0.20932142 -0.29904842 -0.30395246 -0.2761106 0.43702924 -0.18993221 -0.13318986
-0.31016386 -0.18752317 0.045014847 -0.10773752 -0.06350145 -0.26446787 -0.24464214 -0.27442273
0.14408974 0.39992267 -0.17603287 0.013993794 -0.32037196 -0.29658732 -0.1684923 0.053159453
-0.23383033 -0.4648542 -0.28040853 -0.30530363 0.29934052 -0.28180018 -0.2738212 -0.22052707
-0.24339329 -0.29376543 0.060404927 -0.21367505 -0.1880165 -0.31800124 0.38511124 -0.14649837
-0.048855964 0.013762925 -0.26235119 -0.29062617 0.43458426 0.42362368 -0.18640174 -0.004002535
-0.1948034 0.97755593 0.37747604 0.24170965 -0.2676281 -0.25468674 -0.39082628 -0.14512123
-0.22122902 -0.16182327 -0.174223 -0.30263352 0.07675901 -0.17632358 -0.20020004 -0.20027074
-0.28082576 -0.2917999 -0.28405356 -0.3371249 -0.2486853 0.4057289 -0.052856717 0.3858987
0.40462157 -0.17349295 -0.21316062 -0.19732322 -0.32223797 -0.33684826 -0.2560528 -0.23080215
-0.29299465 -0.44860974 -0.29572585 -0.15896113 0.69481325 -0.17654231 0.008839443 -0.0709252
-0.07857476 0.38992447 -0.2982927 0.44192198 -0.2346863 -0.2214021 -0.028768934 -0.18133636
00000000: 6604 8cbe 0227 96bd 6d4d 25be 95ab 8fbe
00000010: 304f 83be 9310 35be 18b4 ab3e 51c2 5abe
00000020: f1ec 01bd e2f7 bdbe 0113 a4be 7c97 9bbe
00000030: 9180 6abe 2ac8 afbe 275c 8cbe 1a8c f83e
00000040: bb9a f53e 4ede 63be 9257 90be 11cc 27be
00000050: 0fa5 0fbd 32d9 f6bd 6f03 723d 9903 11be
00000060: 3bbd e3be ff54 20be 5a26 013d 2c14 293f
00000070: 2ee7 81be 86e9 c9bf 1afa 30be 4827 b33f
00000080: ba03 5d3f 5294 b1be 9a9b 9bbe fd61 a4be
00000090: 7839 6abe 3131 2e3f fecd 9abe a0d9 93be
000000a0: 8e88 01be ca3f 31be e5eb f43c cfdb afbe
000000b0: d79e 1d3e e8d8 4abe c689 91be 5190 8cbd
000000c0: e75f 073f 3e21 063f 76c6 b5be d37c 6b3e
000000d0: d720 9bbe c8db 40be da36 bbbe 8e6a 423d
000000e0: 7212 48be 4495 38be a260 64be 6ebd 5ebe
000000f0: 0ef2 803e 57a2 a1be 86a2 4abe 1b44 5cbe
00000100: 2a3d a3be 1bd8 cfbf aa37 95bc a7d1 f2bd
00000110: 8221 98be 15a2 05be ef60 df3e 187a 2dbe
00000120: fd93 5b3d c479 3dbd b251 afbe c549 a1be
00000130: 7eb4 1f3f f28b fe3e 174b 43be 1de4 733d
00000140: d639 8abe 5366 8f3f b1c5 f43e d327 5dbe
00000150: cfae adbe 9d95 9cbe 336a e5be e2f9 a1be
00000160: 150f 1bbe 1b8e 70be e46e 7abf 3ac5 2dbe
00000170: ba4e 90bd 8e95 8ebe ec91 2bbe 34fe 0cbe
00000180: c331 46be 52b5 94be 35f6 8dbe 147b b3be
00000190: 7fbf 64be 4c05 9b3e 7320 b7bc 6818 093f
000001a0: aa76 d83e 2704 b0be 3cd6 99be dace 0fbe
000001b0: aaed ccbe 61e2 97be f52d 4ebe 4333 9dbe
000001c0: 06ca c3be 43a4 edbd e7ee 8abe 4320 99be
000001d0: 29c8 ccbd 298d 80be 4ae6 8e3d 117d d33c
000001e0: 173b 5d3d 8aa0 263f 7747 09be eaef 423f
000001f0: 235b 0cbe 7fe7 9bbe f97e 85bd 6e8f 79be
00000200: 0fd2 a9be 6b08 283d dbe0 98be ccc4 4bbe
00000210: 5ecd 87be b59a a7be ad26 9e3e 4cb9 89be
00000220: a74a ddbc 587d b6be eee2 5dbe 1552 2bbe
00000230: 86a7 80be b085 89be 588d 70be c125 b33e
00000240: e06f 053f dfef 88be 1995 82be 443a 92be
00000250: 7ce3 05bc e6bd 98be 9fb1 db3c e840 9ebe
00000260: f5a9 82be 8df5 99be 48e6 9c3d 475a d03e
00000270: 0e5f c3be 9066 b1be c4ee a8be 7867 bf3f
00000280: 9368 fb3e 5b58 56be e01c 99be a89f 9bbe
00000290: 5e5e 8dbe 4cc2 df3e 977d 42be ec62 08be
000002a0: cccd 9ebe 1306 40be 7d61 383d 7da5 dcbd
000002b0: 0c0d 82bd 5568 87be 7883 7abe 2381 8cbe
000002c0: 438c 133e aac2 cc3e f641 34be 3a46 653c
000002d0: cb07 a4be 4bda 97be 3f89 2cbe babd 593d
000002e0: 3871 6fbe 5f01 eebe b591 8fbe c250 9cbe
000002f0: 2943 993e 1d48 90be 4b32 8cbe d9d1 61be
00000300: 173c 79be 6c68 96be 286b 773d a2cd 5abe
00000310: 6687 40be 0fd1 a2be 4d2d c53e ab03 16be
00000320: 311d 48bd e47d 613c e552 86be f4cc 94be
00000330: d481 de3e 34e5 d83e 19e0 3ebe b227 83bb
00000340: 8b7a 47be 1b41 7a3f 8a44 c13e bc82 773e
00000350: 8d06 89be 4d66 82be 621a c8be a99a 14be
00000360: dc89 62be 00b5 25be 8467 32be c8f2 9abe
00000370: d433 9d3d 2b8e 34be 3d01 4dbe c613 4dbe
00000380: 65c8 8fbe cc66 95be 786f 91be a39b acbe
00000390: 5ca7 7ebe b3bb cf3e 4980 58bd 8494 c53e
000003a0: 8f2a cf3e 23a8 31be c746 5abe 190f 4abe
000003b0: 60fc a4be 6077 acbe 5a19 83be 6657 6cbe
000003c0: 6503 96be 2db0 e5be 6169 97be b5c6 22be
000003d0: 48df 313f 82c7 34be 50d3 103c 3b41 91bd
000003e0: ceeb a0bd 2ea4 c73e d2b9 98be 9943 e23e
000003f0: 9b51 70be 3bb7 62be d4ac ebbc 3db0 39be

layer3.bias f4 [10]
0.1764764 -0.20120291 -0.1138486 -0.012017471 -0.08019545 -0.080237694 -0.1219965 -0.107552186
-0.16034253 -0.012954031
00000000: 3bb6 343e 2308 4ebe 7429 e9bd ede4 44bc
00000010: 833d a4bd a953 a4bd 4dd9 f9bd 5244 dcbd
00000020: d530 24be 253d 54bc
