DQN_policy_net_Mountaincar.pt (torch, 38564 bytes, 8 tensors)

linear_relu_stack.0.weight f4 [64, 2]
00000000: 2b45 8f3e 71d7 093f 1fb2 2dbd 8520 903e
00000010: abfb 8e3d 0c2c 55be 40c2 ab3e 791c e1bd
00000020: 0980 23be c350 f8be 17b9 f73d a80a debe
00000030: 3798 6ebe ea28 edbe 00b3 833e 9c46 a03f
00000040: edbc 93be 2aca d2bf a199 85bc af89 01bf
00000050: 2314 83be 2ef2 45bb 67a7 33bb 4585 703e
00000060: d9c0 b43d d7c5 843d 4d32 893e 547a 573e
00000070: fa15 973e 8581 94bd 1ad7 e4bc ca19 f33d
00000080: 3332 4f3e 0c87 2f3f 2b37 153e 3a1c 4d3e
00000090: 567b 993d 22c2 473e 0534 02be 3689 50bf
000000a0: 57fa 173e 0af1 923e c456 53bc 1ae4 7c3e
000000b0: 90f3 7dbd a630 32be 22d3 783e b733 2c3f
000000c0: 5026 9abe cb41 43bf a1a1 a1be a331 7dbf
000000d0: 8ab0 843e a857 c9bc c0aa 31be 2a0f 0dbe
000000e0: b73f 80be fe0c cfbf c804 6f3e a9c8 d93e
000000f0: b5a8 34be 5cb1 72be 57e2 c73d 7bb3 f0be
00000100: 4009 4bbe 09f0 953d 5669 fcbd 02cb 53bf
00000110: 0cd7 cd3d 7506 a03e c57e 73bc 2b03 1c3e
00000120: 0897 bf3d e871 fb3c 0f61 d9bd cbe7 cebe
00000130: f70d d8bc f2c8 513e 505d 5bbc ccfc 92be
00000140: 35f8 3e3e aed2 a63e b83d 4d3d f1dc f93d
00000150: 04ae 8a3e 1f35 093e 8f48 e63d f7c6 6fbe
00000160: fb39 64bd 08d8 883e 6729 a13d b140 a1bf
00000170: 7728 97be e487 33be 5c4f 3b3c 0cd6 1c3e
00000180: 0337 8e3d 6bd1 ea3d 943a dabd d4cf 1ebe
00000190: 447c 943d fdf3 0e3f 0f03 80be 16ef aabf
000001a0: 5e81 9c3e 9c76 8e3e 6d7a 6c3e 984b 333f
000001b0: 0bb0 9bbe d094 16be cd52 793b 3ce2 bdbe
000001c0: 83a0 a03e ff88 99bd 0eeb 793e a112 ff3f
000001d0: 4417 553e 385e 9c3f ab23 9d3e f825 7a3e
000001e0: 8152 4a3d f63d 283d 4125 6d3e 067a 8f3e
000001f0: 4187 42be dbad af3e 659b 9cbd afaf 0fbf
0.27982458 0.5384436 -0.042406198 0.2814981 0.069815956 -0.20817584 0.33546638 -0.10991759
-0.1596681 -0.48499116 0.1209585 -0.43367505 -0.23300253 -0.46320277 0.25722504 1.2521548
-0.28855076 -1.6467946 -0.016308608 -0.50600713 -0.256013 -0.0030204165 -0.0027413012 0.23488338
0.08825845 0.064830475 0.2679619 0.21042758 0.29508954 -0.072512664 -0.0279346 0.11870153
0.20233993 0.6856544 0.14571826 0.20030299 0.074942276 0.1950765 -0.12715156 -0.8145937
0.14841591 0.28699523 -0.0128991045 0.24696389 -0.061999857 -0.1740137 0.24299291 0.6726641
-0.30107355 -0.7627227 -0.31568626 -0.98903865 0.2591594 -0.02457793 -0.17350292 -0.13775316
-0.2504861 -1.617584 0.23341668 0.42535904 -0.17642482 -0.2370047 0.09759968 -0.47011933
-0.19827747 0.07321174 -0.12324779 -0.8273164 0.100507826 0.31254926 -0.014861767 0.15235583
0.09354979 0.030693963 -0.106142156 -0.4041122 -0.026373846 0.20486811 -0.013388947 -0.28708494
0.18649371 0.3258261 0.050107688 0.12200344 0.27085888 0.1339917 0.11244308 -0.23415743
-0.055719357 0.2672732 0.07869225 -1.2597867 -0.2952306 -0.17532307 0.011432495 0.15316027
0.069440864 0.114657246 -0.10655704 -0.15508968 0.07250264 0.55841047 -0.25002334 -1.3354213
0.3056745 0.27824867 0.23093577 0.7003722 -0.30407748 -0.14705205 0.0038043738 -0.37086666
0.3137246 -0.07496833 0.24406072 1.992756 0.20809656 1.2216253 0.30691275 0.24428546
0.049395088 0.041074716 0.23158742 0.28022784 -0.18996908 0.3431233 -0.07646827 -0.56127447

linear_relu_stack.0.bias f4 [64]
00000000: e475 1c3e bf06 1f3b 3128 68be 674b 82bb
00000010: 7932 d13d 9f04 8a3e c55a 883c 44c9 0a3e
00000020: 4d67 69bd e8da 3f3e ff6b fd3d 00c6 1a3d
00000030: 7999 20bd 88e6 22be 72da 88be aee6 e8bd
00000040: e9d3 6e3e 9027 8ebe 44e7 7cbd 289f b83b
00000050: 7c88 56bd bdfc 86be 2dc8 b8bd e2bb 463e
00000060: 6cef 4f3d 0c00 b2bc 1931 d5bd af00 5dbe
00000070: 456f d4bd ff84 253e 7c4f a7bc 998e 8c3e
00000080: e0db 293e 0fa6 0bbe 8cc3 40bd ed92 60bd
00000090: b7b4 43bd 2375 3a3e 4ab4 78be ef11 36be
000000a0: 1ede 1a3e 2f0f 56be bd96 4bbe df66 75bd
000000b0: e6ec 92be a519 933d a251 de3d 8beb 023d
000000c0: 7934 02bd 075e 36be 4466 5d3e 6c38 87bc
000000d0: 78ee 8e3e d73b 8a3e c6ed 36be d8d6 fe3c
000000e0: a5f9 99be b600 3e3e cca7 c63d 9495 2d3d
000000f0: e3af fdbd 6ccd 673e 4fb7 5bbd decb e73d
0.15279347 0.0024265496 -0.22671582 -0.003976274 0.10214705 0.2695665 0.016644845 0.13553339
-0.05698328 0.1873585 0.12374114 0.037786484 -0.039208863 -0.15908253 -0.2672916 -0.11372124
0.23323025 -0.2776456 -0.06174399 0.0056342073 -0.052376255 -0.263647 -0.090225555 0.19407609
0.05076544 -0.021728538 -0.10409755 -0.21582292 -0.103727855 0.16164015 -0.020423643 0.27452543
0.16587782 -0.13637565 -0.047061488 -0.05482762 -0.047779765 0.18208747 -0.24287525 -0.17780279
0.15123793 -0.2090423 -0.19881721 -0.05991256 -0.28696364 0.07182626 0.10855414 0.031962913
-0.031788323 -0.17809306 0.21621042 -0.016506396 0.27916312 0.2699878 -0.17864141 0.031108305
-0.30073276 0.18554959 0.096999735 0.042378977 -0.12387063 0.22636956 -0.053641614 0.113181815

linear_relu_stack.2.weight f4 [64, 64]
00000000: 4195 96bc fe01 1ebc b566 edbc 9709 59bd
00000010: 231d 39bd 99e2 d5bb 4e57 2e3d 464d bf3c
00000020: 1c51 2b3d 0acd 55bc 9464 1ebd dc3d 3f3d
00000030: 7d46 e93b b79b 183d 22ff 523d 8e65 c63c
00000040: 52dd a4bc 3f34 29bd c2e4 54bd d081 03bc
00000050: 197b 573c f219 1f3d 04c9 e63c cbe4 b6bc
00000060: 6c2a b4bc bafc c83c 3c98 b7bd 7023 f9bb
00000070: eeb6 d3bb 61ab 4fbc 084c 583d c536 093d
00000080: 3d7d 28bd 3af6 76be 0577 0639 17cd 2a3d
00000090: 36f9 4f3a a54e 0ebc 43e1 1bbd ba0e 1d3d
000000a0: 8062 0c3d a9fb 37bc 351c 63bd b8ab 5e3c
000000b0: 6614 48bd 174e b13d 1a71 f7bc 93a7 b4bc
000000c0: d8a4 e23c 0b3b ca3c 2ba7 2b3d a1f7 293a
000000d0: f409 c1bc a68a 0d3d 97ee c3bc e2fc 7cb9
000000e0: fc80 baba 81e8 203d 050c 423c 376e ae3c
000000f0: c797 edba f008 1a3c ab22 09bd 2d98 2b3d
00000100: 6f4c b0bc 90de a23c 966e 543d c519 51bb
00000110: eb5e 7c3c d8bb adbb 5d85 2b3d 233d 43bd
00000120: 88d6 913b 1fb1 01bd 73b5 a5bc 9bee a5bc
00000130: 6854 f1bc d0ae e4bb 2c06 373d 5b10 32bd
00000140: 47b4 583c f2bc 783c 9bcb 09bd 2cd6 a7bb
00000150: 927d 993c 782b 5b3c f064 e6bc 2595 9fbc
00000160: 27ac 3b3d caa8 193d c9a4 69bd c52b 513d
00000170: f48b c0bc 82f8 153d eb3a 3abd 3b18 263d
00000180: b862 063c 71be 00be 5c5a 0abc d556 423d
00000190: bab0 6fbb d170 af3c f113 093d 8250 65bc
000001a0: fc00 443d d319 793b 5a29 c13b 3889 f03b
000001b0: eda4 8f3c 0a5c e03d e5cb 86bc b653 cc3c
000001c0: 7beb 8dbd 9985 4dbc eb25 f1bc 7438 31bd
000001d0: efe5 13bd c018 b63c 3d14 813d c2a0 cdbc
000001e0: f57e 7e38 22d2 22bd 5237 16bd 2509 95bc
000001f0: 132e 20bd 75e0 673c f85b ae3a 3f1b 2b3d
00000200: 7410 48bd 7a2e e9bb e055 393d 6028 54bd
00000210: fec0 51bd f85e 023d 757b 3abd 2974 01bd
00000220: b836 71bc aae3 ecbc 4da9 17bb fb36 273d
00000230: fa62 c73c 7715 243c f039 23bd 318b b13c
00000240: 228f e8bc 6a8a c3bb 97c0 05bd 1c47 f73c
00000250: 5ab4 23bd 24d0 8bbc 50a3 4fbb 23a6 1cbd
00000260: ab60 953c 97c8 08bd c7e8 9c3b 841c 583d
00000270: f645 50bd a6e7 ce3b f326 3ebd 3f48 1e3d
00000280: facb 1d3d dd98 4cbd 070d 73bc 572b 513d
00000290: b279 623d 6ca3 1abc af66 28bc d810 05bd
000002a0: 0311 f1bc 52b0 02bb 9192 86bc 8624 c5bc
000002b0: 1569 62bd f36d 123c a1ea 58bc 0220 633d
000002c0: 7803 6f3c 2df4 54bc 8a02 f7bc 67d4 bdbb
000002d0: 5947 d6bc 3af6 cfbc ae25 86bc f568 16bc
000002e0: 59df 213d e4fa 1bbd 630f f53c a2cb 863b
000002f0: b198 093d bb3c 81bb 2ce0 a7bc 9a43 bd3a
00000300: 87e3 1cbd fde9 2d3d 31c7 5dbd 2c42 88bc
00000310: d1d9 ebbc 8d0d 07bd 997b 36bd d181 3fbd
00000320: e698 603c 096e 193d 825a b23c 3b12 313d
00000330: 580d 493c 1c1d 453d f4b6 e63c 2ccd 21bd
00000340: 4bc4 3e3d e210 a23c 58b3 60bd c735 f73c
00000350: 35f3 3bbd 3308 ab3a 1698 803c 2af2 5ebb
00000360: 7129 15bc 5491 d3bc 3466 d0bb 906f 21bd
00000370: 8d8a 363d 435b 49bd 2d4b 05bd 3173 34bc
00000380: 3ccf 01bc b98f 823c ffec 903c dd65 d6bc
00000390: 6dc5 e2bc 8965 213d 075c 363c 4535 bc39
000003a0: fcbf 09bd 3a37 193d 1fad f13c 538d 0abd
000003b0: e49f 1cbd f365 0c3c 57ca 8abc e7bd aebc
000003c0: a068 873c a9dd babb 917f dd3b a729 423d
000003d0: f254 613c be45 61bd fa70 d9bc 96ea ac3c
000003e0: 7afb 5f3c 6c98 d7bc 45de b8ba d467 043d
000003f0: 2a6e 633c 41f2 453d 88ad 173d 5ff7 ebbc
-0.018381717 -0.00964403 -0.028979639 -0.05298766 -0.045193803 -0.0065272567 0.04256373 0.023352277
0.0418254 -0.013049373 -0.038670138 0.046689853 0.0071189986 0.037257876 0.051512845 0.024218347
-0.020125065 -0.04130959 -0.051975973 -0.008026555 0.013151907 0.038843103 0.028172024 -0.022325894
-0.021992885 0.024534572 -0.08964583 -0.0076031014 -0.006461016 -0.012675137 0.052806884 0.033499498
-0.04113506 -0.24117365 0.00012823574 0.041699495 0.00079335587 -0.0086857425 -0.038056623 0.038344122
0.034273624 -0.011229434 -0.055446822 0.013590746 -0.04884758 0.086574726 -0.030205298 -0.022052562
0.027666494 0.024686357 0.04190747 0.0006483738 -0.023564316 0.034556054 -0.02391748 -0.00024126799
-0.0014229114 0.039284233 0.011843686 0.021292789 -0.0018126898 0.009401545 -0.033480328 0.041893173
-0.021520821 0.019881517 0.051863275 -0.003190623 0.01540349 -0.0053019337 0.041875232 -0.047665726
0.004450623 -0.031663056 -0.020228123 -0.020255378 -0.029459193 -0.006978847 0.04468362 -0.04347263
0.013226575 0.015181767 -0.03364144 -0.005121967 0.018736634 0.013377063 -0.028124303 -0.019480297
0.045818474 0.037514485 -0.057041917 0.051067133 -0.023504235 0.03661395 -0.045466345 0.04055045
0.008202247 -0.12572648 -0.008444395 0.04744609 -0.0036573843 0.0214161 0.033466283 -0.013996245
0.0478525 0.0038009777 0.005894822 0.0073405765 0.017534697 0.10955055 -0.016454646 0.02494226
-0.0692968 -0.012544059 -0.029437026 -0.04326673 -0.036107954 0.022228599 0.06302688 -0.02510107
6.0676557e-05 -0.03975118 -0.03667385 -0.018192837 -0.03910644 0.014152636 0.0013302555 0.04177403
-0.048843816 -0.007116136 0.045247912 -0.051796317 -0.051209442 0.03182885 -0.045527894 -0.03160492
-0.014722519 -0.028917152 -0.0023141683 0.040823918 0.024339188 0.010014883 -0.039850175 0.021672817
-0.028388564 -0.005967428 -0.03265437 0.030185275 -0.03996692 -0.017067023 -0.0031683035 -0.038244378
0.018234571 -0.033394422 0.0047884914 0.05276157 -0.05084797 0.0063142357 -0.046423864 0.038643118
0.038524605 -0.04995047 -0.014834649 0.051066723 0.05529184 -0.009438377 -0.010278388 -0.032486767
-0.029427057 -0.001994152 -0.01642731 -0.024065267 -0.055275995 0.008937347 -0.013239534 0.055450447
0.014588229 -0.012997669 -0.030152578 -0.0057931426 -0.026157068 -0.025385965 -0.016375389 -0.009180297
0.03951964 -0.038081065 0.029914564 0.0041136304 0.033592883 -0.003944007 -0.020492636 0.0014439702
-0.038302924 0.042459477 -0.05414504 -0.016633116 -0.028790386 -0.032971907 -0.044551466 -0.046754662
0.013708329 0.037458453 0.021771673 0.043230277 0.012271248 0.048123464 0.02816341 -0.039502308
0.04657392 0.019783441 -0.054858536 0.03017701 -0.045886237 0.0013048708 0.01569752 -0.0034018853
-0.009104119 -0.025826134 -0.00635984 -0.039413035 0.044565726 -0.0491593 -0.032542396 -0.011013792
-0.007922944 0.015937673 0.017691134 -0.02617162 -0.02768203 0.039403472 0.0111303395 0.00035897843
-0.033630356 0.037406184 0.029501496 -0.033826184 -0.03823842 0.008569228 -0.016942186 -0.021330787
0.016529381 -0.0057026935 0.006759592 0.047403004 0.013753163 -0.054998152 -0.02654313 0.021107953
0.0136707965 -0.026317798 -0.0014104327 0.03232558 0.013881246 0.048326734 0.037030727 -0.02880448

linear_relu_stack.2.bias f4 [64]
00000000: 6a05 613d fa8a 213d a40f 2cbd 95c8 8abc
00000010: 01b0 3ebd 3666 23bd c8be f43c 1d98 2c3d
00000020: 5b09 79bc 9eee 32bd 3e65 e73c f8dd 213d
00000030: 2edc 9f3d de44 0f3d 5230 22bd 17c5 a5bc
00000040: 738f 4abd bc82 fabc edcf f3bc 6b31 463d
00000050: 8979 9dbc fcd4 1c3d fbba 143d a9d8 37bd
00000060: e35b dc3b 67d4 9ebc 68f0 313d 1c23 d6ba
00000070: fcb3 2ebd 8662 e5bc d4fa 4dbd 4ef1 1ebd
00000080: c3ec 35bd a94e 3b3d e80d c43c 4716 933c
00000090: fd74 523c 62ce e1bc fe68 d7bc 3752 373d
000000a0: aa40 ec3b 54c2 f43c 610b 0abd 124f 363d
000000b0: d20f d6bc 5b19 463d e596 873c 95b0 a43c
000000c0: bdc0 b0bc 6abc 1e3d 6e1a 6fbd 2bc9 bf3c
000000d0: 0bc4 3abd 792e e7bc c017 3d3d b6f3 aa3b
000000e0: f20a 23bd 0e70 343d eda3 603d 7920 71ba
000000f0: 9784 313c 8b4d bd3b 50a0 8fbb 666d 38bd
0.054936804 0.03943918 -0.042007104 -0.016941348 -0.04655457 -0.039892398 0.029876128 0.042137254
-0.015199984 -0.043684594 0.028246518 0.039518327 0.07805668 0.034977786 -0.039596863 -0.020235581
-0.04945321 -0.030579917 -0.029762233 0.048386972 -0.019222992 0.038289055 0.03631113 -0.044884358
0.006724821 -0.01938839 0.04344216 -0.0016337368 -0.042652115 -0.028001081 -0.050288036 -0.038804345
-0.044415247 0.045729313 0.023932412 0.017954959 0.012845275 -0.027564231 -0.026295181 0.04475614
0.007209857 0.02987782 -0.033702258 0.044509 -0.02613059 0.048364025 0.016551444 0.020103732
-0.02157628 0.038753904 -0.058374815 0.023411354 -0.045597117 -0.028220402 0.046165228 0.005217041
-0.03980536 0.044052176 0.05484383 -0.0009198259 0.010834835 0.005777066 -0.0043831244 -0.045026205

linear_relu_stack.4.weight f4 [64, 64]
00000000: e0b1 09bd 9a40 4f3d 2dba 09bd c415 0b3d
00000010: aa5b 7ebc 99eb bbbc abca 133c e113 cf3c
00000020: 5ed7 553d 8929 e5bc 50f7 ccbc 085d bcba
00000030: cfa1 c73d f00e 743e d37c 4ebd 7e8e 843d
00000040: 772f 3d3d 863e 873c 69df b03b a3c9 a43d
00000050: 480b d9bb 3091 f43c 21c6 db3c 6a47 b83b
00000060: f17c dcbc 04b8 a43c c0ed dc3c 9da1 e5bc
00000070: 3ab0 8abc ff19 6abc cf45 38bd db99 4bbd
00000080: ff0c bf3c 38c2 1b3b 67f1 e9bc b804 523c
00000090: dbe6 42be bc65 67bc 9007 2c3d e204 33bd
000000a0: 4909 6fbc 2376 413c 3845 223d c133 273d
000000b0: 6569 99bc 1276 2a3d 26c7 02bd 6cb7 4ebd
000000c0: 6fee 2bbd d51b 613d 1a2a 4dbc 382c 10bd
000000d0: 4e50 133c 2550 2fbd 6f8c 3f3d d256 0e3d
000000e0: f6bd 26bd a420 30bd 08cf bdbc cbfa f5be
000000f0: d05e bf3c c45f 563d 525a 1b3d febe a63c
00000100: e324 a03c 6b3b b83c 5608 8a3c e7b7 f33c
00000110: b612 103d 2461 02bd 30bb 49bd bca3 6b3d
00000120: 3d62 df3c 0854 3b3c 9e31 dcbc 73b2 b1bb
00000130: 3f57 05bd 63c9 69bd 38ee 1bbc 5463 4bbd
00000140: ec0b 513d 2aa1 9dbc b4cc 243d b574 27bd
00000150: 33c7 9bbc a04d 3bbd c8f3 fd3c 6418 4f3c
00000160: f2c3 b53c 5fbf 01bd ff37 693d fd7b f9bb
00000170: 520e 13bb 0016 af3c 3271 4fbc afc3 0f3d
00000180: 25b4 5cbd 5f81 633d 3d94 433d cae5 d8bc
00000190: e366 1a3d 0d8c 2d3d 0b2a 213d 5d51 02bd
000001a0: 84f3 ddbb 7143 403d e14d 1e3d 425e 26bd
000001b0: bbc5 d63c cfc6 0e3d ec5e cebc d648 0d3d
000001c0: ccb5 b4bc a2f8 76bc 0c4a a4bc fb57 d33c
000001d0: 6331 023d 9a84 1dba c205 85bc b77d df3c
000001e0: 45ae 49bd 13af 023c d44b bebc 615e 44bd
000001f0: b96c 323c c75e e83c 2f73 623c 8dc0 52bd
00000200: 4ef9 083d 1388 463d 21aa e0bc 8b57 053d
00000210: 7258 f13c ea35 eebc f090 debc fc90 083d
00000220: d526 5ebc a9a4 e43c 46fe 303d 1903 a53c
00000230: 143f 86bd df60 2fbe c808 13bb 043c 413d
00000240: d629 43b9 9355 0d3d 9b4e e6bc a087 62bd
00000250: a46b 2bbb 65b0 7abd a396 153d 60d0 03bd
00000260: 5446 e13c ebe2 30bd 7870 12bd d98c c53c
00000270: 449c 253d df96 d5bc 5595 6e3c f86d febc
00000280: cf5d 5cbd 393c 5cbd bcbf 023d 5cb6 53bd
00000290: 530e 0d3e 0731 9f3c 34b0 113d a3d1 353d
000002a0: 3147 a0bc 0c18 353d f65d 44bd d992 693c
000002b0: 8575 61bd dfae 33bd efa4 d73c 26ed c0bc
000002c0: 97ac 0d3c 16c1 0abd 0794 2cbc f0f7 56bd
000002d0: c4f6 64bc fcdb 86bc 33e6 bc3c cd69 543d
000002e0: f508 f43c 835d 393c fc5b 19bc ba12 8f3d
000002f0: 2954 043d 6c3d 7bbd 186a 5ebd 23de b83c
00000300: 84b3 33bd 297b 283d 8191 5b3d 3743 5b3d
00000310: d544 9dbc f427 bc3c 978b 06bd eba6 173d
00000320: 1e92 13bd 371b 8e3c 2d4c 87b9 a86d 8ebc
00000330: 32ac ccbd cc44 b1be 705e 87bc e583 063d
00000340: 439b f3bc fddb ad3c f169 7e3c 794b 62bc
00000350: 28d4 d0bb f888 5abd a667 37bd b353 993b
00000360: 3a6e 003d 2ca0 803c 3d43 3d3d 0fc2 38bd
00000370: 884d cf3c 282d 5abd 6bfa 08bc d89d ac3c
00000380: b1f2 323d c044 583b 4727 d43c 4f5f 233d
00000390: be39 343e ffb9 04bd 2020 cdba 2319 d03c
000003a0: a6d9 243d 42a8 56bd fc7c d3bc 1de6 763c
000003b0: 2cb2 78bb 442f 0d3d 9b9f ebbc af80 063c
000003c0: bca9 333c c704 f8bc 8958 27bd 0c71 4abb
000003d0: 3760 80bd 0f6e c6ba d2e5 513d 7885 843b
000003e0: 3482 403d c679 713d 8414 423d ccb8 5c3d
000003f0: 6b6d 373d d804 143d 7bb3 403c a75d 8dbd
-0.0336169 0.05059872 -0.033624817 0.033956304 -0.015524784 -0.02293949 0.009020488 0.025278034
0.052207343 -0.027973907 -0.025020272 -0.0014370987 0.097476594 0.23833823 -0.05041201 0.06472491
0.046187844 0.016509306 0.0053977263 0.08046272 -0.0066236593 0.029854387 0.026827874 0.0056237476
-0.026915045 0.020107277 0.026968837 -0.028031165 -0.016929734 -0.0142884245 -0.04498845 -0.049707275
0.023321627 0.0023766886 -0.028557492 0.012818508 -0.19033377 -0.014123376 0.0419994 -0.04370583
-0.014589616 0.011807951 0.039616793 0.04082084 -0.018727014 0.041616507 -0.031928204 -0.050467893
-0.041975435 0.054958183 -0.012522245 -0.03519842 0.008991314 -0.04280104 0.046764787 0.034750767
-0.040708505 -0.04299988 -0.02317001 -0.48042902 0.02336064 0.052337423 0.037927933 0.020354744
0.019548839 0.02248927 0.016849678 0.029750777 0.035174094 -0.03183092 -0.04925078 0.057529196
0.027268523 0.011433609 -0.026879128 -0.005422884 -0.032553907 -0.057076823 -0.009517245 -0.049655274
0.05103676 -0.019241888 0.040234283 -0.040882785 -0.019015884 -0.045728326 0.031000033 0.0126400925
0.02218816 -0.031676646 0.056938168 -0.0076136575 -0.0022438955 0.021372795 -0.012661265 0.035098728
-0.053882737 0.0555433 0.047748793 -0.02647676 0.037695777 0.04236989 0.039346736 -0.031815875
-0.006773414 0.046939317 0.03864849 -0.040617235 0.026217332 0.034857567 -0.025191747 0.03449329
-0.022059344 -0.015073927 -0.02005484 0.025798788 0.03178538 -0.0006008834 -0.016238097 0.027281625
-0.049238462 0.007976311 -0.023229517 -0.04794157 0.010890179 0.028365506 0.013821407 -0.051453162
0.03344088 0.048469614 -0.027424874 0.03255419 0.02946112 -0.029078443 -0.027168721 0.033341393
-0.013559063 0.027910547 0.043211244 0.020143079 -0.06555 -0.17126797 -0.0022435654 0.047176376
-0.00018612234 0.034505438 -0.028113654 -0.055305123 -0.0026156688 -0.06120338 0.03652061 -0.032181144
0.027499355 -0.043185156 -0.03575179 0.024115013 0.04043223 -0.026072918 0.014561971 -0.031058297
-0.0538004 -0.05376837 0.031921133 -0.051687583 0.13774996 0.019432558 0.03556843 0.04438938
-0.019565197 0.044212386 -0.04794117 0.014256203 -0.055043716 -0.043867942 0.026323764 -0.023550581
0.008647106 -0.033875547 -0.010533339 -0.052482545 -0.013974849 -0.016462319 0.023058986 0.051858712
0.029789427 0.011313799 -0.00936031 0.06985994 0.032306824 -0.061337873 -0.054300398 0.02256686
-0.04387237 0.04113308 0.05360556 0.053530898 -0.01919786 0.02296827 -0.032847967 0.03702442
-0.03602802 0.017346961 -0.00025805962 -0.017386273 -0.09993781 -0.346228 -0.016524523 0.03284063
-0.02973712 0.021223063 0.015528188 -0.013811939 -0.0063729472 -0.05335328 -0.04477658 0.004679167
0.03135512 0.015701376 0.0462067 -0.045106944 0.025305524 -0.05326572 -0.008360486 0.02107136
0.04368848 0.0032999963 0.025897635 0.039885815 0.17600152 -0.032403942 -0.0015649833 0.025402611
0.04024663 -0.052406557 -0.025816433 0.015069512 -0.0037947996 0.034468904 -0.02876263 0.0082093915
0.010965761 -0.030275716 -0.040855918 -0.0030890135 -0.062683515 -0.0015139001 0.051244564 0.004044231
0.04699917 0.058954023 0.047382846 0.053887174 0.044782083 0.03613743 0.0117615415 -0.069026284

linear_relu_stack.4.bias f4 [64]
00000000: 878e a53c cf9e 713c 4cd2 2d3d 12af 253d
00000010: 4efb 09bd 9c22 19bd 419e eb39 ad6f aebc
00000020: 4ba4 36bc cd6a 8b3b 02a1 d0bc 3ebd 2f3d
00000030: d191 1abc 1e9d 643d daa2 553d b775 04bd
00000040: 6d81 3ebd 1232 3b3d fb96 15bd 6b40 423d
00000050: a997 243d 1b96 653d 8b9e 12ba 6a53 08bd
00000060: d84c 3dbd 337a 8ebc 6595 bebb 7703 473c
00000070: 38d5 e6bc c778 523d cb17 1bbd b584 d0bc
00000080: d1fd 36bd 8343 713c a00a b1bc 847b 23bc
00000090: 5fe4 babc 3c0c f83c 2fe2 e63c 0fb1 a23c
000000a0: c128 5b3d e4ec e83d d105 043c c877 85bc
000000b0: c753 123b 3107 673d 9c03 f7bc 22b1 51bd
000000c0: b7e6 36bd 6fb0 2b3d 9368 b23c 0092 353c
000000d0: eb90 7fbc 577f 413d dd7d b3bc 67aa d6bc
000000e0: 94ad a43c 7615 523c d77b dcba fc03 f6bc
000000f0: 5fbe 133d 55d4 12bd af38 fa3c ea08 1abd
0.020209564 0.014747336 0.042436883 0.040450163 -0.03368693 -0.03738652 0.000449406 -0.021293486
-0.011147569 0.004254675 -0.0254674 0.042905085 -0.009434179 0.0558139 0.05215726 -0.032338824
-0.04651015 0.045702048 -0.03652094 0.047424715 0.040183697 0.056051355 -0.0005593083 -0.033282675
-0.046215862 -0.017392254 -0.005816149 0.012146822 -0.028177842 0.051384714 -0.037864488 -0.025453905
-0.044675652 0.014725569 -0.021611512 -0.009978179 -0.022813974 0.030279271 0.028184025 0.019859819
0.053505663 0.11373308 0.008058027 -0.016292468 0.0022327767 0.056403343 -0.030153088 -0.051194318
-0.04465362 0.041916307 0.02177838 0.011082172 -0.015598516 0.04724058 -0.021910602 -0.026204301
0.0201023 0.0128224995 -0.0016821575 -0.030031197 0.036070224 -0.035847027 0.030544607 -0.037606157

linear_relu_stack.6.weight f4 [3, 64]
00000000: 55ea a1bc cb01 cd3c 3dfd 1bbb 9b82 2a3d
00000010: 86e0 febc ddd9 2f3d 1c2f fb3b 494b 293d
00000020: 9510 043c 31e9 f0bc 4c0e 0a3c f920 4abd
00000030: d404 cc3c 8efa f9bb 33b3 213d d34f 463d
00000040: 9277 47bd e125 2dbd 8bc0 363d db90 7f3c
00000050: 7007 a43a 3666 3f3d 8d12 1b3c 3b4b dabc
00000060: 32a6 12bd 13b2 743d 1891 5e3d 1f84 c73b
00000070: cbc5 333c 326d b9bd 4818 58bd e5fa f83b
00000080: 72ff ce3c 9841 48bc 11e7 fa39 c78b af3d
00000090: d260 fdbc f5b9 393d 3adf bcbd 63eb 9abb
000000a0: 880c 5cbd 92c6 c8bd 719b e93c 802b dfbb
000000b0: b406 d1bc 7fed 583d f91e 603d b8b7 533b
000000c0: eecc 0cbd 60b1 9ebc 7eb9 4f3d 6053 3bbd
000000d0: 7162 70bc 3557 173d c408 e03b ef4f fe3c
000000e0: f90f 9c3c 4b0b 17ba 9fc7 703d e204 623d
000000f0: 42bf 37bd b16a 4dbd a224 f0bd 3542 50bc
00000100: 34fb 48bd 5d60 15bd 989e 063d a700 453d
00000110: fb1a 393d 1e2c 58bc 46c2 f6bc 37b0 1a3d
00000120: 270d 593d be8b 2b3d 5a56 bfbc bdf4 42bd
00000130: 132b a8bc faaa 82bd 3b66 163d 0989 403c
00000140: 1ea7 5dbc 3091 7c3c 1856 53bd fc44 003a
00000150: 0ba5 473d 1f36 ab3c 7e78 62bd b8c9 823d
00000160: 4a4b 21bd bcee dabc 2c8c f03c b626 ab3c
00000170: 2daa 2f3d 41af a2bd 29b5 af3b 5748 693c
00000180: e3bb f6bb 6d00 013d 9c18 a53c b4bb dc3c
00000190: e6e1 833c 9a17 c13c 8a8c 8ebd fb48 233d
000001a0: 605c 193b 1068 1ebe 1459 313d 373f 2bbd
000001b0: 5a95 43bd 9d33 37bd b148 f93c 9504 9bbc
000001c0: eeef 3fbd 5e9d 39bd 8634 553c 9337 5c3d
000001d0: f887 853c 6aac c7bb 7be2 bf3c bda0 773d
000001e0: 3822 8dbc 4cd4 333d 3d8b 3abd 3ce8 62bd
000001f0: 023f bb3c 6a4c 4b3d 5f71 c2bd cdc0 023c
00000200: 097a 8fbc 5986 13bd 2d94 353d 615d c5ba
00000210: cc64 3c3d 6785 dd3c 0c9e 6fbd 923d b43c
00000220: 65d8 6f3d b0be 2f3d b99c 423c d9e4 b83c
00000230: 789e 763c f0cd 6f3c 8a49 15bb a523 f6bc
00000240: c714 753c 310d 2a3d 54b2 cf3c 6916 22bd
00000250: 19b7 2c3d 03cc e33c cb03 4b3c 5282 e3bb
00000260: 68b7 02bb d8a1 6fbc 6dd0 57bd 919c 8fbc
00000270: ce54 933c 3a43 5ebe 3b29 523d 2094 b33c
00000280: aed4 483d 4f48 01bd 7fda f5bb 68f5 443c
00000290: 4c89 3ebb 895b fd3c 4e94 59be ba70 11bd
000002a0: 9210 5fbd d4ae a6be fec0 653d 289d 19bd
000002b0: 8e0c 42bd 968f a3bc e986 b83c 40d8 8a3c
000002c0: fd8b 4abd c538 2f3b 81ac c1bb 41a8 89bc
000002d0: 9aaf 893c 3d99 1a3d 0ded 39bd f08f 803d
000002e0: cc99 163d 6dae 533c 3de4 d53c d936 3f3d
000002f0: 1077 63bc 0a3e 5c3c 505c c03c 3eca 58bd
-0.019765059 0.025025269 -0.0023802065 0.04162846 -0.03111292 0.04293238 0.007665528 0.041331563
0.008060594 -0.02940807 0.00842626 -0.04934785 0.024904646 -0.0076287454 0.03947754 0.04841597
-0.048698016 -0.042272452 0.044617217 0.015598501 0.0012514424 0.046728335 0.009464872 -0.0266472
-0.035803027 0.059740137 0.05433759 0.006088748 0.0109724505 -0.090540305 -0.05275753 0.0075982683
0.02526829 -0.01222267 0.00047855874 0.08571582 -0.030929957 0.045343358 -0.092222646 -0.0047277673
-0.05372289 -0.09803499 0.028516503 -0.0068106055 -0.025515892 0.05296087 0.054717038 0.003230555
-0.034375124 -0.019371688 0.05071401 -0.04573381 -0.014671908 0.0369484 0.0068369824 0.031043975
0.019050585 -0.00057618757 0.058784124 0.055180438 -0.044860132 -0.050150577 -0.11725737 -0.0127110975
-0.04906769 -0.036468852 0.03286609 0.048096325 0.045191746 -0.013194112 -0.030121934 0.037765708
0.05299106 0.041881315 -0.023356605 -0.047596682 -0.020528352 -0.063802674 0.03671859 0.011751422
-0.013528613 0.015415475 -0.051595777 0.0004893092 0.04874138 0.02089983 -0.05529069 0.06386131
-0.039378442 -0.026725166 0.029363714 0.020892482 0.0428869 -0.07943583 0.005362172 0.014238439
-0.007529722 0.031494547 0.020153336 0.026944973 0.016098928 0.023570824 -0.069603994 0.03986452
0.0023401007 -0.15469384 0.043297842 -0.041808333 -0.047749855 -0.044726957 0.03043017 -0.018923083
-0.046859674 -0.045316093 0.013013011 0.053763937 0.016300187 -0.0060935514 0.023423424 0.060456026
-0.01722823 0.043903634 -0.045542944 -0.055397257 0.022857193 0.04963342 -0.0949428 0.007980538
-0.017514246 -0.036016796 0.044330765 -0.0015057736 0.045994565 0.02704115 -0.058500335 0.022002015
0.05855598 0.042906463 0.011878186 0.02257006 0.01505243 0.014636502 -0.0022779428 -0.030046294
0.014958567 0.041516487 0.025353588 -0.039572153 0.042166803 0.027807241 0.012391041 -0.0069430256
-0.0019945744 -0.014625989 -0.052689005 -0.017530711 0.017984774 -0.21705332 0.05130885 0.021921217
0.049030952 -0.0315631 -0.0075028534 0.0120214 -0.0029073535 0.030927436 -0.2124798 -0.035507895
-0.054459162 -0.32555258 0.056092255 -0.03750339 -0.047375254 -0.019965928 0.022525268 0.01694882
-0.04944991 0.0026736718 -0.0059104566 -0.016803863 0.016807366 0.037743796 -0.045392085 0.06277454
0.036767766 0.012920004 0.026109809 0.046683166 -0.013883367 0.013442526 0.023481518 -0.05292725

linear_relu_stack.6.bias f4 [3]
00000000: 88f4 b03a 3cb9 5d3c c174 333d
0.001350061 0.013532933 0.043812517
