DQN_policy_net_Pendulum.pt (torch, 16768 bytes, 8 tensors)

linear_relu_stack.0.weight f4 [32, 3]
-0.2560619 0.33212814 0.0071098786 0.088045016 -1.1186837 -0.22771002 -0.605406 0.3042995
0.21232414 0.24309427 -1.1658272 0.13465202 -0.330096 -0.5767669 0.05150457 -0.02493611
-0.03459876 0.009246654 -0.58125776 0.35113564 0.14403391 1.4633452 1.7509294 0.53534865
-0.27942732 -0.9919129 -0.12388111 0.059661277 -0.054476634 -0.38247 0.1365733 -0.16205196
0.40769053 -0.19354768 0.5992832 -0.0741173 -0.28848365 1.0421135 0.24519755 -0.2347196
-0.9226941 0.008846109 -0.44281015 0.8944758 0.22973502 -0.5809522 0.32660967 -0.049090195
-0.4447099 0.4718794 -0.024116987 -0.5260781 0.088441685 -0.16488074 -0.5314144 0.9160409
0.23654622 0.4686963 1.55416 0.34492388 -0.4338019 -0.7762946 -0.15429732 -0.6130072
-0.43673182 -0.18718265 0.8119333 0.22635268 0.79117304 0.5313995 0.4314767 0.62534845
-0.038634982 -1.0040152 -0.19073503 0.24514963 -0.93827045 -0.16403659 -0.94990265 -2.184557
-0.49704295 -1.0114425 1.6760864 0.520003 0.71416783 0.21294713 0.034620624 0.07534169
0.6778649 -0.29406163 1.4585446 -1.790264 -0.5620053 -0.70631695 -0.79510754 0.1317319
00000000: 8c1a 83be b30c aa3e fcf9 e83b f250 b43d
00000010: 0731 8fbf d12c 69be e3fb 1abf 25cd 9b3e
00000020: 806b 593e b4ed 783e d339 95bf 38e2 093e
00000030: 5802 a9be ffa6 13bf 75f6 523d d046 ccbc
00000040: 6eb7 0dbd 477f 173c 4fcd 14bf 0dc8 b33e
00000050: a07d 133e e54e bb3f 741e e03f 9c0c 093f
00000060: 1911 8fbe 01ee 7dbf 61b5 fdbd 625f 743d
00000070: e422 5fbd 1cd3 c3be dfd9 0b3e f3f0 25be
00000080: d0bc d03e 5d31 46be a06a 193f d0ca 97bd
00000090: 21b4 93be fa63 853f 1115 7b3e 565a 70be
000000a0: ae35 6cbf 45ef 103c 03b8 e2be 5efc 643f
000000b0: a83f 6b3e 49b9 14bf 6239 a73e cd12 49bd
000000c0: 04b1 e3be 2d9a f13e fd90 c5bc 0ead 06bf
000000d0: ea20 b53d 7fd6 28be c60a 08bf a881 6a3f
000000e0: 2c39 723e f6f8 ef3e b7ee c63f dd99 b03e
000000f0: 481b debe 3ebb 46bf 1e00 1ebe 0aee 1cbf
00000100: 509b dfbe cfac 3fbe dcda 4f3f ffc8 673e
00000110: 518a 4a3f cc09 083f 84ea dc3e d616 203f
00000120: b73f 1ebd 9283 80bf 0b50 43be 8108 7b3e
00000130: 7e32 70bf 35f9 27be d22c 73bf c8cf 0bc0
00000140: 6a7c febe f376 81bf 008a d63f eb1e 053f
00000150: b4d3 363f d00e 5a3e 5bce 0d3d be4c 9a3d
00000160: 8e88 2d3f 3f8f 96be 97b1 ba3f 5f27 e5bf
00000170: 94df 0fbf 30d1 34bf 2b8c 4bbf bae4 063e

linear_relu_stack.0.bias f4 [32]
0.43464106 0.2602653 0.6210503 0.19757167 0.22272284 -0.12266483 0.45007178 -0.15727112
0.5690179 0.63928705 0.27901202 0.3768392 0.24222226 0.50843984 0.11172918 0.27043205
0.12972966 -0.17091869 0.18270296 0.14587116 0.5523094 0.38244733 -0.4152245 0.33506024
0.03451206 -0.13722123 -0.3093525 0.019094823 -0.7153931 0.15423183 -0.3064048 0.39494932
00000000: 4689 de3e 7e41 853e 27fd 1e3f 3a50 4a3e
00000010: 7511 643e b337 fbbd cf6f e63e ae0b 21be
00000020: 28ab 113f 51a8 233f aada 8e3e 11f1 c03e
00000030: 1d09 783e 1d29 023f 45d2 e43d 1276 8a3e
00000040: dad7 043e 4f05 2fbe 7c16 3b3e 405f 153e
00000050: 2664 0d3f 23d0 c33e 4e98 d4be 048d ab3e
00000060: 855c 0d3d b983 0cbe 7363 9ebe bf6c 9c3c
00000070: 0124 37bf f3ee 1d3e 17e1 9cbe cc36 ca3e

linear_relu_stack.2.weight f4 [32, 32]
0.3417391 0.28266963 0.24161044 0.08519498 0.22673525 -0.066000015 0.08161616 0.18278168
0.1738797 0.09917399 0.15605195 0.37471858 0.110879846 0.14094713 0.11925725 0.31543934
0.16612352 0.41692343 0.027831826 0.37322468 0.25101796 0.24838057 0.04484199 0.17197251
0.17111441 0.13370013 -0.31728676 -0.58174944 1.7440205 0.32665524 0.42590642 0.27697456
0.39342993 -0.02427422 0.15327343 -0.95804316 0.09655232 -0.037220404 0.21801504 0.7767165
-0.059845015 -0.06230013 -0.23759471 0.4865646 0.25635037 -0.1095806 0.32329544 0.27116534
0.20268427 0.77556247 0.09280995 0.48759523 0.1034697 0.3572918 0.05354939 0.06753165
0.049376283 -0.59275395 0.2209053 -0.62381005 2.3534348 0.050332043 -3.553803 0.027583867
0.21311046 0.27488267 0.23447108 -0.8227707 0.6880908 -0.050999917 0.14513509 0.2672905
0.4404963 -0.1830726 -0.3743631 0.058377296 0.20275402 0.3884671 0.294403 0.048068836
0.10965917 -0.4582568 0.18588638 0.40753686 0.32379788 0.23424838 -0.09697192 -0.1789548
0.5548308 0.8694182 0.11349076 -0.73374265 2.1791632 -0.28177428 -1.3052776 0.5011585
-0.060355846 -0.004426153 -0.023491774 -0.028502641 -0.015029425 -0.05498883 -0.016961372 -0.0035500997
-0.07489398 0.09098321 -0.05948201 -0.04143392 -0.033548184 0.03979805 0.030361999 -0.08424567
-0.019027833 -0.036128003 0.04734716 -0.062469907 -0.037804946 0.014613014 -0.053091742 -0.040736355
0.023495449 0.04130217 -0.051604163 0.04474717 0.06684463 -0.09445115 -0.08078488 0.016945774
-0.08176036 -0.057938773 0.03836536 0.085187905 -0.05709767 -0.049574383 0.03520378 0.09284351
0.029409943 -0.056774046 -0.03866276 -0.09367639 0.06835823 -0.056470875 -0.05436848 -0.0916781
0.0006532306 0.04941719 -0.01609875 -0.053703174 -0.0148567455 0.08527059 -0.04891696 -0.04659878
0.0782908 0.04290936 -0.091442905 0.0068681017 0.04342511 0.03550956 -0.07080793 0.0020566653
0.34363547 0.19857328 0.16397475 0.05749281 0.11942514 0.051116243 0.2586366 -1.2144258
0.14059815 -0.6248217 0.08905193 0.41970384 0.3712682 0.1327843 0.5142143 0.26592615
-0.016760211 0.06207504 0.3704682 0.17187373 -0.029497888 -0.011394174 -0.20521474 -0.06206243
0.5495426 0.8066749 -1.1327168 0.38083673 -0.016185548 -0.3140713 1.1976376 0.095450185
0.2763837 0.47100228 0.10352101 0.22448614 0.2403705 0.02326124 0.23532178 0.23867303
0.3397056 0.2668012 0.22332253 0.32608974 0.029150903 0.3512996 0.23143107 0.17071389
0.1472626 0.27261263 0.08702484 0.2726311 0.27939695 0.2079562 -0.012421419 0.16451147
0.16639698 0.09264456 -0.32403886 -0.5906303 1.7067355 0.25973192 0.5856121 0.25014263
0.17079006 0.071977176 0.080892235 0.07257743 -0.012557718 0.07101249 0.10721611 0.21067612
-0.0716307 -0.12365607 0.21778494 -0.1843218 -0.23627555 -0.061125968 -0.049722344 0.6115245
0.473463 0.07315675 0.2971501 -0.9815912 -0.11039777 -1.8565203 -0.04945449 0.18337119
0.08272067 -0.1334901 -2.0709012 -0.17893378 -0.7652262 0.4912398 0.024447171 -0.024409577
00000000: 6df8 ae3e 13ba 903e ba68 773e b57a ae3d
00000010: 492d 683e 042b 87bd 6026 a73d 1f2b 3b3e
00000020: 850d 323e bc1b cb3d 15cc 1f3e 1ddb bf3e
00000030: f914 e33d 7254 103e 253d f43d 4481 a13e
00000040: 491c 2a3e fd76 d53e 92ff e33c 4e17 bf3e
00000050: 6d85 803e 7a57 7e3e 3cac 373d 9019 303e
00000060: 9e38 2f3e b0e8 083e 6973 a2be 88ed 14bf
00000070: 103c df3f 5b3f a73e 6810 da3e 9ccf 8d3e
00000080: a66f c93e bbda c6bc b6f3 1c3e 5142 75bf
00000090: 39bd c53d 6c74 18bd 563f 5f3e e4d6 463f
000000a0: 0c20 75bd 6c2e 7fbd 074c 73be ff1e f93e
000000b0: 5b40 833e cb6b e0bd fb86 a53e 2fd6 8a3e
000000c0: 778c 4f3e 438b 463f 2513 be3d 15a6 f93e
000000d0: ece7 d33d f3ee b63e 9b56 5b3d 094e 8a3d
000000e0: c93e 4a3d b9be 17bf 0035 623e 04b2 1fbf
000000f0: ad9e 1640 f928 4e3d 8271 63c0 90f7 e13c
00000100: a139 5a3e 6cbd 8c3e 3019 703e 1aa1 52bf
00000110: b826 303f 4ae5 50bd 4b9e 143e 4dda 883e
00000120: bb88 e13e 6277 3bbe 85ac bfbe 081d 6f3d
00000130: c09e 4f3e 29e5 c63e fdbb 963e d4e3 443d
00000140: fd94 e03d a3a0 eabe 0059 3e3e aca8 d03e
00000150: d6c8 a53e cfde 6f3e 3799 c6bd ed3f 37be
00000160: 6409 0e3f 3192 5e3f d86d e83d 8fd6 3bbf
00000170: 6977 0b40 b844 90be 5613 a7bf ec4b 003f
00000180: b137 77bd 4309 91bb d271 c0bc 5f7e e9bc
00000190: fa3d 76bc f83b 61bd 93f2 8abc caa8 68bb
000001a0: 0462 99bd 6855 ba3d 68a3 73bd 9db6 29bd
000001b0: d269 09bd 4803 233d bab9 f83c fe88 acbd
000001c0: 42e0 9bbc f5fa 13bd 18ef 413d 72e0 7fbd
000001d0: 5cd9 1abd 6c6b 6f3c ba76 59bd 2adb 26bd
000001e0: 8779 c03c 772c 293d e35e 53bd cf48 373d
000001f0: d6e5 883d 9b6f c1bd 8b72 a5bd ddd1 8a3c
00000200: fa71 a7bd 3551 6dbd ff24 1d3d ff76 ae3d
00000210: 3fdf 69bd 820e 4bbd d731 103d bd24 be3d
00000220: 1fed f03c e78b 68bd d85c 1ebd 68d9 bfbd
00000230: 66ff 8b3d 014e 67bd 7cb1 5ebd bac1 bbbd
00000240: 903d 2b3a ae69 4a3d 87e1 83bc dcf7 5bbd
00000250: b569 73bc 59a2 ae3d 265d 48bd 5dde 3ebd
00000260: ed56 a03d bac1 2f3d 6b46 bbbd d00d e13b
00000270: 87de 313d 7972 113d bf03 91bd 1ec9 063b
00000280: fdf0 af3e cb56 4b3e ffe8 273e 957d 6b3d
00000290: 2b95 f43d 445f 513d 046c 843e 4e72 9bbf
000002a0: f6f8 0f3e 51f4 1fbf dc60 b63d 6ce3 d63e
000002b0: de16 be3e 9cf8 073e 8ca3 033f 7927 883e
000002c0: b64c 89bc 6642 7e3d 02ae bd3e abff 2f3e
000002d0: 8ea5 f1bc a1ae 3abc d023 52be 2d35 7ebd
000002e0: d3ae 0c3f 3f82 4e3f ddfc 90bf 08fd c23e
000002f0: 8e97 84bc f4cd a0be 304c 993f 637b c33d
00000300: 2a82 8d3e 3627 f13e d302 d43d b2df 653e
00000310: af23 763e 5b8e be3c 31f8 703e b466 743e
00000320: e4ed ad3e 2b9a 883e a9ae 643e 3cf5 a63e
00000330: e0cd ee3c 8bdd b33e 44fc 6c3e 9fcf 2e3e
00000340: 02cc 163e e293 8b3e 143a b23d 4e96 8b3e
00000350: 1e0d 8f3e 78f2 543e 3583 4bbc b275 283e
00000360: f863 2a3e 6ebc bd3d 6ce8 a5be 8c33 17bf
00000370: 4f76 da3f 95fb 843e adea 153f b212 803e
00000380: 97e3 2e3e c568 933d d4aa a53d 7aa3 943d
00000390: e3be 4dbc ff6e 913d 1f94 db3d 7bbb 573e
000003a0: 1eb3 92bd 653f fdbd 0403 5f3e dbbe 3cbe
000003b0: 38f2 71be 395f 7abd a8a9 4bbd df8c 1c3f
000003c0: be69 f23e 35d3 953d 0f24 983e 9049 7bbf
000003d0: 3a18 e2bd 75a2 edbf cb90 4abd a8c5 3b3e
000003e0: 7469 a93d a1b1 08be a589 04c0 6b3a 37be
000003f0: dde5 43bf c883 fb3e 6f45 c83c 98f6 c7bc

linear_relu_stack.2.bias f4 [32]
0.33718136 0.2717171 0.14849237 -0.06264264 -0.075663455 0.26461256 0.43290225 0.037981737
0.28525496 0.08714352 -0.062247887 0.25287926 -0.05423678 0.17879964 0.29156914 0.07401994
0.33292308 0.25079477 0.33154485 0.11681763 0.19082737 0.07802063 0.15293208 0.37097186
0.11747789 0.4041489 0.14271952 0.27370992 0.06853699 0.2757114 0.33771357 -0.28952807
00000000: 09a3 ac3e 811e 8b3e 620e 183e c94a 80bd
00000010: 71f5 9abd 4c7b 873e 5da5 dd3e bd92 1b3d
00000020: f00c 923e 4d78 b23d a4f7 7ebd 6479 813e
00000030: 6327 5ebd 4117 373e 8d48 953e c497 973d
00000040: e574 aa3e 2c68 803e 3fc0 a93e 153e ef3d
00000050: 4068 433e 48c9 9f3d 3a9a 1c3e 06f0 bd3e
00000060: 3f98 f03d 9bec ce3e 1125 123e b523 8c3e
00000070: 1f5d 8c3d 0b2a 8d3e cbe8 ac3e 063d 94be

linear_relu_stack.4.weight f4 [32, 32]
0.0696461 -0.23219414 -0.6113372 0.018493611 0.03336204 0.17686078 0.0025993905 -1.2600816
0.2107167 -0.0063586705 0.23511206 -0.05785175 0.025636315 0.37236828 0.047502257 0.14450492
0.05419295 -0.018785436 0.09306583 -1.2998234 0.030059028 -0.452656 0.14027272 0.2620741
0.30286252 0.02176182 0.0983202 0.6788262 -0.21119584 0.057756156 0.02121985 -0.43208334
0.2362644 0.77769786 1.1230009 0.034312397 0.0127720535 0.6432212 0.21015465 -1.8713236
-0.074622825 0.26844957 0.85741746 0.29213002 0.21334715 -0.4038594 0.18698142 0.6801763
0.21347098 0.27830932 0.28166568 2.1292274 0.21315601 -1.8855257 0.23526901 0.25383648
1.6607711 0.13586874 0.40069968 -1.5432748 -0.91990197 0.18622226 0.3012339 1.6778982
0.30250868 0.82711184 1.0490661 -0.0746183 0.016273817 0.9062111 0.44910425 -1.7860893
-0.18603313 0.2866762 0.9373883 0.42527038 0.2576644 -0.011890964 0.36006522 0.88399625
0.36745334 0.35464928 0.42166016 1.2605159 0.45070022 -1.6170242 0.15662941 0.32033607
1.9385368 0.33763817 0.40573663 -2.0721297 -0.8716013 0.36891136 0.23691416 1.4147472
0.05455243 -0.039206035 0.084280565 0.05568595 -0.025273088 0.05245716 -0.1139805 -0.028548775
-0.01242144 -0.035795555 -0.07126062 0.056831818 0.020411352 0.044251915 0.016065737 -0.061514385
-0.03842402 0.035660688 0.08209187 0.076837085 -0.057637688 -0.047885306 -0.093044914 -0.09090439
0.045808733 -0.07049095 0.013638821 0.081998974 -0.066955455 -0.07742318 0.025680378 -0.07160506
0.21158919 0.8144221 1.0600202 0.038160685 -0.04906216 0.6420908 0.3976884 -1.8240494
-0.029028453 0.38945264 0.8728717 0.35311282 0.22008997 -0.16698284 0.28618294 0.84078056
0.20572996 0.22373717 0.50835997 1.8514229 0.25332376 -1.8159586 0.28683555 0.4466977
1.6798055 0.27424777 0.33017853 -1.737203 -0.8041715 0.35767213 0.34832838 1.7279378
0.41010594 0.97676057 1.094692 -0.049386024 -0.056611806 1.8187305 0.49069118 -1.9017818
-0.18498643 0.32582945 1.1104909 0.5830778 0.23731028 -0.23543061 0.2999958 0.99958235
0.39039198 0.48740074 0.4994258 1.5044329 0.44836348 -1.5916215 0.35705265 0.4619523
2.322494 0.40794924 0.32680982 -2.5037935 -0.59790194 0.23076807 0.38852197 1.352868
0.053685583 0.12743552 1.4711087 -0.061769675 -0.05109387 0.77960306 0.2911573 1.7714362
-0.34695983 -1.3806709 -3.2932568 0.862478 -0.4236185 -0.08036635 -0.025314828 -1.9872969
0.6582014 0.26481193 0.32090193 -0.51738226 0.3361544 0.5457469 -1.1036229 -0.49944216
0.5686959 0.045057993 -2.6807044 -1.2894982 1.7341781 0.010684499 0.5405521 -0.6574125
0.16020314 -2.5256486 0.15539697 0.058163825 0.05113305 -0.49901336 0.3761169 1.8398684
0.86352223 -0.30535224 -0.9676884 0.046932217 -1.0201348 0.36506122 -0.004185959 -0.9624738
0.15983887 0.058321115 0.07877318 -0.9445051 0.27804214 0.22528978 -0.12678191 -0.445785
0.6550613 0.19460453 -0.729818 0.732264 0.89125836 -0.03581631 0.31213033 -0.97532153
00000000: 9da2 8e3d 4dc4 6dbe 9880 1cbf ea7f 973c
00000010: a2a6 083d fe1a 353e 895a 2a3b 5b4a a1bf
00000020: 1ec6 573e 655c d0bb 37c1 703e f5f5 6cbd
00000030: 4003 d23c 0ea7 be3e ba91 423d 19f9 133e
00000040: 6df9 5d3d eae3 99bc 4c99 be3d 9d60 a6bf
00000050: 5a3e f63c 87c2 e7be a7a3 0f3e 942e 863e
00000060: cc10 9b3e d845 b23c 1a5c c93d 8ec7 2d3f
00000070: b943 58be b891 6c3d 40d5 ad3c 073a ddbe
00000080: 4bef 713e 3517 473f 7ebe 8f3f 288b 0c3d
00000090: e041 513c 25aa 243f c832 573e 8887 efbf
000000a0: dad3 98bd 3972 893e b67f 5b3f 1192 953e
000000b0: ad77 5a3e a9c6 cebe 0f78 3f3e 0920 2e3f
000000c0: 2398 5a3e 8f7e 8e3e 7c36 903e 4345 0840
000000d0: 9245 5a3e e858 f1bf 5cea 703e dbf6 813e
000000e0: 2694 d43f 2d21 0b3e 8228 cd3e 078a c5bf
000000f0: b27e 6bbf 0cb1 3e3e 543b 9a3e 5ec5 d63f
00000100: 6be2 9a3e 9abd 533f cc47 863f 7bd1 98bd
00000110: ab50 853c 73fd 673f fef0 e53e 939e e4bf
00000120: 787f 3ebe 39c7 923e aef8 6f3f 0abd d93e
00000130: 97ec 833e 51d2 42bc 785a b83e 944d 623f
00000140: d822 bc3e 9794 b53e d7e3 d73e 9658 a13f
00000150: 2ec2 e63e a6fa cebf 7663 203e 1703 a43e
00000160: f921 f83f e9de ac3e b6bc cf3e c69d 04c0
00000170: 4321 5fbf f3e1 bc3e a099 723e 7016 b53f
00000180: 5e72 5f3d 8296 20bd 4a9b ac3d f316 643d
00000190: 8209 cfbc 52dd 563d 9c6e e9bd 1fdf e9bc
000001a0: 4c83 4bbc 5c9e 12bd 17f1 91bd 7bc8 683d
000001b0: b535 a73c 7f41 353d 4b9c 833c 82f6 7bbd
000001c0: 8162 1dbd f110 123d c81f a83d c35c 9d3d
000001d0: 7f15 6cbd 6223 44bd 558e bebd 152c babd
000001e0: f0a1 3b3d 8f5d 90bd 5d75 5f3c 14ef a73d
000001f0: f11f 89bd 0b90 9ebd a85f d23c aca5 92bd
00000200: d6aa 583e f77d 503f beae 873f 614e 1c3d
00000210: 67f5 48bd 1060 243f d09d cb3e 737a e9bf
00000220: 14cd edbc 5666 c73e 8574 5f3f 34cb b43e
00000230: 445f 613e 8dfd 2abe 9286 923e 653d 573f
00000240: e0aa 523e 5b1b 653e e123 023f 6dfb ec3f
00000250: a7b3 813e 5571 e8bf 1cdc 923e 90b5 e43e
00000260: de03 d73f 346a 8c3e 290d a93e ab5c debf
00000270: 2fde 4dbf cd20 b73e 1958 b23e 112d dd3f
00000280: 68f9 d13e fb0c 7a3f de1e 8c3f 0049 4abd
00000290: c8e1 67bd 29cc e83f e03b fb3e 966d f3bf
000002a0: 156d 3dbe 1ed3 a63e 9124 8e3f 9644 153f
000002b0: 7701 733e b914 71be 0d99 993e a1e4 7f3f
000002c0: 75e1 c73e 978c f93e bdb4 ff3e 4291 c03f
000002d0: e68f e53e 41ba cbbf 9bcf b63e 0385 ec3e
000002e0: bea3 1440 b9de d03e 9e53 a73e 273e 20c0
000002f0: 1a10 19bf 774e 6c3e 5aec c63e c72a ad3f
00000300: 6ae5 5b3d 757e 023e 4a4d bc3f 3302 7dbd
00000310: ce47 51bd 1194 473f 9212 953e 6cbe e23f
00000320: b8a4 b1be d3b9 b0bf b8c4 52c0 5ccb 5c3f
00000330: 86e4 d8be 1d97 a4bd 0b61 cfbc bf5f febf
00000340: e37f 283f 6e95 873e 424d a43e 2a73 04bf
00000350: 6e1c ac3e 12b6 0b3f 8443 8dbf e2b6 ffbe
00000360: 0e96 113f bb8e 383d a990 2bc0 470e a5bf
00000370: 8cf9 dd3f 090e 2f3c 9f61 0a3f 304c 28bf
00000380: 4b0c 243e 3aa4 21c0 6220 1f3e 313d 6e3d
00000390: e470 513d ae7e ffbe 6592 c03e cf80 eb3f
000003a0: cb0f 5d3f 2157 9cbe 6dba 77bf ff3b 403d
000003b0: c793 82bf 4ee9 ba3e 5f2a 89bb af64 76bf
000003c0: cdac 233e 1fe2 6e3d d553 a13d 16cb 71bf
000003d0: 8a5b 8e3e 5db2 663e 1ed3 01be ee3d e4be
000003e0: 19b2 273f 6946 473e 5ad5 3abf a775 3b3f
000003f0: 8229 643f 20b4 12bd 8ccf 9f3e acae 79bf

linear_relu_stack.4.bias f4 [32]
0.2520932 0.110490866 0.3193658 -0.04065347 0.24405886 0.21698451 -0.054742116 0.19411838
-0.05881849 0.32597032 0.17591776 0.21122915 0.2500492 1.0826848 0.28511655 0.15878785
0.2503732 -0.050812203 0.14008841 0.47417468 0.28927544 0.09994825 -0.0672823 -0.06983185
-0.023589283 0.0016095317 0.013683208 0.33786824 0.2473551 0.2339601 0.23881863 -0.034847714
00000000: 5c12 813e 0949 e23d ea83 a33e 4184 26bd
00000010: 91ea 793e 3031 5e3e 4539 60bd f8c6 463e
00000020: a8eb 70bd 95e5 a63e c923 343e 744c 583e
00000030: 7306 803e 6a95 8a3f ccfa 913e 4899 223e
00000040: eb30 803e 7520 50bd 5673 0f3e 06c7 f23e
00000050: e91b 943e abb1 cc3d 4dcb 89bd 0004 8fbd
00000060: 503e c1bc ecf6 d23a 892f 603c 11fd ac3e
00000070: a84a 7d3e 3d93 6f3e df8c 743e 7abc 0ebd

linear_relu_stack.6.weight f4 [31, 32]
0.19741023 -0.2567509 -0.4184035 -0.043669097 -0.30693796 -0.36381936 0.15967777 -0.28999066
0.05425314 -0.3353765 -0.21697812 -0.43837446 -0.41018823 1.1928388 -0.1795138 -0.3624684
-0.39758137 -0.0105542 -0.66326505 0.49537593 -0.41142452 0.2649372 -0.39870137 0.008395723
-0.27929196 -0.25752985 -0.26183146 -0.23977348 -0.24610732 -0.17565402 -0.3138568 0.06371049
0.8209811 -0.2993331 -0.28868076 -0.04168163 -0.20990972 -0.30401424 -0.12947112 -2.6261103
-0.05661509 -0.19371597 -0.34075963 -0.17554827 -0.32222623 1.1680883 -0.34211484 -0.60164505
-0.26253885 -0.06201775 -1.3870872 0.5783632 -0.26141596 0.57692873 -0.42379114 0.0027502468
-0.35164782 -0.51302934 -0.38305718 -0.32666844 -0.1779019 -0.33037 -0.26204726 -0.00761959
0.43817598 -0.44361082 -0.2638874 -0.056282867 -0.30144247 -0.3801143 -0.41557902 -0.116003655
0.053349167 -0.33219513 -0.34389684 -0.2801731 -0.31012926 0.9150649 -0.18145904 -0.45636785
-0.34060234 -0.05707931 -0.60584974 0.44665506 -0.34335348 0.5027494 -0.27230486 0.029386533
-0.3608119 -0.36763814 -0.43637234 -0.29997766 -0.31143576 -0.24290691 -0.22057739 -0.08831754
0.47107637 -0.4095562 -0.32519716 0.010886201 -0.21565636 -0.3809677 -0.65373355 -0.098614916
0.06366127 -0.2807825 -0.25900242 -0.33885607 -0.277263 0.94863987 -0.33675689 -0.49383408
-0.2766084 0.046175126 -0.5890629 0.4199819 -0.38068762 0.4745325 -0.36872667 -0.014747288
-0.29107204 -0.27865833 -0.40652618 -0.27021286 -0.31698552 -0.28814673 -0.24919733 -0.07995286
0.41153732 -0.40684867 -0.20253268 -0.084477246 -0.27445674 -0.39259905 0.31918433 -0.011944734
-0.018086603 -0.38604826 -0.25284865 -0.3056942 -0.3112598 0.9511863 -0.25339648 -0.40229082
-0.30628887 0.066970125 -0.56229657 0.35477352 -0.34974506 0.53381896 -0.4388855 -0.01199639
-0.30689418 -0.32281277 -0.34746036 -0.37643754 -0.25488544 -0.27362823 -0.259793 0.089268826
0.30880764 -0.48387253 -0.20739567 -0.088941604 -0.29723874 -0.3754291 -0.09683942 -0.05746615
0.018434146 -0.3521773 -0.3125793 -0.31650582 -0.26076227 0.99214923 -0.36152315 -0.460996
-0.24464828 -0.017830405 -0.54213905 0.39024907 -0.38903794 0.4629133 -0.36649302 0.052244566
-0.3429138 -0.3427207 -0.3178459 -0.31539893 -0.2895837 -0.21904673 -0.20732044 -0.09339792
0.35106143 -0.43770096 -0.3069326 0.045517363 -0.30801663 -0.3141272 -0.37142748 -0.13374865
-0.04443753 -0.40479687 -0.34311375 -0.28703222 -0.30971414 0.94743043 -0.19013003 -0.4448432
-0.32529914 -0.030086672 -0.57984 0.4119713 -0.36846903 0.5109145 -0.38252696 0.042273656
-0.32335153 -0.33586863 -0.39657307 -0.22135165 -0.21365756 -0.35356507 -0.20647755 -0.034593254
0.28424335 -0.39851204 -0.33847252 0.03373347 -0.23732701 -0.37680355 -0.44201672 0.012076807
0.011542423 -0.40101814 -0.32141382 -0.21553038 -0.3119447 0.98335433 -0.34135914 -0.36692542
-0.2853391 -0.088468336 -0.51019853 0.36504424 -0.30029643 0.5233671 -0.285121 0.029176598
-0.38404557 -0.44514105 -0.39627218 -0.28921708 -0.27943465 -0.26506495 -0.2424345 -0.017450806
00000000: e825 4a3e db74 83be fc38 d6be 5ede 32bd
00000010: f926 9dbe 8846 babe 9282 233e a879 94be
00000020: 8a38 5e3d 78b6 abbe 832f 5ebe 9e72 e0be
00000030: 3104 d2be f1ae 983f 77d2 37be 7595 b9be
00000040: c98f cbbe 86eb 2cbc bdcb 29bf eaa1 fd3e
00000050: 3ca6 d2be d9a5 873e 9622 ccbe 378e 093c
00000060: 5bff 8ebe f4da 83be c60e 86be 2e87 75be
00000070: 8f03 7cbe a6de 33be d7b1 a0be a57a 823d
00000080: d12b 523f 3042 99be f7cd 93be 5bba 2abd
00000090: 93f2 56be c1a7 9bbe 1494 04be 3112 28c0
000000a0: 3ae5 67bd 7b5d 46be 0c78 aebe edc2 33be
000000b0: d6fa a4be eb83 953f ad29 afbe 6905 1abf
000000c0: 7e6b 86be 5306 7ebd 138c b1bf 9c0f 143f
000000d0: 50d8 85be 9ab1 133f 27fb d8be 7c3d 343b
000000e0: 2f0b b4be e455 03bf 1220 c4be 1641 a7be
000000f0: ea2b 36be 4226 a9be 0f2b 86be c1ad f9bb
00000100: 9a58 e03e f520 e3be 401c 87be dd88 66bd
00000110: ab56 9abe 579e c2be c6c6 d4be 5393 edbd
00000120: a884 5a3d 7b15 aabe 3f13 b0be d972 8fbe
00000130: 43c9 9ebe b141 6a3f 66d0 39be 0ca9 e9be
00000140: 6e63 aebe ffcb 69bd f818 1bbf f9af e43e
00000150: 07cc afbe 2fb4 003f 8b6b 8bbe 07bc f03c
00000160: 56bc b8be 113b bcbe 326c dfbe ac96 99be
00000170: 8274 9fbe 97bc 78be 0adf 61be d4df b4bd
00000180: ec30 f13e 5ab1 d1be 3e80 a6be 095c 323c
00000190: 05d5 5cbe 330e c3be 155b 27bf 9ef6 c9bd
000001a0: d760 823d b9c2 8fbe f79b 84be 8b7e adbe
000001b0: 6af5 8dbe 10da 723f 666b acbe d2d7 fcbe
000001c0: 9e9f 8dbe 2122 3d3d d4cc 16bf de07 d73e
000001d0: 7de9 c2be edf5 f23e bec9 bcbe 9c9e 71bc
000001e0: 6507 95be 4eac 8ebe 3324 d0be 5759 8abe
000001f0: ed4b a2be f887 93be 962d 7fbe 53be a3bd
00000200: 05b5 d23e 784e d0be ba64 4fbe 6802 adbd
00000210: 9885 8cbe be02 c9be 216c a33e d8b3 43bc
00000220: 5b2a 94bc 1ea8 c5be 6175 81be f383 9cbe
00000230: 725d 9fbe f280 733f 2fbd 81be 10f9 cdbe
00000240: e5d1 9cbe a227 893d abf2 0fbf e0a4 b53e
00000250: c911 b3be 5ca8 083f 9ab5 e0be 828c 44bc
00000260: 3c21 9dbe b747 a5be 53e6 b1be 6cbc c0be
00000270: 5880 82be 0019 8cbe 9703 85be 93d2 b63d
00000280: 091c 9e3e 24be f7be 885f 54be 0427 b6bd
00000290: ad2f 98be 3e38 c0be bf53 c6bd a061 6bbd
000002a0: 3503 973c 9550 b4be 650a a0be 0d0d a2be
000002b0: a282 85be 7efd 7d3f 9019 b9be ab07 ecbe
000002c0: 1485 7abe 1211 92bc a0c9 0abf bace c73e
000002d0: fb2f c7be f902 ed3e f9a4 bbbe 66fe 553d
000002e0: 6692 afbe 1679 afbe b3bc a2be f87b a1be
000002f0: 5144 94be c94d 60be cf4b 54be 6947 bfbd
00000300: 53be b33e 571a e0be 4526 9dbe 6a70 3a3d
00000310: 5bb4 9dbe 48d5 a0be be2b bebe 68f5 08be
00000320: 2104 36bd 8941 cfbe 9bac afbe e3f5 92be
00000330: da92 9ebe cd8a 723f 72b1 42be 7dc2 e3be
00000340: 9c8d a6be 5378 f6bc 6570 14bf e7ed d23e
00000350: f9a7 bcbe 4bcb 023f 93da c3be 2427 2d3d
00000360: 558e a5be f9f6 abbe a00b cbbe 02aa 62be
00000370: 0cc9 5abe 7b06 b5be da6e 53be a8b1 0dbd
00000380: 5888 913e c509 ccbe 454c adbe 1b2c 0a3d
00000390: da05 73be 65ec c0be 0450 e2be cddd 453c
000003a0: 6e1c 3d3c 4052 cdbe 5a90 a4be ffb3 5cbe
000003b0: 37b7 9fbe 1cbd 7b3f a0c6 aebe a6dd bbbe
000003c0: f717 92be e32e b5bd 5f9c 02bf 14e7 ba3e
000003d0: 74c0 99be 63fb 053f 61fb 91be c303 ef3c
000003e0: 9fa1 c4be 87e9 e3be 30e4 cabe 4314 94be
000003f0: 0f12 8fbe 98b6 87be c040 78be fef4 8ebc

linear_relu_stack.6.bias f4 [31]
-0.1748486 0.10902224 0.08451438 -0.011807908 0.025363194 0.0602596 0.027963245 -0.13456237
0.08519931 0.032484766 -0.054133445 -0.12570283 -0.022898884 -0.09116372 0.15338252 -0.09385236
-0.034482975 -0.13626646 -0.12973075 -0.12381156 -0.11773506 -0.06062485 0.01120687 -0.15221457
-0.18827848 -0.12048536 -0.11050177 -0.056546457 -0.08826044 -0.14428689 -0.20167547
00000000: 830b 33be 0d47 df3d e015 ad3d f575 41bc
00000010: 79c6 cf3c c5d2 763d 2d13 e53c b8ca 09be
00000020: fa7c ae3d bf0e 053d 08bb 5dbd 3eb8 00be
00000030: 7196 bbbc 0bb4 babd 4f10 1d3e ab35 c0bd
00000040: 053e 0dbd 6f89 0bbe 23d8 04be ea90 fdbd
00000050: 141f f1bd c351 78bd 059d 373c 23de 1bbe
00000060: 13cc 40be 07c1 f6bd c14e e2bd 429d 67bd
00000070: e4c1 b4bd f1bf 13be 0484 4ebe
