DQN_target_net_Mountaincar.pt (torch, 72006 bytes, 6 tensors)

layer1.weight f4 [128, 2]
-1.227301 1.8708435 -0.16181342 -5.3758564 -0.15264466 -4.7467856 0.1464644 -0.2994053
-0.10555781 3.279916 0.15184239 3.7780917 0.053389892 -4.662061 0.16372815 -4.534179
0.037228268 -7.647344 -0.10129479 0.27054664 -0.18076405 -4.9388566 0.17266332 0.3844642
0.20203486 0.5772241 0.3277388 -0.58268714 0.32256562 -1.130297 0.05462129 -4.9880486
0.11295863 -3.9517474 0.08827146 0.16055994 0.4450406 -1.2994888 -0.54500747 3.1395447
0.3120217 0.23591043 -0.31977504 -4.7729316 0.28945318 -0.20527418 0.21475184 -2.0500948
0.56247026 0.19310386 -0.015560508 2.9272976 0.47339454 -3.278503 0.008851776 -0.4358488
-0.21529888 0.0013868237 0.19856185 0.51024675 -0.0010474127 0.28727335 -1.0638834 -4.8826437
-0.81614465 2.8814912 -0.859965 -4.4738293 0.64011216 -1.4903227 2.4708407 4.632061
-0.004730248 5.7094045 -0.6259023 2.814639 0.7873821 3.2614794 1.0774544 -0.58964443
-0.2546785 -3.6965363 -1.5382376 0.5143199 0.5356228 -0.09605679 0.47351208 -2.1066387
0.4689788 -0.18853164 1.3744448 5.4003167 -0.1910439 2.9400184 -0.14448786 -0.3685471
0.00797329 -0.19192414 -0.18603171 3.071607 -0.08932614 -5.954282 -1.0867233 2.407472
0.4812637 -3.024569 0.16621262 -0.1425272 0.06031515 -0.5268237 0.24413623 -2.8679757
0.6104435 -2.741105 0.32168218 0.5731975 -0.063088566 0.11434033 1.0418347 5.459766
-1.2529957 -3.0390985 0.37222862 -4.061918 0.08187715 3.5845191 -0.92181075 1.9267174
-0.69490963 2.604861 -0.14319253 -3.7165747 0.35023034 -2.1939108 -0.12788185 -4.1016297
0.57048565 -0.15257111 -0.17950454 -3.2135642 -0.46184105 -8.200157 0.37787175 -0.2516388
0.68296206 5.457703 0.032252256 -4.722611 0.20822453 6.0778255 0.5841512 -2.5098743
-0.7681847 3.0822172 0.33801442 -4.1875567 -0.8160233 -5.090189 -0.090491295 -5.376415
0.09889146 0.49879634 0.6479475 -2.9948926 -0.99178815 1.5775651 -0.2734132 -4.824506
0.46491483 -2.3358483 -2.0123246 4.297163 -0.8706222 -6.7815833 -1.0847324 -4.1651816
0.46254328 -4.1561046 -0.07001236 -0.5421848 -0.109018795 -4.417106 -0.21118346 -5.2225466
0.04119565 5.8130403 0.06835349 0.43268088 -0.34259635 -0.024883892 -0.28521702 0.4254121
0.5890045 -1.7680733 -0.015478567 -0.26484683 0.12547964 -0.34328225 -0.9725416 2.1666946
0.17678885 -0.49642968 0.35580826 -3.861149 0.40790018 -0.23755045 -0.31340373 -4.887529
0.5676775 -3.0971131 -0.037503663 -4.562581 0.3759988 0.4949655 -0.21116197 -0.58245707
-0.84718776 2.1127548 -0.49754152 3.600955 0.15274501 -0.19877148 0.052145854 3.3289976
1.8347636 5.149814 0.03027879 0.5195208 -0.45008498 -3.7641413 -0.39483768 -8.031289
2.5073266 4.3765826 -0.06738103 -4.3342543 -0.9037735 2.5101209 0.5328493 -0.014725513
-0.17292792 -7.218908 0.09941203 -0.03130702 0.14576685 -4.686282 -2.012861 2.4629986
-0.084932044 0.029078921 -2.217137 3.559045 0.3053897 -0.06863102 0.20886022 -3.8504453
00000000: 3318 9dbf cd77 ef3f 6bb2 25be 0407 acc0
00000010: e24e 1cbe abe5 97c0 c4fa 153e a74b 99be
00000020: b12e d8bd 25ea 5140 927c 1b3e 41cc 7140
00000030: 5caf 5a3d 9b2f 95c0 5aa8 273e ff17 91c0
00000040: ab7c 183d 0bb7 f4c0 a573 cfbd 1785 8a3e
00000050: 361a 39be 1d0b 9ec0 a7ce 303e 7ed8 c43e
00000060: 3ae2 4e3e f5c4 133f 61cd a73e fc2a 15bf
00000070: 5227 a53e 92ad 90bf 93ba 5f3d 189e 9fc0
00000080: db56 e73d 6ee9 7cc0 abc7 b43d d369 243e
00000090: 5ddc e33e a655 a6bf 9c85 0bbf 4dee 4840
000000a0: 4fc1 9f3e 8192 713e 8eb9 a3be dbbb 98c0
000000b0: 3533 943e 6533 52be e8e7 5b3e c134 03c0
000000c0: 0dfe 0f3f 05bd 453e 80f1 7ebc d858 3b40
000000d0: c560 f23e fed2 51c0 0a07 113c 9327 dfbe
000000e0: 4f77 5cbe 15c6 b53a cc53 4b3e 889f 023f
000000f0: 5749 89ba 7e15 933e 552d 88bf 9e3e 9cc0
00000100: dbee 50bf 5a6a 3840 ab26 5cbf 9c29 8fc0
00000110: 64de 233f e5c2 bebf 4122 1e40 d839 9440
00000120: 3200 9bbb 71b3 b640 223b 20bf 0c23 3440
00000130: e091 493f 14bc 5040 07ea 893f f0f2 16bf
00000140: 3865 82be 0d94 6cc0 f8e4 c4bf 78aa 033f
00000150: 931e 093f 6cb9 c4bd 2d70 f23e 2bd3 06c0
00000160: fd1d f03e 700e 41be cfed af3f 65cf ac40
00000170: 03a1 43be 4329 3c40 a0f4 13be 35b2 bcbe
00000180: 67a2 023c c387 44be 197f 3ebe 3695 4440
00000190: a0f0 b6bd 7a89 bec0 c019 8bbf 0514 1a40
000001a0: 3268 f63e 8a92 41c0 a433 2a3e a6f2 11be
000001b0: 050d 773d ebdd 06bf d9fe 793e ea8c 37c0
000001c0: 0646 1c3f 446e 2fc0 87b3 a43e 12bd 123f
000001d0: 9434 81bd 432b ea3d d75a 853f 67b6 ae40
000001e0: 2a62 a0bf 9780 42c0 c094 be3e 3bfb 81c0
000001f0: 35af a73d c368 6540 cafb 6bbf ad9e f63f
00000200: 99e5 31bf 0bb6 2640 10a1 12be 5cdc 6dc0
00000210: 6451 b33e 0969 0cc0 76f3 02be 8d40 83c0
00000220: 590b 123f 9a3b 1cbe 0ad0 37be 09ab 4dc0
00000230: 6e76 ecbe d833 03c1 6878 c13e cdd6 80be
00000240: 9ad6 2e3f 81a5 ae40 f11a 043d a11f 97c0
00000250: d038 553e 8c7d c240 ef8a 153f c8a1 20c0
00000260: c1a7 44bf 0c43 4540 3a10 ad3e 7700 86c0
00000270: e7e6 50bf d4e2 a2c0 8053 b9bd 970b acc0
00000280: 9b87 ca3d 3c62 ff3e e3df 253f 52ac 3fc0
00000290: d4e5 7dbf a7ed c93f d1fc 8bbe 5a62 9ac0
000002a0: 5109 ee3e 8a7e 15c0 edc9 00c0 5c82 8940
000002b0: 19e1 5ebf bb02 d9c0 83d8 8abf 2b49 85c0
000002c0: 79d2 ec3e cffe 84c0 a462 8fbd a0cc 0abf
000002d0: 3f45 dfbd ef58 8dc0 7a40 58be 1a1f a7c0
000002e0: c5bc 283d 6d04 ba40 eafc 8b3d 5988 dd3e
000002f0: ca68 afbe 4ed9 cbbc f707 92be 9dcf d93e
00000300: 00c9 163f 3a50 e2bf d199 7dbc 019a 87be
00000310: bc7d 003e b1c2 afbe 7cf8 78bf 20ab 0a40
00000320: 2308 353e 082c febe 802c b63e 111d 77c0
00000330: 4bd8 d03e 6d40 73be 7476 a0be a366 9cc0
00000340: 5053 113f 1a37 46c0 719d 19bd aa00 92c0
00000350: ea82 c03e 1e6c fd3e d83a 58be e81b 15bf
00000360: 4ce1 58bf 6037 0740 c3bd febe 0c76 6640
00000370: 3069 1c3e c08a 4bbe e496 553d 4c0e 5540
00000380: 89d9 ea3f 47cb a440 3a0b f83c 51ff 043f
00000390: 8a71 e6be b1e7 70c0 2a28 cabe 2980 00c1
000003a0: 0a78 2040 f70c 8c40 11ff 89bd 36b2 8ac0
000003b0: b35d 67bf d2a5 2040 d068 083f 4743 71bc
000003c0: 0414 31be 4b01 e7c0 8998 cb3d ca3b 00bd
000003d0: e843 153e 06f6 95c0 b7d2 00c0 c5a1 1d40
000003e0: daf0 adbd eb36 ee3c 93e5 0dc0 65c7 6340
000003f0: 0a5c 9c3e 6c8e 8cbd 74df 553e b26d 76c0

layer1.bias f4 [128]
1.0173335 0.28514162 0.25147977 -0.09267669 1.3412282 1.4567807 0.29686263 0.34868354
0.46222228 -0.1904437 0.26386866 -0.296705 -0.48486093 -0.4476119 0.59517956 0.3146326
0.543571 -0.5228938 0.79397845 1.2348559 -0.49863866 0.28224114 -0.422907 1.0453864
-0.35906887 1.767058 0.45376393 -0.42941892 -0.32611763 -0.367804 -0.30779818 -0.72541904
0.8356388 0.44511428 0.7604289 0.40350512 0.03285411 1.2761061 1.6072448 0.63593554
0.25587225 1.1028847 -0.42906025 0.6970639 -0.30315328 0.4763184 1.5250044 -0.49052888
-0.36504468 1.284311 0.327765 1.1204507 1.0258013 -0.48549193 -0.101515524 0.74733996
0.748014 -0.2439536 -0.44585854 0.40423703 1.409715 0.5538928 1.2046756 1.3397605
0.9685683 0.5447674 1.2288277 0.45371017 -0.25818598 0.5133851 -0.025175685 -0.42365047
0.339902 0.29135343 0.08627358 0.7576374 1.0759941 0.84546286 0.65401775 0.29156435
-0.1067921 1.0350448 1.5282518 0.27431116 0.68304396 -0.14669575 -0.124797024 0.50360215
0.4869691 -0.547541 0.75412154 0.2843979 0.032445498 -0.401129 -0.4851019 -0.57025325
0.7845625 -0.116583675 -0.57757187 1.2282965 -0.4725255 0.5756666 -0.39788818 0.4866323
0.51467097 0.92262137 -0.21174306 -0.46498027 1.1242721 0.878423 -0.20215347 1.4768344
0.55851704 -0.08324893 0.27150396 -0.04574158 0.61323464 0.23539567 1.1697989 -0.44428843
0.035913352 -0.04937752 0.5973119 -0.1796879 1.9688147 -0.2033538 -0.50474405 0.7974349
00000000: fc37 823f 15fe 913e f5c1 803e 47cd bdbd
00000010: 5ead ab3f ca77 ba3f 61fe 973e a686 b23e
00000020: 66a8 ec3e ac03 43be cb19 873e b8e9 97be
00000030: b13f f8be 632d e5be b05d 183f 8617 a13e
00000040: 7827 0b3f 5edc 05bf 2c42 4b3f c20f 9e3f
00000050: 914d ffbe e981 903e 4487 d8be 39cf 853f
00000060: e0d7 b7be f52e e23f bf53 e83e ccdc dbbe
00000070: e4f8 a6be ce50 bcbe b997 9dbe 10b5 39bf
00000080: 6dec 553f 05e6 e33e 78ab 423f 3998 ce3e
00000090: 0892 063d 7257 a33f 33ba cd3f accc 223f
000000a0: b001 833e 532b 8d3f c9ad dbbe c872 323f
000000b0: e836 9bbe 01e0 f33e 5833 c33f 9a26 fbbe
000000c0: 23e7 babe 4e64 a43f d0d0 a73e ee6a 8f3f
000000d0: 754d 833f 6692 f8be 5fe7 cfbd ac51 3f3f
000000e0: d87d 3f3f f9ce 79be 9247 e4be 28f8 ce3e
000000f0: 8b71 b43f ebcb 0d3f cf32 9a3f 467d ab3f
00000100: 18f4 773f e075 0b3f 3a4a 9d3f b34c e83e
00000110: f430 84be 356d 033f 3d3d cebc b7e8 d8be
00000120: a307 ae3e 472c 953e 34b0 b03d 86f4 413f
00000130: 2dba 893f 4170 583f b56d 273f ec47 953e
00000140: d1b5 dabd 597c 843f c19d c33f 8372 8c3e
00000150: f8db 2e3f 6937 16be 9595 ffbd 12ec 003f
00000160: 0454 f93e a62b 0cbf 1c0e 413f 9a9c 913e
00000170: 92e5 043d c860 cdbe 475f f8be 1efc 11bf
00000180: 17d9 483f 6cc3 eebd c0db 13bf d238 9d3f
00000190: ddee f1be e35e 133f 00b8 cbbe de27 f93e
000001a0: 7ac1 033f ea30 6c3f 2cd3 58be e511 eebe
000001b0: 26e8 8f3f 54e0 603f 5201 4fbe e908 bd3f
000001c0: f9fa 0e3f 6a7e aabd 9102 8b3e 865b 3bbd
000001d0: f2fc 1c3f 900b 713e f8bb 953f c679 e3be
000001e0: e119 133d 1540 4abd 6fe9 183f 1b00 38be
000001f0: 1f02 fc3f fb3b 50be e836 01bf b224 4c3f

layer2.weight f4 [128, 128]
-0.07752806 0.0643545 -0.03408066 0.03311431 -0.03495825 0.007021647 -0.06940635 0.0304646
0.06156844 0.057062306 -0.068957664 0.07060246 -0.05239534 -0.06933258 -0.07009604 0.02731978
0.0021739076 -0.019698841 0.017976075 -0.061629392 -0.043689504 -0.011486085 -0.06041317 -0.07522134
-0.032316614 -0.007502313 0.008723481 -0.03401082 0.07013562 -0.021928703 -0.058540273 0.045766786
-0.05262601 -0.070034996 0.057503123 -0.042296015 -0.0020423038 -0.021040006 0.013311609 0.06464979
0.034077134 -0.012631848 0.016507244 -0.07264829 0.015182878 0.018996112 -0.05623554 -0.039984666
-0.055618405 -0.0044372203 0.049518168 -0.058045514 -0.010560549 0.029639008 -0.059183616 -0.007336178
0.042279676 0.01770076 -0.014497801 0.06852196 0.059475064 0.026276581 0.02268755 0.031247517
0.05883056 -0.008014462 -0.007272039 0.004521994 0.034546565 -0.037603006 0.058480527 -0.053892437
-0.0033609704 -0.053176276 -0.01625248 0.02390495 0.011981108 0.06266274 0.036972426 0.039794553
0.036787726 0.0036907033 -0.056781325 0.026682278 -0.009212826 -0.05294542 -0.024976669 -0.04156649
0.04769966 0.04263774 -0.0139426 0.0057187136 -0.022201525 -0.05720591 -0.069855824 -0.022146577
-0.03831589 0.0017614716 0.0074789557 -0.070519894 -0.06469948 0.011911351 -0.021034585 0.04514056
0.013714522 -0.041723568 -0.06464487 0.037755724 0.06202507 0.0013849527 0.034614183 -0.036280714
-0.047212724 -0.06771274 0.027827317 -0.041176483 0.03645785 -0.034914467 -0.034175046 0.047442667
0.06480342 -0.061283745 0.06344673 0.07261659 -0.0046250867 -0.063748196 -0.0068550315 0.038234282
-0.06696001 0.041348476 -0.032165784 0.034140468 0.12214026 0.31357884 0.20097011 0.2504724
0.25316808 -0.04033393 -0.057689372 -0.02536814 0.06555903 -0.05856419 0.60389674 0.39222658
0.1997478 -0.0057705548 0.9210937 0.036900483 -0.02967529 -0.06673885 0.026529174 0.22701234
-0.050728794 0.16603567 0.7228239 -0.05232682 0.04945479 -0.012049477 0.049056083 -2.9065244
0.037936535 -0.0076636663 0.82991165 -1.4967068 -4.661492 0.015634272 0.3694236 0.798518
0.2713316 -0.044000402 0.0038403734 0.456084 0.07207239 -1.8004687 0.15516043 -0.047730163
0.023244044 0.1570403 0.24308005 0.026464155 0.2616595 0.030988842 0.0024146684 0.28272167
1.0964621 0.025281072 0.06244852 -1.938548 0.10645373 0.5040488 0.29394174 0.029877514
0.13189398 0.012737574 0.23333438 0.09857452 0.1446376 0.110381216 -2.484907 0.039385628
-2.0485861 0.062966384 -3.6682818 0.8837324 -0.028038312 0.2855138 0.0025979024 0.13210584
0.020569853 0.3327365 0.13423344 0.042129662 0.36020607 -0.29040545 -1.3205112 -0.07516028
0.5305538 0.04473776 0.06639275 0.009692981 -4.000459 0.05131951 0.0094118975 -0.033207357
0.890641 0.043515608 0.02922581 0.07412534 -0.052172013 0.21871713 0.06811437 0.0869234
1.1608206 0.08505104 -0.03034742 -0.015646642 0.043134816 -0.014035474 -0.060013797 0.12724142
-1.5619392 0.028780373 -0.0017327643 -2.2290626 -0.7164663 0.012227761 0.027258314 -0.022968417
-3.0967457 -0.0007823351 0.2277862 -0.23840576 0.08774964 -0.1302341 0.051573712 0.19939522
00000000: 08c7 9ebd 4bcc 833d 2a98 0bbd dfa2 073d
00000010: 6230 0fbd d815 e63b eb24 8ebd e690 f93c
00000020: 302f 7c3d 2aba 693d ad39 8dbd 0698 903d
00000030: 7f9c 56bd 3dfe 8dbd 838e 8fbd bbcd df3c
00000040: 1e78 0e3b 775f a1bc 9042 933c 1a6f 7cbd
00000050: c4f3 32bd 2230 3cbc cd73 77bd a50d 9abd
00000060: 6d5e 04bd f6d5 f5bb eeec 0e3c ee4e 0bbd
00000070: 44a3 8f3d d3a3 b3bc edc7 6fbd f475 3b3d
00000080: 5f8e 57bd 826e 8fbd 6588 6b3d 963e 2dbd
00000090: 2cd8 05bb 175c acbc ef18 5a3c 1c67 843d
000000a0: 7794 0b3d d0f5 4ebc 333a 873c a0c8 94bd
000000b0: 9bc1 783c bc9d 9b3c 3d57 66bd f6c6 23bd
000000c0: 20d0 63bd 1a66 91bb 90d3 4a3d 22c1 6dbd
000000d0: 2706 2dbc 81cd f23c 856a 72bd 5264 f0bb
000000e0: 742d 2d3d 2f01 913c 2f88 6dbc 3e55 8c3d
000000f0: 209c 733d fc41 d73c 3edb b93c cbfa ff3c
00000100: 50f8 703d 174f 03bc 494a eebb 3c2d 943b
00000110: b380 0d3d 9c05 1abd 4789 6f3d 51be 5cbd
00000120: ba43 5cbb 5ecf 59bd ec23 85bc 50d4 c33c
00000130: 694c 443c 5355 803d 6670 173d 9dff 223d
00000140: baae 163d badf 713b 8993 68bd cb94 da3c
00000150: 65f1 16bc 4cdd 58bd df9b ccbc a041 2abd
00000160: b860 433d e9a4 2e3d 816f 64bc 0c64 bb3b
00000170: f9df b5bc bf50 6abd 9210 8fbd bd6c b5bc
00000180: 1ff1 1cbd 2ee1 e63a 0712 f53b bc6c 90bd
00000190: 2981 84bd d427 433c b950 acbc 4fe5 383d
000001a0: e0b2 603c 55e6 2abd 8864 84bd bfa5 1a3d
000001b0: 000e 7e3d 4d87 b53a 9ac7 0d3d 169b 14bd
000001c0: 2162 41bd faac 8abd 1df6 e33c aca8 28bd
000001d0: d454 153d 7902 0fbd 22fb 0bbd 3e53 423d
000001e0: a8b7 843d aa04 7bbd 5cf0 813d 02b8 943d
000001f0: 0a8e 97bb 6a8e 82bd 2ca0 e0bb 8d9b 1c3d
00000200: 5422 89bd 055d 293d 45c0 03bd e0d6 0b3d
00000210: ac24 fa3d 688d a03e 1ccb 4d3e eb3d 803e
00000220: 3f9f 813e 3135 25bd b14b 6cbd d8d0 cfbc
00000230: d043 863d 01e1 6fbd fa98 1a3f ecd1 c83e
00000240: b08a 4c3e ec16 bdbb cccc 6b3f f624 173d
00000250: 9819 f3bc 61ae 88bd b653 d93c ec75 683e
00000260: ffc8 4fbd 4105 2a3e fd0a 393f a654 56bd
00000270: 1b91 4a3d 2b6b 45bc 08ef 483d 7f04 3ac0
00000280: 5763 1b3d 7e1f fbbb 1775 543f 1794 bfbf
00000290: f12a 95c0 7213 803c 1725 bd3e ad6b 4c3f
000002a0: faeb 8a3e c439 34bd c6ae 7b3b d883 e93e
000002b0: b09a 933d c275 e6bf 60e2 1e3e b480 43bd
000002c0: 4b6a be3c 2ccf 203e fae9 783e 5bcb d83c
000002d0: 3cf8 853e 50dc fd3c 6a3f 1e3b e5c0 903e
000002e0: df58 8c3f 401a cf3c 05ca 7f3d 5722 f8bf
000002f0: 6a04 da3d 5809 013f 887f 963e b0c1 f43c
00000300: 370f 073e 42b1 503c 35ef 6e3e 70e1 c93d
00000310: e11b 143e 8c0f e23d b708 1fc0 d352 213d
00000320: 091c 03c0 85f4 803d 21c5 6ac0 493c 623f
00000330: 9ab0 e5bc dd2e 923e 9241 2a3b c146 073e
00000340: 1c82 a83c 705c aa3e 7e74 093e 2790 2c3d
00000350: ee6c b83e 06b0 94be 8306 a9bf a2ed 99bd
00000360: 60d2 073f f13e 373d ecf8 873d 4fcf 1e3c
00000370: c303 80c0 6834 523d 5c34 1a3c 7004 08bd
00000380: 0c01 643f 6c3d 323d f76a ef3c 07cf 973d
00000390: 52b2 55bd 62f7 5f3e 8c7f 8b3d e504 b23d
000003a0: c595 943f 3d2f ae3d 279b f8bc 632d 80bc
000003b0: 22ae 303d 0bf5 65bc 07d1 75bd 934b 023e
000003c0: a0ed c7bf d1c4 eb3c ec1d e3ba f6a8 0ec0
000003d0: 566a 37bf f256 483c d44c df3c 4328 bcbc
000003e0: 1531 46c0 9f15 4dba c940 693e a420 74be
000003f0: 15b6 b33d 175c 05be f53e 533d 432e 4c3e

layer2.bias f4 [128]
-0.002558259 0.06480771 0.010049948 0.0858797 -0.011256501 0.06409959 0.7456146 0.07102617
0.06610974 -0.053985503 0.044583276 -0.020144416 -0.10219126 0.042235594 -0.073323384 0.16127595
-0.027961211 -0.03372308 0.025672095 0.03391757 0.12400496 0.0713645 0.037188042 -0.07310852
-0.004833601 0.05066811 -0.06643748 0.26799318 -0.03946065 0.025819305 0.15695629 0.12838088
-0.0030197338 0.063353546 0.08949562 0.007935231 0.12839982 -0.0054297564 0.15430012 0.17185697
-0.07041892 -0.10431283 0.040409595 0.050573487 0.120464444 0.21790329 0.14941645 0.0007920584
-0.014027747 -0.090835206 0.21424034 -0.072814435 0.102565646 -0.2572052 -0.011898758 0.090132944
-0.03220754 -0.16954678 0.008346462 0.018481767 0.056285325 -0.063785315 -0.045642037 0.06321449
0.7451905 -0.15081671 0.14369756 -0.06032256 0.09544862 0.3303922 -0.042399228 0.3994799
0.024334664 0.0552978 -0.064419284 -0.01843717 0.04122842 0.04460928 0.19970642 0.05310829
0.12689556 0.09756556 0.114332296 0.15972139 0.033371147 0.2194353 0.0845002 0.042650674
-0.047647145 0.12189698 0.12401265 0.44657272 0.93721086 0.041897412 0.0023324362 0.012557312
0.38430464 -0.036706414 0.3843246 -0.06944579 0.05254983 0.39605537 -0.009633683 0.102243975
0.10580258 0.030185563 0.19663776 0.076790504 -0.017010514 -0.06980033 0.04967259 -0.051001724
0.05805284 -0.044221245 0.12728387 0.06974865 0.26797646 1.0365471 -0.03380689 0.20082009
0.07707863 0.098623 0.041220695 0.109928764 0.028675212 -0.015338054 0.0033210088 0.41902378
00000000: 77a8 27bb e8b9 843d 89a8 243c b2e1 af3d
00000010: 306d 38bc a546 833d 99e0 3e3f 2b76 913d
00000020: 8b64 873d e71f 5dbd f49c 363d e705 a5bc
00000030: a749 d1bd 3bff 2c3d 922a 96bd 8625 253e
00000040: e90e e5bc 3621 0abd 494e d23c 26ed 0a3d
00000050: 50f6 fd3d 8d27 923d 7d52 183d ebb9 95bd
00000060: 2f63 9ebb 5d89 4f3d 6010 88bd 6736 893e
00000070: 7ea1 21bd 0283 d33c 26b9 203e 4776 033e
00000080: bae6 45bb 81bf 813d 7b49 b73d c502 023c
00000090: 3e7b 033e 19ec b1bb da00 1e3e 46fb 2f3e
000000a0: cb37 90bd f7a1 d5bd 8884 253d 2526 4f3d
000000b0: 10b6 f63d 0a22 5f3e a000 193e 24a2 4f3a
000000c0: a3d4 65bc cf07 babd d261 5b3e bc1f 95bd
000000d0: f00d d23d 66b0 83be 02f3 42bc 9f97 b83d
000000e0: 0eec 03bd ac9d 2dbe 99bf 083c 1367 973c
000000f0: 718b 663d e0a1 82bd 25f3 3abd 9976 813d
00000100: cec4 3e3f b26f 1abe 7425 133e ca14 77bd
00000110: 917a c33d 2b29 a93e d0aa 2dbd a188 cc3e
00000120: 7d59 c73c f27f 623d 42ee 83bd 8c09 97bc
00000130: 22df 283d 38b8 363d d77f 4c3e 1488 593d
00000140: e9f0 013e 74d0 c73d 0d27 ea3d 018e 233e
00000150: 2fb0 083d a6b3 603e 710e ad3d 79b2 2e3d
00000160: a729 43bd 20a5 f93d 58fa fd3d 2ea5 e43e
00000170: 0ded 6f3f 9f9c 2b3d c9db 183b 2fbd 4d3c
00000180: 94c3 c43e 7759 16bd 32c6 c43e 9839 8ebd
00000190: 7e3e 573d c5c7 ca3e 98d6 1dbc 4a65 d13d
000001a0: 06af d83d b747 f73c 695b 493e 5744 9d3d
000001b0: a259 8bbc 7af3 8ebd 7c75 4b3d 2fe7 50bd
000001c0: d1c8 6d3d 5621 35bd b456 023e 61d8 8e3d
000001d0: 3634 893e 93ad 843f 1879 0abd c8a3 4d3e
000001e0: 67db 9d3d dbfa c93d 08d7 283d 5522 e13d
000001f0: 47e8 ea3c 764c 7bbc 48a5 593b 498a d63e

layer3.weight f4 [3, 128]
0.06693441 0.28556544 0.030805238 0.86939585 0.06504729 0.05865663 0.7142298 0.39586976
-0.062461294 0.059950117 0.08022458 0.041993942 2.9828768 0.042658832 0.02955778 -1.0380441
0.043743163 0.0030281576 -0.013805644 0.059562508 -0.701318 -0.0616791 -0.5891843 0.064999305
0.020379677 0.69813895 0.05912421 1.8807456 0.037528742 0.04294576 0.2177508 0.25186312
-0.043224175 -0.021306839 0.15835537 -0.07048846 2.7132983 0.049291693 0.28613946 0.22870302
-0.008799311 1.2351756 -0.036036476 0.04540304 0.013743011 2.0810711 0.14518957 0.028024865
0.008395648 1.6273984 -1.2407682 0.050835494 -0.0046127057 3.1161249 -0.0020877048 -0.07915971
-0.040219013 1.4130548 -0.026049312 0.012494517 -0.003399874 0.011525695 -0.033655506 -0.01047301
0.737299 1.4423987 0.22600275 0.0214715 0.21321166 2.376589 -0.019719215 1.9469738
-0.024627943 0.041446522 1.1337458 -0.017015828 -0.016096026 -0.0149866305 -0.73372465 0.46428728
0.40629777 -0.09612778 0.077252 0.30372334 0.4854872 2.588928 0.24006645 0.07243321
-0.034502473 -0.025536977 0.6309171 2.7250009 0.21168797 0.007956711 0.050816063 0.025211647
1.9890167 0.051266175 -1.2707253 0.038203336 0.353106 1.0256371 0.02984573 0.11882048
0.14174892 0.29347083 2.3560312 0.35656783 0.007556707 0.030664656 0.05305411 0.034468014
-0.067593895 -0.06983197 -0.024847204 0.26569322 1.6604581 -0.07118523 0.005477505 2.5197654
0.29135528 -0.03032109 0.06875929 0.0036873214 0.053628124 -0.039288335 0.021819293 -1.2263292
0.037867002 -0.6412513 0.007871344 -0.34506732 0.046384815 0.015739935 1.1052741 -0.5669524
-0.021237414 -0.014106541 -0.66182077 0.067139305 4.0264506 -0.02333738 -0.060490698 -0.7527539
0.07164087 -0.0364327 0.048202686 -0.545686 -0.5554963 0.045598477 -0.6420242 0.059454676
0.025243875 -0.39698976 0.04079654 3.1317706 -0.01164323 0.045316458 -0.5339741 -0.51147926
0.02650113 -0.030479174 -0.5041029 0.037112102 3.2909153 0.022506444 -0.6574557 -0.6394806
-0.03923351 2.5479896 0.050968144 -0.721523 -0.7852287 3.114022 -0.582903 0.06044653
-0.04293611 2.8723922 -0.7470309 -0.06371599 -0.7385863 2.6190286 0.045482714 -0.7021997
0.069537066 2.7209382 -0.014721476 0.016406268 0.002730137 0.06983478 0.016684914 -0.069418855
1.114435 2.8705096 -0.7115637 -0.008095829 -0.53888947 2.6223931 -0.04842356 2.1687212
0.00082965725 -0.03361435 2.40975 0.016581409 0.005861754 -0.04286597 -0.6577481 -0.32327467
-0.33414733 -0.7771734 -0.65080434 -0.6465577 -0.49988982 3.1362753 -0.5643674 0.020732723
-0.059492514 -0.73461837 -0.28714758 2.7506444 0.6692074 -0.06713411 -0.018415177 -0.046071
3.1775818 0.066671535 -0.8216779 0.045274142 -0.6083637 1.5105145 -0.06411639 -0.6416288
-0.52150524 -0.40384173 3.0850813 -0.4217973 0.037173055 0.05326063 0.024927981 -0.010364748
-0.030399162 -0.026255462 -0.6501791 -0.62029797 2.9067435 0.25348943 -0.06054603 3.0651598
-0.602466 -0.7611361 0.072779335 -0.58124495 -0.037031073 0.052348413 0.05811538 -0.7659695
00000000: e814 893d a235 923e 445b fc3c ba90 5e3f
00000010: 8337 853d ef41 703d c4d7 363f 71af ca3e
00000020: 6ad7 7fbd 418e 753d c94c a43d d701 2c3d
00000030: 74e7 3e40 07bb 2e3d 2823 f23c a1de 84bf
00000040: 082c 333d 0e74 463b 1131 62bc d1f7 733d
00000050: 9489 33bf 39a3 7cbd c8d4 16bf 5b1e 853d
00000060: 48f3 a63c 3cb9 323f 3a2c 723d 46bc f03f
00000070: bdb7 193d e5e7 2f3d 11fa 5e3e 34f4 803e
00000080: d50b 31bd ae8b aebc e927 223e 415c 90bd
00000090: aea6 2d40 16e6 493d df80 923e 2031 6a3e
000000a0: fc2a 10bc 3c1a 9e3f fc9a 13bd 8af8 393d
000000b0: 5e2a 613c 4530 0540 93ac 143e 6794 e53c
000000c0: e68d 093c 974e d03f 7ed1 9ebf e138 503d
000000d0: 2e26 97bb 976e 4740 e0d1 08bb 7c1e a2bd
000000e0: b1bc 24bd fbde b43f 5e65 d5bc cdb5 4c3c
000000f0: 6cd0 5ebb 45d6 3c3c 5bda 09bd fd96 2bbc
00000100: a1bf 3c3f 85a0 b83f 446d 673e 00e5 af3c
00000110: 2854 5a3e 091a 1840 318a a1bc 7036 f93f
00000120: 8ac0 c9bc d4c3 293d 951e 913f c764 8bbc
00000130: d0db 83bc 7c8a 75bc 61d5 3bbf 10b7 ed3e
00000140: 4306 d03e a4de c4bd 4c36 9e3d a081 9b3e
00000150: c791 f83e ffb0 2540 fbd3 753e dd57 943d
00000160: 7752 0dbd ec32 d1bc c883 213f 6a66 2e40
00000170: bbc4 583e dd5c 023c 8124 503d a888 ce3c
00000180: 1998 fe3f 7bfc 513d 20a7 a2bf 1a7b 1c3d
00000190: 4fca b43e 1448 833f 087f f43c 2758 f33d
000001a0: a126 113e cf41 963e 37c9 1640 0f90 b63e
000001b0: 419e f73b 7234 fb3c 444f 593d 552e 0d3d
000001c0: ab6e 8abd 1004 8fbd 5d8c cbbc f108 883e
000001d0: e489 d43f 90c9 91bd a47c b33b d643 2140
000001e0: 852c 953e ef63 f8bc acd1 8c3d fda6 713b
000001f0: 2aa9 5b3d ceec 20bd 60be b23c 5bf8 9cbf
00000200: 6e1a 1b3d 0c29 24bf cff6 003c aaac b0be
00000210: 01fe 3d3d 09f1 803c 9f79 8d3f cb23 11bf
00000220: 16fa adbc 1f1f 67bc 166d 29bf 5580 893d
00000230: afd8 8040 082e bfbc 18c5 77bd 7bb4 40bf
00000240: 73b8 923d 743a 15bd 2e70 453d 14b2 0bbf
00000250: 0135 0ebf 78c5 3a3d b35b 24bf bf86 733d
00000260: 3ecc ce3c 3e42 cbbe 461a 273d ee6e 4840
00000270: 3fc3 3ebc c09d 393d 87b2 08bf 4ef0 02bf
00000280: e618 d93c 76af f9bc e30c 01bf dc02 183d
00000290: 5b9e 5240 6f5f b83c 044f 28bf 00b5 23bf
000002a0: 51b3 20bd 4312 2340 f9c3 503d bbb5 38bf
000002b0: c004 49bf 234c 4740 2239 15bf c896 773d
000002c0: c6dd 2fbd 46d5 3740 6b3d 3fbf 877d 82bd
000002d0: fe13 3dbf 2a9e 2740 154c 3a3d 5cc3 33bf
000002e0: 7369 8e3d da23 2e40 5832 71bc 7066 863c
000002f0: 19ec 323b 8a05 8f3d cdae 883c 792b 8ebd
00000300: cea5 8e3f 6eb6 3740 0a29 36bf 5ea4 04bc
00000310: a9f4 09bf 4ad5 2740 c857 46bd 54cc 0a40
00000320: 5b7d 593a 33af 09bd 5839 1a40 bcd5 873c
00000330: f513 c03b 3a94 2fbd 2e62 28bf 4284 a5be
00000340: 5c15 abbe d6f4 46bf 1d9b 26bf ce84 25bf
00000350: 8ff1 ffbe bcb8 4840 627a 10bf acd7 a93c
00000360: 6cae 73bd f30f 3cbf 0205 93be 8f0a 3040
00000370: 2d51 2b3f 9c7d 89bd 6ddb 96bc f2b4 3cbd
00000380: 805d 4b40 168b 883d 7c59 52bf 6171 393d
00000390: b9bd 1bbf 8a58 c13f 744f 83bd c941 24bf
000003a0: 5e81 05bf 58c4 cebe f971 4540 d1f5 d7be
000003b0: c642 183d d227 5a3d c435 cc3c e7d0 29bc
000003c0: aa07 f9bc b215 d7bc 2372 26bf d9cb 1ebf
000003d0: 1608 3a40 5ec9 813e 1dff 77bd 942b 4440
000003e0: 363b 1abf d1d9 42bf 550d 953d 78cc 14bf
000003f0: e5ad 17bd 4a6b 563d 650a 6e3d 9416 44bf

layer3.bias f4 [3]
-0.17782244 -0.110709555 0.7578865
00000000: 1617 36be b1bb e2bd da04 423f
