DQN_target_net_Mountaincar.pt (torch, 72006 bytes, 6 tensors)

layer1.weight f4 [128, 2]
00000000: 11ff e13e d2b2 8940 3cc2 cebe c867 0bc0
00000010: e647 9fbe 5637 aa3c 3e6c ebbd 780b a3bf
00000020: 78cf 8f3e a297 a13f 178d fbbe 5476 5a40
00000030: 2157 543d d7d1 323e ddb8 15be ecdc 073f
00000040: 39e5 cf3c cce3 c2bf 2289 143f f146 e2be
00000050: 8171 3d3e c20c 793e b752 fdbe 3c84 333f
00000060: e03b afbf 88f5 3cbf 2ef2 fe3e 9e57 0a3f
00000070: a8df 9c3f 4463 e0bf d704 13bf d21d 4dc0
00000080: 0c50 833e f78f 783f 509d 04be ab29 0e3f
00000090: 8ba9 42bf 0039 37c0 fd80 f2bd 90f9 c7be
000000a0: 2fe8 cfbe b71c 26c0 5474 40be 0808 3dc0
000000b0: b489 5dbe 10b1 8a3f 8dd7 f83e 7b9f 353e
000000c0: 51a5 22be 3068 943f f902 8dbe dc0c 22c0
000000d0: e921 163f 606c 22bf 35f8 c13e c7fe d33d
000000e0: 98b8 6c3e 5a68 643e 0532 e0bc 3314 283f
000000f0: 9f0c c3bf 576f 2640 a2c5 72bf a4ec c23f
00000100: d6e9 103f 777e 233f 6a76 733f b868 d7bf
00000110: c5c2 1f3e 2878 c6be 24fe 21be 7903 94be
00000120: c88c c73e 847a 6c3d 55d6 053f 4e24 d73d
00000130: ae5d 0a3e 54e7 46c0 3892 86bd f8f4 90be
00000140: 23fb f43e e8dd 1fbd fb79 6cbe bddf 34c0
00000150: f2bf b6be 33db 3a3f b773 4aba 7269 133e
00000160: daed ff3b 90f9 5c3e 57d0 ddbe a308 6840
00000170: 95b4 04bf 438b 493f 0603 d03e 7464 0a3f
00000180: ac59 c3be 1e39 41c0 b8c4 babd e47f ffbf
00000190: ecfe cd3d 43be 9240 3064 cfbc d740 9040
000001a0: ed0a e73e 3830 653d b428 473e 1bb9 ea3e
000001b0: df77 02be d516 f5bf 6ff5 bd3e 9ce0 0ec0
000001c0: a127 99be 82b8 19bf 3ca1 ea3d dfd8 31c0
000001d0: e0a1 fcbe a3c4 263f 14d6 98bf 096e 4c40
000001e0: a1cf 94be ff05 42c0 846d 40bf 199c 2fc0
000001f0: aa61 bf3d 75ba 27c0 871b c23e 9c7c 59be
00000200: e51d 45bf a346 4ac0 0270 81be 0a42 a23e
00000210: ab0a 8dbe 65e8 1d3f b4a8 1e3f ec9f ecbf
00000220: 5c63 413d fdc7 16c0 ce3e e9be 6f2e acc0
00000230: 17fc 47be e3c6 24c0 5937 373f c245 8c40
00000240: 4aee 0bbe 31de 213f cd9c abbc 404b 46c0
00000250: 1ab1 53be 6434 68c0 003a acbd d3de abc0
00000260: 200c e5be 9b5d 1dc0 3295 c13e 2d44 243f
00000270: a5c1 fcbc 4acd 46c0 13d5 5e3e 8ef2 05c0
00000280: fa1e 903e 1c10 a63d 33f1 293d ec45 3ac0
00000290: 2534 11bf 2dea 6e3f b9e3 733d 8aab d3bf
000002a0: 69e7 413e 2359 273f b71f e9bd f3d3 b33d
000002b0: c738 cf3e b183 dbbf 895f abbe 663e 683e
000002c0: 5624 05bf aa11 473f e543 0f3e 2850 02c0
000002d0: 1229 68be 6325 3f3f f67b 793f 1df7 06c0
000002e0: ab1f 64be 9b52 b9bf 2ea9 043e 4afc 9bbe
000002f0: 6177 fe3e 0736 ffbf 2f3c 923f 738f e9bf
00000300: 4db3 42bd 2acd 7dc0 8dcf cebe 4c17 6f3e
00000310: 1e67 1bbf 42bb 34c0 b0fe d6bd 4956 94be
00000320: fa89 f13d 0fdf 9bbe 538a 09bf 1772 f43e
00000330: 10c3 2bbf 0001 b8bf b6c1 c73e 7525 f0be
00000340: e0ba 723c 07c5 bec0 7cc3 a33e 6e57 1cbf
00000350: 6a67 75bf 5e11 99c0 76de a5be f16b 0bc0
00000360: b06d 63bd a029 53be 7532 dfbe f2d6 823e
00000370: 9de8 143f 2118 9e3e 68e9 ac3f 417c 4440
00000380: 48f1 ea3e 476e a23e 4109 a93f ab47 6440
00000390: beac 223f 348a 8d3e 4212 953e e0de f9bf
000003a0: 5bf8 bc3e 65be 253f c96a 78be 2ab4 37c0
000003b0: f653 a9bd e908 043f a453 32bc 18b8 fbbf
000003c0: 281b 933d 1786 28c0 2737 b23e a7a6 8f40
000003d0: 7d33 153e 10b8 3dc0 10cb 783e 9ca3 9940
000003e0: fcfe 4cbf 8b56 d0bf eddf 8e3f 30aa 7c40
000003f0: 415e 1d3e d483 0cc0 8759 e93e c383 58be
0.44139913 4.3030787 -0.40382564 -2.1782093 -0.31109542 0.02077834 -0.11495255 -1.2737875
0.28087974 1.26244 -0.4913108 3.4134722 0.051840905 0.1746286 -0.14621301 0.53071475
0.025377857 -1.5225768 0.5802175 -0.4419475 0.1850033 0.24321273 -0.4947717 0.7012365
-1.3690147 -0.7381215 0.49794143 0.54039943 1.2255754 -1.7530293 -0.5742926 -3.204945
0.25647008 0.9709467 -0.12950635 0.5553233 -0.7603995 -2.862854 -0.11841009 -0.3905759
-0.4060683 -2.5955026 -0.18794376 -2.9536152 -0.21634561 1.0835285 0.48601952 0.17736618
-0.15883376 1.1594296 -0.2754133 -2.5320349 0.5864549 -0.6344662 0.3788468 0.10351329
0.23117292 0.22305432 -0.027367601 0.6565582 -1.5238227 2.6005456 -0.94832814 1.5228467
0.56606805 0.63864845 0.9510256 -1.6828833 0.15601642 -0.38763547 -0.15819603 -0.289089
0.38974595 0.057734028 0.5228017 0.105049714 0.13512298 -3.1078691 -0.06570858 -0.28311896
0.47847852 -0.039029986 -0.23093407 -2.826156 -0.35693318 0.7299072 -0.00077229313 0.14395693
0.0078103365 0.21579576 -0.43323013 3.6255271 -0.51838046 0.7872812 0.40627307 0.5405953
-0.38154352 -3.0191112 -0.091195524 -1.9960904 0.10058388 4.5857253 -0.025316328 4.507915
0.45125523 0.055954188 0.19449121 0.4584435 -0.1274104 -1.9147593 0.37101313 -2.232459
-0.29913047 -0.6004716 0.11456534 -2.7788618 -0.4934225 0.65143794 -1.1940331 3.194216
-0.29064658 -3.031616 -0.7516711 -2.7439024 0.093448 -2.6207554 0.37911627 -0.21238941
-0.7699874 -3.1605613 -0.25280768 0.3169101 -0.27547202 0.6168273 0.6197617 -1.8486304
0.047213897 -2.3559563 -0.4555573 -5.380668 -0.19529758 -2.574639 0.7156883 4.3835154
-0.13665119 0.6322966 -0.020948792 -3.098343 -0.20673028 -3.6281977 -0.084095 -5.37095
-0.44735813 -2.4588382 0.3780914 0.6416653 -0.030854056 -3.1062799 0.21760969 -2.0929294
0.28148633 0.08108541 0.04148979 -2.9105177 -0.5672019 0.93326074 0.059543345 -1.6536725
0.18935932 0.65370387 -0.11383002 0.087806605 0.40473005 -1.7149564 -0.33471325 0.22680053
-0.5200857 0.7776133 0.13990743 -2.0361423 -0.22671917 0.7466642 0.97454774 -2.1088326
-0.22277705 -1.4478334 0.12955162 -0.3046592 0.49700454 -1.9938363 1.1424617 -1.8246902
-0.047534276 -3.9656472 -0.40392724 0.23348731 -0.6070422 -2.8239293 -0.104977965 -0.2897208
0.11793895 -0.30443618 -0.5372669 0.47743294 -0.67094517 -1.4375305 0.39014977 -0.46903577
0.014815062 -5.961551 0.3198508 -0.6107091 -0.9586092 -4.78337 -0.32396287 -2.1784632
-0.055524528 -0.20621347 -0.43593183 0.25554615 0.5816744 0.30877784 1.350873 3.0700839
0.45887208 0.3172476 1.3205949 3.5668743 0.63544834 0.27644503 0.29115492 -1.9521141
0.3690823 0.64743644 -0.24259485 -2.8703713 -0.082679674 0.51576096 -0.010884199 -1.9665556
0.07182914 -2.6331842 0.34807703 4.4890933 0.14570422 -2.9643593 0.24296212 4.801222
-0.80076575 -1.6276411 1.1162087 3.9478874 0.15367986 -2.1955462 0.45576116 -0.21144013

layer1.bias f4 [128]
00000000: 0337 813d 2cc0 9f3e 51a9 c3be 9adc 5a3f
00000010: 76f7 893f 4590 193e ba58 0bbf b3ce 903f
00000020: 2596 d53e e8f4 363f 725e dfbe 6a19 883f
00000030: deee e0be c6bf ddbe f951 9f3e 0f33 bb3e
00000040: 815b 4d3f dff0 dcbe 2c95 f8be 9e60 85be
00000050: 6224 8c3e 64c8 693e 773f 8e3f 8654 c3be
00000060: ac08 483f be24 603e e148 bbbe 3fb7 93be
00000070: 72f4 23bf 388a 6f3f d811 1abe a161 23bd
00000080: 004e 903f d6c2 8c3e 0cbe b7be 9ab5 1cbf
00000090: aaa1 b7be 8681 8abe c39f 033f a359 21bf
000000a0: 2727 fabe 0c16 593f 3d15 833f 2a21 94be
000000b0: c91a c5bd 54c7 4f3e 9cca 923f e8c5 733f
000000c0: a9e7 8f3e a938 f63e 9e53 9bbc eef2 5dbc
000000d0: df78 1ebf 493a 42be bb22 2d3f 59d1 193f
000000e0: 66ad c8be e131 2f3f 50e1 6e3f 49ec 6f3d
000000f0: 006b 313f 8c88 2d3d 113c 1b3f f711 c5be
00000100: ebbd 91be 2cf6 18bf eee3 01bf 7694 263f
00000110: d61b 563f 8e44 bc3d a49f 453e c661 0e3e
00000120: 8696 00bf b31c 1f3f 6c66 7e3e 83b9 e13d
00000130: e9fc 3a3f 671f 13bf 8884 1d3f a427 473f
00000140: 7544 a23f 0abc 0e3f b819 603f 23e8 0d3f
00000150: ec7f 00bf ff58 a9be 2597 4b3f dfcd cebe
00000160: e26e 00bf 355c 333f e0b1 913f 0157 6f3e
00000170: 9cf9 cc3e ebd6 78be 26e7 4e3f 58b7 8e3e
00000180: 2c87 6e3e eca3 833f 809f 043f 4c6b 09bf
00000190: dfcf 8dbe 4cc0 133f 1cac e4be fa47 babe
000001a0: 2200 a23d e680 a5be 06dd c33c a9e7 003f
000001b0: 0635 dbbe 6b11 423f 8751 a3be 7fa3 533d
000001c0: 2f7f cabe 0d6d c23d 92a5 e1be 511b 9c3e
000001d0: 2f7d 03bf 1703 653e 3063 8c3f acd3 0a3f
000001e0: 83ce 383f 8b0a 323d aa96 1e3f 4a80 8b3c
000001f0: b356 13bf 0f6b 5b3e bee7 d73e 2c5f bebe
0.06309321 0.31201303 -0.38215116 0.8549286 1.0778644 0.1499644 -0.5443226 1.131308
0.41716114 0.7146745 -0.43626744 1.0632756 -0.4393224 -0.43310374 0.31117228 0.36562392
0.8021775 -0.4315252 -0.4855131 -0.26050276 0.27371508 0.22830349 1.1113118 -0.38150424
0.7813823 0.21889016 -0.3657904 -0.28850743 -0.6404487 0.9357028 -0.1504587 -0.039888028
1.1273804 0.27492398 -0.35887182 -0.612146 -0.35865527 -0.27051944 0.5141565 -0.630274
-0.48857996 0.84799266 1.0240856 -0.28931552 -0.096242495 0.20290881 1.1468081 0.95223856
0.2810643 0.48090103 -0.01896077 -0.0135466885 -0.61903185 -0.18967547 0.6763112 0.60085064
-0.39194793 0.68435484 0.9331255 0.05857495 0.69303894 0.04236655 0.6063853 -0.3849027
-0.28465208 -0.5975063 -0.5073842 0.65070283 0.83636224 0.09192763 0.1929918 0.13904485
-0.5022968 0.62153167 0.24843758 0.11021712 0.7304216 -0.5746979 0.6153035 0.7779486
1.2677141 0.55755675 0.87539244 0.5543234 -0.50195193 -0.3307571 0.79527503 -0.40391442
-0.50169194 0.7006257 1.1382408 0.23373033 0.40034187 -0.24300735 0.80821455 0.27874255
0.23293751 1.02844 0.5180588 -0.5367935 -0.27697656 0.57715297 -0.4466256 -0.3638304
0.079101816 -0.32324904 0.023909103 0.50353485 -0.4281389 0.7580783 -0.31898138 0.051669594
-0.39550158 0.09493456 -0.44071633 0.3048959 -0.5136289 0.2236446 1.096777 0.54229236
0.7219011 0.043467086 0.61948645 0.017028946 -0.5755417 0.21427558 0.42168993 -0.37181985

layer2.weight f4 [128, 128]
00000000: 1f11 d6bc ee4c 3bbc 5ad8 4d3d 578a 9bbc
00000010: b8ec 99bd 1c59 223d 6d94 9abc 9b4c 163d
00000020: e02c b83c dcaf 493d 7846 51bc 5c0d 6fbd
00000030: d9a0 96bd 0f48 073d 2f13 4bbd 83b4 9dbd
00000040: da5f a4bd c156 073d 76fa 26bd 456f 2ebd
00000050: e89c a6bd 4e45 73ba 87c7 10bd 6c7c 48bd
00000060: e3bf 82bc c1d4 423d 9faa 793c 2d8c 6bbc
00000070: 5b19 dc3c 9330 94bd a5e6 3cbc 431d 0e3d
00000080: 09c4 823d 3a36 9c3d b680 b7bc 24d6 82bd
00000090: 2154 17bc a61a 7d3d 352f 57bd 1214 5a3d
000000a0: a197 a73d 99d8 38bc 09c7 223b 39d3 163d
000000b0: e743 393b dc7b 503c 4761 58bd 0ba6 cdbc
000000c0: 21b0 92bd ac4d d1bc 4fe9 5f3c 7448 f23c
000000d0: 7522 633d a2a3 943d 1481 333d 8c5d 963d
000000e0: 3be9 893d 7dc9 a8bd c25b 5dbd 6fce 6fbd
000000f0: 4a10 22bd ce9d 1ebc 2349 513d 32a4 92bc
00000100: 0f72 1f3d 12c7 a3bd 8243 0a3c 5303 52bd
00000110: 716f c83a 7c57 fb3c 584a 71bd d852 c03c
00000120: 26da 623c a0bd 0dbd 0038 bebc 60b4 3cbd
00000130: 2cf7 9b3c 0193 febc 846f 493c f43f 7c3d
00000140: e7f6 0cbd 2515 993c 8efe 7dbd 4fd3 493d
00000150: 469e 8e3c 8562 b0bc 8068 113d 840f 263d
00000160: 547b 983c 4e0e 413d 5310 acbd da62 783d
00000170: 7171 4dbb abcb 3ebd 8eaf 4f3c 752d 5d39
00000180: 969a 3fbd deb2 6cbc 238d f63a b5e5 5d3d
00000190: 97d5 cb3c e4cb d33c b5c9 debc 3f33 633d
000001a0: 0784 dfbb 33d3 74bd e6cf 8bbc 35fb a7bc
000001b0: 0017 46bd d7b2 81bc 17ec 8e3c eea2 e1bc
000001c0: 171a 773c a9be acbc 76c5 9ebd 37f1 9a3d
000001d0: 64b8 273b 0582 b13c 03e4 9d3d 0a2d 0839
000001e0: be5a 5f3d e4f2 d0bc 0327 313d 11fc 6cbd
000001f0: 0880 103d 923a b73b 082d 4e3d 2ca4 45bd
00000200: b95b 29bc c934 90bd 81f3 9c3d e014 4ebd
00000210: 4055 a0bc 3b4f 333d 26bf ae3c 3d40 16bc
00000220: 006d c839 3b22 1dbd 1f2f 3a3d b7ed 96bd
00000230: f121 9ebd 37a9 68bd 53e2 7cbd 744d 213d
00000240: 0496 94bd 096c e6bc e150 073d 7e0a 25bc
00000250: ab95 b83c 8156 a4bd 70fa d1bc b831 59bd
00000260: be7a 9e3d 9883 38bc b1c9 8e3d d83f 153d
00000270: 04bd 03bd d1fe 7b3d bb93 063d a94f a03d
00000280: 2705 733d 6fe3 5a3d 09f5 e2bb 3d57 2e3d
00000290: 3e66 7f3c 1cd7 1f3d dd29 99bd c9bf fa3c
000002a0: 94f5 8e3a 13a3 85bd 5586 d3bb b2fa 493d
000002b0: 9a1a 9a3d 0b71 823d bb62 90bc 5bf8 9a3d
000002c0: e5cb d3bc 5787 a7bd 5c14 ec3b 7474 62bd
000002d0: 53f8 913b 209a 54bd 7f87 64bd 5884 a03d
000002e0: 08f1 30bd 3c92 a4bd 3ed7 9ab9 fd98 7c3d
000002f0: 10ec 373d 4061 a73d 162b 8cbc af14 f53b
00000300: 89b8 903c b2bb 91bd a6c1 a23c cdc9 e4bb
00000310: 89d2 8dbd 5781 8f3c 9c12 3ebd 4c2c 10bd
00000320: 0576 823d 0e33 81bd 9cd4 4b3d de46 dc3c
00000330: 7812 393d 0f10 473d ec00 263d 4ddd d7bb
00000340: 2ae2 90bd d3df 8a3d dbc9 a0bc fca2 0b3d
00000350: e0ff 543d cf26 8abc ac27 763c 2325 9abd
00000360: 3eea 583a fdb0 d43c 77b8 e23c 1995 4abd
00000370: 3e97 053c 3d1d ffbb b535 13bd d539 e5bb
00000380: 8d8d 173d e4fb 8b3c 09cf b73b fe86 693b
00000390: d787 8a3c fa1c 42bd 7ebe 2d3c 9062 9b3d
000003a0: 7493 863d 214b d13b b2b1 9abc 323c bd3c
000003b0: 6b2c 00bd 0838 f8bc bd61 4bbd 69dd 99bd
000003c0: 5995 9d3d 5e7b b4bc 7e0e 4c3c e221 873a
000003d0: 55fc 71bc a91c fc3c 8012 98bd 06cb 113d
000003e0: ef91 0ebd 392f 2c3d 8c6d ffbc 1669 12bd
000003f0: f1a5 49bd 69dd 11bc 990d 1bbc fb46 88bd
-0.02613121 -0.011431916 0.050255157 -0.018986864 -0.07515854 0.039635763 -0.018869603 0.03669415
0.022482336 0.04923998 -0.012773149 -0.05836235 -0.07354898 0.033027705 -0.04957884 -0.077004455
-0.08026095 0.03304172 -0.040766202 -0.042586584 -0.08135396 -0.00092800416 -0.035346534 -0.048946783
-0.01596064 0.04756618 0.015238433 -0.014376682 0.02686756 -0.07235827 -0.011529599 0.034695875
0.06385047 0.076275304 -0.022400241 -0.063885 -0.0092363665 0.061792992 -0.052535255 0.053241797
0.08183218 -0.01128211 0.0024837872 0.03682253 0.0028269233 0.012724843 -0.052827146 -0.02510359
-0.071625 -0.025549732 0.013666465 0.029575564 0.055452783 0.07257773 0.04382427 0.073420614
0.06733938 -0.08241556 -0.054042585 -0.05854648 -0.039566316 -0.009681178 0.05109514 -0.01790056
0.038927134 -0.07996954 0.008438947 -0.0512727 0.0015292001 0.030681364 -0.05890879 0.023477003
0.013845956 -0.03460467 -0.023220062 -0.046070457 0.01903876 -0.031075956 0.012294654 0.061584428
-0.034415152 0.01868684 -0.06201034 0.049273785 0.017409455 -0.021531353 0.03550005 0.04054214
0.018613495 0.047132783 -0.08401551 0.060641147 -0.0031348134 -0.04658095 0.012676133 0.00021093136
-0.046778284 -0.014446942 0.0018810373 0.054174144 0.024882121 0.025854059 -0.02719579 0.055468794
-0.006821159 -0.059771728 -0.017066907 -0.020505527 -0.04836178 -0.015832348 0.01744656 -0.027543511
0.015081904 -0.021087008 -0.077525064 0.07565539 0.0025592083 0.021668443 0.077095054 0.00012986749
0.054529898 -0.025506444 0.043250095 -0.057857577 0.03527835 0.005591699 0.050335914 -0.04825227
-0.01033681 -0.07041318 0.07663632 -0.050312877 -0.0195719 0.043776732 0.021331381 -0.009170589
0.00038228184 -0.038362723 0.045455094 -0.07369559 -0.077213176 -0.056802 -0.061739277 0.039380506
-0.07255176 -0.028127687 0.033036117 -0.010073302 0.022532305 -0.08024312 -0.025632113 -0.05302593
0.07738255 -0.011261843 0.06972063 0.03643784 -0.03216268 0.06152231 0.03285573 0.07827694
0.059331086 0.053439554 -0.006926183 0.042563666 0.015588341 0.039023504 -0.07478688 0.030609028
0.0010906928 -0.065252446 -0.0064552226 0.049311347 0.07524605 0.063692175 -0.017625203 0.07566901
-0.02585406 -0.08180111 0.0072045755 -0.05528684 0.0044546514 -0.051904798 -0.05579328 0.078377426
-0.043198615 -0.080357045 -0.00029533537 0.06166934 0.04490286 0.08172846 -0.017110389 0.0074792723
0.017666118 -0.07115878 0.01986773 -0.0069820643 -0.06924922 0.017517729 -0.046404466 -0.035198495
0.06370167 -0.06308566 0.049763307 0.02688926 0.04518363 0.0485993 0.040528223 -0.0065876604
-0.07074387 0.06780972 -0.019627502 0.03409098 0.052001834 -0.016864209 0.015024107 -0.075266145
0.0008274651 0.0259633 0.02767585 -0.049458597 0.008153735 -0.007785468 -0.03593989 -0.0069954195
0.037000228 0.017087884 0.0056093973 0.003563344 0.016910477 -0.047390915 0.010604499 0.07587159
0.06571093 0.00638713 -0.01888356 0.023099992 -0.03129236 -0.030300155 -0.049653757 -0.07512934
0.076945014 -0.022031482 0.012454627 0.001030978 -0.014769633 0.030775385 -0.074254036 0.03559401
-0.034807142 0.042037223 -0.031180166 -0.03574475 -0.04923052 -0.008902886 -0.009463691 -0.066541635

layer2.bias f4 [128]
00000000: a220 03bd 578e 963d 1d79 473d 4b7d 37bd
00000010: da82 833d 1083 bdbc 83e6 923e 3087 f13d
00000020: 4d4c 98ba 44ee 45bd c9c8 133c dff7 773c
00000030: ae30 40bd f042 61bd 0e16 8b3c 0930 223f
00000040: 4b9d 1f3c ade0 adbc e1fe 5abe 98ea f9bd
00000050: fe63 633b e9e5 a0bd 0ab4 c33d 37ac 803d
00000060: 191d 643d e44b 073e 8d50 1cbd 16e2 b83c
00000070: 90c2 1a3e 86b4 1a3d d5d0 6ebd 5fe7 363d
00000080: e8c9 4bbd 0d81 db3c 5968 313d 5681 343d
00000090: 0377 713d ca8d 43bb 3b7b b83e 7bc2 b83d
000000a0: e10a 77bc d9e7 603d 971f 17be f647 27bc
000000b0: 1553 803d be92 27bd 8d1f 01bd 22dc 5f3d
000000c0: 54f8 913d 9bd2 413d e4a2 953d 26ad 053e
000000d0: f797 14bd e7e3 98bd c5b0 803e 82d7 0e3e
000000e0: 7db9 4b3d 1558 843d f5ec 0bbe f640 5b3d
000000f0: 1ba7 bd3c 07b8 3dbd 4d1b 323d d6f1 a33d
00000100: 17a6 863d 8303 df3e 1d72 053d 8235 12bd
00000110: f2ab a3bb e6ab 803d 14bc 903d 45fd 76bc
00000120: cced 5ebd b10d 723d 1faf a63d b968 933e
00000130: 2a60 ad3c 7110 9a3d 043a ff3c 4845 8c3e
00000140: 91d3 7a3e c631 2ebc bbe3 543e 7278 333c
00000150: b0d0 f63c 57c0 a03c fc59 4c3c 3804 8f3d
00000160: ac6d 4b3e db97 17bd 4f72 be3e a88a fd3c
00000170: 45ff 063f 52ed 283b 02fd 7dbd 8467 253d
00000180: f726 aa3d f1e1 f93e 9c04 db3c 2e02 1cbd
00000190: 9461 483d 2487 6a3d c96f 46bd 855e 86be
000001a0: 9135 debc 0fb1 6abc dfb5 4bbd f4ad ef3e
000001b0: 0c11 963d 6aae 643e 8a96 bc3d b646 8dbd
000001c0: b46e d53c 08f3 3a3e 2347 6fbc 759c f23c
000001d0: e2f8 cc3c fdcb 47bd ba81 0c3d b386 063e
000001e0: dd0c 92bd 60bd 14bc 854a 873d 5dd8 ae3d
000001f0: b666 03bd ba0e b23d 693a db3b e970 493d
-0.032013543 0.07351368 0.048699487 -0.044797223 0.06421442 -0.023133785 0.2869149 0.11793363
-0.0011619419 -0.04832293 0.009020039 0.015134781 -0.046921425 -0.054995477 0.01697829 0.63354546
0.009742091 -0.021225298 -0.21386291 -0.12202948 0.003469705 -0.07856352 0.09555824 0.062828474
0.055691812 0.13212544 -0.038162757 0.022568744 0.15113282 0.037769817 -0.058304626 0.044654246
-0.0497531 0.026794935 0.043312404 0.044068657 0.05895139 -0.0029839152 0.36031517 0.09021469
-0.015078277 0.054908607 -0.14758144 -0.010210028 0.06265847 -0.04091143 -0.03152423 0.054653294
0.07127443 0.04731999 0.073064595 0.13054332 -0.036277737 -0.07465344 0.25134864 0.13949397
0.049737442 0.06462113 -0.1366461 0.05352875 0.023150971 -0.04631808 0.043483067 0.08005111
0.06574648 0.43557367 0.03257953 -0.03569556 -0.0049948627 0.06282787 0.07067123 -0.015075033
-0.054426 0.05909509 0.081388704 0.28790835 0.021164019 0.07522667 0.031155594 0.27396607
0.24494769 -0.010631984 0.20789997 0.010954009 0.030128807 0.019622965 0.012472626 0.069832265
0.19866055 -0.037010055 0.37196586 0.030949906 0.5273326 0.002577622 -0.062008865 0.040381923
0.08308213 0.48805192 0.026735596 -0.038088016 0.048921183 0.057257786 -0.04844645 -0.26243988
-0.027125152 -0.014324441 -0.049733993 0.46812403 0.0732747 0.22332159 0.092084005 -0.06898253
0.026053764 0.18256772 -0.014604363 0.02961562 0.02502102 -0.048778523 0.034303404 0.13137321
-0.0713136 -0.009078354 0.0660601 0.08537362 -0.032080375 0.08694215 0.0066903126 0.049179945

layer3.weight f4 [3, 128]
00000000: 1b6b 8abd 8431 57bd 7146 a33d 56a5 9bbd
00000010: 89ed 9cbd b85a 693d c121 7e3f 7ea3 0abf
00000020: f855 1ebd 2039 a6bd f85b 8bbd c1ce b8bd
00000030: c129 7dbc 5abb 73bd 4d21 85bc 41b0 59bf
00000040: c29d 03bf 0cf9 2bbd 3423 8b3f f9a8 b23f
00000050: 39ef 4e3d cbd8 ac3b a243 88be 5e3a 54be
00000060: a13a 5fbd 83c4 733f 9324 db3c 01b1 8bbb
00000070: 11d4 0040 deaf 1c3c e933 bf3c 4595 c4be
00000080: 274c 5c3d 1722 98bd 3668 0a3e abb4 29be
00000090: e119 3a3d 5894 61bd 2077 073f fc3f 293f
000000a0: b1ce c0be c67b 823c d491 703f d7b1 12be
000000b0: 783b cebe e04c c0bc 159a 26be 05d1 bdbe
000000c0: a5c6 9bbe 38ca d03e c8db 693d 3a06 27bf
000000d0: 078e 99bd 5394 aabc bc58 32bf 29fd 9c3f
000000e0: 89a5 333d 1341 4a3d b0f3 f33f dafa 123d
000000f0: bc38 76be 5b45 803d 38f0 89be d910 debe
00000100: 5b84 22bf 30b9 79be aefd a9be c5f7 1b3f
00000110: c53d 40bd cc12 023d cdf2 81be 222e a63c
00000120: a219 193c bbb3 c2be fa32 1abf fe62 2ebf
00000130: 8a97 7dbe e174 ccbe 06f4 26bd b612 38bf
00000140: 1ec0 873f d7a9 7dbe 7391 a13f d4d6 2abd
00000150: 0ad0 adbe 0730 8dbe 3da4 e2bf 4e65 e3be
00000160: 5ba7 a43f 21e5 17bd ba43 8e3f e99f d1be
00000170: 003d 113e e410 80bd 96a0 37bd 9b3b d23c
00000180: 237e e93f dc6b c4bd 1704 90bd cad1 48bd
00000190: 496f 8abe 7872 ff3b e56d bcbe c3f3 6b3f
000001a0: 88d5 a0bd 2d38 a3bd 94c6 a5be 9a81 b83d
000001b0: bcf8 bcbe 3154 4dbf acc3 92be 1a91 fa3c
000001c0: a5b0 a0bc 3983 993f c355 93be d9b8 83be
000001d0: 45fe 6dbd d784 fbbe ffb9 ce3c 74ee ff3f
000001e0: 7070 a53d 0771 513d 7739 61be f24b 9fbe
000001f0: 943b 1f3d 9b59 25be 63b2 96bd afef 89be
00000200: 10ff 933b a2d7 1e3d 9f50 073c 2f91 0a3d
00000210: 0891 673c b65e b9bc 7171 823f da88 ebbe
00000220: 4db6 8e3d f8c0 70bd 89fd 2cbd a0ed c5bd
00000230: 594d 283c 8aa8 9dbd dc79 b7bc d271 e7bb
00000240: 0416 0dbf 4270 b2bb 9bf5 863f add9 0f3f
00000250: 5aec a33d 76f9 853d 7886 13bf 0633 09bf
00000260: 8c4a 2dbd 89bb 5f3f 3ce2 973c 4d43 f1bc
00000270: 7eb1 1540 bacf 36bd 5736 3b3d 437d 13bf
00000280: c30d 213d 6b87 a0bd c543 9fbd b3ea f5be
00000290: c013 6d3d 537f 923d 1b17 0a3f 083e 313f
000002a0: 01c3 acbe 6a1a c1be 3035 733f 042b b9be
000002b0: e523 b6be 7a23 9e3c 0cec b6be 9198 efbe
000002c0: 662b dbbe afa8 13bf b20d d53b 9175 f3be
000002d0: 0809 e0be fe35 4abd 3bbc e5be 51db 9b3f
000002e0: e565 1f3d 8ac3 723d a55a 3a3f cce3 fe3c
000002f0: 123e d4be 8e52 4abc 782b f2be a66c d1be
00000300: 2b2f c8be 199a 773e 8673 00bf 269b ed3d
00000310: 013e 77bd 4fa2 8f3d 5f40 f0be 8188 80bd
00000320: 179c 663c dedf 0bbf f49b d7be bd1f 21bf
00000330: f3f5 babe d103 08bf 4f02 e63c 0927 edbe
00000340: b1ec 903f d42b 16bf 3664 9a3f 2c90 f8bb
00000350: 3448 07bf ab31 02bf cf05 9dbf 0564 0fbf
00000360: 89bb 983f ce64 3cbc 051c 693f 1ca5 cabe
00000370: 8778 e63e 3e3c 663c 9dc4 3d3d fb04 3abd
00000380: 2f67 e83f f187 ba3d 6b5e 8e3d 7b15 d83c
00000390: fd53 0dbf 6d31 863c 5bba 08bf 104b 503f
000003a0: d718 5e3d 6f8d 8fbd 4f4f fdbe 1b22 f63d
000003b0: b993 a9be bc65 133d 6bdf e3be 465e ae3c
000003c0: 6a72 ea3c 5899 8a3f a6a4 f8be 780c c1be
000003d0: 740d 9bbd 0ed7 0ebf c9fd 89be 94cf 0140
000003e0: b8fe 44bd 7862 6f3c b863 d6be 888a 04bf
000003f0: e656 403d 9464 02bf d4eb 7f3d 1571 a9be
-0.0675871 -0.052537456 0.0797242 -0.07599895 -0.07662494 0.05697128 0.99270254 -0.5415572
-0.038656205 -0.081163645 -0.06804651 -0.0902381 -0.015451849 -0.059504844 -0.01625123 -0.8503457
-0.51412594 -0.041985556 1.0870118 1.3957816 0.05052111 0.005274867 -0.266141 -0.2072539
-0.054499272 0.9522173 0.026750838 -0.004263044 2.0129435 0.009563414 0.023340182 -0.38395134
0.053783562 -0.07428377 0.13516316 -0.16572826 0.045434836 -0.055073112 0.52916145 0.6611326
-0.37657693 0.01592816 0.93972516 -0.14325653 -0.40279746 -0.023474157 -0.16269715 -0.37073532
-0.3042499 0.4077928 0.057094365 -0.65243876 -0.07497793 -0.02082268 -0.6966665 1.2264758
0.04385904 0.049378466 1.9058743 0.035883762 -0.2404508 0.062632285 -0.26941085 -0.4337223
-0.6348321 -0.2438705 -0.33201355 0.6092494 -0.046933908 0.031756207 -0.25380555 0.02028567
0.00934449 -0.38027748 -0.60234034 -0.681198 -0.24764839 -0.39932922 -0.040760063 -0.7190355
1.0605505 -0.2477182 1.2622513 -0.041708782 -0.33947784 -0.27575704 -1.7706372 -0.44413227
1.2863573 -0.03708375 1.1114419 -0.40942314 0.14183426 -0.06253222 -0.04483088 0.025663188
1.8241619 -0.09590885 -0.0703203 -0.049028195 -0.2703803 0.007795628 -0.36802593 0.92168826
-0.07853228 -0.07969699 -0.32378066 0.090090945 -0.3690852 -0.8020659 -0.2866491 0.030586768
-0.01961548 1.1993171 -0.28776368 -0.25726965 -0.05810382 -0.49124786 0.025235174 1.9994645
0.080780864 0.051133182 -0.21994577 -0.3111263 0.038875178 -0.16147463 -0.07358243 -0.26940677
0.00451649 0.038779862 0.008258968 0.033829864 0.014133699 -0.02262817 1.019087 -0.46002847
0.06968365 -0.05877778 -0.042233977 -0.09664464 0.010272347 -0.07698162 -0.022396974 -0.007063129
-0.5511172 -0.005445511 1.0543703 0.5619152 0.08004065 0.065417215 -0.5762706 -0.5359348
-0.04230742 0.8739553 0.018540494 -0.029451037 2.3389583 -0.044631697 0.04570612 -0.5761301
0.039319765 -0.07838329 -0.07776598 -0.48030624 0.057880163 0.071531914 0.53941506 0.6923528
-0.33742526 -0.37715465 0.9500303 -0.3616563 -0.3557426 0.019304026 -0.35726964 -0.46796086
-0.42806548 -0.57679266 0.0065018767 -0.47550634 -0.4375689 -0.049367897 -0.4487017 1.2176305
0.038915534 0.05926851 0.7279456 0.031114481 -0.41453606 -0.012348784 -0.4729879 -0.40903205
-0.39098486 0.24179877 -0.50176275 0.11601858 -0.060361866 0.0701338 -0.4692411 -0.06276036
0.014075301 -0.5463847 -0.4211117 -0.62939054 -0.3651577 -0.53130823 0.028077273 -0.46318844
1.1322232 -0.58660626 1.2061832 -0.007585546 -0.5284455 -0.5085704 -1.2267398 -0.5601199
1.1932231 -0.011498643 0.9105838 -0.39579093 0.4501383 0.014052449 0.046330083 -0.045414906
1.8156489 0.0910796 0.069516025 0.02637743 -0.5520628 0.01638099 -0.53409356 0.81364536
0.054222908 -0.07009398 -0.4947457 0.12018224 -0.33120516 0.035985693 -0.44506392 0.021285187
0.02861901 1.0828047 -0.48563117 -0.37704825 -0.07570925 -0.557969 -0.26951435 2.0282946
-0.04809448 0.014610879 -0.41872954 -0.5177388 0.046957873 -0.5093472 0.062480763 -0.33094087

layer3.bias f4 [3]
00000000: 9b94 b4bb 619f cfbb f541 a93e
-0.005510879 -0.006336138 0.33058134
