DQN_target_net_Pendulum.pt (torch, 97512 bytes, 6 tensors)

linear_relu_stack.0.weight f4 [128, 3]
00000000: 6964 f0be 3de9 233f a959 3c3e a2af 2fbf
00000010: 8f6f 383f 9b2a 263e 1f4d 2bbe e0c4 773f
00000020: d3c9 363e 8131 88bf 0aef 4ebf e573 b8be
00000030: d347 87bf 9a2d 52bf c644 93be df54 86bf
00000040: 33f2 74bf 4cff abbe 0d3a c23e fc47 74bf
00000050: 9f01 5ebe bc49 25bf cddd 603f a415 e43d
00000060: 262d 9f3e b147 9f3f e787 2bbe ee7e 02bf
00000070: f772 27bf 884d a23d d723 a33e af4d 71bf
00000080: dba9 47be 169a b0be 5b4c 223f 4290 8d3e
00000090: cb09 bcbe 79a2 583f 51e5 5c3e 735d 433e
000000a0: 9e12 963e d388 e23c 9c91 9f3e f145 7d3d
000000b0: 7ae3 0dbe cf82 853e ccd2 893e a7a1 7f3d
000000c0: 4f42 53bf 9738 a03e 9e99 913e 2472 183c
000000d0: 0620 e73e 167b d13c 3eff 81be d08d 9e3e
000000e0: 5ded 753e 7ed4 b53e 3a04 963c 8d29 37bf
000000f0: edd9 fa3e 3d78 7ebf 4d96 80be 5e59 44bf
00000100: 6122 a43f f4db ba3e a069 88bd 827f 1a3e
00000110: 8acb aabe 0663 9a3e df7e 253e 6121 b33a
00000120: 032a e53e 0cbf 73bf 1c27 86be d4b1 25bf
00000130: e642 0fbf d994 36be fc71 d4bb 557f 88bc
00000140: 3a2e a63e 0674 32bf 618f 42bf 8625 33be
00000150: c06b 703e d284 c7be 7af1 893c 3365 c3be
00000160: d06f 30bf c63d 85be 54df 04bf 3a72 a63e
00000170: 6349 31be 0557 9bbf b07c 54bf 5a1e d7be
00000180: 713b 13bf 0778 9dbf bbc0 6cbe 8b63 a7be
00000190: e084 48be 51f9 863e a88d 50be 0df5 ed3e
000001a0: 32de b4be 2cad 17bd 51c6 013e e08b fb3c
000001b0: 68fe fdbe ecd4 76be ab6c 3bbe 8fe1 f5bc
000001c0: 653f 58bd 6b39 fa3e 999e bd3e 95bd 893f
000001d0: 9d40 203e d581 23be 1057 95bd d72d e23d
000001e0: 59fc 06bf 3bf5 a4be d13e 50be 813e 17bf
000001f0: 159d aa3e 399e 4f3e 8fa0 853e 504a c8be
00000200: c5fa 883a 5634 643e 2c33 e63e 34c3 963b
00000210: 62b4 003e b4b4 ee3b a710 70bf c974 c0be
00000220: f7bd ed3e 958e 0f3e b8e0 a43e 1cca 1a3e
00000230: 44ea 063f 235e 8bbe ab56 c9be e005 ae3d
00000240: 639d 55bf 19a8 8abf 8770 a3be 2142 1a3f
00000250: 7424 aa3f fa7e ac3e bd6a 28bf 861c ef3e
00000260: 1ae1 543e bab2 aabe 4aa5 5ebe 5c60 4c3e
00000270: 23a1 19bf f20c d0be e991 68be 0f0e 993e
00000280: 0a64 95bf f88d 48be c8b4 653e fff2 7dbf
00000290: baaa 1cbe e902 38bf 91c8 243f 17a4 293e
000002a0: 387b 59bf 9c79 8abf cfa9 8dbe 0d6e ccbd
000002b0: 5cd1 813f a27b 373e ae7b 74bf 291d 373f
000002c0: 40f8 9b3e 6f87 0d3f fcec 5fbf 3777 cfbd
000002d0: 758a 373f 93de 303d 7c92 d3bd 84e5 92be
000002e0: d1a2 d5be 3464 8b3d c4a7 ea3e de16 06be
000002f0: c499 8dbe 50af cbbe 8713 08bf ab52 2a3d
00000300: 3490 4d3e f821 c6bc fbbe 01be 2f57 67bf
00000310: 18a2 c73c 5d4f babd 7a65 49bf 72d8 0cbf
00000320: 206a 89be aaff 3cbf d2e8 febe 8586 83be
00000330: 4a5d e3be 5e18 4a3f 9391 573e c91e 82be
00000340: 688f c2be 5824 0e3d ee07 21bf 58fb d6be
00000350: a117 77be 536e 863e 073e 4ebf 8208 5cbe
00000360: a159 d73d f0c4 393d 25f9 9b3e 8f47 1dbf
00000370: 3f18 463e 0ba2 5f3e bfc2 503f 3cbc 2bbf
00000380: c9f8 82be 6059 293e 3454 e3be 0d3c 1e3c
00000390: 2274 89be 7661 a03d 3f4a a3be a341 bebd
000003a0: 8985 97bd dc52 b83d 49b2 a43e ce13 d8be
000003b0: 599e 76be 20da b93e 9335 9a3d 42b2 2c3c
000003c0: a89d c1be 7f38 99bf 191d 76be 1fe5 0fbf
000003d0: aaa1 9c3e 9f11 313e 4729 673f af40 e63c
000003e0: debd 8fbc 269e aa3c 43b2 e5bd 169c 643d
000003f0: ce3e 8d3e be3a 86bf a27e 7539 4669 c0be
-0.46951607 0.6402777 0.18393578 -0.6862737 0.72045225 0.1622719 -0.16728638 0.9678478
0.17850427 -1.0640107 -0.80833495 -0.3602592 -1.0568794 -0.8210083 -0.28763407 -1.0494651
-0.95682067 -0.33593214 0.37934914 -0.9542234 -0.21680306 -0.64565635 0.8783844 0.1113694
0.31089133 1.2443753 -0.16751061 -0.5097493 -0.654098 0.07924944 0.3186328 -0.9425916
-0.19498388 -0.34492558 0.6339776 0.27649122 -0.3672622 0.84622914 0.21571852 0.19078617
0.2931108 0.027653133 0.3116578 0.06183428 -0.13856307 0.26076362 0.26918638 0.062410023
-0.82523054 0.31293175 0.28437513 0.009304557 0.4514162 0.025571387 -0.25390047 0.3096757
0.24016328 0.3551368 0.018312562 -0.71547776 0.4899439 -0.9940222 -0.2511467 -0.76698864
1.2822992 0.36495936 -0.06660771 0.15087703 -0.33358413 0.30153674 0.16161679 0.0013666564
0.44758615 -0.9521339 -0.26201713 -0.6472447 -0.55961454 -0.17830218 -0.0064833146 -0.01666228
0.32457143 -0.6970829 -0.7600003 -0.17494783 0.23478603 -0.3896852 0.016838778 -0.38163146
-0.6892061 -0.26023692 -0.5190327 0.32509023 -0.17313151 -1.2135931 -0.8300276 -0.42015344
-0.57512575 -1.2302254 -0.23120396 -0.32693133 -0.19581938 0.26362088 -0.20366538 0.4647602
-0.35325772 -0.037030384 0.12673308 0.030706346 -0.4960816 -0.24104661 -0.18303172 -0.030014781
-0.052794833 0.4887193 0.37035063 1.0760981 0.15649648 -0.15967496 -0.072919965 0.110438995
-0.527288 -0.32218346 -0.20336463 -0.5907975 0.3332297 0.20275201 0.2609906 -0.39119196
0.0010450712 0.2228559 0.44960916 0.0046009067 0.1256881 0.007284725 -0.9377541 -0.375891
0.46433994 0.14019234 0.32202697 0.15116161 0.5270121 -0.27220258 -0.39323935 0.08497214
-0.8344328 -1.0832549 -0.3192179 0.60257155 1.3292375 0.33690625 -0.6578787 0.4670145
0.20788994 -0.33339483 -0.2174274 0.19958633 -0.600115 -0.40634876 -0.2271191 0.29893538
-1.1671154 -0.19585407 0.22432244 -0.9919891 -0.15299502 -0.7187944 0.6436854 0.16566502
-0.8495364 -1.0818362 -0.27668616 -0.09981928 1.0142016 0.17918256 -0.9550122 0.7152887
0.30462837 0.5528478 -0.87470984 -0.1013016 0.71695644 0.043181013 -0.10330674 -0.28690732
-0.41725782 0.068062216 0.4583112 -0.1309466 -0.27656376 -0.3978219 -0.53154796 0.041582745
0.2007454 -0.02418612 -0.1267051 -0.90367407 0.024369285 -0.090971686 -0.78670466 -0.5501777
-0.2683878 -0.7382761 -0.49787003 -0.25688568 -0.4440711 0.7894343 0.21051626 -0.25414112
-0.38000035 0.03470263 -0.62902725 -0.41988635 -0.24130107 0.26256046 -0.80563396 -0.2148762
0.10515142 0.04535383 0.3046352 -0.61437315 0.19345187 0.21839158 0.8154716 -0.670841
-0.25580433 0.16538 -0.4440018 0.009657872 -0.26846415 0.07831089 -0.31892583 -0.09289863
-0.07398517 0.09000179 0.3216727 -0.4220261 -0.24083842 0.3629923 0.0752975 0.010540547
-0.37815595 -1.1970366 -0.24034537 -0.56208986 0.3059209 0.17291878 0.9029736 0.028107015
-0.01754659 0.020827364 -0.11215641 0.055812918 0.2758698 -1.0486677 0.00023412195 -0.37580317

linear_relu_stack.0.bias f4 [128]
00000000: 5d7a a33e 4823 0e3f d834 133e 766b 223e
00000010: e94d 543f 87ef c93c ddbb a53e 6843 233f
00000020: 1261 9e3e d76a d03e 2b67 b93e 5469 9abe
00000030: cc86 713e a0d4 b33e 800d 43be fd9b b03e
00000040: af73 a93e e02f f33e 843b 59be fe5b 0d3e
00000050: 239a 933e 302d 96be de1e d1be cb8b c83e
00000060: a4ab 9d3e be78 f63e 09a3 80be 792c fc3e
00000070: 57c1 fc3e effa 6fbe a1b2 a23e 3c05 873e
00000080: 17ea f1be f018 10bf b790 19bf dbd6 f53e
00000090: ad48 0c3f 7660 9bbe 3034 033f 3617 183f
000000a0: 7706 143f d081 1a3f 57c9 f13e 353f 063f
000000b0: b127 b53e 2c9d 843e 8d93 753e 571e b53e
000000c0: 328b fb3e 3d2c 51be 8b67 113f c333 0abf
000000d0: bddb 193f 1d42 e5be e675 f83e 3bfe 0d3f
000000e0: 356e 56be 2926 f53d 69dc dd3d 81af 25bf
000000f0: 9449 843d 2894 a53e 656c 053f 0461 a93e
00000100: a576 833d 7505 91be a383 293f 23db 243f
00000110: 48c4 983e 69fa 7e3e b2d4 263f 6d6b d8bd
00000120: e11b 0d3f 1c78 993e 3de4 20bf 23a1 f73e
00000130: 4114 07bf edee 013f aa73 aa3e e58b e83e
00000140: 0f35 553e 4f4d 023f dc02 ca3e 311e f83e
00000150: 2256 9e3e e72d 8fbe 734a 8b3e f345 31bc
00000160: 59f0 26bd 100b 083e 29d2 e93b 363e b33e
00000170: 693a 4a3f 8c3e f1be 54ab fa3e 7273 153f
00000180: ee74 8d3e 2aee ba3e b0ab 043f ca1c d53e
00000190: cbeb d63e d7c2 e23e 24b0 b93e 63cc 27be
000001a0: a2ef 863e d8cb 063f c14e 2b3c be9e d13d
000001b0: 00a8 243f 22cf 473e 687a 023e a98b 063f
000001c0: c0d1 d63e 054e bebe 86bf 223f a4ba 14be
000001d0: 590c db3e a923 a93c b1aa b73e 3f98 3b3d
000001e0: 46ff ea3e bf3e cc3e 78d2 f5ba 7231 c93e
000001f0: 3595 94be 8877 cb3e 19f1 d13e b60c edbe
0.31929293 0.55522585 0.14375627 0.15861306 0.8293138 0.024650348 0.3236989 0.6377473
0.30933434 0.40706512 0.36211523 -0.30158484 0.23586577 0.35123158 -0.19048119 0.3449401
0.33096072 0.47497463 -0.2121411 0.13804623 0.28828534 -0.2933135 -0.40843862 0.39169154
0.30795014 0.48138994 -0.25124386 0.4925268 0.49366257 -0.23435567 0.31776908 0.2637118
-0.4724891 -0.5628805 -0.5998644 0.48015484 0.54798394 -0.3034703 0.51251507 0.5941042
0.57822365 0.6035433 0.47223923 0.52440196 0.35381845 0.25901163 0.23982067 0.3537471
0.49129635 -0.20427032 0.5679862 -0.5398523 0.6010092 -0.44777003 0.4852745 0.5546605
-0.20940478 0.11970169 0.108330555 -0.6472092 0.064593464 0.32339597 0.5211852 0.3308183
0.06419114 -0.28324476 0.66216487 0.64396876 0.2983725 0.24900211 0.651683 -0.10567365
0.55120665 0.2997445 -0.62848264 0.48365125 -0.5276528 0.50755197 0.3329137 0.4541923
0.20821021 0.50899214 0.39455307 0.48460534 0.3092509 -0.27964708 0.27205238 -0.0108199
-0.040756557 0.1328547 0.0071356487 0.350084 0.78995377 -0.47118032 0.48958838 0.5837928
0.27628273 0.3650983 0.51824474 0.41623527 0.4197677 0.44289276 0.36267197 -0.16386561
0.263547 0.5265479 0.010455788 0.10235356 0.6431885 0.19512609 0.12742007 0.52556854
0.41956902 -0.371689 0.6357349 -0.14524323 0.42782858 0.020646887 0.35872415 0.04579949
0.45897883 0.3989162 -0.0018754741 0.39295536 -0.29020086 0.39739633 0.41004255 -0.4629876

linear_relu_stack.2.weight f4 [128, 128]
00000000: 7012 a33e d1b7 a63e a5e3 b23e 167d 1dbf
00000010: 54de 013f 8acd 15bf bbc1 14bf 9968 c43e
00000020: 6fe5 0ebf 4041 4f3d 2f9a f6be a960 a7be
00000030: cf90 8e3e bcc0 d53d 9a7b 42bd 51a5 0f3e
00000040: 0069 94be 1e8c bc3d e4f3 b6be 90cd 89be
00000050: 8742 06bf 2f6d 22bf 96b6 d2be 418f 253e
00000060: 15d9 adbe 3d99 e43e 7719 a7be 0821 fd3e
00000070: 1cfd f23d 82c8 17bf 8026 5b3e 4ad0 dbbe
00000080: 684e 37bf 7a87 d2be f418 b4be 84ad 4b3b
00000090: cf73 9e3e a8f2 52be db60 e3be f5c5 143e
000000a0: b2a2 093f 657c c33e 376d 733d 5740 703c
000000b0: e077 9dbe df28 633e d0c0 10be c1f1 503d
000000c0: 22da 753e 8cb2 803e e20a a83e ae24 f2be
000000d0: 2ff4 9f3e f974 903e 8046 dabe 35b0 9f3e
000000e0: 63cf 2ebf add8 ad3e 6df2 a6be 2c5c 443f
000000f0: 7b3f 983e 123a 033e ac57 63be a8fb 2a3e
00000100: e14c 0d3d 3e36 c43e a34c e73e fcdf f53e
00000110: 9cec a23e d5f3 4b3e c6c9 033f 49c1 353e
00000120: 0aad 28be 7f16 1fbe fa22 503f 9865 ef3d
00000130: 287c dabe 8a70 ce3d 8311 83bd e783 4b3e
00000140: 5192 973e ab83 3f3e 253a fc3e 161d 6b3d
00000150: 75ed cebe 03c7 a3be b32a 513e ec0b 9f3e
00000160: 4504 2abe c7f6 55be 152f 21bc e7c9 b7be
00000170: b1a4 f63e 7052 9cbe 598e 3f3d 0436 d43e
00000180: e0ea 2e3e 6b24 92bd ecc5 933e 6ca2 b63e
00000190: 3c62 aa3d 0b25 f33e 7a96 883c f38e a33d
000001a0: 0b90 efbe 8bfd 713e a777 08be bd8f 153d
000001b0: ab01 883e eb60 6cbe 8e74 a53e 128f ac3e
000001c0: ddf6 923e 5f7c 1abf 79c7 e13e d1dc 1bbf
000001d0: 5aa6 06be 1b61 cbbe 0c06 553e 9382 5fbd
000001e0: 9197 d73e 2fd4 b13e 59ed d93e a02f 983e
000001f0: 420f 81be 1472 8e3e 09ef 873e addd 9cbe
00000200: f093 be3e 2da6 d13e b970 cf3e 7de6 07bf
00000210: 974d b53e 628d e2be 58bf c6be 71f0 d33e
00000220: face fdbe b23e 723e 5d36 b8be 6c8c 32be
00000230: 4411 ca3e c1c9 033e 33b0 973c 2728 c43d
00000240: 4e93 56be 1d90 b43d 84d9 37be b243 2ebe
00000250: 340c cbbe 2e01 fcbe ef8c abbe da42 273e
00000260: 798f 38be c8c7 c63e 8d7a 2dbe ad98 e13e
00000270: 7637 193e 953e f1be 06cf de3d 36f8 c7be
00000280: 6951 0abf 0b8f 6dbe 9977 cebe 90f7 803d
00000290: 0791 833e f76d a5bd 4cf5 c5be f907 5f3e
000002a0: c66b d73e 3f67 063f fe8b cb3d ce56 073c
000002b0: 5f66 65be b79d a43e 8b53 e7bd 476c 163e
000002c0: 4199 693e 9afb b43e 2864 cb3e 8667 c2be
000002d0: 4372 733e 7c37 033f 8ff4 9ebe 6122 c53e
000002e0: ac33 0ebf f09b ec3e 7d9b 8dbe 6b83 603f
000002f0: 1261 bb3e 08eb 8b3e a295 05be b772 923e
00000300: 5e0d ae3d 2c7a 213e c281 b83e 498c c23e
00000310: ad1c aa3e 8c84 a63e 3321 ba3e 61f1 883e
00000320: f2c7 80bd 5704 a0bd c1a1 623f 80a7 4c3e
00000330: cfd9 debe ecaa 023e a6f5 f7bc efcf 373e
00000340: 5b33 b63e ea31 9c3e f622 063f 31d3 ea3d
00000350: c722 8fbe 0195 8abe 3026 f43d 4b6b b13d
00000360: 8d13 6dbd 1d7f 4cbe ab9e aebd cf27 aebe
00000370: 7895 a93e 82bf 35be c503 803d ac24 ad3e
00000380: 4b6e 5f3e b43c d7bd a8ae c33e 48b3 ab3e
00000390: bc29 143e 068b cf3e 83ec 273e 857c 963d
000003a0: ead2 c1be b2c1 4d3e 6e61 abbd 65b8 1a3d
000003b0: 2e4d c93e 6972 16be 70e9 ca3e 8511 8c3e
000003c0: 87a1 bb3e b73a d0be 013b b43e f616 11bf
000003d0: 54ab 06bd 64af 93be b1ad af3e 9d72 343d
000003e0: 8e2d b43e cd4b a33e c113 143f 462f 6d3e
000003f0: f008 5dbe dbd0 233e 5e52 bf3e 8b17 81be
0.31850004 0.32562116 0.34939304 -0.6151899 0.5072987 -0.5851675 -0.5810811 0.38361052
-0.5581884 0.050599337 -0.48164508 -0.32690933 0.27844855 0.10437152 -0.047481157 0.14027907
-0.2898636 0.09206413 -0.3573295 -0.26914644 -0.5244526 -0.6344785 -0.41154927 0.16167928
-0.33954683 0.44648162 -0.32636616 0.49439263 0.11864683 -0.59290326 0.21401405 -0.4293235
-0.71604013 -0.41118985 -0.35175288 0.0031078765 0.3094773 -0.20600379 -0.44409832 0.1452864
0.5376388 0.38180843 0.059430327 0.014663777 -0.3075552 0.2218356 -0.14136052 0.051011804
0.24008992 0.2513622 0.32820803 -0.4729361 0.31240985 0.28214243 -0.42631912 0.31189123
-0.68285197 0.33954373 -0.3260683 0.76703143 0.29735932 0.12815121 -0.22201413 0.16697562
0.034497146 0.38322634 0.45175657 0.4802245 0.31821144 0.19917233 0.51479757 0.17749514
-0.16472259 -0.15535925 0.8130337 0.11689299 -0.4267285 0.10080059 -0.063998245 0.19874536
0.29603818 0.18702571 0.4926311 0.057400785 -0.4041554 -0.3198777 0.20426445 0.31063783
-0.16603191 -0.2089492 -0.009837885 -0.35896227 0.48172525 -0.30531645 0.046766613 0.4144746
0.17081785 -0.071358524 0.2886194 0.35670793 0.08319518 0.474892 0.016673315 0.0798625
-0.46789584 0.23631875 -0.13326894 0.036514033 0.26563773 -0.23083846 0.32315487 0.33702904
0.28703967 -0.60346025 0.44097498 -0.60883814 -0.13149396 -0.39722523 0.20803088 -0.054567885
0.42107823 0.34732196 0.42563894 0.29723835 -0.25206953 0.2782141 0.26549557 -0.30637875
0.37222242 0.40947095 0.40515688 -0.5308607 0.3541076 -0.44248492 -0.3881786 0.4139438
-0.49571973 0.23656729 -0.35978976 -0.17436379 0.39466298 0.12869932 0.018516636 0.09577971
-0.2095463 0.0881655 -0.1795407 -0.17018011 -0.39657748 -0.4921965 -0.3350596 0.16334096
-0.1802348 0.38824296 -0.1694128 0.44061795 0.14962563 -0.4711806 0.1087933 -0.39056557
-0.5403047 -0.23199098 -0.4032562 0.06297219 0.25696585 -0.08077615 -0.3866371 0.21780385
0.42074412 0.5250129 0.09938811 0.008260442 -0.22402333 0.32151577 -0.112952314 0.14689742
0.22812368 0.35348207 0.3972485 -0.37969607 0.23774056 0.5125654 -0.31045958 0.38502792
-0.55547595 0.4621272 -0.2765769 0.8770053 0.36597496 0.27327752 -0.13045362 0.28603145
0.08498643 0.15769261 0.36036497 0.37997654 0.33225003 0.32523 0.36353454 0.26746657
-0.062881365 -0.07813328 0.88528067 0.19985771 -0.4352555 0.12760514 -0.030268501 0.17950414
0.35586056 0.3050683 0.52397096 0.11466063 -0.2795622 -0.27066806 0.11921346 0.08663043
-0.057879973 -0.19970365 -0.08526357 -0.34014747 0.33121848 -0.17748836 0.06250719 0.3381704
0.21819417 -0.10509625 0.3821919 0.33535218 0.14469045 0.40535754 0.16398816 0.07347969
-0.37856227 0.2009342 -0.083681926 0.03777351 0.39316696 -0.14692082 0.39631224 0.27357116
0.36646673 -0.40669796 0.35201266 -0.5667566 -0.032878235 -0.2884475 0.34312204 0.044054616
0.35191005 0.3189377 0.5784264 0.23162565 -0.2158544 0.15997641 0.3736753 -0.25213274

linear_relu_stack.2.bias f4 [128]
00000000: 646c 113e 4a3c 1f3e 1f3f 0f3d ce40 a33e
00000010: 4e7d 2d3e 56d8 023e 9380 923e a4d9 153e
00000020: bc81 a3bd 8d20 a63d 6a94 b63d 25e8 cebc
00000030: caf0 083e 10f4 f23d 76ab a03d 2c09 ab3d
00000040: 1f91 8d3e 1fbc 943e 783d 3e3c bd57 863d
00000050: f72d a23d 24a6 303e 42ea 213e 4c5a 863e
00000060: d058 113e cd02 4cbd 61cd 9c3e 0ec1 1dbe
00000070: 6bac 5b3f 3fcf 553d f0d5 03bd 89ad 643d
00000080: f120 113f 2013 7b3d c68a 623e e393 d83e
00000090: de99 8b3d a28d 6d3e 504a 943d 406f 3d3e
000000a0: 4009 9c3e 5df8 223e cc68 d33d c942 f33d
000000b0: df23 a03d f3ad 43bc f2c7 893e c17c 993d
000000c0: 1530 3c3e a17a 7dbb 7ffa cb3d b32d 6b3d
000000d0: 0281 b73d 1618 af3d 584c 3d3e 25c3 463e
000000e0: 06e6 abbd 5606 123e 1eb9 783e cf85 09bc
000000f0: 72bd df3d 8cff 473e 26a7 c33d 9236 ed3e
00000100: 22b3 903e c935 ef3d ace5 e23d 1830 933e
00000110: d158 a43e 6943 e53d 2df6 983e 5f76 263f
00000120: 69fa af3d d502 ee3d 3626 8c3e 8c9f 443f
00000130: 1b08 723e 46d5 b73e 1b00 7cbd 12e6 433e
00000140: 4448 5c3d cad1 833e dff6 d83e 1c46 b83d
00000150: 5f5e 693e 30d2 123e 24f0 853d 3d7a 0fbd
00000160: 6a6d 593e 55f8 303e dcb7 263d 7b0d a43d
00000170: 4bde 0a3e 9514 143e be31 2c3e ce7c b33d
00000180: 629a 29be fc9a 8d3e bad1 a73e a704 323e
00000190: 0877 493d 34db 7f3e 14be 5f3e 2306 c93d
000001a0: f616 983e 5cb3 b03e f32a cb3d 120e d93d
000001b0: 4f2d 41b9 3f1b 9d3d 680e 213e 1870 b03d
000001c0: a4ce a03c ded0 b13d 0240 1b3e 6a94 313e
000001d0: e55b 343e 04d5 f43d a925 8b3e 579b ff3d
000001e0: 45b3 5fbc 8541 a33e 20f7 aa3e 8df3 9d3e
000001f0: a630 fb3d bd13 e53d 0a9d 633e 6d35 c73d
0.14201504 0.15550342 0.034972306 0.3188538 0.16942331 0.12777838 0.2861372 0.14633805
-0.07983729 0.08111677 0.089150265 -0.02525718 0.13373104 0.118629575 0.078452036 0.08351359
0.2764978 0.29049775 0.011611335 0.065597035 0.07918923 0.17250878 0.15812019 0.26240766
0.14194036 -0.04980736 0.30625442 -0.15405676 0.85809964 0.0521996 -0.03218645 0.05582956
0.5669089 0.061297536 0.2212325 0.4230033 0.06816457 0.2319856 0.072407365 0.1849947
0.30475807 0.15915056 0.10322723 0.11877973 0.07819342 -0.011943328 0.2691036 0.07494498
0.18377717 -0.003867783 0.09959888 0.05741663 0.08960153 0.08549516 0.18486154 0.19410379
-0.08393483 0.1426023 0.24289367 -0.008393719 0.10924806 0.19531077 0.095533654 0.46330696
0.28261667 0.116801806 0.11078963 0.2874763 0.32099012 0.11194498 0.29875317 0.6502437
0.08592684 0.11621634 0.27372903 0.7680595 0.23635904 0.35904902 -0.061523538 0.19130734
0.053779855 0.25745994 0.42375848 0.08997747 0.22789906 0.14337993 0.06539944 -0.035028685
0.21233144 0.17282231 0.040702686 0.08010384 0.1356136 0.14460976 0.1681585 0.08764039
-0.16562799 0.27657306 0.32777196 0.17384587 0.049185783 0.24985963 0.21849853 0.098156236
0.29705018 0.3451184 0.09920301 0.10598387 -0.00018422793 0.076712124 0.15728152 0.0861513
0.019629784 0.086824164 0.15161136 0.17341772 0.1761318 0.11954692 0.2717717 0.124808006
-0.013653581 0.31885925 0.33391666 0.30849877 0.12265138 0.111854054 0.22227874 0.09726987

linear_relu_stack.4.weight f4 [51, 128]
00000000: 58ea bebd dc62 1fbe 7090 1fbe 998f 5fbe
00000010: 56ac 68be 89d5 0abe 678f f0bd f00d 22be
00000020: db0a 093f 5630 55bd f6e9 05be 57ee e23c
00000030: 5fa4 12be 62b3 39be 46f8 dbbd 0173 a8bd
00000040: 4f4c 74be 7ddf 68be 9790 10be de7f 42be
00000050: e28d 11be a9a6 c33d 8a1d 973d 6992 43be
00000060: a51f c5bd 4f65 5b3d 71ed 05be 2b5d 963e
00000070: 9256 153d e6fb dcbd c6c3 2bbe 1ccc c5bd
00000080: 7f67 b1bd f3f3 8cbb da51 62be b14d 5bbf
00000090: 6a86 18be 36ae 33be 5b5c 2bbe c8c6 2dbe
000000a0: 0946 88be 9dd6 b5bd d07c 03be ec10 3abe
000000b0: 692c c1bd d1c3 c4bc 42a1 74be 4e38 39be
000000c0: fc33 24be 6259 d63c dc28 d1bd 1526 0abe
000000d0: 2c7a 1cbe e6ed d2bd ec9e 21be cf5e dfbd
000000e0: 7040 8cbf fddd 1cbe 18c0 fdbd 0977 0bbe
000000f0: a644 27be ba27 33bd 7917 f5bd 6974 f5bd
00000100: c03a 4dbe de76 0fbe 0d7f 41be 4fc3 7abe
00000110: 3559 93bd 309e 0bbe 9cc5 3abe 7311 983e
00000120: 973b a0bd 4bf6 09be 3b33 46be ae47 ff3d
00000130: e9a6 27be a645 54be 1cf1 12bf 4023 29be
00000140: a16f f8bd a48d 1abe 767d c33e 252f e3bd
00000150: cdb3 833c cb28 dbbd f760 c3bd a43e 6a3e
00000160: b6af 48be e829 25be 1f17 bebd 0e9d 42be
00000170: ccbc 20bd 793e e1bd 1bbc 3fbe c850 10be
00000180: dbfd ee3e 60d4 63be 6afe 6bbe 56bb 1abe
00000190: 2f6b b7bd 8b97 d93d 5b39 4abe 674c c5bd
000001a0: d07b 133e 3dbf 72be 9332 efbd 5c35 00be
000001b0: bf53 1ebe 0eba efbd e790 27bf c60b f2bd
000001c0: 37a4 af3b f68a 0bbe 2dec eabd 8d77 9ebd
000001d0: a499 e1bd e029 d0bd 2304 26be d640 34be
000001e0: 983a 27be 7af3 bdbf b33f 4bbe 424a 5fbe
000001f0: 0d7a 53be 1d49 17be 0892 61be cc18 f3bd
00000200: a6ec 1ebe e432 12be d785 2fbe 7d96 3abe
00000210: d4db 56be 899c 5ebe 3ec3 30be 0340 49be
00000220: 8425 743e ce5b 113d 4b24 51be 6a1f 78bc
00000230: 73e4 05be 1b48 36be 978c 12be 3066 4cbe
00000240: 987a fbbd f423 33be 2417 3dbe 715a 42be
00000250: 065a 11be 52b0 5d3e 475d 103e d593 5ebe
00000260: 3be0 09be 2177 32bd 27ed 57be f80d be3e
00000270: 6fd4 583f 57f3 23be ee54 33be 7f50 2abe
00000280: f428 70be 7ce9 5d3c c684 19be 5f48 e33d
00000290: 74b1 2fbe c8ed 42be d80d 19be 56c2 49be
000002a0: 0bbf 74be bacb 02be e868 4bbe 3644 44be
000002b0: 8f44 43be a498 44bc 0cc0 61be e360 64be
000002c0: a8c7 30be 9f4b edbc f324 4fbe 865c 54be
000002d0: 1362 28be b725 28be 0561 1abe 4ec1 14be
000002e0: cdec c1bf cf24 2bbe f2b0 49be af75 37be
000002f0: 8c33 43be 04b6 a0bc 574b 4dbe 2c83 94be
00000300: 01f2 30be 05fd 2bbe b995 1cbe 0bc9 6dbe
00000310: 87e3 7cbe 3e55 68be bd61 08be 82b3 cd3e
00000320: 3a32 07be bacd 29be e859 51be c667 3e3f
00000330: 92d0 73be 6c20 65be 0a10 6e3e f7a1 01be
00000340: 5746 2bbe 252d 46be ef64 713f 1bd8 ddbe
00000350: 80f7 b83d 44cb 2dbe c583 4cbe 2b8a a03e
00000360: 78af 48be d155 36be 4105 1dbe 2faf 5cbe
00000370: 5257 0ebf f2f9 4cbe 60c1 51be 676d 11be
00000380: 0013 a33e 96c4 44be add4 65be 5f24 6bbe
00000390: f33b 1dbe 3e78 8f3e f00c 1fbe bf00 33be
000003a0: be68 533e 1942 58be edd1 06be 740b 11be
000003b0: 6fd7 57be 7af7 1abe 15ab 193e 4665 0ebe
000003c0: 0b1b bb3b 7c71 29be 888e 55be 7f4e ecbd
000003d0: 4121 f2bd 97dd 18be b959 28be 45ac 3dbe
000003e0: 68f8 22be 6f8d 993e e3a9 2abe ffa3 25be
000003f0: 86e3 56be bfdf 0dbe e473 34be 1ead 4dbe
-0.09322041 -0.15565056 -0.15582442 -0.21832122 -0.22721991 -0.1355802 -0.11746102 -0.15825629
0.5353219 -0.05204805 -0.1307753 0.02770154 -0.14320515 -0.18134835 -0.10740714 -0.0822506
-0.23857234 -0.22741504 -0.14117657 -0.1899409 -0.1421428 0.09553272 0.07378681 -0.1909882
-0.09625176 0.053563412 -0.13078858 0.29367957 0.036459513 -0.10790233 -0.167739 -0.096580714
-0.086623184 -0.004301542 -0.22101536 -0.8566542 -0.14895025 -0.17546925 -0.1673445 -0.1697036
-0.26615933 -0.08878825 -0.12840581 -0.18170518 -0.09432299 -0.024019154 -0.2388964 -0.18087885
-0.16035455 0.026165668 -0.102128714 -0.1349109 -0.1528098 -0.10299282 -0.1578328 -0.10906755
-1.0957165 -0.15319057 -0.123901546 -0.13619627 -0.16334781 -0.043739058 -0.11967368 -0.11985094
-0.20041943 -0.14010188 -0.18896122 -0.24488567 -0.07194749 -0.13634562 -0.18239444 0.29700813
-0.07823866 -0.1347286 -0.1935548 0.12464844 -0.16372265 -0.20729694 -0.57399154 -0.16517353
-0.121306665 -0.15093094 0.38181657 -0.110929765 0.016076947 -0.1070114 -0.09539979 0.22875458
-0.19598278 -0.16129267 -0.09281754 -0.19005224 -0.03924255 -0.10998244 -0.187241 -0.14093316
0.4667805 -0.22248983 -0.2304627 -0.15110525 -0.089559905 0.10624608 -0.19748442 -0.09633713
0.144027 -0.23705764 -0.11679568 -0.12520355 -0.15461634 -0.11705409 -0.6545548 -0.11818652
0.005360152 -0.13627228 -0.11470828 -0.07737646 -0.11015633 -0.10164237 -0.16212516 -0.17602858
-0.16330945 -1.4839928 -0.19848518 -0.21805671 -0.20652027 -0.14773984 -0.22028363 -0.11869964
-0.15519962 -0.14277226 -0.171409 -0.18221469 -0.20982295 -0.21739401 -0.17261979 -0.19653325
0.23842436 0.035487942 -0.20424001 -0.015144208 -0.13075428 -0.17800944 -0.14311443 -0.19960856
-0.12279242 -0.17494184 -0.18465859 -0.18979813 -0.14194497 0.21649292 0.14098082 -0.21736081
-0.13464443 -0.04357064 -0.2108656 0.37120032 0.8469915 -0.16010796 -0.17512867 -0.1663227
-0.23453122 0.013544437 -0.14992055 0.11097788 -0.17157537 -0.19036019 -0.14946687 -0.1970304
-0.23901002 -0.12773028 -0.19864237 -0.19166645 -0.19069122 -0.011999283 -0.22045916 -0.22302584
-0.17263663 -0.028966723 -0.20228939 -0.2073842 -0.16443662 -0.16420637 -0.15076073 -0.14526865
-1.5150391 -0.1671326 -0.19696406 -0.17915986 -0.19062632 -0.019618042 -0.20048271 -0.29006326
-0.17279817 -0.16795738 -0.1529149 -0.23221223 -0.2469617 -0.22688767 -0.13318534 0.40176016
-0.13202754 -0.16582385 -0.20444453 0.74377096 -0.23810032 -0.22375649 0.23248306 -0.12659441
-0.16726051 -0.19353159 0.9429464 -0.43328938 0.09031582 -0.16972071 -0.19972141 0.31355414
-0.19598186 -0.17806174 -0.15334035 -0.21551202 -0.5560199 -0.20017222 -0.20483923 -0.1420189
0.31850433 -0.19215617 -0.2244441 -0.22963093 -0.153549 0.28021425 -0.15532279 -0.17480753
0.20645425 -0.21118964 -0.13166018 -0.14164525 -0.21078275 -0.15133467 0.15006669 -0.1390582
0.005710011 -0.16547197 -0.20855153 -0.115384094 -0.11822749 -0.1492828 -0.16440476 -0.18522747
-0.15915072 0.29990718 -0.16666369 -0.16175841 -0.20985231 -0.13854884 -0.17622334 -0.2008557

linear_relu_stack.4.bias f4 [51]
00000000: 1a82 70be d3a0 b1bd 8791 cfbd 85ee 5c3e
00000010: ff4d dabd 5492 d1bd 25ff 73bd b6d6 91bd
00000020: 8c50 4cbc 13c3 d7bd 2d60 ebbc 524c 3cbd
00000030: 0b93 55bd 5bd1 e8bd f40b 93bd edbc 97bd
00000040: 6832 9bbd efae 7abd 3273 c5bd 4f2b 05be
00000050: 53fa e5ba 799a 37bd eff9 a1bd 9abc f0bd
00000060: 963c 99bc 1ce3 01bd db8c c2bd 7ff5 58bd
00000070: c13a a4bd f307 01be ca0b a83b effd 86bd
00000080: 1a90 43bd 7864 26bd ce9e 67bd 9ad6 8fbd
00000090: 1f9d 42bd 1a17 97bd 4087 7fbd 78d1 84bd
000000a0: 3eb3 78bd c5a9 08bd 2079 edbc 7290 07be
000000b0: ab85 cbbd f737 80bd 6aa0 473d bc90 b8bd
000000c0: 1ffb 92bd 4b61 0dbe bdae 413e
-0.2348713 -0.08673253 -0.10135179 0.21575363 -0.10659408 -0.10232988 -0.059569497 -0.07121031
-0.012470376 -0.10535254 -0.028732384 -0.045971222 -0.052142184 -0.113680564 -0.07180014 -0.074090816
-0.075779736 -0.061201986 -0.096411124 -0.13004802 -0.0017545916 -0.04482505 -0.07908999 -0.11754723
-0.018705647 -0.03171073 -0.09499522 -0.0529685 -0.08019019 -0.12600689 0.0051283585 -0.06591403
-0.047744848 -0.04062316 -0.056547932 -0.07023354 -0.047513124 -0.07377453 -0.062384844 -0.064852655
-0.060717814 -0.03336503 -0.028988421 -0.13238695 -0.099376045 -0.062606744 0.048736967 -0.09011981
-0.07176804 -0.13806646 0.18914314
