DQN_target_net_Mountaincar.pt (torch, 72262 bytes, 6 tensors)

linear_relu_stack.0.weight f4 [128, 2]
0	0x3dbf534c	0.093420595
1	0xc00bbb0e	-2.183292
2	0x3d7d67df	0.061866637
3	0xbc6801ee	-0.014160616
4	0xbcac331f	-0.02102047
5	0xc09dd026	-4.9316587
6	0xbe302748	-0.17202485
7	0xbfb588a5	-1.4182326
8	0x3d4f8b2d	0.050669838
9	0xbedc36d9	-0.43010595
10	0xbe80c2d6	-0.25148648
11	0xc0241c07	-2.5642107
12	0x3e80facf	0.25191352
13	0x3e24579b	0.16049044
14	0x3d10eedc	0.035384044
15	0x3f9e5bc8	1.237176
16	0x3e644c42	0.22294715
17	0xbe081e69	-0.1329285
18	0xbe88a078	-0.26684928
19	0xc02cc7df	-2.6996992
20	0x3d5f08c7	0.05445173
21	0xbfb8ed3e	-1.44474
22	0x3e23767b	0.15963165
23	0x3f876f48	1.0580835
24	0x3eaadc99	0.33371428
25	0xbfb7bba5	-1.435414
26	0x3d74c85e	0.059761398
27	0x3fd2b37d	1.6461025
28	0xbda9aca3	-0.08284881
29	0xbb939015	-0.00450326
30	0x3dc67391	0.09690011
31	0xbf4f9dd1	-0.81100184
32	0x3f7f9f2e	0.99852264
33	0x407776d3	3.8666275
34	0xbdba5b9f	-0.090995066
35	0xc01e0c8a	-2.4695153
36	0xbe3cf234	-0.18451768
37	0xbdd46c1a	-0.10372181
38	0xbdbaa748	-0.091139376
39	0xbd127fe9	-0.035766516
40	0xbcfba147	-0.030716551
41	0xbf61dd9c	-0.88228774
42	0xbda3afff	-0.07992553
43	0xc034237d	-2.814666
44	0xbd934da9	-0.07192547
45	0xc008f797	-2.1401117
46	0xbe1314f5	-0.14363463
47	0x3d1714b1	0.036884967
48	0x3e747ccb	0.2387573
49	0xbeb633d3	-0.35586414
50	0xbe2ea4c1	-0.17055036
51	0xbd1b1460	-0.037861228
52	0x3f0cfeb7	0.55076164
53	0x40579a66	3.3687987
54	0x3c4f82c0	0.012665451
55	0xbffc7191	-1.9722158
56	0xbdf8f206	-0.12155537
57	0xbda930da	-0.08261271
58	0x3de1838d	0.110114194
59	0xbf909487	-1.1295327
60	0xbe8e6352	-0.2781015
61	0xc039d8dd	-2.9038613
62	0xbc481361	-0.012211652
63	0xc007a770	-2.1195946
64	0x3cf62d42	0.030050877
65	0xc00b1d2e	-2.173656
66	0xbd665c1d	-0.05624019
67	0xbe5168dc	-0.20450157
68	0xbd5af3cc	-0.05345516
69	0xc006820a	-2.101687
70	0xbcf9d84f	-0.030498652
71	0x3dc5884f	0.096451394
72	0x3ce07fc5	0.027404675
73	0xbe45edcf	-0.19328998
74	0xbe61d9f9	-0.22055806
75	0xbf888ffc	-1.066894
76	0x3e8b4b43	0.27205858
77	0xbf909eb9	-1.1298438
78	0xbe3b3093	-0.18280248
79	0xbe66b212	-0.22528866
80	0xbe5abece	-0.21361849
81	0xc01a4db4	-2.4109926
82	0x3d12d98f	0.03585201
83	0x3e56c5cc	0.20973891
84	0x3e508724	0.20364052
85	0xbd5b4bc0	-0.053539038
86	0xbca46b82	-0.020070795
87	0xbe22721b	-0.1586384
88	0x3e24bea2	0.16088346
89	0xbe3738cb	-0.17892759
90	0xbe151bce	-0.14561388
91	0x3f26878a	0.65050566
92	0x3df0fa75	0.11766521
93	0x3d719c4c	0.058986947
94	0xbd298b54	-0.04139264
95	0xbfc09180	-1.5044403
96	0x3d0badd3	0.03410132
97	0xbfa5f444	-1.2965169
98	0x3f6699a8	0.9007821
99	0x407c7b90	3.9450417
100	0x3e1653db	0.14680426
101	0x3ddbb99f	0.10728764
102	0xbe18fccf	-0.14940189
103	0xc02bc00a	-2.6835961
104	0x3dc1dedd	0.09466336
105	0x3f6fe325	0.9370597
106	0xbe025f46	-0.12731656
107	0xc02a1367	-2.6574342
108	0xbe02cd7a	-0.12773696
109	0x3e3fc276	0.18726525
110	0x3e82e309	0.2556384
111	0x3fb01e5f	1.3759269
112	0xbd1b9ede	-0.037993304
113	0x406d5125	3.7080777
114	0xbeb88196	-0.36036366
115	0xbf51851c	-0.81843734
116	0xbd4be564	-0.04977931
117	0xbfb54dac	-1.4164329
118	0xbe349670	-0.17635512
119	0xc00a81a0	-2.1641617
120	0xbe528858	-0.20559824
121	0xbf01ae10	-0.50656223
122	0xbdcd3b5c	-0.100210875
123	0x3e341a53	0.17588167
124	0xbe368d0b	-0.17827241
125	0x3d770dac	0.060315773
126	0xbce29ab7	-0.027661664
127	0x3e4b002f	0.19824289
128	0x3e148dc1	0.145072
129	0x3e4d078d	0.20022412
130	0x3c1fc666	0.009751892
131	0x3e839981	0.25703052
132	0xbe5255a6	-0.20540485
133	0xc0233d83	-2.5506294
134	0x3e30547d	0.1721973
135	0x3bd36116	0.0064507825
136	0x3e165741	0.14681722
137	0x3e0e52ab	0.13898723
138	0x3de0a07c	0.1096811
139	0xbf54dddf	-0.8315105
140	0xbe3045cd	-0.17214127
141	0xc012bfae	-2.2929492
142	0x3e118483	0.14210705
143	0xbfe93150	-1.8218174
144	0x3e3c7177	0.18402658
145	0xbf46c03f	-0.77637094
146	0x3d95babb	0.07311007
147	0xc051ce20	-3.2782059
148	0xbd5ad0b5	-0.053421695
149	0xbf6902a1	-0.91019636
150	0xbae9cd7d	-0.001783773
151	0x3e723b3f	0.23655413
152	0xbc83149b	-0.016001036
153	0x3f7bfdfc	0.98434424
154	0xbdff675c	-0.12470886
155	0xc03c77aa	-2.9448037
156	0xbe882d48	-0.26597047
157	0xc0accb26	-5.3997984
158	0xbe0630cc	-0.13104552
159	0xbe2f1031	-0.1709602
160	0xbe5f37df	-0.21798657
161	0xc024c86a	-2.5747323
162	0xbdb7e367	-0.089789204
163	0x40701c8a	3.751742
164	0x3d401d62	0.04690302
165	0xbfa7bee2	-1.3105128
166	0x3e8b1551	0.271647
167	0xbf474aff	-0.7784881
168	0x3e320e6f	0.17388318
169	0xbfca1c1b	-1.5789827
170	0xbdf915bf	-0.12162351
171	0x3ebf03ed	0.37307683
172	0xbf990b44	-1.1956563
173	0x40373554	2.86263
174	0xbe7d482e	-0.24734566
175	0xc022c63c	-2.5433493
176	0x3dc0b8bb	0.094102345
177	0xbdf53b0a	-0.119741514
178	0x3e2eb615	0.17061646
179	0x3d8f7cad	0.07006202
180	0x3de56236	0.11200373
181	0xbe4bda53	-0.19907503
182	0x3ef83297	0.48476097
183	0x4086ffed	4.218741
184	0xbf5fa46e	-0.87360275
185	0xbf8d0636	-1.101752
186	0x3d2d5295	0.042315084
187	0x3fb86635	1.4406191
188	0xbd56247a	-0.05228088
189	0xbfb156d5	-1.3854624
190	0x3e62a061	0.22131492
191	0xbfbdc064	-1.4824338
192	0x3bdd0f73	0.0067462265
193	0xbf8d8bdb	-1.1058306
194	0xbea9af2e	-0.33141464
195	0xc0175660	-2.364647
196	0x3d98603f	0.074402325
197	0x3f801613	1.0006737
198	0xbea88245	-0.32911888
199	0xc0161a8a	-2.3453698
200	0x39856bef	0.00025448154
201	0x3e779ada	0.24180165
202	0xbfa5df79	-1.2958823
203	0x3fd2feb1	1.6483976
204	0xbf06474e	-0.5245255
205	0xbf763c65	-0.96185905
206	0xbe2fa717	-0.17153583
207	0xc043289d	-3.0493538
208	0x3ea3df2f	0.32006213
209	0xc06d5600	-3.708374
210	0x3e2198f6	0.15781006
211	0xbca5a951	-0.020222338
212	0xbe820d23	-0.25400648
213	0xbff3c6dd	-1.9045063
214	0x3f7a3f08	0.9775243
215	0x40283354	2.6281328
216	0x3c61501e	0.013752012
217	0xbf1ed23c	-0.6203954
218	0xbc2633f1	-0.01014422
219	0xbfa7d7bb	-1.3112711
220	0x3cdd76c8	0.027034178
221	0xbf85c121	-1.0449563
222	0x3d9ea51d	0.077463366
223	0xbdb02835	-0.08601419
224	0x3da64b5c	0.081198424
225	0xbf4c8689	-0.79892784
226	0x3a9b8525	0.0011865242
227	0xbe2c4a82	-0.16825297
228	0x3d1a54b4	0.037678435
229	0x3e52a3bf	0.20570277
230	0x3e0c8ee4	0.13726383
231	0xc0536141	-3.302811
232	0xbe16e8a5	-0.14737184
233	0x3cebcefc	0.028785221
234	0xbe279ee0	-0.163692
235	0xc0479589	-3.118502
236	0x3e51e244	0.2049647
237	0x3d833049	0.06405694
238	0xbe9408f0	-0.2891307
239	0xc025571f	-2.5834424
240	0x3eb9583e	0.36200136
241	0xc03b6a68	-2.9283695
242	0x3dfefc2e	0.12450443
243	0x3f8040d7	1.0019788
244	0xbd2da2b7	-0.042391505
245	0xbe3ae211	-0.182503
246	0x3d46c4e8	0.04852763
247	0xbfe04f45	-1.7524191
248	0xbc806be2	-0.015676443
249	0x40766d5d	3.850425
250	0xbe6c30c9	-0.23065485
251	0xc0872668	-4.2234383
252	0xbcfcbccf	-0.03085175
253	0x3e83d0be	0.25745195
254	0x3deea0b7	0.11651748
255	0xbf5a5f6f	-0.8530187

linear_relu_stack.0.bias f4 [128]
0	0x3e655d5e	0.22398898
1	0xbe7b6f90	-0.24554276
2	0x3e81f487	0.25381872
3	0x3ed00bb0	0.40633917
4	0x3f0e6945	0.5562938
5	0x3e559ceb	0.2086064
6	0xbe583bea	-0.21116605
7	0x3f096728	0.5367303
8	0xbe48bf70	-0.19604278
9	0x3e4d5c2f	0.20054697
10	0x3e699296	0.22809824
11	0x3f21fabe	0.6327323
12	0x3f044f08	0.5168309
13	0x3f02bbb0	0.5106764
14	0xbe2fcd90	-0.1716826
15	0x3ef4c1a0	0.47803974
16	0x3d78216a	0.06057874
17	0x3e0de3ba	0.13856402
18	0xbe652609	-0.2237779
19	0xbe0aa9a6	-0.13541278
20	0x3f2d97e4	0.6780989
21	0x3e1a7507	0.15083705
22	0x3e8ecaa1	0.2788897
23	0xbe3856a8	-0.18001807
24	0x3ef3da6d	0.47627583
25	0xbe529e16	-0.20568117
26	0x3d82e2ab	0.0639089
27	0x3ec0e520	0.37674809
28	0xbe1797b8	-0.1480397
29	0x3ef9a549	0.48758915
30	0x3e5542e3	0.20826297
31	0x3e1dc525	0.15407236
32	0x3e676609	0.22597517
33	0xbe4023ef	-0.18763708
34	0x3e0dba60	0.13840628
35	0xbe250e15	-0.16118653
36	0xbe2c81e3	-0.16846423
37	0x3f0e0d77	0.55489296
38	0x3efcca9c	0.4937333
39	0xbe63bd95	-0.22240289
40	0x3e339a26	0.17539272
41	0xbd90b8bb	-0.070664845
42	0xbe1efe4f	-0.15526699
43	0xbd9aab43	-0.07552197
44	0xbe328619	-0.17433967
45	0x3f2517e3	0.64489573
46	0xbe8197f1	-0.25311235
47	0x3e64afd3	0.22332697
48	0x3f010d32	0.5041076
49	0x3ddd1457	0.10794895
50	0xbe42d689	-0.19027151
51	0x3e236d89	0.15959753
52	0x3f3d7c27	0.74017566
53	0x3e1beb47	0.1522647
54	0xbe4356fe	-0.19076154
55	0x3f033485	0.51252013
56	0x3e77b7ef	0.24191259
57	0x3f0f701e	0.5603045
58	0x3f143ce0	0.5790539
59	0x3e9e331c	0.30898368
60	0xbe88e111	-0.26734212
61	0xbe31336c	-0.17304772
62	0xbe5b1927	-0.21396314
63	0xbe3920a0	-0.18078852
64	0xbe75c641	-0.24001409
65	0xbe54c2aa	-0.20777383
66	0x3e32a826	0.17446956
67	0xbe813c82	-0.25241476
68	0xbe188187	-0.14893161
69	0x3f0e48f3	0.5558006
70	0x3e95d12e	0.29261154
71	0x3e9d391f	0.30707642
72	0x3f0f9645	0.5608867
73	0x3e6040ec	0.21899766
74	0x3f02f06f	0.5114812
75	0xbdb08add	-0.08620236
76	0x3ee76f43	0.45202073
77	0x3e26f4bf	0.163043
78	0x3c40703f	0.011745512
79	0xbe2884c0	-0.1645689
80	0xbe389bdd	-0.18028207
81	0x3e82a3df	0.2551565
82	0x3edff5ff	0.43742368
83	0x3ef5b02e	0.47985977
84	0x3ea86eff	0.32897183
85	0x3f23269c	0.6373079
86	0x3d843c5c	0.06456825
87	0x3e432a3f	0.19059084
88	0xbe061525	-0.13094003
89	0xbdf43e4f	-0.11925947
90	0xbd6cbb8c	-0.057796046
91	0x3dbb7612	0.091533795
92	0xbee1be7a	-0.44090635
93	0x3f03c22d	0.51468164
94	0x3f014dd1	0.50509363
95	0x3ef1fd37	0.472635
96	0x3f1f5795	0.62243015
97	0xbe80369a	-0.25041658
98	0x3f0bec24	0.54657197
99	0xbde96de5	-0.11397914
100	0xbe73a021	-0.23791553
101	0xbd3546ad	-0.044256855
102	0xbebcaa67	-0.36848757
103	0x3e35a14f	0.17737316
104	0x3e9932c5	0.29921547
105	0xbdc70eca	-0.09719618
106	0x3ea12a1c	0.3147744
107	0x3c446f2a	0.011989394
108	0x3ee83fac	0.45361078
109	0x3ed6a0f0	0.4191966
110	0x3f128005	0.5722659
111	0xbe49841b	-0.196793
112	0x3f0b4fa7	0.54418415
113	0xbe2b2189	-0.16712011
114	0xbe28769f	-0.164515
115	0x3e905189	0.28187206
116	0xbe363c53	-0.1779645
117	0x3e36132b	0.1778075
118	0xbe05d71b	-0.13070337
119	0x3e7facd6	0.24968275
120	0x3e8c49a0	0.2739992
121	0x3f184184	0.5947497
122	0xbdc46cf8	-0.09591097
123	0x3e58004c	0.21093863
124	0x3e76161b	0.2403187
125	0xbc0fc32d	-0.008774561
126	0xbe05e7e7	-0.13076745
127	0x3ee44d5b	0.44590268

linear_relu_stack.2.weight f4 [128, 128]
0	0xbfbd8f01	-1.4809266
1	0xbaecc3a5	-0.0018063678
2	0xc03d7b45	-2.9606488
3	0xbd9b27dd	-0.07575963
4	0x3d179cf2	0.03701491
5	0xbf0b38f8	-0.543838
6	0xbc65c0ca	-0.014023015
7	0x3e506544	0.2035113
8	0x3c99b7fb	0.018764487
9	0xbf2eb63d	-0.68246824
10	0xbe3b6448	-0.18299973
11	0x3e3495b5	0.17635234
12	0xbd484980	-0.04889822
13	0x3e83cf8d	0.25744286
14	0xb8b43cf9	-8.594426e-05
15	0x3d9aaa10	0.07551968
16	0x40019686	2.0248122
17	0xbfd073f4	-1.6285386
18	0x3de7ae31	0.11312521
19	0xbb02e345	-0.001997189
20	0x3d8e1b4a	0.06938799
21	0xc048ea43	-3.1392982
22	0xbe9a1421	-0.30093482
23	0x3cdcd2e2	0.026956026
24	0x3cc28197	0.023743434
25	0x3d959381	0.07303525
26	0x40047914	2.06989
27	0xbe391830	-0.18075633
28	0x3e06ad28	0.13151991
29	0x3d298dbd	0.041394938
30	0xbf5e8b84	-0.86931634
31	0xbf8288f3	-1.0198044
32	0xbed51f3e	-0.41625398
33	0x3c14afb7	0.009075097
34	0xbf29eab9	-0.66373783
35	0x3b45aa1a	0.0030161203
36	0xbc860fbe	-0.016364928
37	0xbcb10c3e	-0.021612283
38	0x3c0ed22a	0.008717099
39	0xbdf06faf	-0.11740052
40	0xbf35a35d	-0.709524
41	0x3c5f0355	0.013611634
42	0x3cc318a0	0.023815453
43	0xbb2c533d	-0.002629473
44	0x3c0c0a5a	0.00854739
45	0x3d9d44b5	0.076791205
46	0x3c27e1b5	0.010246684
47	0xbe83fbef	-0.25778148
48	0xbccc9080	-0.024971247
49	0x3fe588f8	1.7932425
50	0x3c341682	0.010991694
51	0xbfadd674	-1.3581071
52	0x3e26e398	0.16297758
53	0xbfd21700	-1.6413269
54	0xbd003d5d	-0.03130852
55	0x3e88c96a	0.26716167
56	0x3fa620aa	1.2978718
57	0xbc9f356b	-0.019434651
58	0xbd17bf09	-0.03704742
59	0xbe8ff2ae	-0.28114837
60	0xbd8355e0	-0.06412864
61	0xbc1a9c44	-0.009436671
62	0x3dc9ec51	0.09859527
63	0xbc1020ab	-0.008796851
64	0x3cbfc534	0.023409463
65	0xbc2f9a00	-0.010717869
66	0xbf6d5385	-0.92705566
67	0xbb3db90f	-0.0028949415
68	0x3ca13f37	0.019683463
69	0xbc8eb174	-0.0174186
70	0xbeb26973	-0.34846076
71	0xbe5363fb	-0.20643608
72	0xbc6ca4b1	-0.014443562
73	0xbfca0678	-1.5783224
74	0x3b7dc424	0.0038721645
75	0x3c85f314	0.01635126
76	0x3e260619	0.16213264
77	0xbfd9ddf2	-1.7020857
78	0x3f4d7268	0.80252695
79	0xbd2bbe9f	-0.041929837
80	0xbde90b56	-0.11379115
81	0x3fa37597	1.277026
82	0xbdad553d	-0.084635235
83	0x3c5ae7d3	0.013360935
84	0xbe3979cf	-0.18112873
85	0x3d2c2c3f	0.042034384
86	0x3f8b13d6	1.0865428
87	0xbf360053	-0.71094245
88	0x3c8a8018	0.016906783
89	0x3cc2c1f1	0.02377412
90	0x3ccd50e1	0.02506298
91	0x40072ba8	2.1120396
92	0x3facf116	1.3511074
93	0x3e62b5bd	0.2213964
94	0xbd48ca71	-0.04902119
95	0xbdb36acf	-0.087606065
96	0x3d472f71	0.048629228
97	0xbe9bb704	-0.30413067
98	0x3e144150	0.1447804
99	0x3eb643fc	0.35598743
100	0xbcd2496c	-0.025669776
101	0x3f8c904a	1.0981534
102	0x3f2e0a65	0.6798461
103	0xbfb5bc87	-1.4198159
104	0xbfaa1176	-1.3286579
105	0xbc083172	-0.00831257
106	0xbe350958	-0.17679346
107	0x3fc86387	1.5655373
108	0xbc2092c4	-0.009800617
109	0xbd4e14ab	-0.05031268
110	0xbaf9cb1f	-0.0019057727
111	0x3b96b94d	0.0045997263
112	0x3cf7b4ed	0.03023764
113	0x3cc8b222	0.024499003
114	0xbc45a4e8	-0.0120632425
115	0xbfa8c4bc	-1.3185039
116	0x3ca1e6aa	0.01976331
117	0xbfc78423	-1.55872
118	0x3b07234f	0.002062041
119	0xbee0b1a7	-0.43885538
120	0xbf123599	-0.57113034
121	0x3e27ed0d	0.16399021
122	0x3c3d6d69	0.01156173
123	0xbeab1f11	-0.3342214
124	0x3f94d597	1.1627682
125	0x3f646a3e	0.8922461
126	0x3bdb9a9a	0.0067017796
127	0xbc983a2f	-0.018582432
128	0xbcace9e8	-0.021107629
129	0xbcd605de	-0.026125845
130	0xbcb17857	-0.021663828
131	0x3c294a23	0.010332617
132	0xbc4511ff	-0.012028216
133	0x3b984015	0.004646311
134	0xbc58aefe	-0.013225315
135	0x3c56f998	0.013121031
136	0xbc07dc2a	-0.008292237
137	0xbcb63b53	-0.022245085
138	0x3ce0b2d1	0.027429016
139	0x3c9a33d9	0.018823551
140	0xbce2d75c	-0.027690582
141	0x3cd19f47	0.025588645
142	0x3cbe6ea3	0.023246115
143	0x3c9d8e4d	0.019232893
144	0xbae285d7	-0.0017282319
145	0x3c4d4a86	0.012529975
146	0x3bbc23e8	0.005741585
147	0xbc8082ad	-0.015687311
148	0xbc993b4e	-0.018705036
149	0x3cb5c1ed	0.022187198
150	0xbcd8dc28	-0.026472166
151	0xbc8f0b56	-0.01746146
152	0xbcd72304	-0.026261814
153	0xbc5a6241	-0.01332909
154	0x3c675d51	0.014121369
155	0xbcf8b276	-0.030358534
156	0x3c6957fe	0.01424217
157	0xbc744193	-0.014908212
158	0x3cc1c440	0.02365315
159	0xbc0d483f	-0.008623182
160	0x3cf38ed3	0.02973119
161	0xbc000575	-0.007813801
162	0xbd08ea7a	-0.03342674
163	0xbc6c65ef	-0.0144286
164	0xbcc278a2	-0.023739163
165	0x3b5052ea	0.0031787702
166	0x3c457b12	0.012053268
167	0xbcdb0907	-0.026737703
168	0xbc0f27ec	-0.008737545
169	0x3c22118f	0.009891882
170	0x3c158c05	0.009127622
171	0xbcf08eba	-0.029364932
172	0xbc516660	-0.012780756
173	0x3cdefee1	0.027221145
174	0xbccf1020	-0.025276244
175	0x3ae4083b	0.0017397472
176	0xbd066465	-0.032810587
177	0xbc811258	-0.015755817
178	0x3ca061ac	0.019577824
179	0x3c00ea41	0.0078683505
180	0xbc274c27	-0.010211027
181	0xbc8ea753	-0.01741377
182	0x3a9dd75e	0.0012042334
183	0x3c526ea2	0.01284376
184	0x3c20d585	0.009816532
185	0xbcc47b8a	-0.02398469
186	0x3b8e08d3	0.004334548
187	0xbcaf15bc	-0.021372668
188	0xbc8a6570	-0.016894072
189	0xbca54f48	-0.020179406
190	0xbc95c863	-0.018284028
191	0x3cf1f517	0.029535813
192	0xba6da68f	-0.00090656517
193	0xbc9abec1	-0.018889787
194	0xbbc39bd5	-0.0059695044
195	0x3b85a6dc	0.004078729
196	0x3cb23406	0.021753322
197	0xbce8b64c	-0.028407238
198	0xbc8f5487	-0.01749636
199	0xbbf212f8	-0.007387515
200	0xbce22691	-0.02760628
201	0x3c58d6da	0.013234818
202	0xbce9223f	-0.028458713
203	0xbbaeafed	-0.0053310306
204	0x3bd0e946	0.0063754646
205	0xbb93c0ea	-0.004509081
206	0x3c81f3d4	0.015863337
207	0xbb293539	-0.0025819077
208	0x3cd26e36	0.025687318
209	0xbc709bc5	-0.014685576
210	0xbc11d19b	-0.0089000715
211	0xbbbb498d	-0.005715555
212	0x3bc46dd3	0.0059945374
213	0xbcc10a57	-0.0235645
214	0xbc5eb987	-0.013594038
215	0xbcf1fe5d	-0.029540235
216	0x3ce3e5b8	0.0278195
217	0x3b704f0d	0.0036668212
218	0x3b9c052e	0.0047613597
219	0x3b88d21a	0.0041754367
220	0xbcc3d233	-0.023903942
221	0x3cbf2cff	0.023336885
222	0xbac22fb0	-0.0014815237
223	0xbcc59815	-0.02412037
224	0xbcb9e3df	-0.022691665
225	0x3c5bcb6f	0.013415202
226	0xbce919c7	-0.028454674
227	0xbbf7b9e1	-0.0075600003
228	0xbcc51b25	-0.024060795
229	0x3cc56d7c	0.024100058
230	0xbca49109	-0.02008869
231	0xbbf18793	-0.007370898
232	0x3ca4c2da	0.020112444
233	0x3c88d7d8	0.016704485
234	0x3c73387f	0.014845013
235	0x3d030411	0.0319863
236	0x3ce75daf	0.028242914
237	0x3c1ef12d	0.0097010555
238	0xbbe0c143	-0.006858976
239	0xbaaf4eca	-0.0013374921
240	0x3c888ff6	0.016670208
241	0x3bef2f9d	0.007299377
242	0xbcdf78f0	-0.027279347
243	0x3c29cb72	0.010363447
244	0xbc457e6a	-0.012054065
245	0x3cc47322	0.02398068
246	0x3c8d2b0a	0.017232437
247	0x3cc8209a	0.024429608
248	0xbcbd171e	-0.023082312
249	0xbb2ecbfb	-0.0026671875
250	0x3bf2f7ad	0.007414779
251	0x3ce39060	0.027778804
252	0x3c8c41c4	0.017121203
253	0x3c6d94e8	0.014500834
254	0x3c56109d	0.013065484
255	0x3c94d4e7	0.018167926

linear_relu_stack.2.bias f4 [128]
0	0x3e3883bd	0.18019004
1	0x3cc06ef3	0.023490405
2	0x3e14e01b	0.14538614
3	0x3de7bec9	0.11315686
4	0xbcbd1c07	-0.023084654
5	0xbcad6be3	-0.021169608
6	0x3f096bd7	0.53680176
7	0xbd042df5	-0.03227039
8	0x3cb0f741	0.021602275
9	0x3c90a8ab	0.017658552
10	0xbde0d295	-0.10977665
11	0xbca32112	-0.01991323
12	0xbc3a5a1f	-0.011374026
13	0x3e0b686e	0.13614056
14	0x3e67c06f	0.22632001
15	0x3cc4588b	0.023968002
16	0xbc4aec9d	-0.012385515
17	0x3e5fd976	0.21860299
18	0x3bb25393	0.0054420917
19	0xbbd80c08	-0.006593231
20	0xbdcb7a40	-0.09935427
21	0x3e23fdcc	0.16014785
22	0x3df849fd	0.12123487
23	0x3e3c50d8	0.18390214
24	0x3e32a967	0.17447434
25	0x3dfbd91a	0.12297268
26	0x3ca7e532	0.020495031
27	0x3e45dd71	0.19322754
28	0x3bb2ea7d	0.005460082
29	0xbb27d870	-0.0025611185
30	0xbc5a1f40	-0.013313115
31	0x3e23d82e	0.16000435
32	0x3c9fe8c2	0.019520167
33	0x3de2101c	0.11038229
34	0x3d9cfea9	0.0766576
35	0x3e500f16	0.20318255
36	0x3e046509	0.12929167
37	0x3e0429f7	0.12906633
38	0xbcb90ba6	-0.022588562
39	0x3d5ab9cc	0.053399846
40	0xbc8fe245	-0.017563948
41	0x3b264a53	0.002537389
42	0x3e09c606	0.13454446
43	0xbccf1602	-0.025279049
44	0x3cbe90ae	0.023262348
45	0xbbf5cf2f	-0.007501505
46	0x3dd0b514	0.10190788
47	0x3e145bac	0.14488095
48	0x3c441a25	0.011969124
49	0x3c9a845e	0.018861946
50	0x3e715768	0.23568499
51	0x3cb821e1	0.022477092
52	0x3b927ff7	0.004470821
53	0x3a425c34	0.0007414252
54	0x3e5f6dd7	0.21819244
55	0x3dca6425	0.09882382
56	0xbcfad8a4	-0.03062088
57	0xbcf7fe3c	-0.030272596
58	0x3cfa7194	0.030571736
59	0x3c44c2bb	0.012009318
60	0x3cd8f1e8	0.026482537
61	0x3bf1d251	0.007379808
62	0x3cadfd43	0.021238929
63	0x3c8300e1	0.01599163
64	0xbc72a03d	-0.014808712
65	0x3db9e038	0.090759695
66	0x3e416180	0.1888485
67	0xbb98baae	-0.004660926
68	0x3de694e9	0.11258871
69	0xbce77d47	-0.02825798
70	0xbbeff735	-0.0073231705
71	0x3dd4bb4a	0.10387285
72	0xbceb6623	-0.028735226
73	0xbb1f4e65	-0.0024308201
74	0xbdba05b0	-0.09083116
75	0x3dcbaebe	0.09945439
76	0xbc97a041	-0.018509032
77	0x3c129767	0.00894723
78	0xbb9beca4	-0.0047584344
79	0x3db4d86b	0.08830341
80	0xbcfbfa56	-0.030759018
81	0x3ce01bbb	0.027356973
82	0x3ee30719	0.44341353
83	0xbcbb9406	-0.022897732
84	0x3d693b98	0.0569416
85	0xbbe0fbb4	-0.006865943
86	0x3e28c05d	0.16479631
87	0x3e444605	0.19167335
88	0x3c851332	0.016244505
89	0xbc3b4a80	-0.011431336
90	0x3bbc0053	0.0057373433
91	0x3e885970	0.26630735
92	0xbce654bd	-0.028116578
93	0xbcb8338d	-0.022485519
94	0x3cb1cf78	0.021705374
95	0x3e1eb8ac	0.15500134
96	0x3e954f10	0.29161882
97	0x3dd15467	0.102211766
98	0x3c6344b7	0.013871363
99	0x3e1f7920	0.1557355
100	0x3cd75506	0.02628566
101	0xbcbd429e	-0.023103055
102	0xbc0bb55c	-0.008527126
103	0x3cef4335	0.029206851
104	0xbc883ef1	-0.016631575
105	0x3dc08bef	0.0940169
106	0x3e3b00ce	0.18262026
107	0x3e2896d8	0.16463792
108	0x3e296c34	0.16545182
109	0xba7fbdfe	-0.0009755789
110	0xbcb768f3	-0.02238891
111	0xbafe0fe1	-0.0019383394
112	0x3c6a05ca	0.014283607
113	0x3e412ca6	0.18864688
114	0x3d7d7540	0.061879396
115	0x3cdb668e	0.0267823
116	0x3c53f501	0.012936831
117	0xbca2ee3f	-0.019888995
118	0xbc637471	-0.013882742
119	0x3e04a0ec	0.12952012
120	0x3bce3dd9	0.006293994
121	0xbcecd7b8	-0.028911456
122	0x3d9d39e2	0.07677056
123	0xbcbcf793	-0.023067271
124	0xbca94a27	-0.020665241
125	0xbcb9a140	-0.022659898
126	0x3da807fd	0.08204649
127	0x3ce72396	0.02821521

linear_relu_stack.4.weight f4 [3, 128]
0	0x3fd2e623	1.6476482
1	0xbcea57b8	-0.02860628
2	0xbe97e644	-0.29667866
3	0xbe936770	-0.28789854
4	0xbcb88303	-0.022523409
5	0xbc38a7e3	-0.011270496
6	0xbf13eae8	-0.57780313
7	0x3cdb551e	0.026773985
8	0x3f48dc8d	0.78461534
9	0x3f6f66dd	0.9351633
10	0x3f838de9	1.0277683
11	0x3ac15658	0.0014750464
12	0x3c291b95	0.0103215175
13	0xbea2dcdf	-0.31809136
14	0xbe99ea92	-0.30061775
15	0x3c9b8255	0.018983046
16	0x3c98dbb3	0.018659448
17	0xbe9eb80d	-0.30999795
18	0xbd02b7c2	-0.031913526
19	0xbbd81830	-0.0065946802
20	0x3fa6c9e2	1.303036
21	0x3fc336b3	1.5251068
22	0x3fb3b41b	1.4039339
23	0xbea68e2b	-0.3253034
24	0xbeaccfcf	-0.33752295
25	0xbe8f415f	-0.27979562
26	0x3dc42883	0.095780395
27	0xbe9e1bb7	-0.3088052
28	0x3cb710c9	0.022346871
29	0xbca9dd21	-0.020735325
30	0x3ccdec48	0.025137082
31	0x3fd873ac	1.69103
32	0xbb6056b5	-0.003423137
33	0xbe94aca6	-0.2903797
34	0xbe99d176	-0.3004262
35	0xbeae9e69	-0.34105232
36	0xbea2db44	-0.3180791
37	0xbe991601	-0.298996
38	0x3ccddfd8	0.025131151
39	0x3f3bc53d	0.73347837
40	0xbc9c9ee9	-0.019118743
41	0x3cf17673	0.029475426
42	0xbea46169	-0.32105568
43	0xbba20115	-0.0049439766
44	0xbba712cd	-0.005098677
45	0xbc8fe65f	-0.017565904
46	0xbe9bcd6c	-0.30430162
47	0xbe9e0748	-0.3086493
48	0xbc9824d2	-0.018572245
49	0x3ba1ffdd	0.0049438314
50	0xbeb092f2	-0.3448711
51	0xbc1abe65	-0.009444808
52	0x3c9fced8	0.01950781
53	0xbc16d9d0	-0.009207204
54	0xbeac2019	-0.3361824
55	0xbeaab69f	-0.33342454
56	0x3cdf9ca3	0.02729637
57	0xbc308f4c	-0.010776352
58	0x3cf35323	0.029702729
59	0x3a0ac93c	0.00052942685
60	0x3cbf5568	0.023356155
61	0x3be92d4e	0.0071159964
62	0xbccc081a	-0.024906207
63	0x3c5528de	0.013010232
64	0x3cf22d97	0.029562755
65	0xbe8236bc	-0.25432384
66	0xbe9d66f3	-0.30742607
67	0xbc1dc1de	-0.009628741
68	0xbe996a30	-0.29963827
69	0x3ced8e5a	0.028998543
70	0xbc1cdd5a	-0.009574259
71	0xbe8f4bf7	-0.27987644
72	0x3cc943a0	0.024568379
73	0x3d03d6cb	0.032187264
74	0x3fa91d4c	1.3212066
75	0xbe8ff4d7	-0.28116485
76	0x3cb94ec6	0.02262057
77	0x3bfc7fb0	0.007705651
78	0xbce8db64	-0.028424926
79	0xbe9e2069	-0.30884102
80	0xbcd40cdc	-0.025885038
81	0xbe052f7c	-0.13006395
82	0xbef70548	-0.48246217
83	0xbcfdc039	-0.030975448
84	0xbe83cd9f	-0.25742814
85	0xbcab0a69	-0.020878987
86	0xbeb2ff43	-0.34960374
87	0x3f6be52c	0.92146564
88	0xbcda3df8	-0.026640877
89	0xbb9eeafd	-0.00484979
90	0xbc4ff9f5	-0.012693872
91	0xbe9c131b	-0.30483326
92	0xbc770263	-0.015076253
93	0x3c6ff961	0.014646859
94	0xbc189ddb	-0.009314979
95	0xbe9dc5c9	-0.3081496
96	0xbf0748ed	-0.5284565
97	0xbe92dfa1	-0.2868624
98	0x3bd23fbb	0.0064162887
99	0xbe9e1ce1	-0.30881408
100	0x3cdb8764	0.026797958
101	0xbc183066	-0.009288883
102	0xbb3d8962	-0.0028920998
103	0xba4f8766	-0.0007916599
104	0xbc3b15d3	-0.0114187775
105	0x3faa0a2d	1.3284355
106	0xbe9dc69f	-0.30815598
107	0xbea84983	-0.32868585
108	0xbe9fd152	-0.31214386
109	0xbccfc1f2	-0.025361035
110	0x3c51b23f	0.012798845
111	0x3c3ed218	0.01164677
112	0x3cd4b3a0	0.025964558
113	0xbeb10a65	-0.34578243
114	0x3f8c761d	1.0973545
115	0x3ce03fdf	0.027374206
116	0xbcce1aea	-0.025159318
117	0xbc3f130c	-0.011662256
118	0xbb65f60d	-0.0035089285
119	0xbe9e3159	-0.30897024
120	0x3d17820f	0.036989268
121	0x3c5cc455	0.013474544
122	0xbe902915	-0.28156343
123	0xbc46e8d8	-0.012140475
124	0x3cb952dd	0.02262252
125	0xbc141185	-0.00903738
126	0xbe980b3e	-0.29696077
127	0xbcff46b1	-0.031161638
128	0x4004731c	2.0695257
129	0xbc00498f	-0.007830038
130	0xbe9cfc8e	-0.30661434
131	0xbea62cec	-0.32456148
132	0xbb52dac5	-0.0032173854
133	0x3b5fe03b	0.0034160751
134	0xbf12db45	-0.5736583
135	0x3c914ca8	0.017736748
136	0x3f1316c9	0.5745664
137	0x3f7b29bc	0.98110557
138	0x3f852f97	1.0405148
139	0xbcfbc701	-0.03073454
140	0x3cd297b4	0.025707103
141	0xbe93be54	-0.28856146
142	0xbea35162	-0.31898028
143	0xbc41d02f	-0.01182942
144	0x3ccf9e08	0.02534391
145	0xbeae647f	-0.34061047
146	0xbcac06b7	-0.020999296
147	0xbc85892e	-0.016300764
148	0x3fb75ad2	1.4324591
149	0x4001ef6c	2.0302382
150	0x3ff9ddd7	1.9520825
151	0xbec93b8f	-0.39303252
152	0xbeabfc09	-0.33590725
153	0xbe881597	-0.26578972
154	0x3df863b1	0.121283896
155	0xbea8ac4b	-0.3294395
156	0xbcf6b3ba	-0.030114997
157	0x3cb73603	0.022364622
158	0x3c7a6509	0.015282878
159	0x4003917a	2.0557542
160	0x3c95a522	0.018267218
161	0xbe96c800	-0.29449463
162	0xbe971f1a	-0.29515916
163	0xbeb3489d	-0.35016337
164	0xbe998e63	-0.29991445
165	0xbe8f103b	-0.2794207
166	0xbcd92960	-0.026508987
167	0x3fae0c2d	1.3597466
168	0x3b9d829b	0.004806829
169	0x3cf86701	0.030322554
170	0xbeaa6405	-0.33279434
171	0x3c1021a3	0.008797082
172	0xbcd6bf02	-0.026214126
173	0xbcf2e80c	-0.029651664
174	0xbeaacd51	-0.3335977
175	0xbe8d7c49	-0.27633885
176	0x3ca5475f	0.020175634
177	0x3c0e0eb8	0.008670501
178	0xbea5c994	-0.32380354
179	0xbbb214ff	-0.005434632
180	0x3cecd667	0.028910829
181	0xbc3fd932	-0.011709498
182	0xbea222b1	-0.31667092
183	0xbe9b8571	-0.30375245
184	0x3c9f937c	0.019479506
185	0x3c3e2b7c	0.011607047
186	0x3c6ea965	0.014566754
187	0x3c103141	0.008800806
188	0xbb7df643	-0.003875152
189	0x3cae2a8b	0.02126052
190	0xbca7963c	-0.02045738
191	0x3ccdcc06	0.0251217
192	0x3cf6eb18	0.030141398
193	0xbe9a3c67	-0.30124208
194	0xbea99f82	-0.33129507
195	0xbc1223e3	-0.008919689
196	0xbe87e60b	-0.26542696
197	0x3b502b91	0.003176425
198	0x3ce26684	0.027636774
199	0xbe9dfc36	-0.30856484
200	0x3cf3dc8f	0.029768256
201	0xbcce7d72	-0.025206301
202	0x3fb109ef	1.3831156
203	0xbe9e1b35	-0.30880132
204	0x3c38835d	0.011261788
205	0xbc809418	-0.015695617
206	0x3c7ff904	0.015623335
207	0xbead12c0	-0.33803368
208	0xbcddd83c	-0.027080648
209	0xbc844570	-0.016146392
210	0xbefdde9f	-0.4958391
211	0x3c98c5a4	0.01864893
212	0xbe8ae603	-0.2712861
213	0x3ca1afea	0.019737203
214	0xbeab685a	-0.3347805
215	0x3f8f5509	1.1197826
216	0x3b058672	0.0020374325
217	0x3ce5ee50	0.028067738
218	0x3cd9ee5e	0.02660292
219	0xbe9cd253	-0.30629215
220	0x3ce05688	0.027385011
221	0x3ceb0115	0.02868704
222	0xba9d8b28	-0.0012019621
223	0xbeb6f20b	-0.3573154
224	0xbf05793e	-0.52138126
225	0xbe9b82ed	-0.30373326
226	0xbb27970e	-0.0025572213
227	0xbea11b53	-0.3146616
228	0x3cdb337c	0.026757948
229	0x3c6191d2	0.013767676
230	0x3cb10d65	0.021612832
231	0xbc4a2309	-0.012337455
232	0x3cb96253	0.022629892
233	0x3fd86f8a	1.6909039
234	0xbe978b2f	-0.29598376
235	0xbeb86c29	-0.3602002
236	0xbe8ccecd	-0.27501526
237	0xbc7f8123	-0.015594753
238	0x3c74bfb1	0.014938281
239	0x3c014d2c	0.007891934
240	0xbbbd491f	-0.005776539
241	0x3d0aa860	0.03385198
242	0x3fc5cb91	1.5452749
243	0xbca47068	-0.02007313
244	0x3cbc8ed8	0.023017332
245	0xbcc9a041	-0.024612548
246	0x3c9a6b57	0.018850012
247	0xbe954d1a	-0.29160386
248	0x3d829c70	0.06377494
249	0x3cf0bf9a	0.029388238
250	0xbe9e0ff8	-0.30871558
251	0xbb68195f	-0.0035415513
252	0x3bd794d5	0.0065790215
253	0x3bfd5db8	0.0077321194
254	0xbe9ed14a	-0.3101905
255	0xbce88591	-0.028384002

linear_relu_stack.4.bias f4 [3]
0	0xbe3dd60f	-0.18538688
1	0xbd8ee74d	-0.06977711
2	0x3c8b5b2b	0.017011246
