DQN_target_net_Cartpole.pt (torch, 38784 bytes, 8 tensors)

linear_relu_stack.0.weight f4 [64, 4]
00000000: 27fd 9f3d d00e 5cbd 0e05 f6bd 0cf0 51bd
00000010: 1aee 12ba b609 89bd 2485 1c3e 5444 f7bc
00000020: f0b8 963d 4d80 473c 2fbe 0fbe b552 c8bd
00000030: 1d41 9bbd ed45 f6bd 4ae4 843e ff20 90bc
00000040: e704 c33d 7c55 e63c 6a82 c3be c200 953d
00000050: 07eb 9fbd 1dac e4bd 5e7c 9b3e db4e e1bc
00000060: 6982 b33d 1855 e0bd a9c1 9abd c64f abbc
00000070: 9afb ee3d b148 6ebc df17 43be dbaf 91bd
00000080: f309 f3bd 3d5e 523d 7210 42bd 55cf 453d
00000090: 4e1f bdbb 20ac 2b3d 8a81 a2bc 4ce7 b13d
000000a0: ad9b a7bc 9587 bb3d 4e97 63bd 8482 dfbd
000000b0: 8ad8 a9bd 188a 8abd 84d5 9ebd 5f3d dbbd
000000c0: 94a0 89bd 4e5d 023d 9de9 3b3d 3711 3c3d
000000d0: 6891 c4bd bd03 a83d 73ca 63bd c754 90bd
000000e0: 5286 99bc f482 913d b4d2 c53e 4ff5 be3d
000000f0: ea38 a23c 064c a7bb 701c 283e 4742 15bd
00000100: 4c60 d43c ee6c d93d 3996 86be 7124 53bd
00000110: 3224 9abd 410a 3a3d 078e 5ebd a911 00bc
00000120: f24c a3bb 7e78 6e3c 6fc9 75bd b4df 31bd
00000130: ba75 19be 4d02 4d3d daa8 5f3d 6f32 95bd
00000140: 24b2 8ebb 6e4a e83b f403 513d ebb8 bd3d
00000150: 4132 d13c 35d6 79bd 13f9 463e 3484 a8bc
00000160: 636d 12bb 1def 8abd 7866 80be 1dd5 e9bc
00000170: 7d80 133d 5c8c 723d 2cf2 86be 1db0 b0bd
00000180: 6a49 ff3b 4988 8aba bec5 023f 759a ed3c
00000190: ee0f a33c d6f8 33bd bb86 99be e5fc 0fbd
000001a0: a4e7 e73d 20f9 f9bb 5bc6 0bbe 9e46 a4bd
000001b0: 247d 4e3d e0c3 823d 1d7f d83e 8f6d 0b3d
000001c0: 0f95 21bd bb2d 3ebd 5baa c6bb c4a7 aabd
000001d0: ce26 9a3c 652a e5bc bab5 1f3e 9cfd d9bd
000001e0: 852e a33d 00a9 7d3c 2c89 633d d0db bcbd
000001f0: 33a6 c63d d7ab 54bd fa52 efbd deee adbd
00000200: aac1 833b 80f2 9bbd 229e 163e 586c 7d3d
00000210: 77b1 58bd 30ed f8bc 81cd c9bd 0ab2 d23d
00000220: fe88 8c3c 2bae 6fbd 8bd5 93be 88e8 fc3c
00000230: 0054 f03c 7ae0 9bbd 6db7 69bd b399 053d
00000240: 2032 31bd 03c9 cbbb 6dbe 16be 44c4 00bc
00000250: 47ef 083e d412 29bd a19b 86be f4de 893d
00000260: 2d6e 08be 3291 9a3d a2da 703e 98c8 6b3d
00000270: acab 8fbd 72a3 d8bd b00e 24be 63ce efbd
00000280: 23f3 813c 37f5 093e d1ac 0c3e 71d5 273d
00000290: 022d 9fbd 512a d13c 1819 8b3d 3d22 44bd
000002a0: 9a5b 073d e356 273c bd8b 81be 0d29 32bd
000002b0: 62db 9abc 84bf 7cbd cffd 8bbe 971e ea3b
000002c0: 6665 aabd d6f6 2d3d 67d6 333e 3937 c83d
000002d0: 18e4 6d3b bc59 6cbd 2113 5ebc 2098 24bd
000002e0: 70e3 b7bc 0874 87bc 410a 4fbe 8d9b c2bc
000002f0: 8076 8cbd 029c 183d 12e5 47be 04a1 67bd
00000300: ea95 dbbc 4294 ef3d 5de4 b83d 9af0 a5bd
00000310: 6645 9dbd 0652 bb3d 8701 49bc e046 103c
00000320: 766c abbd 9d79 623d 0d0d 653d d520 1239
00000330: b9eb cc3d 7217 b0bc e5e4 80bc 4bda 5dbd
00000340: 3601 6d3d 9d6b af3c 4dbc 053f b4a4 4c3d
00000350: 5efd d8bd d755 c53d 359d 38be ef47 8a3d
00000360: a37c 793c df81 a0bb e9b2 e7bd 697f 84bd
00000370: ef23 ce3c 4fab d53d 5767 89bc 022d b9bd
00000380: 39d6 7abd f43b 93bb 9111 1ebd 1e36 a8bc
00000390: 9f92 bebd b29a 40bd 3343 913b cc4a acbd
000003a0: 6679 dc3d f42d dabd e5c5 4c3e 2ce0 b63d
000003b0: be3d 073e 9df9 a0bd 3b2e 44bd e80e 95bd
000003c0: 855d d7bc 54dd 813d 010e 90bd 2cea d83d
000003d0: 610d 89bc fc84 0dbd c1b0 20bc a93d 1d3d
000003e0: 4736 a83d fa14 983c 1499 eb3d 126b a13d
000003f0: bb49 233d a104 cbbd 518a 87bc ecf7 7ebc
0.07811957 -0.053725064 -0.12012683 -0.051254317 -0.0005604938 -0.06691305 0.15285164 -0.030183949
0.07359493 0.012176585 -0.14037393 -0.097814 -0.07580779 -0.12025056 0.2595542 -0.017593859
0.095224194 0.028116934 -0.38185436 0.07275535 -0.078085 -0.111656405 0.30368322 -0.027503422
0.08765108 -0.1095373 -0.07556469 -0.020912062 0.11669083 -0.014543698 -0.19052075 -0.0711362
-0.11867132 0.051359404 -0.047378965 0.04829343 -0.005771554 0.041912198 -0.01983716 0.086866945
-0.020459974 0.091567196 -0.055564217 -0.10913566 -0.08293255 -0.067646205 -0.077555686 -0.10705065
-0.06720081 0.031827264 0.045877088 0.045914855 -0.095980465 0.08203838 -0.055612992 -0.0704742
-0.018740807 0.071050555 0.38637316 0.09324133 0.01980253 -0.0051054982 0.16417098 -0.03644016
0.025924824 0.1061648 -0.26286486 -0.051548425 -0.07526435 0.045419935 -0.054334667 -0.0078167105
-0.004983538 0.014555095 -0.060006555 -0.04342623 -0.14986315 0.050051022 0.05460439 -0.0728501
-0.004354732 0.007088951 0.05102916 0.09263786 0.025536658 -0.0609953 0.19430952 -0.020570852
-0.0022343032 -0.067838885 -0.25078177 -0.028544003 0.036011208 0.05921589 -0.26356637 -0.08627341
0.007790734 -0.0010569181 0.5108298 0.029004315 0.019905057 -0.04393848 -0.29985604 -0.03515329
0.11323479 -0.007628575 -0.13649885 -0.08021282 0.050412312 0.063850164 0.4228448 0.03404003
-0.039448794 -0.04643033 -0.0060627884 -0.0833278 0.018817332 -0.027974317 0.15596667 -0.10644075
0.07967857 0.015482187 0.05555074 -0.092216134 0.09699669 -0.05192169 -0.116857484 -0.08492826
0.0040208893 -0.076146126 0.1470876 0.061870903 -0.05290362 -0.030386537 -0.0985365 0.102878645
0.017155167 -0.05851571 -0.28873858 0.030872598 0.02933693 -0.07611175 -0.057059694 0.032617282
-0.043260694 -0.006219031 -0.14721079 -0.007859293 0.13372527 -0.04127772 -0.2629061 0.06731978
-0.13323279 0.07547225 0.23520902 0.057564348 -0.07015166 -0.1057805 -0.16021228 -0.11709287
0.015863007 0.13472448 0.13737799 0.040975038 -0.077722564 0.025532873 0.06791896 -0.047884215
0.033046342 0.0102135865 -0.25301924 -0.04349618 -0.018903438 -0.06170608 -0.27342078 0.00714476
-0.083201215 0.04247173 0.17562257 0.09776158 0.0036299285 -0.057702765 -0.013554365 -0.04018414
-0.022447318 -0.01653482 -0.20218755 -0.023755813 -0.068585396 0.037258156 -0.19520977 -0.05655004
-0.026804883 0.116982 0.09027932 -0.08102532 -0.07679252 0.09146504 -0.012268431 0.00880596
-0.08370297 0.05529176 0.05592065 0.00013935876 0.10005898 -0.021495555 -0.015734145 -0.05416326
0.057862483 0.021413619 0.5224045 0.04996176 -0.10595201 0.09635513 -0.1802872 0.067520015
0.01522747 -0.0048982943 -0.11313421 -0.06469614 0.025163619 0.10433065 -0.01677291 -0.09041788
-0.061239455 -0.004493231 -0.03859097 -0.020533618 -0.093053095 -0.04702253 0.0044330596 -0.08412704
0.107653424 -0.10653296 0.19997366 0.08929476 0.13207147 -0.0786011 -0.04789565 -0.07278234
-0.02628971 0.06341043 -0.07033921 0.1059154 -0.016730012 -0.034550652 -0.009807766 0.03838888
0.082134776 0.01856469 0.11503807 0.0788175 0.039865237 -0.09912992 -0.016545447 -0.015562039

linear_relu_stack.0.bias f4 [64]
00000000: ec94 a23d 7ac1 023e 5c01 83bd 8b25 cabb
00000010: a23d 09bc ae40 15bd c641 523d a6e4 00be
00000020: 2e60 fdbd 2597 9e3d 9390 acbd b0e7 7f3c
00000030: b18d d23d bc6c eb3d 900e c6bc 32c9 bf3d
00000040: 6769 0abe 7405 73bd 02c6 9e3d 5d86 c13c
00000050: aa3f afbb 73bd 003e c47a 563c a3a3 1dbe
00000060: b5ee bdbd d8d9 1a3e 8edf 25be 9aca 893d
00000070: e443 f23c e6de 1ebb 5150 e3bc 53b5 24bd
00000080: 22e7 943d e4bc 073d 647e 533d 7430 a83c
00000090: a905 a13d dae0 7d3d 4a10 08bd 1c97 5ebd
000000a0: 2b16 51bd 1ae0 05be bf5a d43d 7120 c93c
000000b0: b842 7d3d 85fa f1bd 4ae6 95bd 0b71 87bd
000000c0: 6209 193c c753 8bbc a002 b83d 5e6a f6bc
000000d0: 783f 913c 5f2a 713c 2b78 8f3b 457c b9bd
000000e0: 2868 15be 2455 a03d 3c4e db3a c86b 423c
000000f0: fd71 8a3d 640b 9d3d 3636 31be 58e4 2c3e
0.07938561 0.12769118 -0.06396744 -0.0061690263 -0.008376511 -0.036438636 0.051332258 -0.12587222
-0.123718604 0.07743672 -0.08426013 0.015619203 0.10280932 0.11495349 -0.024176866 0.09364547
-0.1351677 -0.059331372 0.07752611 0.02362364 -0.0053481655 0.12572269 0.013090793 -0.15394454
-0.092740454 0.15122163 -0.1619856 0.06728096 0.029573388 -0.0024241745 -0.027748259 -0.040211987
0.072706476 0.033139125 0.051634207 0.020530917 0.07862408 0.061982013 -0.03321866 -0.054343328
-0.05104653 -0.13073769 0.10368871 0.024551602 0.061831206 -0.11815361 -0.07319315 -0.06613358
0.009340616 -0.017007722 0.08984876 -0.030080017 0.01773046 0.014719575 0.004378339 -0.09056906
-0.14590514 0.07828739 0.001673169 0.011866517 0.06760023 0.07668188 -0.17305836 0.16883981

linear_relu_stack.2.weight f4 [64, 64]
00000000: 2923 523b eae3 f43c 6316 5ebc 3e5b c53c
00000010: 2031 2dbc 5106 1dbb 009e a53c e4ac dbbc
00000020: 5cf6 35bd 3a91 15bc 06de 2b3c 74ea 8b3c
00000030: 58bc 90bc 0be9 06bc 496f 3cbc f49b 90bc
00000040: 0574 0ebd e941 67bc c4d0 093d ff40 85bb
00000050: 9fd6 403c b304 c93c a0df afbc 469c c73b
00000060: cedd c7bc 2c13 103c c58b b2bc 39e3 32bc
00000070: 89a3 47bc 9ddd 8c3c aa4b 05bc 9bd7 d2bc
00000080: 7cd8 d53c 6d7d 80bb c2e7 3ebc d0a2 d53c
00000090: 25c0 0ebb f98f 9dbc f947 f93c cb02 60bb
000000a0: 55d0 40bc 9eb7 af3c e3f1 953b ab22 84bc
000000b0: a9d4 f63c ead1 f4bd b8d8 01be b433 11bc
000000c0: a165 e33c 9d17 813c 0a54 6fbc ee55 d9bb
000000d0: 063c 3f3d 80ea 0abd f08d bbbb a148 ce3c
000000e0: c24d 34bd b111 d63c f833 53bc e4ea c63c
000000f0: 2e30 d53c d2ca 6b3c daa2 2c3c de89 6ebb
00000100: dfc0 fb3c 5888 0abc 0fdb a2bc 1aef 483c
00000110: 6d45 59bc 7fd2 6ebb 9fa1 243c aef7 09bd
00000120: d783 afbc 68cd dd3c 2d77 c8ba 6a37 693b
00000130: 8df6 8a3c 8a19 a4bc 2b69 463c 58f3 ce3c
00000140: c9af 8bbc ab48 a83d 1bea 1a3b 08f0 97bc
00000150: 0bed 1f3c 3360 85bc 8ee3 ffba 977a c1bc
00000160: b109 e93b 1599 8a3c 5940 1dbd 70d1 b33b
00000170: 4583 d63c 4823 d3bc 35c4 2c3c 64d0 f7bc
00000180: 68fd d43c d85b 58bc 2c78 623c 5e05 373c
00000190: b139 acbc cf0e 3abc 7d3f 8a3d 5db1 753c
000001a0: 880a fabc 709d febb d1cb ca3b f2bd f8bb
000001b0: 0397 a9bc 3dfa e0bc b6e7 11bd 0f54 adbb
000001c0: 7aa1 9c3c 6ae8 6a3d 7dbb 9fbc 55fd db3a
000001d0: e8ce c73d c70e 013a 9984 f0bb cc11 c6bb
000001e0: ea92 94bd 3692 343c db60 9e3c ef47 643c
000001f0: bbd4 1e3b dd6d 19bb 55c6 383c 4949 68bc
00000200: ab04 c3bc c93e e43b 50da c73c 8572 ed3a
00000210: 60ee 0d3d ded3 053c d08d 6abc ace0 583c
00000220: 2463 403d 5fe6 cd3b 8173 20bc 0e6d b8bb
00000230: 6aa5 d6bc 1f8d 523c 8ca7 7b3d 1520 ab3c
00000240: f35d 0b3c d728 c1bb 60f5 723b 2533 823a
00000250: 5d60 1b3d 6197 8bbc 4258 4b3c 25ba 93bc
00000260: 9d3a 893e 758b 7d3c 553a 033d 9d4c b93c
00000270: 268f acbc 9794 ebbc 85f4 00bd 9051 e9bb
00000280: 186a b5bc f4b4 d53c e009 85bc f8d1 3f3c
00000290: 869b 303b 4277 a8bb 2975 063c 1d01 d83b
000002a0: ebae 0e3c 7745 8c3d 291b df3c 485c 393c
000002b0: eab3 2d3b a3c3 14bd f7d2 c83d 498a c73c
000002c0: 77e8 be3c f71b b9bc 46e3 5ebb 5f02 a33b
000002d0: c842 603d 8d39 9f3c 85e9 90bc fccf 9b3c
000002e0: ff2c 923d b134 ba3b 4090 83bc cee8 d63b
000002f0: 743b b23c 7153 d2b9 05ed 443d 7fe2 0cbc
00000300: 7f82 983d fe91 b63d 5826 9abc 410e 91bd
00000310: 43e9 9cbd bf6f c3bd e8d5 1f3d 28fd 0ebd
00000320: f29a a1bd 95d9 263d fda8 8fbd 46ad 9238
00000330: f180 603d d814 c9bc f29f e3bc c642 4d3d
00000340: c5ce c2bd 60e1 edbc cbc3 213d 06c1 aa3b
00000350: 892e 87bd b449 8b3d 274b 06be 8653 0cbd
00000360: 55e1 8cbe 6cc9 fd3c 2b6f a3bd 4a38 523c
00000370: 8edf 8a3d 5b58 bb3d 506f b1bc 43be 0cbd
00000380: a782 43bd b54f a3bc 7340 f23c 3c88 763c
00000390: 8472 f03c 3b34 c2bc 96a9 00be 1568 2e3d
000003a0: dbd1 923c d6ed adbc ad22 763d c375 4a3d
000003b0: 150d 953c 731b c2bd 2472 bebe f3b7 9fbd
000003c0: e8bb 7e3d 39f6 803d 7ac2 323d 469b 50bc
000003d0: e0ac 68bc 71aa 163c 5988 efbc 0967 d4bc
000003e0: ee48 85be acf9 56bc 296c 79bd 1043 9dbc
000003f0: 79e2 2a3d bc3f 3ebd 8729 7dbe 2862 153d
0.0032064414 0.029893834 -0.013555142 0.02409136 -0.010570794 -0.0023960064 0.020216942 -0.02681584
-0.0444244 -0.009128863 0.010489946 0.01707957 -0.017667934 -0.008234273 -0.011501142 -0.01765249
-0.034778614 -0.014114835 0.03364636 -0.004066586 0.01176992 0.024538374 -0.021468937 0.0060916273
-0.024397757 0.008793633 -0.021795163 -0.010918432 -0.012184986 0.017195517 -0.0081357155 -0.025737574
0.026104204 -0.003921202 -0.011651935 0.026078612 -0.0021782008 -0.01923369 0.030429827 -0.0034181352
-0.01176842 0.02144986 0.0045759543 -0.016129812 0.030130701 -0.119541004 -0.12680328 -0.008862425
0.027758421 0.01575833 -0.014607439 -0.006632558 0.046688102 -0.033915043 -0.0057237074 0.025181117
-0.044019468 0.026131483 -0.012890808 0.024281926 0.02602395 0.014391618 0.010536874 -0.0036398093
0.030731617 -0.008455358 -0.019879846 0.0122640375 -0.013261181 -0.0036441383 0.010048299 -0.03368347
-0.02142517 0.027075484 -0.0015294306 0.0035586008 0.016963268 -0.02003171 0.012110035 0.02526252
-0.017051594 0.08216985 0.0023638073 -0.018547073 0.009761105 -0.016281223 -0.0019522773 -0.023618026
0.007111751 0.016918698 -0.038391445 0.0054876134 0.026185641 -0.02577366 0.010544826 -0.030250736
0.02599974 -0.013205491 0.0138225965 0.011170713 -0.021023603 -0.01135607 0.06750391 0.0149959
-0.0305226 -0.007770233 0.0061888476 -0.0075910026 -0.02070189 -0.027463073 -0.035621367 -0.0052895616
0.019119967 0.057350554 -0.019498581 0.0016783873 0.09756261 0.00049231615 -0.0073400256 -0.006044602
-0.07254584 0.0110211875 0.019333294 0.013933166 0.0024235684 -0.002341143 0.011277755 -0.014177629
-0.023805937 0.0069654924 0.024396092 0.0018115795 0.03465116 0.008168189 -0.014316037 0.01323716
0.046969548 0.006283566 -0.009793163 -0.0056282347 -0.026201922 0.012851029 0.061439082 0.020889321
0.008506286 -0.005894761 0.0037072524 0.0009933455 0.037933696 -0.017039957 0.012411179 -0.018033097
0.2680253 0.015475144 0.03203805 0.02261954 -0.021064352 -0.028757377 -0.031483192 -0.0071203187
-0.022145316 0.026087262 -0.01624006 0.011707775 0.0026948168 -0.0051411698 0.008206644 0.0065919296
0.008708696 0.06849187 0.02723463 0.0113135055 0.0026504942 -0.036319386 0.09805863 0.024357932
0.023304207 -0.022596342 -0.0034009977 0.004974648 0.054751188 0.019436622 -0.017689476 0.019020073
0.071374886 0.005682551 -0.016059995 0.006558514 0.021756865 -0.0004011649 0.048077602 -0.008598923
0.07446765 0.089145645 -0.018817112 -0.07082797 -0.07661679 -0.09542798 0.039022356 -0.034909397
-0.078908816 0.040734846 -0.07014654 6.994097e-05 0.054810468 -0.024546072 -0.027786229 0.05011251
-0.095120944 -0.029038131 0.039493363 0.0052109985 -0.06600673 0.06801167 -0.13114606 -0.03425934
-0.27515665 0.030979834 -0.07980188 0.012830803 0.06780921 0.09147712 -0.021659523 -0.034361135
-0.04773202 -0.019935468 0.029571747 0.015047129 0.02935148 -0.023706546 -0.12564692 0.04257973
0.017922333 -0.021231573 0.060091663 0.049428713 0.018194715 -0.09477892 -0.37196457 -0.077987574
0.06219092 0.06296963 0.0436425 -0.012732333 -0.014201373 0.00919591 -0.02923982 -0.025928037
-0.26032203 -0.01312105 -0.060894165 -0.019197017 0.041719887 -0.0464475 -0.24722873 0.036470562

linear_relu_stack.2.bias f4 [64]
00000000: 715a fd3b f76b cf3b 2a96 1abb 18cd 6e3d
00000010: b897 fb3c 155f 67bb f00b a1bc 7e80 4cbb
00000020: e5ba 34bd 4380 ed3c 81d6 75bd 48d9 9c3a
00000030: 54b0 043d 162d a23c 5805 983c 69c1 763c
00000040: 8289 d6ba e013 2b3c f90b 71bc 8aa8 a4bc
00000050: b336 103d af4c c5bc c891 763c 039e 9b39
00000060: 92c7 38bb eccc f63a ab98 ed3c 6079 503d
00000070: d316 083d 6d5f 9abc b4a9 bbbb 6a09 9cbc
00000080: 7e3f 29bc c45b 97bc 742e e2bc 7668 3c3d
00000090: be9b a7bc 5037 993c 787e 4a3d 051e 24bc
000000a0: e6bb 0d3c 7cf4 6d3c e9ba baba d298 363c
000000b0: 520c ba3b 3fab 8dbc 18fe ae3c ec4b d53b
000000c0: acf3 b03d 5946 98bc 56aa 133d 38cd 003d
000000d0: 1bda 2c3d c16d 3b3d 571c b0bc d7b2 c03c
000000e0: b54a 023d 0d32 01bc 7a1e d23c b817 68bc
000000f0: f337 983c cc7e 09bd c134 b7bb d8ef e03c
0.0077317287 0.006330009 -0.002358804 0.05830106 0.030711994 -0.0035304476 -0.019659013 -0.0031204517
-0.04412355 0.028991824 -0.06001902 0.001196661 0.032394722 0.01979689 0.018557236 0.015060761
-0.0016367885 0.01044175 -0.014712327 -0.020099897 0.035208415 -0.024084417 0.015049405 0.00029681632
-0.0028195125 0.0018829382 0.029003462 0.050897002 0.033224892 -0.01884433 -0.0057270173 -0.019047458
-0.010330079 -0.018476374 -0.027610041 0.04599806 -0.020460006 0.018703133 0.049437016 -0.010016923
0.0086507555 0.014523622 -0.0014246377 0.011144834 0.005677738 -0.01729357 0.021361396 0.0065092947
0.08640227 -0.018588232 0.036051117 0.03144571 0.04220019 0.045758966 -0.021497888 0.023522777
0.031809527 -0.007885468 0.025649298 -0.014165811 0.018581366 -0.03356819 -0.0055910056 0.027458116

linear_relu_stack.4.weight f4 [64, 64]
00000000: 6219 a6bc d888 d43b 589b e33b 3305 acbd
00000010: c640 d93c 21aa ac3d 1ffa a23c 9144 e93b
00000020: 7ce5 283e 4367 05bb 849a ea3d 56e0 7c3c
00000030: 85cf 8ebc f7eb 82bc 0f2c f2bc 2055 a2bb
00000040: 06e6 923c 0e69 a73b 9eac 7e3c 9834 733c
00000050: ae49 0f3d d6c1 4abc 575e 103d bd22 9bbc
00000060: 14b4 153d 2453 8abc a8fe efbc dd49 09bd
00000070: 0759 2e3b d14c 6fbc 8937 893b d0ff c8ba
00000080: 9347 d83b 551d 5c3d 9e14 1e3c 3e71 55bc
00000090: aa1b b5bb 311b 643c 094b a3bc a017 923c
000000a0: 3cf9 0e3b 2bd4 c6bb 81b5 c7bb 293d 05bc
000000b0: abad 28bc e6d2 12b8 69ea 20bc caa4 2e3c
000000c0: 1f99 b4bc b1e1 c33c 971b 65bc 072a 14bc
000000d0: 5bfa 96bb 78ab 0e3d aedc e1bc 70af a1bc
000000e0: 6442 093d 3f1c 2db9 3ba6 da3a 56d2 ca39
000000f0: 7f8a c33c 8be3 323d 44ad c5bb db5b 013a
00000100: cf2e 17bc e586 c43c d00a 8e3c f467 813d
00000110: fd08 59bc 3411 8fbc 05dd 48bb 1420 59bd
00000120: b1be 26bd 80d4 363c b1c0 68bb cc9d 03bc
00000130: 979d da3c 5c7c 813c 3935 a1bc ec04 1ebc
00000140: b5b8 663c 2004 8b3d 91ef 40bc 0e66 8dbc
00000150: 6272 d4bb dd35 1a3c 0310 bb3c aea5 8c3c
00000160: 7944 59bd 5323 edba 40c5 2f3c 4da0 86bc
00000170: b641 43bc 3328 983c d6fd 12bc f8ce bbbc
00000180: 3325 123c 10fe 4fbd b10f dfbc b369 2dbc
00000190: d9f1 8e3c d091 093c 53b0 a03c 64ee 38bc
000001a0: ea1d 79bb 3f36 eb3c c142 d3ba f081 883c
000001b0: 7a26 663b 4912 c73c 0396 babc ad8d 26ba
000001c0: bc33 59bc 5a4b 2b3c 105f 0d3c 171a ecbc
000001d0: e258 c3bc a25a 0bbc 8e69 0fbc de2a 8e3c
000001e0: 45e0 133c 818e bbbc 3927 663c 429d 6a3c
000001f0: ad40 92bc 69c9 9dbd eec7 3ebc c0b5 963c
00000200: a5cb eb3c 92c1 d0bb 2ee5 c8bc 2f53 1b3e
00000210: 07d8 9d3c d555 4dbe f19f ebbc 774a e03c
00000220: 53a0 6ebe 72a0 67bc 6381 8dbe 6b19 b1bc
00000230: e699 63bc b6c1 d83c b4a9 4cbc 5c72 c03c
00000240: 56c4 b8bd 128d 6fbc 5091 503c 79a4 463c
00000250: 9232 9f3b 7486 88bc 5565 ec3c 548f 2f38
00000260: 0c2b c43c e440 c9bb 6d4a 333b 28aa 4e3d
00000270: a5fd 07bc bc75 b43c 3a2e 00bc e4e3 d4bc
00000280: 21d2 343c 6311 28bd 4024 8ebc e737 d53c
00000290: e850 c3bb a907 ed3c bba8 943b ebb4 703c
000002a0: 98fe 30bc 27a7 ef3a 5eb7 18bc d06c 8d3c
000002b0: 15e2 c43b a8d3 44bc 8d19 c2bc 1c5c d4bb
000002c0: 63e0 80bc b4c0 91bc 1db8 9abc 7e16 c43c
000002d0: 08bb 4d3c 30b5 d0bc 0033 243c 3f91 883c
000002e0: 5744 693c 32a8 0cbc acd8 523b 56b6 53bc
000002f0: edda ed3c b936 36bb c120 233d 3f30 d23b
00000300: adb0 8cbb f135 2abc 2aa3 e6bc df19 a53b
00000310: 005f c6bc 7b9d b13b a62d e4bc 1971 b43c
00000320: cc6a 35bd 9f11 c3bb b3f6 883c 0863 963b
00000330: e447 d03c dda9 89bb a21e 4a3c 987b b53a
00000340: 6bed 9a3c 4e10 893b ada3 6dbb 1ce8 d63a
00000350: 3502 113c 4c85 44ba c943 39bb 7b87 c93c
00000360: ee2f 3d3c d0e4 d7bc 4439 99bc 9cc1 c5bb
00000370: 52c9 53bc 1246 43bb c562 e43b c8ed db3b
00000380: 0e99 7a3c b58b 98bc 7072 c8bc a799 ac3c
00000390: 5843 d73c 8b88 1dbc cf97 c5bb c298 a8bb
000003a0: 13f9 aa3c f7fc 12bd 38df dfbb 84ff 903c
000003b0: cf0c 86bc e832 523c 62c3 94b8 e79b 05bc
000003c0: 1863 da3b ad1c 743c d829 353c 2cee 78bc
000003d0: 8112 28bc e033 42bc d8c2 77bc e278 cbbc
000003e0: c3d3 f1b9 3c52 d93c de96 683c 2b31 4b3c
000003f0: 90b3 61bc a27e d53c 8da4 5a3c 7995 5dbc
-0.020275775 0.0064860396 0.0069460087 -0.08399429 0.026520144 0.08430887 0.019894658 0.0071187695
0.16493791 -0.0020355738 0.11455253 0.015434345 -0.017432937 -0.015981657 -0.029562024 -0.0049539953
0.01793195 0.005108959 0.015544085 0.014844082 0.034982376 -0.012375316 0.03524622 -0.018937463
0.03654869 -0.016885348 -0.029296234 -0.033517707 0.0026603357 -0.014605717 0.0041875285 -0.0015335027
0.006600329 0.05373891 0.00964847 -0.013027487 -0.0055269795 0.013922499 -0.01993324 0.01783353
0.0021816036 -0.006067773 -0.006094635 -0.0081322575 -0.010295312 -3.5005527e-05 -0.009821513 0.010659406
-0.02204567 0.023911329 -0.013983629 -0.009043223 -0.0046074814 0.034831494 -0.027571049 -0.019736975
0.03351058 -0.00016509088 0.0016681621 0.00038685155 0.023869751 0.043674033 -0.0060326178 0.0004934647
-0.009227469 0.023990104 0.01733914 0.063186556 -0.013246772 -0.017464258 -0.0030649316 -0.053009108
-0.0407092 0.011159062 -0.0035515244 -0.008033227 0.026686473 0.01580637 -0.019678699 -0.009644728
0.0140821235 0.06787896 -0.011775867 -0.017260578 -0.006483362 0.009412256 0.022834783 0.017168846
-0.053043816 -0.0018092192 0.01072818 -0.01643386 -0.011917522 0.018573856 -0.008971652 -0.022925839
0.008920002 -0.050779402 -0.027229162 -0.010584283 0.017449306 0.008396581 0.019615328 -0.0112873055
-0.0038012215 0.02871239 -0.0016117917 0.016663522 0.0035118149 0.024300711 -0.02277661 -0.0006353509
-0.013256963 0.010454977 0.008628622 -0.028821034 -0.023846094 -0.008505495 -0.008753194 0.017354425
0.009025638 -0.0228951 0.014047437 0.01431972 -0.017853105 -0.077044316 -0.011644347 0.018397212
0.028783629 -0.0063707316 -0.024523344 0.15168451 0.019268049 -0.20052274 -0.02876279 0.027379258
-0.23303346 -0.014137374 -0.27637777 -0.021618566 -0.013891673 0.026459556 -0.012491632 0.02349203
-0.09021823 -0.014621036 0.012729958 0.012124174 0.0048583234 -0.016665675 0.028856913 4.1856736e-05
0.023946308 -0.006141769 0.0027357594 0.050455242 -0.00830022 0.022028796 -0.007823521 -0.025987573
0.011036427 -0.041032206 -0.01735127 0.026027633 -0.0059605725 0.028934317 0.004536716 0.014691572
-0.010802887 0.0018284068 -0.009321062 0.0172638 0.0060083964 -0.012013353 -0.023693824 -0.006480707
-0.015731996 -0.017792083 -0.01888662 0.023936506 0.012556799 -0.025477022 0.010021925 0.016670821
0.014237485 -0.008585023 0.0032172604 -0.01292189 0.029035056 -0.0027803613 0.03982616 0.006414443
-0.0042935223 -0.010388837 -0.028153975 0.0050384845 -0.024215221 0.0054203845 -0.027853798 0.022026585
-0.044291303 -0.0059530283 0.016719198 0.004589442 0.025424905 -0.0042011575 0.012336405 0.0013846038
0.018912038 0.004182852 -0.0036260888 0.0016396078 0.008850624 -0.00074966694 -0.0028269163 0.024600735
0.011547072 -0.026354223 -0.018704064 -0.006035043 -0.0129264165 -0.0029796404 0.006969782 0.0067116953
0.01529528 -0.018621305 -0.02446863 0.02106936 0.02627723 -0.009615074 -0.00603006 -0.0051451633
0.020870721 -0.035885777 -0.0068320297 0.017699964 -0.01636353 0.01282952 -7.093583e-05 -0.008154846
0.006664645 0.014899415 0.01105734 -0.015193503 -0.010258318 -0.011853188 -0.015122138 -0.024837915
-0.00046124877 0.02652847 0.014196126 0.012401859 -0.013775721 0.02606136 0.013344896 -0.013524407

linear_relu_stack.4.bias f4 [64]
00000000: e106 00b8 0842 fb38 8131 5c3c 7d8d f5bb
00000010: 64f6 c43c 45dd b13c fe40 c8bc de18 a7bc
00000020: df81 2cbc 6a9e 893c 2892 75bc ab0b 693c
00000030: 8276 933c 8124 a33b 6b25 85bb 6024 4bbc
00000040: 2560 e03c da3e 88bc 5657 9f39 e46b 2fbc
00000050: 5942 363c df81 d93a 027a d13b 8ecd 58bc
00000060: e8b2 683c 3e3e cebc be4b 54bc 7277 cabc
00000070: 0a45 843c 6293 023d f6c5 1bba b8d8 5d3c
00000080: cd2b d5bc 529b e23c 53bd f2bc d3ce b239
00000090: 2578 333c 9580 8a3b 74c2 a8b9 47a0 b7bc
000000a0: 5f6e 9b3c 6c04 ac3c 4ad2 b63c d059 a83a
000000b0: 8253 f73b 7c62 5a3c e9fe a23c 24f9 9d3b
000000c0: 5fa8 993b 89f5 5d3b 5ff5 31bc 7f00 f83b
000000d0: e03a 7abc 6503 79bb 43dd ea3b a869 a13c
000000e0: 6f1d 2bbc bbf5 cd3c 6d87 1f3e 87fe 903c
000000f0: 8bdc 453d 2cce 92bc 505f 103c ca45 753c
-3.0523985e-05 0.00011980912 0.013439537 -0.0074936734 0.02404327 0.021711955 -0.024445053 -0.0203976
-0.010529011 0.01679917 -0.01498846 0.014223973 0.018000845 0.004978717 -0.0040632985 -0.012398809
0.027389595 -0.016631532 0.00030391914 -0.0107068755 0.011124217 0.0016594491 0.0063927183 -0.013232602
0.014202811 -0.025176164 -0.0129575115 -0.02471516 0.016146202 0.031878836 -0.0005942279 0.013540439
-0.026021862 0.027661953 -0.029631292 0.00034104902 0.010953938 0.004226754 -0.00032188336 -0.022415293
0.018973527 0.020998202 0.02231707 0.0012844149 0.0075477967 0.013329145 0.019896941 0.0048209596
0.004689261 0.0033868274 -0.010861724 0.0075684185 -0.015272826 -0.0037996408 0.0071674897 0.019703701
-0.010444029 0.025141587 0.15579005 0.017699493 0.04830603 -0.017920576 0.008811787 0.014970252

linear_relu_stack.6.weight f4 [2, 64]
00000000: e738 163c 6fe0 063d 9e6b 293d 2726 993c
00000010: 28b5 db3c 5696 233d ecdd a9bd 09d5 91bd
00000020: 8dda 9dba 2403 eabc a677 5a3d 0f36 013d
00000030: 67f0 1b3d 0c71 d6bd 7746 10bd 15cb a73c
00000040: 0977 143d cced c13c 4ce5 22bd f996 43bb
00000050: c66a 87bd 0903 203c be71 30bd 3ff4 673c
00000060: 9df0 6d3c 7d06 7c3c 30ee b2bc 93a1 c8bd
00000070: fec4 383c 31ab 5abb 174e 4bbe 6608 c03c
00000080: b873 cd3b cb9f 003d 97bc 843d c3a4 ab3c
00000090: 1480 fdbb 16a3 a4bd 064a 983c a6e6 78bb
000000a0: cf5b d7bb 3405 1d3d b21a 493d 6b06 4c3c
000000b0: 0b4d 04bd dd67 1bbd f038 493d f59f c4be
000000c0: b5cf 1bb9 eb0c bfbe c469 1e3d 2084 223d
000000d0: 4411 88bd 81fc fd3b 0412 dd3b e2d9 423d
000000e0: 3f91 f23c 2a11 d53d 1988 173e 22b5 0bbe
000000f0: 5771 b03d 8d23 f03b c79f a13c 4bf2 3e3d
00000100: 2bfd cebc f82a 65bc 085c ae3c 21cc 74bc
00000110: 9f8a 853c af87 2bbc 60b2 42bd 9c18 c139
00000120: a2a9 a63c a471 19bc 220f 0b3d 8207 9c3c
00000130: 8c2d adbb c658 3ebc 7dad 0e3d d0f9 293b
00000140: 50a5 c63c 8250 df3c b39e dbbc f576 333c
00000150: e7f0 aebc 35da e43c 5d0e e8bc d314 3d3c
00000160: 77df 733c ca99 51b9 fffd a9bb f925 17bd
00000170: f804 503c 0d4c fc3b e803 16bd 989c a0bb
00000180: 0a50 d83c 9fd8 d8bc bac8 9fbc 109a f3bb
00000190: 6da8 20bc 56af 4ebc 1de6 dbbc 35f0 1ebb
000001a0: 4283 c7ba 95fc 993c c422 183c 6188 d43c
000001b0: 5962 dbbc 2686 ecbb 1a22 0abc d6d5 5fbd
000001c0: c368 1b3c 2e2e eebe d593 b9bc e451 e0bc
000001d0: 8564 8dbd 37e2 c3bb 581e e93c df9c 323c
000001e0: 85cf debc 6f13 84bc aa26 763e b590 7dbc
000001f0: 8e51 383e e457 893c b313 6b3d 44fa 483c
0.00916884 0.03292888 0.041362397 0.01869495 0.02681978 0.039938293 -0.08294281 -0.07120711
-0.0012043283 -0.02856595 0.053336762 0.031545695 0.038071062 -0.10470781 -0.03522345 0.02048258
0.036246333 0.02367296 -0.039769456 -0.0029844625 -0.06612162 0.009766349 -0.043077223 0.014157354
0.014522699 0.015382406 -0.021842092 -0.09796443 0.011277435 -0.0033366198 -0.19854008 0.023441505
0.0062698983 0.03140239 0.06481283 0.020952588 -0.0077362154 -0.08038919 0.018589985 -0.0037979274
-0.0065722237 0.03833504 0.049097724 0.012452702 -0.032300036 -0.03794085 0.049126565 -0.38403288
-0.00014859329 -0.37314543 0.038675085 0.039676785 -0.06643918 0.007751048 0.0067465324 0.04757107
0.029610274 0.104036644 0.14798011 -0.13643315 0.08615368 0.0073284567 0.019729508 0.046617787
-0.025267204 -0.013987295 0.021284118 -0.014941246 0.016301451 -0.010469361 -0.047533393 0.00036830164
0.02034456 -0.009365473 0.03394998 0.019046549 -0.0052849706 -0.011617845 0.03483342 0.0025936253
0.024248749 0.027260069 -0.026809072 0.010953655 -0.021355106 0.02793608 -0.028327161 0.011540609
0.014884821 -0.00019989084 -0.0051877494 -0.036901448 0.012696497 0.0076994956 -0.03662482 -0.00490148
0.026405353 -0.02647048 -0.019504894 -0.007434137 -0.009805781 -0.0126150455 -0.026843125 -0.0024252061
-0.0015221613 0.018797198 0.0092856325 0.025943937 -0.026780294 -0.00721814 -0.008430982 -0.05464729
0.009485426 -0.46519607 -0.0226535 -0.027382798 -0.06903938 -0.0059778946 0.028456852 0.010901659
-0.027198562 -0.016122548 0.24038187 -0.015476395 0.1799986 0.016765542 0.057391834 0.012266699

linear_relu_stack.6.bias f4 [2]
00000000: 312c a03c 774d 2cbc
0.019552322 -0.010516516
