DQN_target_net_Pendulum.pt (torch, 76072 bytes, 6 tensors)

layer1.weight f4 [128, 3]
000000 6d 44 7d be 59 43 90 3f a5 b5 69 3e 36 02 86 be
       -0.24733134 1.1270553 0.22823198 -0.26173562
000010 b7 cb 57 3e 4d 72 68 be 68 39 ea be a9 5e e3 bd
       0.21073805 -0.22699852 -0.45746922 -0.11102039
000020 63 1c 45 be 33 b1 74 be 13 30 ed bf 58 fb cb be
       -0.1924911 -0.23895721 -1.8530296 -0.39840198
000030 15 38 6c bf 5d b7 25 bf 63 eb 83 be d1 eb 0b bd
       -0.92273074 -0.64732915 -0.25765523 -0.03416044
000040 8e 54 8c 3e a1 7a d6 be fe 41 73 be 09 6a 9d bf
       0.2740826 -0.41890433 -0.23755643 -1.2297984
000050 b3 40 7c be db de 9d be 1b af a7 bf 71 4a 10 bf
       -0.24634056 -0.30834088 -1.3100313 -0.5636359
000060 25 2e 81 3e 4c 02 1d 3e 81 44 1d bf 66 d6 d8 be
       0.25230518 0.15332907 -0.61432654 -0.42351073
000070 bf 35 77 3b aa fa 18 bf 4a 5f ab be 12 70 70 bd
       0.0037721244 -0.59757483 -0.33471137 -0.05870063
000080 50 93 02 be 78 3f 0d bf d3 2e 27 3f 83 60 08 bf
       -0.12751508 -0.5517497 0.65305823 -0.53272265
000090 0d 1a 9d be 0a 72 b7 be ea ea e8 be 4e 7a 98 3f
       -0.30683938 -0.35829192 -0.45491725 1.1912324
0000a0 c5 03 2c 3e 1f 8d 95 3d aa d5 04 bf 90 58 af bf
       0.16798313 0.07302307 -0.51888525 -1.3698902
0000b0 61 1d a4 be a8 f0 87 be e4 b7 11 c0 f5 d2 01 bf
       -0.32053664 -0.26550794 -2.2768488 -0.5071252
0000c0 ee 2c b8 3e 69 00 e9 3d 9f 36 b8 be da b8 57 bf
       0.3597178 0.11377031 -0.35979173 -0.84266436
0000d0 32 f5 fe bf bc 3d e0 be 77 26 61 bf c2 c0 73 3f
       -1.9918578 -0.437971 -0.8794932 0.95216
0000e0 f6 70 95 3e 91 62 35 3e 33 89 24 3f c5 3a 88 3d
       0.29187745 0.17713381 0.6427185 0.066518344
0000f0 36 97 ed 3e 7a ab b7 bf 7a c3 a2 be 3c f7 69 bf
       0.46404427 -1.4349205 -0.31789762 -0.91392875
000100 69 75 38 bf 03 82 83 be bc 24 62 bf d0 46 0c bf
       -0.72054154 -0.2568513 -0.883373 -0.5479555
000110 3b 59 25 bf bf 3a 0c bf 0e 03 76 bf 97 0d 7c be
       -0.6458928 -0.5477714 -0.9609841 -0.24614559
000120 23 6b 8b bf 5e 9c c0 bf a8 9c cc be 02 36 98 bf
       -1.089207 -1.504772 -0.3996327 -1.1891482
000130 ae ef 1d 3f 7e 70 70 be 92 3f 09 3f fb 24 89 3e
       0.6169385 -0.23480412 0.53612626 0.26786026
000140 64 c8 af 3e 1d 85 15 bf e6 c1 3f bf b6 bf 3d be
       0.34332573 -0.5840624 -0.7490524 -0.18530163
000150 ef 9f 4f bf 5c c0 cc bf b0 3e c2 be 19 c8 96 3e
       -0.81103414 -1.5996203 -0.37938452 0.29449537
000160 d0 d0 22 3d b8 09 ea 3b db 6c 97 be 2a 06 e2 be
       0.03974992 0.007142272 -0.29575238 -0.44145328
000170 b2 0b 17 bf fa 9e 15 be 01 1c a1 3f 80 fe 01 3f
       -0.5900222 -0.14611426 1.2586671 0.5077896
000180 d3 c5 ad bf a9 63 b8 bf f0 dc dc be aa 0c e8 be
       -1.3575996 -1.4405414 -0.43137312 -0.45322162
000190 82 b9 ac bf ec 5d a7 be fc cf 76 bf b6 b1 21 bf
       -1.3494112 -0.32688844 -0.9641111 -0.6316179
0001a0 32 51 87 be 36 f0 be be 97 54 9a 3d 23 ae 4d 3f
       -0.26429135 -0.3729264 0.075356655 0.80343837
0001b0 33 69 ab 3d 4b b8 ad 3d 99 52 81 3e f4 74 4b bf
       0.083696745 0.08482417 0.2525833 -0.7947533
0001c0 f1 ee f4 be 80 0e 5f be 47 e2 26 bf d5 18 12 3f
       -0.47838548 -0.21782875 -0.6518902 0.5706914
0001d0 36 2e 45 be fe 63 ac be 12 a4 c0 3f 90 12 87 3e
       -0.1925591 -0.33670038 1.505007 0.2638135
0001e0 4b 26 9f 3e 6d db a1 3e 11 ce 93 3d 51 b2 eb 3c
       0.31083903 0.3161272 0.072170384 0.028771551
0001f0 92 5d cb be 3d b5 77 3d 2b d0 d3 be 69 52 99 bd
       -0.39719826 0.060475577 -0.41369757 -0.074864216
000200 fe 90 18 be b2 4e 07 bf aa a8 cd be e4 88 16 be
       -0.1489906 -0.52854455 -0.40167743 -0.14700657
000210 92 43 b0 be d5 34 1b bf 4a bf be be 4e 86 9a bf
       -0.34426552 -0.6062749 -0.37255317 -1.2072237
000220 f9 e3 00 3f f4 01 3e be 20 0d ec be ad 30 60 3f
       0.5034786 -0.18555433 -0.46103764 0.87574273
000230 51 7a cf 3e 77 3f 6f 3e 80 59 b8 3e 44 05 c8 3b
       0.40523008 0.23364054 0.36005783 0.0061041433
000240 3c f7 ea be 06 78 b0 3f 40 ad 9d 3e 44 56 19 3e
       -0.4589175 1.3786628 0.30796242 0.14974314
000250 bf fc 5f 3f f6 c5 74 bc 21 31 41 bf c1 5f 65 bf
       0.87495035 -0.014939776 -0.7546559 -0.89599234
000260 bb 7a 66 3e 37 0c 40 3f 36 a3 6c bf 79 5e 93 be
       0.22507755 0.7501864 -0.9243654 -0.28783014
000270 79 e0 a7 bf 7b 71 96 bf 86 41 dd be de e5 df be
       -1.3115379 -1.1753381 -0.43214053 -0.43730062
000280 65 8b 5d 3d 6e 4d f6 bd 85 97 f3 be 32 2a 33 be
       0.054088015 -0.12026487 -0.47576538 -0.17496565
000290 e5 c0 94 3e e9 c3 3e 3e d6 cc e2 3f 06 0e c0 3e
       0.29053417 0.18629421 1.7718761 0.375107
0002a0 56 37 b9 be c5 e9 b4 bf c1 f3 a1 be 78 ca 2a be
       -0.3617503 -1.4133841 -0.31631282 -0.16678798
0002b0 81 70 ac 3f cb df 4c 3e a9 f4 db 3d 96 51 d1 3e
       1.3471833 0.20007245 0.107400246 0.40882558
0002c0 4d 3d 01 3f a1 56 4e 3d 67 db 1c c0 b4 91 16 bf
       0.5048416 0.050375585 -2.4508913 -0.58816075
0002d0 2a 59 7b be 23 1b 52 3e e4 66 1a bf e5 3a dc be
       -0.24545732 0.20518164 -0.6031325 -0.43013683
0002e0 dc 09 c3 bd 92 06 21 be 85 5f 23 3f fd 13 f3 3c
       -0.09523365 -0.15725163 0.63817626 0.029672617
0002f0 9c c8 12 bf cc e9 ff be aa a2 80 bf f4 97 7c be
       -0.57337356 -0.4998306 -1.0049641 -0.2466734
000300 6e df 07 bf e1 0c 9e 3e ea f1 3f 3e 53 2e 47 3f
       -0.530753 0.308692 0.18744627 0.7780506
000310 f7 bc f2 bf 7f cd d4 be f2 15 d2 3e 06 f6 4f be
       -1.8963917 -0.4156303 0.41032368 -0.20308694
000320 10 12 0e bf 2a 7f 30 bf 35 28 82 3f f1 04 8b 3e
       -0.5549631 -0.68944037 1.016852 0.27152207
000330 5e 88 50 3f 27 9c 36 be 73 0f aa 3e b7 ff 46 bd
       0.8145808 -0.17833005 0.33214912 -0.048583712
000340 89 af f4 bf ac 8e be be eb 92 3c 3f 51 e2 4c 3f
       -1.9116069 -0.37218225 0.7366168 0.8003283
000350 91 c8 76 3e ba f0 a4 be b3 54 e1 bf aa 27 c7 be
       0.24099948 -0.3221491 -1.7603973 -0.3889745
000360 66 74 26 be 96 53 0e 3e 1f 02 2d 3f 7e 31 c7 be
       -0.1625534 0.13899073 0.6758136 -0.38904947
000370 32 0b e3 be 23 9c ce be 7a 4b 27 bf 6c 35 87 3e
       -0.4434448 -0.40353498 -0.65349543 0.26407945
000380 16 fb 94 be 94 1f 2f bf 87 5d ff 3e 50 cb 4c 3e
       -0.29097813 -0.6840756 0.49876043 0.19999433
000390 78 ed 40 bf 0d dc 84 3f 2a 3c a2 3e 23 6a 28 bf
       -0.7536235 1.0379654 0.31686527 -0.6578695
0003a0 f4 9b 3b bf 68 ba 46 be 71 e0 21 bf df a6 4a 3f
       -0.7328484 -0.19407046 -0.63233095 0.79160875
0003b0 77 08 0f be ca 36 7b bf be 1a 19 bf e1 95 7e 3e
       -0.13968073 -0.98130476 -0.5980643 0.24861862
0003c0 41 14 15 bf 43 06 a1 3f a5 1a 9a 3e 82 cf 74 3f
       -0.5823403 1.2580036 0.30098453 0.9562913
0003d0 30 9d 85 3f 6b 92 ba 3e bf 0e 27 bd c7 9e 27 be
       1.0438595 0.36439833 -0.040785547 -0.16369162
0003e0 8f 97 c9 3d b5 05 2f 3f 9d 0f 5f 3e b1 40 be be
       0.09843361 0.68368083 0.217833 -0.3715873
0003f0 8d db 96 3f 3c 4a 8e 3f 2e 2c a9 3e 32 41 29 bf
       1.1785752 1.1116405 0.3304152 -0.66115105

layer1.bias f4 [128]
000000 b9 07 94 3d 9e c8 20 bb cd ed 4a 3f 79 85 0e bd
       0.072280355 -0.002453364 0.79269105 -0.03479526
000010 86 a1 3e 3f cd af 57 bf 25 98 a1 3e 6a 3d c5 be
       0.74465215 -0.84252626 0.3156139 -0.38523418
000020 80 36 5d be 80 b3 35 be ba 48 08 3f a6 2d 40 be
       -0.21602821 -0.17744255 0.5323597 -0.18767413
000030 f3 55 0b bf 4e 16 13 3f 05 75 96 3e 01 12 99 bd
       -0.54428023 0.5745591 0.29386154 -0.07474137
000040 8c e0 61 be 85 0d e0 be 16 bc 3a 3f b5 e9 55 3f
       -0.22058314 -0.43760315 0.72943246 0.83559734
000050 cc 04 83 be f4 3b 37 3f 76 6f 11 3e 24 03 be 3e
       -0.25589597 0.71575856 0.14202675 0.3711177
000060 12 6c e9 bd d2 10 0d bd 5f 5a 4f bf 5d e7 e5 3e
       -0.11397566 -0.03443987 -0.8099727 0.4490308
000070 2b d6 96 be 5d 06 e0 be 59 b1 f5 be fe 4d b9 be
       -0.29460272 -0.43754855 -0.47986868 -0.36192316
000080 2c 8f 4b 3d c3 3f 6c 3e b8 fd 48 3f df 91 0b 3e
       0.049697086 0.23071198 0.78512144 0.13629864
000090 7a 3a 35 bf ff a8 2b 3f 75 88 0e 3f 33 8a ef be
       -0.70792353 0.6705474 0.55676967 -0.46785125
0000a0 0f 46 59 3f 31 33 15 3f f7 d3 1e 3f fd 21 da 3e
       0.84872526 0.58281237 0.6204218 0.42604056
0000b0 9c 61 d7 3e de 06 a5 3d fa 00 4f 3d 43 e9 54 3f
       0.42066658 0.080579504 0.05053804 0.8316843
0000c0 55 55 54 be db 6e 3b 3f 62 14 f9 be e5 d8 23 bf
       -0.20735677 0.7321603 -0.48648363 -0.6400283
0000d0 53 62 73 3e 16 5b 07 3f 12 68 3b 3e 03 39 b2 3d
       0.23767976 0.5287336 0.18301418 0.0870228
0000e0 cb d7 11 3e 55 cb 0e bf c7 83 48 bf 31 2a d6 be
       0.14242475 -0.5577901 -0.78326076 -0.41829064
0000f0 44 1e aa be 28 7b 23 3f d7 ac 21 3e be da a7 3e
       -0.33226216 0.63859797 0.1578859 0.32784075
000100 c4 80 2d 3f 99 ab 8e 3e 6a 3a 0e bf 03 d3 09 3f
       0.67774606 0.27865294 -0.5555788 0.53837603
000110 a5 2d 2e 3f 3a ec 21 3e 56 9b 0c bf d9 8d 5f 3d
       0.680384 0.1581277 -0.54924524 0.054578636
000120 3f 7e e9 be d9 c0 7c be 8b 17 85 bf 28 5d 21 3f
       -0.4560413 -0.2468294 -1.039781 0.6303277
000130 bf 39 45 3e 67 8c 01 3f 7d 3d 49 bf b2 6f 06 3f
       0.1926031 0.5060486 -0.7860945 0.52514184
000140 d6 a2 c7 3e 51 eb f9 bd dd 17 48 3f 85 81 37 3e
       0.3899142 -0.12203086 0.7816141 0.17920502
000150 b5 df 25 3d b8 66 09 3f b3 b7 36 bf 15 3d 4d 3f
       0.040496547 0.5367236 -0.7137405 0.8017133
000160 1a f7 3e 3e 5f ff 51 3e 9f ea d4 3e d8 1d 1e 3f
       0.1864895 0.20507573 0.41585252 0.6176429
000170 9e 6c 2e be fc 9b 04 3f f9 2e 64 bf ff 25 de be
       -0.17033622 0.51800513 -0.89134175 -0.43388364
000180 04 b7 c3 3c 15 27 ac be ef e8 11 3e 98 fc 3c 3e
       0.02389098 -0.33623567 0.14249013 0.18455732
000190 07 eb 8d 3e 0e f0 08 bf 8a ee 41 3e 14 d5 ef 3e
       0.27718374 -0.53491294 0.18938652 0.46842253
0001a0 ca 0e cc be 9e 51 c4 be ba 85 63 3e 3b 4e 5a 3f
       -0.39855033 -0.3834352 0.22218981 0.8527562
0001b0 98 8f ea bd 93 f4 48 3e 8e 38 43 be f2 38 44 bf
       -0.114531696 0.19624548 -0.19064543 -0.7664939
0001c0 8c a8 02 3f f9 99 bc 3e 2d 72 4f 3f 15 a0 37 bf
       0.5103843 0.36836222 0.81033593 -0.7172864
0001d0 5e 8f e8 3d 64 c4 db 3e f8 0f 25 be 6e b3 52 3f
       0.1135547 0.42923272 -0.16119373 0.8230504
0001e0 c0 45 b7 3e 9a bb 51 be 5d fe 70 bb 3e 84 b9 3e
       0.35795403 -0.2048172 -0.0036772706 0.36233705
0001f0 17 a3 3a bf ce c3 4e 3f fe 86 c3 be b3 24 1e 3e
       -0.72905105 0.80767524 -0.38188928 0.15443687

layer2.weight f4 [128, 128]
000000 3c 7c a4 bf 3c 0c 09 3e 5c 9f be 3e 01 52 64 bf
       -1.2850413 0.13383573 0.37230957 -0.8918763
000010 e9 10 7e bc 16 e4 99 3d e6 fd df be 6d e0 24 be
       -0.015506961 0.07514207 -0.43748397 -0.16101237
000020 eb 1b 39 3e 2f 43 72 3e 1a 07 b4 3e 9f 31 84 3e
       0.18077056 0.23658441 0.35161668 0.25819108
000030 cf 17 52 3e 27 5e 54 3e cc f3 7d bf c3 0e c7 bf
       0.20516895 0.20739041 -0.9920013 -1.555138
000040 f6 2d fc 3d a4 02 7c 3e 97 00 1b bf 3d 03 cf 3e
       0.12313454 0.24610382 -0.60547775 0.40432158
000050 35 4f d1 bf fb 65 3e ba 08 74 9b 3e e4 cc 06 bf
       -1.6352297 -0.0007263121 0.30361962 -0.5265639
000060 98 71 0a 3f e2 ad 90 3f 78 0a 50 3e 8c 9f 46 be
       0.5407958 1.1303065 0.20316494 -0.193968
000070 d1 8c a4 3e 48 1c 0e 3d c5 67 98 3d 8f e0 63 3e
       0.32138684 0.03469494 0.074416675 0.22253631
000080 c1 11 20 3f 8c 71 f7 bd f1 87 4c 3e 45 19 a9 3e
       0.6252709 -0.12082204 0.19973733 0.33027092
000090 69 ac b3 3e ea d6 1c 3e 76 b1 ae 3d 73 71 b4 3e
       0.35092476 0.15316358 0.08529942 0.35242805
0000a0 fa 51 d5 3e 54 f8 cd 3e 49 86 bf 3e f7 28 11 3c
       0.41664106 0.40228522 0.3740714 0.008859864
0000b0 37 41 99 3e 3a 2a 95 3f 1c 04 ab 3e f9 ba dd 3e
       0.29932567 1.1653512 0.33401573 0.4330671
0000c0 b3 86 c4 bd 3e 1a 83 3e 7b d2 c6 3e 18 9a 0c c0
       -0.09596004 0.2560596 0.3883246 -2.1969051
0000d0 b7 ee f1 3e df e3 05 3f fc 2d 7e 3e 5d 1e 85 bf
       0.47252437 0.5230083 0.24822229 -1.0399891
0000e0 86 58 57 bf 9f e3 d8 3e 94 37 75 3e f9 31 f2 bf
       -0.8411945 0.4236116 0.23946983 -1.89215
0000f0 4a 57 f3 3d d4 22 cc 3e 98 28 cb 3d 5a 83 1a bf
       0.118818834 0.39870322 0.09919852 -0.60356677
000100 9c 49 95 be 3a 37 e0 3e 0b c6 41 bd 1c 05 c6 be
       -0.29157722 0.43792135 -0.04730801 -0.38675773
000110 3e 8a 1a 3f 98 7e 5d bf 55 da aa bf 36 a4 ae bf
       0.6036719 -0.8652129 -1.334788 -1.3643863
000120 b3 ac c5 3e 31 0b 9a 3e 00 1b 09 3f f5 77 98 be
       0.38608322 0.30086663 0.53556824 -0.2977902
000130 60 b5 0b 3f 78 e6 1f be 45 b4 1a 3f 70 ec 3b be
       0.5457363 -0.1561526 0.6043132 -0.18351912
000140 c8 d4 53 bf b2 c0 e9 3d 25 3f e8 3e 1e 5f 14 3e
       -0.82746553 0.11413707 0.45360675 0.1448941
000150 8a 29 c8 3e a0 e7 1a be d1 02 c1 3e ca 36 02 3f
       0.39094192 -0.1512742 0.3769746 0.5086485
000160 9e 34 c4 3d 58 62 38 3e 29 b4 94 be 3f be fa 3e
       0.095803484 0.18006265 -0.290437 0.4897327
000170 d5 4c b5 3e 0a 7e ee bd aa 59 93 bf 19 d5 10 3e
       0.3541018 -0.11645134 -1.1511738 0.1414379
000180 4e e2 cc bf be 1d bc 3e 86 fa 31 3e 5a c9 5a 3e
       -1.6006563 0.3674144 0.17380723 0.21365872
000190 58 1c 38 bf 45 ce 8d 3c c6 80 8c 3e a9 d1 bb be
       -0.7191825 0.017310271 0.27441996 -0.36683396
0001a0 68 52 59 3e 71 81 97 3e c4 0e 41 bf 0a 05 c5 3e
       0.21222842 0.29590943 -0.75413156 0.38480407
0001b0 f4 b4 d3 bf 2a 5f 8a bf 7c 43 ed 3e 80 c7 ea 3d
       -1.6539598 -1.0810292 0.4634055 0.11463833
0001c0 1f 1a d7 3e 0f 70 2c bf e7 cb d3 3e 14 b4 a7 3e
       0.42012116 -0.6735849 0.41366503 0.32754576
0001d0 e5 5c 8a 3e ff d9 c4 be 4c 15 cf 3e 62 41 e6 3e
       0.27023998 -0.38447568 0.40445936 0.44971758
0001e0 f8 11 62 3f cd 47 3c 3f be 86 12 3f 6b 01 05 bf
       0.8830867 0.7354706 0.5723685 -0.5195529
0001f0 c6 25 97 3e 62 43 cc be a9 e6 d9 bf 11 71 5a bf
       0.29521006 -0.3989516 -1.7023517 -0.85328776
000200 e9 ce 2b be 53 d1 ad be e8 71 c4 bc d6 d9 04 3f
       -0.16778149 -0.33948764 -0.023980096 0.5189489
000210 54 70 9b 3d a3 b7 42 3e 55 7b ac 3e ac d9 57 3e
       0.07589784 0.19015364 0.33687845 0.21079129
000220 84 32 a6 3c 1f 27 a0 3c 84 04 f0 bd 09 85 df bb
       0.02028776 0.019549904 -0.11719611 -0.006821279
000230 5e 5f 46 3e c0 79 8d bf 28 40 eb 3e 5b 3b 05 3f
       0.19372317 -1.105278 0.45947385 0.52043694
000240 8a 71 84 bc be 22 3f 3f fd 3f 2a be da 84 35 bf
       -0.01616742 0.7466239 -0.16625972 -0.7090584
000250 05 a8 f3 3e f9 6b 3b 3d e9 44 93 3c 75 fb 5a 3e
       0.47589126 0.045757268 0.017977195 0.21384986
000260 40 f7 b9 3e 5f bb f3 be ec 08 81 3e 86 8c 49 3e
       0.3632145 -0.4760389 0.2520212 0.19682512
000270 65 83 78 3e d7 0a 2f bc d1 b0 30 3e 7d ff 6c 3e
       0.24268873 -0.010683737 0.1725495 0.23144336
000280 5e c5 ba 3e 94 4f 18 3e 60 85 c1 3d 95 88 11 3e
       0.36478704 0.14874107 0.094492674 0.14212258
000290 f7 db c2 3e 22 4f 6a bc e7 8c 0b bf 21 d2 d5 3e
       0.38058445 -0.014301093 -0.54511875 0.41761878
0002a0 75 d0 ea be 7a 81 e2 bd 50 17 25 bd 0e 6f 5f bc
       -0.45862165 -0.11059852 -0.040305436 -0.013637317
0002b0 e0 79 b1 3d e8 47 11 bf 06 58 50 3e 63 fd 17 bf
       0.08665824 -0.56750345 0.20346078 -0.5937101
0002c0 23 aa 19 3e d6 b3 4a bf e4 75 2d 3f f7 36 d9 bd
       0.15006308 -0.7918066 0.6775801 -0.10606187
0002d0 2c d0 c7 3e 28 1c 88 bd e2 76 7f 3e 61 f6 73 3d
       0.3902601 -0.066459954 0.24947694 0.059561137
0002e0 c5 48 cd 3e 36 3b 1f 3f 7a 0b 9b 3e 62 48 ee 3e
       0.4009458 0.62199724 0.30282193 0.465396
0002f0 32 c0 3f bd 6c d3 2f be 29 71 0a 3e 31 04 98 3e
       -0.04681415 -0.17170495 0.1351973 0.29690698
000300 3c 70 be bd 24 4f 3a 3e b1 e4 a0 3d 8d c2 36 3d
       -0.09298751 0.18194252 0.078561194 0.04461913
000310 4b 67 4a be 52 78 8b 3e 92 64 1d bf a7 d7 0b 3f
       -0.19765966 0.27240235 -0.61481583 0.54625934
000320 2b 16 0c 3e ca 7a f1 3d 30 62 95 3e d4 95 a3 bb
       0.13680331 0.11790998 0.29176474 -0.004992226
000330 ee 7f 89 3e 14 29 59 3e f1 80 14 3e 92 fb 6b 3e
       0.26855415 0.21207076 0.14502312 0.23045185
000340 e6 c4 37 be 63 fb f9 3d 14 4a 0e be fd da 03 be
       -0.17946205 0.12206151 -0.13895446 -0.12876506
000350 2f 96 a8 bc 93 6f 03 3e 7e 65 a3 3d f1 4e 03 3e
       -0.020579426 0.12835531 0.079783425 0.12823083
000360 0f 93 7c 3e ec af a7 3e c5 d1 c4 bd 0b fe da 3c
       0.24665473 0.32751405 -0.09610323 0.026732465
000370 5e 7d 8e 3e a5 04 2b 3e 9e 13 87 bf 71 bc 1e bf
       0.27830023 0.1670099 -1.0552862 -0.6200629
000380 54 47 a6 bd 19 4d 9a 3e 3d 1e a0 3e c4 93 8b 3e
       -0.081190735 0.30136946 0.3127307 0.27261174
000390 f9 0a 00 3c 87 81 a8 be f1 f6 a7 bd a8 58 40 3e
       0.007815116 -0.32911322 -0.08201397 0.1878382
0003a0 9c 2e 8d 3e 8b c3 d1 3e d8 22 0d be 2c 47 da bd
       0.27574623 0.409695 -0.13782823 -0.10658106
0003b0 ac f6 ae bb 5d f3 c4 3e 17 ad c8 3e 27 a6 a9 3d
       -0.005339464 0.3846692 0.39194557 0.08283644
0003c0 69 f7 ca 3d 14 21 02 be 26 1a 76 be ba 76 15 3e
       0.09910471 -0.12707931 -0.24033412 0.14596072
0003d0 1c c2 42 3e 15 c4 bc 3e e5 7a 7f 3e 7d 3d e6 be
       0.1901936 0.3686835 0.24949224 -0.44968787
0003e0 fd f4 2a bf 47 f3 fb 3e 47 a5 1d 3e 05 f6 1e bd
       -0.6678007 0.49209043 0.1539508 -0.03880884
0003f0 ca 90 02 3e 69 52 21 be 4e 14 1c be 01 4e a7 bd
       0.12750545 -0.15754093 -0.1524212 -0.08169175

layer2.bias f4 [128]
000000 8f 90 f1 3e e5 b8 72 be d6 d1 26 3b 70 29 92 3d
       0.47180602 -0.23703344 0.0025454662 0.0713681
000010 22 19 fa 3d 7c 76 59 3e 7e 1c c8 bb 0b 85 05 3e
       0.12211825 0.21236604 -0.006106912 0.13039033
000020 6a 86 8e be 22 c6 d6 bb e6 38 59 3f 40 94 f2 3d
       -0.27836925 -0.006554381 0.84852445 0.11844683
000030 ce bb a4 3d 4e 98 d5 3d 0d 9c 86 3d ae 47 cd bd
       0.080436334 0.104294404 0.06572733 -0.100234374
000040 6f 74 93 3e f2 19 22 3e 1f b3 23 3e 5b 42 41 3e
       0.2879977 0.1583021 0.15986298 0.18872969
000050 33 01 64 3d d0 2d bc 3c 70 f8 25 3e 41 dd 16 3e
       0.055665206 0.022971064 0.16208053 0.14732839
000060 29 7e e9 bd 63 4e 23 bc dd 77 b0 be f6 07 9d be
       -0.11401016 -0.009967419 -0.34466448 -0.30670136
000070 21 f5 4d be b1 c5 c9 3d ee d1 15 bb 44 05 9d 3b
       -0.2011304 0.0985216 -0.0022860724 0.0047918875
000080 65 31 00 3e 70 57 4a bd 6b 39 c2 3d a7 7b 61 3e
       0.12518843 -0.049399793 0.09483608 0.22019826
000090 6c ed d4 bd b9 2b 8d 3d 90 c5 7d 3e 63 eb 87 3c
       -0.10396847 0.06893105 0.24782395 0.016591733
0000a0 78 e2 6d 3c e3 dd c4 3d bc 78 81 bd 7c bb cb ba
       0.014519326 0.09612634 -0.063218564 -0.0015543546
0000b0 6a e5 53 3d 6e b5 e2 3c 12 42 ad bd 00 76 42 bd
       0.05173246 0.027674403 -0.084598675 -0.047475815
0000c0 c9 d4 20 3e dd bc 28 3e 04 72 70 bd 0f 13 8a bd
       0.15706171 0.16478296 -0.058702484 -0.067419164
0000d0 ce 3b 8f bc ef b3 9f bc 17 b5 0f 3e f7 d2 da 3d
       -0.017484572 -0.019494979 0.14033924 0.106847696
0000e0 ff 89 11 3e f0 2d 0f 3d e0 b4 22 bc 5b 6f 8d 3d
       0.14212798 0.03495592 -0.009930819 0.06906005
0000f0 46 24 ec 3e 4e f2 a1 bd 78 3f 29 3d eb ff 14 3d
       0.46121424 -0.07907544 0.041320294 0.036376875
000100 b6 9b 5e 3e 2f 30 6f 3c 3c 69 8b 3e c3 99 c1 3c
       0.21739087 0.01459889 0.27228725 0.02363289
000110 18 66 c7 3c 0a 45 14 3d ba 89 bb bb 77 c9 27 3e
       0.024340674 0.036198653 -0.0057232054 0.16385446
000120 9d 7d bc 3b 2f 0e d3 3d 73 ec 59 bd 98 78 60 3d
       0.005752279 0.1030544 -0.05320401 0.054802507
000130 8c 4e 6f be ba f7 85 bc d5 3e ce 3e 17 37 92 bd
       -0.23369807 -0.016353477 0.40282312 -0.07139414
000140 6d 4b 62 be f1 b6 74 bc d7 fd 07 bd 9f 19 4f bb
       -0.22099085 -0.014936195 -0.033201065 -0.0031600965
000150 3e 64 88 3d f1 05 02 3d b0 43 79 3d 88 c3 92 3d
       0.06659745 0.031743947 0.060855567 0.07166201
000160 f1 59 75 3b 9e 83 a3 3e bd 49 58 3d 2f 5d 66 3d
       0.0037437642 0.31936353 0.052804697 0.05624121
000170 2b 0d 9d bc dc 94 a1 3d 40 51 66 bc d0 14 95 3d
       -0.019171318 0.07889721 -0.014057457 0.0727936
000180 25 ea 7c bd c4 e2 4e 3f 9b d6 4e 3c 2d 13 10 3e
       -0.061746735 0.80814767 0.012624408 0.14069815
000190 c9 fc 96 be 12 c5 65 3d 85 8b aa bc f1 f3 78 bd
       -0.29489735 0.056096144 -0.020818481 -0.060779516
0001a0 2a d6 a6 3d 15 6d b0 be 8c f3 81 bc 21 d6 f4 bc
       0.08146317 -0.34458223 -0.015863203 -0.02988726
0001b0 fa 70 32 3e d7 89 ef bc 3c 25 32 3c c5 63 b6 be
       0.1742591 -0.029240532 0.010873135 -0.35622993
0001c0 a3 43 05 3d b7 1e 34 3d 47 bd 7b 3c c1 57 1b be
       0.032535207 0.043974604 0.015364951 -0.15170194
0001d0 db 00 3a 3d 30 a3 01 3e 52 13 80 3e f6 fd 33 3d
       0.045410972 0.12659907 0.2501474 0.043943368
0001e0 b8 7d 4b bb b8 2f 8e 3c 2f 04 56 3c 6d a4 c3 bb
       -0.0031050276 0.017356738 0.013062521 -0.005970529
0001f0 3d d2 b9 3d 17 eb f2 3d 49 f7 e2 3d ba 8e 9a be
       0.09073303 0.11861246 0.11082322 -0.30187017

layer3.weight f4 [10, 128]
000000 f5 85 b0 be 63 b2 d5 3e db 22 a2 be ae ae 42 be
       -0.344772 0.4173766 -0.31667218 -0.19011948
000010 37 aa bf be 1a 65 d2 be aa 64 72 be a4 be 7e be
       -0.3743455 -0.4109276 -0.23671213 -0.24877411
000020 a6 7d e7 3e aa 7a 82 be 1c 4a 2e 3f da c8 6a be
       0.4521305 -0.2548421 0.6808183 -0.22928181
000030 c8 ad 7a be e4 36 25 bf b2 fd 8e be 32 e2 d3 3e
       -0.24480355 -0.6453688 -0.2792793 0.4138351
000040 81 58 84 be 2a c8 b8 be 50 65 e1 be 18 ce 96 be
       -0.25848773 -0.36090213 -0.44022608 -0.29454112
000050 80 f7 7e be 2a ea 5f be 2b 2b c0 be 31 59 ac be
       -0.24899101 -0.2186667 -0.37532935 -0.33661798
000060 fd 5d 45 3e 2f 88 a0 be 96 55 b6 3e 34 a0 f8 3e
       0.19274135 -0.313539 0.35612172 0.48559725
000070 bb 5d 0d 3f 12 25 96 be ee 78 c4 be 1d 9a 59 be
       0.55221146 -0.29325157 -0.38373512 -0.21250196
000080 16 6c 76 be 59 46 47 be bd fe 06 bf e6 9f 96 be
       -0.24064669 -0.19460429 -0.5273245 -0.29418868
000090 f2 7e 86 be ae a7 83 be 55 fd ab be f5 60 98 be
       -0.26268727 -0.25713867 -0.33591715 -0.29761472
0000a0 8c f7 4b be 9e f3 a1 be c8 bf d0 bd 5a 04 b1 be
       -0.1991865 -0.31631178 -0.10192829 -0.34573632
0000b0 cd d2 45 be 63 b6 59 be 84 3e 14 3e 33 b8 5e bd
       -0.19318695 -0.21260981 0.14476973 -0.054374885
0000c0 5a 9c 7f be 6b 99 a3 3e 62 32 86 be e0 a6 21 3f
       -0.24961987 0.31952986 -0.26210314 0.63145256
0000d0 00 d7 1f be 4e a0 b2 be 6a f6 b0 be c7 c0 89 be
       -0.1560936 -0.34887928 -0.34563 -0.2690489
0000e0 9d ab 40 be f0 fa 81 be d3 e2 9b be 69 5b 9f be
       -0.18815465 -0.25386763 -0.3044649 -0.31124428
0000f0 54 67 19 bf 5e 71 9a 3d d2 c1 0f bf eb 3e a4 be
       -0.5992329 0.07541154 -0.5615512 -0.32079253
000100 a7 a4 fe be d6 1c 44 be 72 48 a8 be 43 db 83 be
       -0.49734995 -0.19151625 -0.3286777 -0.2575322
000110 8e a8 54 be 14 e6 53 be 1f 62 9e be a1 33 59 be
       -0.20767424 -0.20693237 -0.30934235 -0.21211101
000120 38 54 62 be 67 a3 65 be 1e 96 a1 be 19 38 d7 be
       -0.2210244 -0.22425614 -0.31559843 -0.42034987
000130 3d 67 d4 3e 5b 6a 5c be 86 7f 12 bf 3e bd 82 be
       0.41485015 -0.21524946 -0.57225835 -0.25535005
000140 37 2c de 3e 2d d8 cd be 1a 37 a9 be f8 83 63 3d
       0.43393108 -0.40203992 -0.33049852 0.055545777
000150 f3 57 a3 be b1 04 37 be 64 c8 a0 be aa 61 6e b8
       -0.31903037 -0.17872883 -0.31402886 -5.683458e-05
000160 a0 63 7e bc 62 2b d8 be 44 dc ac be da 4a 56 be
       -0.015526682 -0.42220598 -0.337618 -0.20926991
000170 f0 d7 48 bc 71 aa 2b be 91 2b 21 be 69 0e ac be
       -0.012258515 -0.16764237 -0.15739276 -0.33604744
000180 a3 48 92 be 85 aa 30 3f 5b ee f9 bd 53 cf 8e be
       -0.28571042 0.6901019 -0.12203666 -0.2789255
000190 70 28 1b 3f c0 b3 36 be 6d ae 34 be 25 ea 13 bd
       0.6060858 -0.17842007 -0.17644663 -0.03611197
0001a0 ec 71 43 be 1b a5 0a 3f c6 16 4f be 24 58 16 be
       -0.19086426 0.5415818 -0.20223531 -0.1468206
0001b0 73 e7 28 be e8 18 bb 3b 50 44 a9 be 91 10 71 3e
       -0.16494541 0.005709756 -0.3305993 0.23541476
0001c0 8c ca 17 be 18 a3 4a be e7 d4 9d be 46 97 f7 3e
       -0.14823359 -0.19788778 -0.30826494 0.483576
0001d0 79 ee 7b be 2d 5f b9 be 70 53 10 bf 53 5d 88 be
       -0.24602689 -0.36205426 -0.56377316 -0.266337
0001e0 92 07 b7 be 86 1e 56 be 0b c2 3e be aa fd 1d be
       -0.35747963 -0.20910081 -0.18628709 -0.15428796
0001f0 82 cc 11 be d6 fd ca be a8 56 be bd dd 8c 9f 3e
       -0.1423817 -0.39646786 -0.09293872 0.31162158
000200 8a d8 6a 3f 5f 8c 8f 3e aa c3 9a be 1c e8 62 be
       0.9173666 0.28036782 -0.30227405 -0.22158855
000210 4f 2b b7 be ef 0f cb be 5c 10 9c be 3b f1 79 be
       -0.3577523 -0.39660594 -0.3048123 -0.24408428
000220 03 74 2c 3f 6b fd 7d be b8 93 96 3f ed a2 b1 be
       0.6736452 -0.24803703 1.176383 -0.34694615
000230 c0 6e 37 be ee f4 ed be 9a 05 8b be 3b 0a e2 3e
       -0.17913342 -0.4647593 -0.2715271 0.4414843
000240 0f 1f 12 bf 8d 7b 61 be ba e8 ac be b2 09 11 bf
       -0.5707864 -0.22019787 -0.33771306 -0.5665542
000250 5d e3 e5 bd aa f2 af be 19 3e 1d bf 69 5e 9b be
       -0.11225007 -0.34364825 -0.6142288 -0.30345467
000260 de 90 f1 3e b6 10 6b be c1 86 81 3e 40 05 cb 3e
       0.47180837 -0.22955593 0.25298122 0.39652443
000270 70 21 58 3f 96 9d 26 be 56 19 55 be 9b 59 85 be
       0.8442602 -0.16271052 -0.20810446 -0.26044926
000280 fa 99 86 be 87 fd 64 be 8a b1 cc be 8f e0 0f bf
       -0.2628935 -0.22362338 -0.39979202 -0.56202024
000290 a4 0c 55 be 5e 75 f2 bd a6 f5 0c bf 33 42 94 be
       -0.20805603 -0.11838792 -0.5506233 -0.28956756
0002a0 ec c4 95 be d9 f7 bf be 6b 38 16 be df a5 97 be
       -0.29251802 -0.3749378 -0.14669959 -0.29618737
0002b0 e1 8a 50 be e4 84 9d be 7a 33 cb 3e b5 bd a1 be
       -0.20365478 -0.3076545 0.3968771 -0.31590047
0002c0 62 fd 68 be 00 f2 0c 3f 07 ff 8a be 43 33 36 3e
       -0.22752908 0.5505676 -0.27147695 0.17792992
0002d0 00 8d 50 be 99 82 b6 be 2b 46 7b be 39 f6 d9 bd
       -0.20366287 -0.35646513 -0.24538486 -0.10642666
0002e0 48 fa 00 bf 07 ea 81 be 2d 82 b3 be a6 c1 6e be
       -0.503819 -0.2537386 -0.35060254 -0.23316059
0002f0 fe 87 12 bf e7 ab 3c 3d 2c 4c 81 be c4 c8 91 be
       -0.5723876 0.046062376 -0.25253427 -0.28473485
000300 dc 6d 06 bf df 94 a2 be 31 f8 de be e0 cb 2a be
       -0.5251138 -0.31754205 -0.4354873 -0.16679335
000310 82 32 a7 be 0a 9c 9c be b8 e1 a3 be ba d3 db be
       -0.32655722 -0.30587798 -0.32008147 -0.42934972
000320 4e 3b 97 be e5 55 22 be 4a 0f 0f be 65 d1 8e be
       -0.29537433 -0.15853079 -0.13970676 -0.2789413
000330 b6 71 8a 3e 93 8c 97 be 64 b0 01 be ea ae 87 be
       0.2703988 -0.29599437 -0.12664944 -0.26500636
000340 b2 75 8e 3e 57 76 c0 be 71 d5 55 be 53 87 f4 bb
       0.2782417 -0.37590286 -0.20882203 -0.007462421
000350 f7 b7 82 be 7f cb 83 be 79 0c 89 be 6a 05 7a 3e
       -0.2553098 -0.25741193 -0.26767328 0.24416128
000360 bd d6 7a bd e2 a1 f5 be 2d 3d 6a be 66 ed 57 be
       -0.061239947 -0.4797507 -0.22874899 -0.21086654
000370 7f 75 f8 3c f3 a3 9c be f9 ce 37 be 10 44 69 be
       0.030329464 -0.30593833 -0.17950048 -0.2277987
000380 97 72 29 be 17 a0 f0 3f 00 c1 79 be a1 c8 bf bd
       -0.16547619 1.8798856 -0.2439003 -0.09364439
000390 a9 68 9e 3e 9c 6d 4a be b6 e6 ab be 73 71 0b bd
       0.30939224 -0.19768375 -0.33574456 -0.03404374
0003a0 cc 1a 73 be 83 23 0a 3f 67 f0 84 be bb 58 8c be
       -0.23740691 0.53960437 -0.25964662 -0.27411446
0003b0 dc d6 9f be 57 89 6d bd 09 ec ab be ac d8 f5 3e
       -0.31218612 -0.057992306 -0.33578518 0.4801687
0003c0 36 71 22 be 6f 4f 7d be d4 a8 c5 be ce 10 bd 3e
       -0.15863499 -0.24737333 -0.38605368 0.36926883
0003d0 48 fa a1 be 1a 4a a0 be 54 66 18 bf b8 74 7f be
       -0.31636262 -0.31306535 -0.5953114 -0.24946868
0003e0 9c c7 a2 be 47 09 a0 be 44 d4 5c be 48 76 88 be
       -0.31792915 -0.31257078 -0.21565348 -0.2665274
0003f0 96 97 a2 be bc 91 51 be 4a 5a 41 3d 3d f3 2c 3f
       -0.31756276 -0.2046575 0.047205247 0.6755865

layer3.bias f4 [10]
000000 2b 77 d3 bd 00 f8 63 bd 41 83 54 3d 30 94 2f bd
       -0.10325464 -0.055656433 0.051882986 -0.042865932
000010 4e 45 d6 bc 9d f0 48 bd ed bf fe bd 81 bc f0 3d
       -0.026156094 -0.04905759 -0.12438951 0.11754704
000020 76 12 37 3d 9b 0e 1f 3c
       0.04469534 0.009708072
