DQN_policy_net_Pendulum.pt (torch, 46080 bytes, 8 tensors)

linear_relu_stack.0.weight f4 [64, 3]
000000 b2 c9 3a 3f 26 02 2a 3f 64 76 80 3e d2 0d 24 3e
       0.7296401 0.6640953 0.25090325 0.16020897
000010 1f 7f 55 3d 3d 49 1d 3f 11 a0 0b bf 92 a8 60 bf
       0.052123185 0.6143988 -0.54541117 -0.8775722
000020 87 f9 3a bd ec 36 ff be 93 43 47 bf cb a9 9c bd
       -0.045648124 -0.4984659 -0.77837485 -0.07649573
000030 6d 3c f6 bd b1 8d a7 3e 16 25 a3 3e 8c c1 6c be
       -0.12023244 0.3272529 0.31864232 -0.23120707
000040 b3 50 83 bf 7f 8e 15 be fb ad 9b be c2 f8 40 bf
       -1.0259002 -0.14605139 -0.30406174 -0.75379574
000050 9f b5 92 bc 95 dc d5 be 5b 54 ff be 09 e3 2c bd
       -0.01790887 -0.41769853 -0.49869046 -0.042208705
000060 7d 4a 4c be b1 b8 fd bd c4 2c e8 3c 4b 5d e3 be
       -0.1995029 -0.12388743 0.028341658 -0.44407114
000070 f6 e3 90 bf b2 4b 82 be 76 0d 00 be aa 04 71 3f
       -1.1319568 -0.25448376 -0.12505135 0.9414774
000080 c0 a0 1e 3e da f5 05 bf 3e fd 12 3f 65 80 c8 3d
       0.15491009 -0.52328265 0.57417667 0.09790114
000090 ea 7c 08 bf e0 48 31 be bc c1 b2 3c b6 8f 61 3e
       -0.53315604 -0.17312956 0.021820895 0.22027478
0000a0 a5 f4 5c 3e 24 4b ca be 97 7f 93 3f 96 4e 68 3f
       0.215777 -0.39510453 1.1523312 0.9074491
0000b0 aa 5e d1 3e 6e 7a 07 bf 27 67 3e 3f a0 75 1b bf
       0.40892535 -0.5292119 0.7437615 -0.60726357
0000c0 f6 77 3e be da 0b 27 3e 16 bc ee 3d 46 3f ba be
       -0.18600449 0.16313115 0.11656968 -0.363764
0000d0 1b 3f 02 be d9 f2 71 bd b2 33 b0 3d c4 58 76 bf
       -0.12719385 -0.05906949 0.0860361 -0.96229196
0000e0 b2 36 b3 bd 76 ce 0f 3e 76 29 3c bf 68 65 74 bd
       -0.08750667 0.14043602 -0.73500764 -0.05966702
0000f0 b8 31 e5 be 9f d8 0b bf 37 eb 95 bd 4a 2f e9 3e
       -0.44764495 -0.5462741 -0.07320254 0.4554389
000100 60 7b 0a 3f 2e 90 2d 3d 88 31 5d 3f c0 db 92 3f
       0.54094505 0.04237383 0.86403704 1.1473312
000110 12 6e a9 3e 61 1e 26 3f e9 45 8b bf 6f 79 92 be
       0.3309179 0.64890105 -1.088071 -0.2860827
000120 bf 49 99 be 96 5e 0d bf b8 e0 5b 3b fd 36 4a 3f
       -0.29939076 -0.5522245 0.003355069 0.78990155
000130 fe 4b 00 bf 5b 61 8d be 50 95 02 3e 0e 4e 81 3f
       -0.50115955 -0.2761334 0.1275227 1.0101945
000140 fb c2 57 3e 95 23 38 3f 45 2e 49 3f b2 e3 82 3e
       0.21070473 0.71929294 0.78586227 0.25564343
000150 c3 43 30 bf db 14 6f 3f 6a 0c 08 3e c2 e8 37 3f
       -0.68853396 0.933912 0.13285986 0.71839535
000160 8e 28 c7 be f2 c1 97 be cd c7 32 be fe 11 22 3f
       -0.38898128 -0.29640156 -0.1745903 0.63308704
000170 ef 56 d8 bc 87 07 05 bf 97 9a e7 3d 7a fe ac bc
       -0.02640864 -0.5196461 0.113087825 -0.021117438
000180 7b 01 36 3f 83 21 55 bf 8c 27 90 be 3a b7 51 3f
       0.7109601 -0.8325426 -0.28155172 0.81920207
000190 8b 3c 04 3f 5c d6 73 be 9f bb e5 be 41 5c 8e 3e
       0.5165488 -0.2381224 -0.44869706 0.2780476
0001a0 22 18 90 bd 94 6f 40 bd 1c 63 80 3f 65 6e 28 3e
       -0.07035853 -0.04698141 1.0030246 0.16448362
0001b0 4f bb 26 3f 05 19 b7 3e dc 73 3f be 26 25 16 3f
       0.6512956 0.35761276 -0.1869654 0.58650434
0001c0 4f 5c 85 3e 17 f1 81 3e 8b 78 eb 3e fa 74 71 bf
       0.26046988 0.2537925 0.45990404 -0.9431912
0001d0 40 2b fe 3d f6 c7 88 be 94 13 4a bf bd 05 2d be
       0.12410593 -0.26715058 -0.78936124 -0.1689672
0001e0 5b ad b9 be fa 26 d5 be 23 3c 8b bd 17 d3 9c 3e
       -0.36265072 -0.416313 -0.067985795 0.306298
0001f0 d3 73 40 bf d5 c2 3b be cf 01 19 3e fa 9f 02 bf
       -0.75176734 -0.18336041 0.14942096 -0.51025355
000200 65 76 1f be b5 30 bb be 22 7d 85 3e 65 86 a6 3c
       -0.15572508 -0.36560598 0.2607203 0.020327756
000210 00 e8 e8 be 45 8d 85 3e dd f6 60 bc 31 79 aa bc
       -0.45489502 0.26084343 -0.013730732 -0.020809742
000220 72 1b 8a 3f cc 99 b7 3b 33 75 9d be 56 42 8b bf
       1.0789626 0.005603051 -0.30753478 -1.0879619
000230 3c c6 84 be 43 57 c9 be 81 c4 bc be 85 da ad 3d
       -0.2593249 -0.39324388 -0.3686867 0.08488945
000240 67 f7 e1 3e 37 05 62 3f 6b de 58 3e 78 a1 3d bd
       0.44134066 0.8828921 0.21178596 -0.046296567
000250 97 53 ba be 29 4d 0a bf f5 36 73 3d d5 2d fe 3e
       -0.363919 -0.5402399 0.059378583 0.49644342
000260 bd b3 b4 3e 57 a1 a2 bd 44 4f 07 bf 5a fb a7 3e
       0.3529338 -0.079409294 -0.52855325 0.32808954
000270 86 c4 bf be 66 bc e2 3e f1 36 01 3f 00 20 f5 be
       -0.37454623 0.44284362 0.5047446 -0.47875977
000280 39 24 03 3f 2b ce 94 3d 4e 5f 8d be f0 dc e4 3e
       0.51227146 0.07265886 -0.27611774 0.44699812
000290 d6 8c f7 bd f9 52 ac be 05 2a 9f 3e 61 f2 c7 bd
       -0.12087409 -0.33657053 0.31086746 -0.09763027
0002a0 93 a0 a3 be 5e a1 2b bf d6 e7 5a be 18 50 0a be
       -0.31958446 -0.670431 -0.21377501 -0.13507116
0002b0 49 f7 60 bf 74 63 2b be 83 48 35 3e 9e 51 f0 3c
       -0.8787733 -0.16737157 0.17703442 0.029335793
0002c0 36 84 b0 be e4 c5 83 be e7 84 e3 be 1f c1 ca be
       -0.3447587 -0.25736916 -0.44437334 -0.39600465
0002d0 95 48 6f be 13 8a e4 3e b6 c2 f8 3e dc 8c 74 3f
       -0.23367532 0.44636592 0.48586053 0.95527434
0002e0 e6 22 41 bf d5 4a ad be 77 c8 ac be cf bc 88 3f
       -0.75443876 -0.33846155 -0.33746693 1.068262
0002f0 ad ef 83 3e 52 7b 0a 3f c0 7b 4c bf bd 42 d8 bd
       0.25768796 0.5409442 -0.7987633 -0.10559604

linear_relu_stack.0.bias f4 [64]
000000 df e4 7c be 66 54 2c 3e 89 46 7f 3d b6 fe d6 3d
       -0.24696682 0.1682907 0.062323127 0.10497801
000010 b4 54 9f 3e db 32 82 3d cb 56 06 3f e0 6b 8a 3e
       0.3111931 0.06357356 0.52476186 0.27035427
000020 89 08 af 3e 71 fb 3c be 22 e1 29 3e cf f1 a1 3e
       0.341862 -0.18455292 0.16589788 0.31629798
000030 01 61 c2 bd f2 30 e0 3d e0 ea 0e bf 9d 30 eb 3c
       -0.09491158 0.109468356 -0.5582714 0.028709704
000040 11 72 d9 3e df 51 a7 3e a2 77 0c be 09 4b 22 3e
       0.42469838 0.3267965 -0.13717511 0.15848936
000050 e9 d7 a2 3e 2e ca 88 be 6f 45 b0 bd 92 43 fe bc
       0.3180535 -0.2671675 -0.086069934 -0.03103808
000060 2e 7a bb 3e cd 68 dc be ab cc 76 3c 5c bb 2b be
       0.36616653 -0.43048707 0.015063445 -0.1677069
000070 f4 a0 31 3e 43 8d 21 bf 72 81 20 bd 4a a6 d8 bd
       0.17346555 -0.63106173 -0.03918595 -0.10578592
000080 2e 37 60 be eb 58 42 3f be b6 ed 3d c9 54 09 3e
       -0.2189605 0.7591693 0.11607121 0.13411249
000090 33 62 a3 be a5 60 15 bf d4 e0 9c bd 7b 12 2d 3e
       -0.31910858 -0.5835059 -0.0766007 0.16901581
0000a0 72 6f 59 3e e5 04 b6 3d 7a 94 de 3d 4d e7 c9 3e
       0.2123392 0.08887652 0.108681634 0.3943428
0000b0 5c b0 6a bd bc 17 75 3e 1d 0f 6f be 5c 66 93 3e
       -0.057297096 0.23934835 -0.23345609 0.28789032
0000c0 2b 96 ab 3d 7e b0 83 bd ee d3 02 3c f1 f5 91 3c
       0.08378252 -0.064301476 0.007985098 0.01781747
0000d0 06 97 e5 3d 6d b2 6b 3e cd 2d b7 3e e3 fd 99 3e
       0.11210446 0.23017283 0.3577713 0.30076513
0000e0 f1 8b 98 3e 7a 4f 32 3e a7 33 65 3e 7a 73 9f 3e
       0.29794267 0.1741313 0.22382985 0.3114279
0000f0 a8 53 7f bd 85 5e e6 be 52 e3 3c be af af 81 be
       -0.06233564 -0.44993988 -0.18446091 -0.25329348

linear_relu_stack.2.weight f4 [64, 64]
000000 77 0f 89 be e2 e3 03 3e f2 27 0e be 2b ec 0d be
       -0.2676961 0.12879899 -0.13882425 -0.13859622
000010 49 ae 95 3e 86 a1 1e 3e ca 79 a7 3e 83 5b 84 3e
       0.29234532 0.15491304 0.32710105 0.25851068
000020 3c 9c 1a 3e 21 3b b1 be f9 d5 34 3e b8 f5 e8 3d
       0.15098661 -0.34615424 0.17659749 0.11374992
000030 c7 a1 58 3f 9d 13 e9 be 9f 00 0d bf 0d c2 8a be
       0.8462185 -0.45522776 -0.5507907 -0.27101174
000040 d2 aa 11 3e ef 61 6a 3e 9c 3d 9e 3e c8 e6 b4 3e
       0.14225319 0.22888921 0.3090638 0.35332322
000050 8b cd 18 3e 3b c7 73 3d d8 f2 51 be 7c ec d2 3e
       0.14922158 0.059516173 -0.20502794 0.41196048
000060 73 a0 9e 3e cc 48 1d 3e 2c 17 e7 3d 48 97 82 be
       0.30981788 0.15359801 0.112837166 -0.25506043
000070 05 2a 0f 3e 44 02 1c 3e c6 92 17 3e d9 c7 17 3f
       0.13980873 0.1523524 0.14802083 0.5928932
000080 7c 5e 62 3e dd f4 2d be 75 75 a2 3e 64 4d b2 3d
       0.22106355 -0.16987939 0.31730238 0.08706167
000090 af 69 df be bf d0 48 bf ab 34 9e 3e e6 83 ff 3d
       -0.43635318 -0.7844352 0.30899557 0.124763295
0000a0 fe 3a 5f 3e cc 96 9f 3e a6 f6 37 3e 80 b5 1a 3e
       0.21799847 0.31169736 0.17965183 0.151083
0000b0 01 13 33 3f 0c 12 86 3d 74 90 4d be 64 cd ac 3e
       0.6995087 0.06546411 -0.20074636 0.3375045
0000c0 32 11 43 be 0e 55 4d be a8 1f ae bd 55 4f a2 3d
       -0.19049528 -0.20051977 -0.08502132 0.07925288
0000d0 00 4e 8f 3e 49 88 89 3e ec 78 c5 3d 13 8f 6c 3e
       0.27989197 0.2686179 0.09642205 0.23101453
0000e0 03 4a 86 3e 17 9c 8e 3e 58 d5 66 be e7 e6 13 be
       0.2622834 0.27853462 -0.22542322 -0.14443551
0000f0 2b f6 9c 3e 0b 1c 02 3f fa 2e 93 3e 27 0f 84 3e
       0.3065656 0.5082404 0.28746778 0.2579281
000100 65 23 62 bd c7 eb ad bd 1c 1d 90 bd 22 09 58 bd
       -0.055209536 -0.084922366 -0.07036802 -0.052743085
000110 24 15 05 3e 9c 7c e0 3d 7c bd 85 3d 82 32 1c 3d
       0.12996346 0.10961267 0.06530282 0.038134106
000120 ed 04 61 3d 56 83 ce be a3 d2 64 3e e5 3e 3c 3e
       0.05493634 -0.40334576 0.22345977 0.18383367
000130 b1 65 b0 3e 34 8f 6c be c9 a5 85 bd 0a 16 23 be
       0.34452584 -0.23101503 -0.06525762 -0.15926376
000140 aa 8b 10 3e 4f dc 53 3d ef 53 36 3e 3a 97 61 3e
       0.14115778 0.051723775 0.17805456 0.22030345
000150 16 ca 0b 3e 3e 3a de 3e 2f ed a4 3d fb 31 77 bd
       0.13651308 0.4340381 0.08053052 -0.0603504
000160 27 21 51 bc 55 07 de be e4 66 b8 3e 42 37 ae 3d
       -0.012764252 -0.4336497 0.36016 0.08506633
000170 82 0e 66 bd 0a ef 69 be 07 46 5c 3e 22 16 8b 3e
       -0.05616618 -0.22845092 0.21511088 0.27165323
000180 1c c3 08 be 76 ae 7e 3d 9d 14 40 3e 27 5b 8e 3e
       -0.13355678 0.062178098 0.18757863 0.2780392
000190 d8 cd d8 3e fe 03 a2 bd 0b 0b d7 bd 97 7f bb 3d
       0.42344546 -0.07910918 -0.10500153 0.09155195
0001a0 b0 93 fb 3d d7 2c 0f be 4f 0c 37 be fc 4c 09 3e
       0.122840285 -0.13981949 -0.17875789 0.13408273
0001b0 bc e3 11 3f 20 e9 81 3e b1 a4 7c be f6 f9 0a 3e
       0.5698812 0.25373173 -0.246722 0.13571915
0001c0 aa 4d c1 3d 78 3c 92 be ed 64 ac 3a 08 39 45 be
       0.09438641 -0.2856176 0.0013152637 -0.19260037
0001d0 2c af d7 3d 02 08 14 3e e5 f8 45 3e ac 0d 0b 3e
       0.10531458 0.1445618 0.19333227 0.13579434
0001e0 30 10 00 3c 8c 78 f2 3d 48 ec 96 bd 8c 9b e5 bc
       0.007816359 0.11839399 -0.07369286 -0.028028272
0001f0 6c 37 e2 3d 51 18 90 be 15 ad a3 bd 3f c2 09 3e
       0.11045727 -0.28143552 -0.07991997 0.13453005
000200 9e ab 95 bd dc c9 5d 3d 69 4b e6 bd f2 5b 75 bd
       -0.07308124 0.054147586 -0.11244852 -0.05990214
000210 cb f8 46 3e 3e f8 16 3e 63 41 6b 3d f7 1c 9b 3d
       0.19430844 0.14743134 0.057435405 0.07573884
000220 c8 7e 89 3d 94 4a 9f be 44 5e 85 3e 53 0b cb 3d
       0.06713635 -0.31111586 0.2604848 0.09914269
000230 91 ca c2 3e bc 52 d7 bd 90 2f 38 be 7b 91 56 3c
       0.3804517 -0.10513827 -0.17986894 0.013096209
000240 f2 2d d0 3d 06 31 d3 3d b0 52 4d 3e 22 fc 50 3e
       0.101650134 0.10312085 0.20051074 0.20408681
000250 58 08 1c 3d 73 cc 3d 3e e2 29 af 3d c5 80 b3 3d
       0.038093895 0.18535022 0.085529104 0.08764795
000260 ba 64 fc bb 2e 06 e6 bd 69 c1 84 3e 43 bb 9e bd
       -0.007702437 -0.112316474 0.2592881 -0.07750561
000270 36 37 8d 3c e6 0d 02 3d a0 3d 74 3e 62 06 8f 3e
       0.01723824 0.031751536 0.23851633 0.27934557
000280 8d 94 a6 bc 81 cf 9b 3d 77 de 8c 3e a6 38 48 3e
       -0.020334506 0.076079376 0.27513477 0.1955286
000290 2a e7 92 3e 07 29 1f be 5c cb 5e bd 9d 50 92 3d
       0.2869199 -0.15542994 -0.054393157 0.07144282
0002a0 82 88 c2 3d 1c bc 20 bb eb 7f 89 bd 9c ea 0c 3e
       0.09498693 -0.0024526184 -0.067138515 0.13761371
0002b0 85 59 e8 3e 8b 4c 52 3e 4e 87 cc bd 7e e2 a4 3d
       0.45380798 0.20537011 -0.09986745 0.080510125
0002c0 3e d7 19 3d 19 fa 88 3b 43 b4 09 bc 57 60 ae bd
       0.037558787 0.0041802046 -0.008404794 -0.08514469
0002d0 6e 33 d5 3d 80 d2 0f 3e f6 1a 43 3e 5c fe fd 3d
       0.104102 0.14045143 0.19053254 0.12402031
0002e0 54 09 7b 3d 97 2f fc 3d bf a9 c1 bd 38 25 fc 3d
       0.061288193 0.123137645 -0.094562046 0.123117864
0002f0 06 27 0c 3e 84 74 19 be 5c 90 30 3d b6 24 24 3e
       0.13686761 -0.14985853 0.04310642 0.16029629
000300 80 15 89 bd 39 c5 d3 3b 2d 65 bb bc b2 02 7e bd
       -0.06693554 0.0064627198 -0.022875393 -0.06201429
000310 68 90 20 3e 87 54 30 3d cb 5a ec 3d fd c1 74 3d
       0.15680087 0.04304936 0.11540755 0.059755314
000320 55 74 6b 3d c6 15 cb be 0c ff ea 3d d6 39 a1 3d
       0.05748399 -0.3966505 0.114744276 0.078723595
000330 99 5c a0 3e 27 46 82 be 52 1d 14 be f8 da be bd
       0.31320646 -0.25444147 -0.1446431 -0.09319109
000340 cb 28 02 3e 68 ba 14 3e 56 f3 18 3e 7a db 1e 3e
       0.12710874 0.14524233 0.14936575 0.15513411
000350 3c 0e b2 3d a2 df 98 3e c8 e3 61 3d 12 06 94 3c
       0.08694121 0.29858118 0.05514887 0.0180693
000360 19 4f 89 3d bd ef 6e be 3b dd 55 3e 9c 3f dc bb
       0.0670454 -0.2333364 0.20885174 -0.00672145
000370 d3 f0 5b bd 15 e4 19 bd 22 59 0f 3e b3 02 46 3e
       -0.053696465 -0.03757103 0.13998845 0.19336967
000380 27 d3 84 bd 7c f0 b2 3c 74 8a 33 3e b4 2e 10 3e
       -0.064855866 0.021843188 0.17533284 0.14080316
000390 80 4c 83 3e 54 30 86 be ff 26 cf bd dc 5e 7f 3c
       0.25644302 -0.26208746 -0.1011486 0.015586581
0003a0 c4 d6 17 3e 91 01 c3 bd 01 11 29 be b3 c2 20 3e
       0.1482802 -0.09521783 -0.16510393 0.15699272
0003b0 32 26 d1 3e b0 f3 34 3e bc 28 9c be 6e 83 28 3e
       0.40849453 0.17671084 -0.30499828 0.16456386
0003c0 3e 10 9f bc a2 88 4e be e8 c2 ac bc df bb 35 bc
       -0.019416925 -0.20169309 -0.021089032 -0.011092155
0003d0 1f 7f c5 3d 5e cb ae 3d 3c 5f b9 3d 92 42 eb 3d
       0.09643387 0.08534883 0.09051368 0.11487307
0003e0 24 9a 5d 3d 4a 3f 92 3d 84 48 1b be cc 6a 35 bd
       0.054102078 0.07140978 -0.15164381 -0.044291303
0003f0 36 c5 a6 3d 60 11 20 be 2c ff d9 bc ee a4 fb 3d
       0.08143084 -0.15631628 -0.026610933 0.12287317

linear_relu_stack.2.bias f4 [64]
000000 db 25 31 3e f0 2e 6a 3d 7a 7b 23 3e 3e 6f 99 3d
       0.17299597 0.05717367 0.15965071 0.07491921
000010 72 ae 5b 3f ae 05 99 bc 7d 14 8f 3e 46 88 8e bc
       0.8581306 -0.018679466 0.2794532 -0.017398965
000020 a7 cf 30 3c 5d 6a 03 3c 03 b4 a7 bc d5 e7 82 3e
       0.010791696 0.008020964 -0.020471578 0.255675
000030 88 c2 23 3e 28 a0 1d 3d bc 1a 22 3d 20 63 38 3e
       0.15992177 0.038482815 0.039576277 0.18006563
000040 e4 1e 86 3a 89 25 bd 3d e9 75 43 bd 28 7f 96 3e
       0.0010232595 0.09235675 -0.04771987 0.29393888
000050 93 8c 1c 3d 1c df c3 bd ee 1f c2 3e a0 7c 3d 3e
       0.03822 -0.09564039 0.37914985 0.18504572
000060 df 9d 12 3d 53 b9 6e 3e 73 9e f6 bd d1 80 a5 3e
       0.03579509 0.23312883 -0.120419405 0.32324842
000070 5f 75 8d bd 4a b3 7c bd 16 a4 5e 3e af 7c 8c 3d
       -0.069071524 -0.06169442 0.21742281 0.06859719
000080 1c 5d 92 3c 85 01 34 3e 16 4e 88 3e 2c 45 33 3d
       0.017866664 0.17578705 0.26622075 0.04376714
000090 47 7b 77 3e d6 0d fa bc 50 d8 ca bc 32 07 19 3d
       0.2416812 -0.030524176 -0.024761349 0.037360378
0000a0 b1 ce 46 3e 72 0b cb bd 78 fd 77 3e af 2d 85 3d
       0.19414784 -0.099142924 0.24217784 0.06502854
0000b0 d8 7c b0 3c ed f5 11 3d 5e 01 8f bd b1 33 fc bd
       0.021543905 0.035634924 -0.06982683 -0.12314547
0000c0 ad 9a 71 3d 04 5d 2d be 2a 58 27 3e 8c 24 04 bd
       0.0589854 -0.16930014 0.16342226 -0.032261416
0000d0 d2 40 36 3d c3 7d 06 3e fa 76 04 bc 62 7c 8e 3d
       0.04449541 0.13133912 -0.008085007 0.06957318
0000e0 1c df a8 3b d1 e0 b7 3d 99 a3 05 be 25 a2 a2 be
       0.00515355 0.08978427 -0.13050689 -0.3176433
0000f0 ce 4c 66 bd e7 ec 7c 3d b1 91 a4 3d 25 13 55 3c
       -0.05622559 0.061749365 0.08035601 0.013005053

linear_relu_stack.4.weight f4 [64, 64]
000000 9a 01 df 3e b8 4d 5d be c8 76 38 3e a1 76 52 3e
       0.4355591 -0.21611679 0.18014061 0.20553066
000010 7e fe df 3e fd 62 ad 3c 58 58 b8 3e 63 e4 9a 3d
       0.4374885 0.021165365 0.360049 0.075630926
000020 98 5a f3 bf 47 71 9e bf 80 fa c4 be f4 10 23 3e
       -1.9012022 -1.237832 -0.38472366 0.15924436
000030 80 2a 9d 3e cb 6f 23 bd 98 4b 45 be 6c e2 93 3e
       0.30696487 -0.039901536 -0.19267118 0.28883684
000040 ef 9e 03 3e e5 ab 3a bf ec 7f 24 bf d2 47 0d 3f
       0.12853597 -0.7291854 -0.64257693 0.55187714
000050 de e7 c8 bf 09 6f 89 bf a1 b9 9d 3e 8e 5e f8 3d
       -1.569576 -1.073701 0.30805686 0.1212741
000060 67 11 37 c0 7c d1 98 3e 14 bb 08 be 89 1b 9b 3e
       -2.8604372 0.29847324 -0.13352615 0.30294445
000070 3a 6e bd bf 61 b2 80 bf c9 f0 6a 3e 3a 22 18 3c
       -1.4799263 -1.0054437 0.22943415 0.009285504
000080 8b d4 98 bd d9 04 c1 be 7e 35 e3 bd 38 7a f2 bd
       -0.07462414 -0.3769901 -0.11094187 -0.118397176
000090 59 a7 65 3e 06 31 5f bd c0 1b 97 be 75 81 33 3e
       0.2242712 -0.05449011 -0.2951336 0.17529853
0000a0 0d 74 8e 3e fd 4c af be a5 c7 de 3e 74 d6 cd bd
       0.27822915 -0.34238425 0.43511692 -0.10050669
0000b0 92 2e 12 bd 96 ed b7 bf c8 25 10 c0 6e e8 bb be
       -0.035688944 -1.436938 -2.252306 -0.36700767
0000c0 cb 51 ac bf b1 c2 49 c0 66 0e 26 be d1 97 95 bf
       -1.3462461 -3.152508 -0.1621643 -1.1686956
0000d0 73 f3 35 3e 53 d1 83 3d 22 f4 35 be d8 50 5c c0
       0.1776865 0.0643641 -0.1776891 -3.4424343
0000e0 ce be de 3b da 74 8d bd 8d 67 62 bf fc 88 84 bd
       0.006797648 -0.06907053 -0.88439256 -0.0647144
0000f0 a5 e9 4e bf 44 ed ae bc e9 9e b6 be 32 17 28 3c
       -0.80825263 -0.021353371 -0.35668114 0.010259436
000100 41 43 b2 3d 56 cd 1d bf fa 8a 09 be 7c f2 26 bf
       0.08704234 -0.6164144 -0.13431922 -0.6521375
000110 4d ec c3 3e 93 0a 4e be dd 8a 9b 3e dd cc 9c be
       0.3826622 -0.20121221 0.30379382 -0.30625048
000120 e1 09 df be c1 43 3c c0 16 5d bc be 8f 4e b2 3e
       -0.43562225 -2.9416354 -0.3678977 0.3482556
000130 db b4 1f 3f 5c 7d c5 bc 94 54 da bd b4 6b 5d 3e
       0.6238534 -0.024107628 -0.10660663 0.21623117
000140 cf 8a af be e7 5c b4 bf 41 df bf bd 2c 76 39 3f
       -0.3428559 -1.4090852 -0.09368754 0.7244594
000150 67 f5 94 3e 9b c6 c3 bf c0 97 62 3e b6 2b 65 3d
       0.29093477 -1.5294985 0.221282 0.05594989
000160 aa 8b 0a 3d 1b 27 a9 3e fe 93 77 bf 9b 6b 6d 3e
       0.0338246 0.33037648 -0.96710193 0.2318558
000170 64 12 b6 3d 53 25 0e c0 82 45 43 bd 16 ae 09 be
       0.088902265 -2.221028 -0.04767371 -0.13445315
000180 46 91 8d 3e 50 e5 98 bf e3 c0 db bf f0 48 0a be
       0.27649897 -1.1944981 -1.7168239 -0.13504386
000190 79 57 aa 3e b5 27 25 3d ea 9c 4f bd 62 68 92 bf
       0.3326986 0.04032107 -0.050686754 -1.1438105
0001a0 fe a8 a4 3e 51 e2 9c 3e fe fd 07 3e 6a ac 9d 3d
       0.3216018 0.30641416 0.13280484 0.07698901
0001b0 2e 35 13 bf 79 bd bb bf 1c 33 f7 be 84 9a 6b be
       -0.5750302 -1.4667197 -0.4828118 -0.23008162
0001c0 5a 73 47 3e f0 6b 5a bf ec d6 0e c0 d3 07 25 bf
       0.19477597 -0.8532095 -2.2318678 -0.64465064
0001d0 2a 23 1a bf 79 fc 99 bd 75 88 e9 bd 98 9d 00 c0
       -0.60209906 -0.075188585 -0.1140298 -2.0096188
0001e0 a1 cb c4 bd 1b 26 7d be 26 eb e3 be f2 1d d8 3c
       -0.09609152 -0.24721567 -0.44515342 0.026381467
0001f0 11 95 1e c0 ff e1 85 be 0b e0 f9 bf 91 e6 18 be
       -2.4778483 -0.26148984 -1.9521497 -0.14931704
000200 8a f1 0c 3f 3e bb 38 3e 6c 2e be 3d a7 ce 1b 3e
       0.5505606 0.18040177 0.09286198 0.1521555
000210 bf 4f 2a 3e bb 69 bb 3d 72 c8 1a 3e 7d e2 20 3d
       0.16631983 0.09151026 0.15115526 0.039278496
000220 5f b2 6d 3e 4a 02 2d 3f 50 f1 26 3e 46 3d be 3d
       0.23212574 0.6758162 0.16302991 0.09289031
000230 30 c0 ca be 53 07 88 3c 73 5d 48 3e e2 c4 d0 3d
       -0.39599752 0.016605055 0.19566898 0.101938024
000240 8b 9c 39 3e 6a b8 1a 3e 42 e3 96 3e a9 6b 9c bd
       0.18126123 0.15109411 0.2947026 -0.07637722
000250 96 20 a0 3e 75 ed fc 3e 10 64 a8 3d cf 4c 25 3e
       0.3127486 0.49399915 0.082222104 0.16142581
000260 01 14 a0 3e c4 47 4d 3e 8f 6f ed 3d 63 c3 f9 3d
       0.31265262 0.20046908 0.11593544 0.1219547
000270 58 de 81 3e 2a 21 1d 3f 9d ae 2c 3e bd d0 18 3e
       0.25364947 0.6137873 0.16863485 0.14923377
000280 2b b8 82 be b2 f9 00 3e b3 1c 29 3e 1a 94 91 3d
       -0.25531134 0.12595251 0.16514854 0.07108326
000290 52 85 4e 3e f5 87 b8 bc 4c b2 21 3e 3a 68 4d 3f
       0.20168045 -0.022525767 0.15790671 0.8023716
0002a0 7a d5 67 be 50 00 25 3e ab 63 f5 3d 01 9e a2 3d
       -0.22640029 0.161134 0.11981901 0.07940293
0002b0 6a 8b e8 3d 65 95 d7 3d c9 15 c4 3e 18 31 a0 3e
       0.11354716 0.105265416 0.3829787 0.31287456
0002c0 b7 66 28 3e 52 5a 39 3f 6c b7 54 3e 06 1f cf 3e
       0.16445433 0.7240344 0.20773095 0.40453357
0002d0 a6 6e 05 3f 14 e5 42 3e 31 2e 1f 3e 96 28 9d 3f
       0.5212196 0.19032699 0.15544964 1.2278011
0002e0 a7 66 2b 3e 9e 23 07 3e 91 58 9b 3e 2d ed 86 be
       0.16738378 0.1319718 0.30341008 -0.26352826
0002f0 3a 80 92 3f d5 4a 46 3e b3 42 36 3f d2 1a e6 3e
       1.1445382 0.19364484 0.71195525 0.44942337
000300 7b 4d 9e be d7 dd 68 3d e5 68 13 3e 5d 96 9a 3d
       -0.30918488 0.056852188 0.14395483 0.07548211
000310 7c 91 02 3e 01 51 be 3d a7 ab f2 3d 53 ea fe 3d
       0.1275081 0.09292794 0.11849146 0.124470375
000320 f9 3d fe bd f2 08 1c bf ed a1 60 bc bb 6d 02 3e
       -0.12414164 -0.6095115 -0.013710481 0.12737171
000330 88 c5 39 3f 66 20 4d bd e3 f7 63 bd 81 05 cc 3d
       0.72567034 -0.050079726 -0.055656325 0.09961987
000340 3c fb 0b 3c 28 6a a5 3c 9f ff 29 bb 0c 09 99 3e
       0.008543786 0.02019222 -0.0025939716 0.29889715
000350 af 96 ed bd cc 0c 18 3f a0 0d 61 3e 28 83 2d 3e
       -0.11601006 0.59394526 0.21977854 0.16944563
000360 4d 71 9c bc d3 f8 3b 3d eb e4 40 3e 81 d8 f5 3d
       -0.019096995 0.045891594 0.18837325 0.120041855
000370 b7 a7 23 3e a4 c5 43 bf 86 f0 d1 3d 25 95 53 3d
       0.15981947 -0.7647345 0.10250954 0.051655907
000380 ed 68 0c 3f c5 9d b4 3d 4c 40 5c be 27 84 24 3d
       0.54847604 0.08819155 -0.21508902 0.040165093
000390 7d da ac bb 7d 0b eb bc ec 71 60 3e c8 63 b3 bf
       -0.0052750693 -0.028692001 0.21918458 -1.4014826
0003a0 ae 5e 81 3e 32 d0 dc 3d 6e 74 5e 3e 14 2a d4 bc
       0.25267547 0.107818976 0.21724102 -0.02589897
0003b0 07 05 e1 3b 1e 2f 84 3d 12 ba ac be fc d2 07 3d
       0.0068670544 0.064542994 -0.3373571 0.033160195
0003c0 f0 34 63 bd 35 b3 af bf f6 9c 40 3e af af 2d be
       -0.055470407 -1.3726565 0.18809876 -0.16961549
0003d0 fb ec 56 bd 24 0f 04 3e 65 95 d4 3d c0 78 c3 bf
       -0.052472096 0.128964 0.10380057 -1.5271225
0003e0 4c d2 ed 3c 78 74 e5 3d 50 54 85 be a1 00 b9 3e
       0.029030941 0.11203855 -0.26040888 0.36133292
0003f0 18 71 61 bf bb bc fc bc c3 a0 91 bf d1 45 a9 bd
       -0.8806319 -0.030851712 -1.1377186 -0.082652695

linear_relu_stack.4.bias f4 [64]
000000 7a 13 38 3f 47 7e 24 3f 91 96 7e 3d da 5b 79 3e
       0.7190472 0.64255184 0.06215531 0.24351445
000010 38 e3 cf 3d 80 91 0a 3d 1b 37 45 3c 56 48 ce bd
       0.101507604 0.033830166 0.012037064 -0.10072391
000020 68 ad 6a 3d 3a dc 63 3c a8 67 f4 3b 2d 1b 34 bd
       0.05729428 0.013907487 0.007458646 -0.04397123
000030 fb ca c2 3d e2 78 98 bd 37 f4 84 bd d8 7b e7 3d
       0.09511372 -0.074449316 -0.06491893 0.11302918
000040 b6 04 be 3d f1 4f ac 3d 13 35 23 3d fd 2e 0d 3e
       0.09278242 0.08413685 0.039845537 0.13787456
000050 b6 19 ba 3d 27 35 3b 3e e9 f4 81 3e ed 66 65 3d
       0.09086935 0.18281995 0.25382164 0.05600636
000060 94 ce d2 3d dc c7 2a 3d 9f d8 f9 3d 27 fe 24 3d
       0.10293308 0.041694507 0.1219952 0.04028144
000070 4f 51 47 3e e5 15 e5 3d 86 e0 cb 3d de 9d 61 be
       0.1946461 0.11185817 0.09954934 -0.22032878
000080 25 e8 5d 3d 8e cd d8 3d 77 6c 92 b9 c1 c6 d2 3d
       0.05417647 0.105860814 -0.00027928103 0.102918155
000090 b7 97 ce 3d ca a9 0d 3d a2 fc 0e 3e 73 a1 0b 3d
       0.10087531 0.03458575 0.1396356 0.034089517
0000a0 d0 99 c4 3c 42 fa 24 bd 33 76 02 bc 62 f7 21 3f
       0.023999125 -0.040277727 -0.007962751 0.632681
0000b0 73 6f 71 3e cc 5e 54 3e cb 60 00 3c 25 61 36 bc
       0.23577671 0.20739287 0.007835577 -0.0111315595
0000c0 55 ef 63 bd 45 e9 8b 3d c9 d9 8f 3d cb 79 e9 3c
       -0.055648167 0.06831602 0.07023961 0.028500458
0000d0 57 a7 7c 3c 8f e9 14 3f 77 a4 75 bc 7b 97 94 3d
       0.015420756 0.5816888 -0.014992825 0.07255455
0000e0 4a 9e 9b 3d 58 98 0d 3d 02 07 c7 bc 1c 7b 90 be
       0.075985506 0.034569114 -0.024295334 -0.28218925
0000f0 77 3d 1e be 91 e9 23 3e 88 cb 8e 3d 68 37 06 3e
       -0.15453134 0.16007067 0.06972414 0.13107073

linear_relu_stack.6.weight f4 [31, 64]
000000 10 4e 22 40 92 81 ff bf 2b 78 6f be 4e 7d 16 3f
       2.5360146 -1.9961417 -0.23385684 0.5878495
000010 d5 32 fd bd ec 03 ad bf d7 dc 67 be dc bc 2f c0
       -0.12363211 -1.3516822 -0.22642837 -2.745902
000020 fc e8 5e bd 8d 86 96 bc a2 42 3d be 9c fc 15 3b
       -0.05442141 -0.018374706 -0.1848245 0.0022886163
000030 e0 64 25 be 44 a0 bb be c5 1a 3c be 50 04 10 be
       -0.16151762 -0.3664571 -0.18369587 -0.14064145
000040 8f 41 4a be 0a a3 5d be fe fc 31 3d f8 79 07 be
       -0.19751571 -0.21644226 0.043454163 -0.13230121
000050 47 30 49 be 54 ad a8 bd 4a c5 89 3e 0d 53 13 be
       -0.19647323 -0.08236185 0.26908332 -0.1438715
000060 ea 00 19 be 44 c5 e2 bd fa 0c de bd de 3e f0 bd
       -0.14941755 -0.11072782 -0.10842319 -0.11730741
000070 f6 16 77 be 4b 30 c6 bd 42 26 a2 bd 62 24 b4 be
       -0.24129853 -0.0967718 -0.07917453 -0.35184008
000080 6e 89 c5 bd 53 fb 0e be 28 d6 04 bd df fd e2 bd
       -0.09645353 -0.1396306 -0.032430798 -0.11083578
000090 11 a2 2e be ea 99 ba 3e c7 d0 29 bf 41 b7 65 be
       -0.17054011 0.36445552 -0.66334194 -0.22433187
0000a0 59 04 7c be aa be 4d be 74 42 33 be 8c 53 01 40
       -0.24611033 -0.20092264 -0.17505819 2.0207243
0000b0 49 29 e0 3e 16 5a d1 3e f3 50 2f be e6 a9 e0 bf
       0.43781498 0.40889043 -0.17120723 -1.7551849
0000c0 84 4d 3a be 7d f6 da bd fe eb 26 be 97 1b df bd
       -0.18193632 -0.10691545 -0.16300961 -0.10893934
0000d0 2d ae 86 be 96 e2 ba bf 20 54 bc bb bb e9 9c be
       -0.2630476 -1.4600399 -0.005747333 -0.30647072
0000e0 f5 f0 64 be f3 c7 bd be 4e 65 1d 3d a6 f3 1a 3f
       -0.22357543 -0.37066612 0.03842669 0.6052803
0000f0 35 0a 73 bf d5 7d 74 be 65 79 f4 bd e7 3f 33 be
       -0.9493745 -0.23876126 -0.11937217 -0.17504846
000100 a7 74 04 3f 39 5d e1 3e 6e e0 53 be 6b 9e 9a 3d
       0.517405 0.44016436 -0.20691082 0.07549747
000110 79 70 02 be 1f a2 ac 3c c1 f4 26 be b3 ef e5 bc
       -0.12738217 0.0210734 -0.16304304 -0.028068399
000120 a4 b8 ab bd cd 40 35 3d 4e 30 1e be 4a 31 ce 3b
       -0.08384827 0.044251252 -0.15448114 0.006292497
000130 5d 52 0f be 04 3d 7e be 04 40 82 be 37 df 1b be
       -0.13996263 -0.24827963 -0.25439465 -0.15221868
000140 e7 c2 20 be 30 e8 4e be 8d 82 13 bd 10 86 28 be
       -0.1569935 -0.2020576 -0.036013175 -0.16457391
000150 fd cf 33 be ee 4e 49 be e5 55 5f bd 8e 0a 44 be
       -0.1755981 -0.19659016 -0.054525275 -0.19144651
000160 61 84 38 be 12 07 d8 bd c2 be 19 be d4 78 02 be
       -0.18019249 -0.105482236 -0.15014175 -0.12741405
000170 9c 6c 81 be b2 33 e1 bd 90 da 30 be 6f 74 4c be
       -0.25278175 -0.10996188 -0.17270875 -0.19966291
000180 eb c9 02 be f4 ec ec bd c2 82 e2 bc 3e 1a 14 be
       -0.12772338 -0.11568633 -0.02765024 -0.14463136
000190 db 8b cc bd 67 af 29 3f 78 53 51 3d a8 3b 22 be
       -0.09987613 0.6628327 0.051104993 -0.1584307
0001a0 9c 8b 72 be ef 8e d9 bd 94 c4 4c be 44 24 9f 3e
       -0.23686069 -0.106229655 -0.19996864 0.31082356
0001b0 17 a1 91 3e 16 70 eb bc 5a e6 2f be 2f 06 02 bc
       0.28443214 -0.02873997 -0.17177716 -0.007936045
0001c0 ac 59 37 be 41 dc 21 be bb 9b 26 be f5 24 05 be
       -0.17905301 -0.15806676 -0.16270344 -0.13002379
0001d0 f0 46 4c be c8 35 fb 3e ce 25 4e bd 9b 2d b6 be
       -0.19948936 0.4906447 -0.050329022 -0.3558167
0001e0 34 62 67 be c6 ef aa be a7 c7 9d bc 91 3c b4 3e
       -0.22596055 -0.33386058 -0.01926024 0.35202459
0001f0 82 45 1e 3e 7c 9b 86 be 24 89 41 be 47 11 03 be
       0.15456203 -0.262905 -0.18899971 -0.1279956
000200 c3 df 79 3f 7b da 1a bf 18 61 6f bd 3c 35 4d 3e
       0.9760706 -0.60489625 -0.058442205 0.20039839
000210 da 36 4a be e6 fd 0a 3d 13 bc db bd 67 f6 1d bf
       -0.19747487 0.033933543 -0.10729232 -0.61704105
000220 08 10 ef bd 6c f0 20 3d 0a c8 47 be 26 78 51 3d
       -0.116729796 0.039291784 -0.19509903 0.051139973
000230 db fb 78 be 75 01 b6 be 31 62 bd be 9d 41 b8 bd
       -0.24314825 -0.35547987 -0.36988977 -0.0899689
000240 4d b0 91 bd 8e 39 0d be aa 87 2c bc 3d c6 e4 bd
       -0.07113705 -0.13791487 -0.010530392 -0.111706235
000250 a8 28 52 be b5 53 58 be 6d 8d 04 3e 87 7b eb bd
       -0.20523322 -0.21125682 0.12944575 -0.1149817
000260 89 ce 83 be 7b 05 e4 bd 0d 90 39 be 51 f3 69 be
       -0.2574351 -0.11133858 -0.18121357 -0.22846724
000270 23 92 52 be 92 fd 5d be 85 fe 18 be 6e e2 aa be
       -0.20563559 -0.2167876 -0.14940841 -0.33375877
000280 f5 7b 1d be b1 77 25 be 7a 24 29 3c 10 64 b5 bd
       -0.15379317 -0.1615894 0.010323638 -0.08856976
000290 23 b4 9f bd e1 37 84 3e 3b 5a 8c be b1 79 15 be
       -0.0779803 0.25823882 -0.2741259 -0.14597203
0002a0 5b 83 3c be ae b3 78 be cc d1 4f be 7c ee 1d 3f
       -0.18409483 -0.24287292 -0.20294875 0.61692023
0002b0 56 f9 7f 3e 88 25 8b be bc 63 27 be 2a 7d 35 be
       0.24997458 -0.27177072 -0.1634664 -0.17723528
0002c0 bb ec 5d be 25 04 0f be b0 19 4e be d7 c2 27 be
       -0.21672337 -0.13966425 -0.20126987 -0.16382919
0002d0 fc 71 0e be e3 23 28 3f e5 14 33 bd c1 1d bc be
       -0.13910669 0.6567976 -0.0437211 -0.3674145
0002e0 10 19 09 be ae a2 41 be 7f 9c 3f 3d 9c 28 0a bf
       -0.13388467 -0.18909714 0.046780106 -0.53968215
0002f0 1d cf f5 be 5e 56 17 3e 4d c9 37 be b7 4a 24 be
       -0.48009577 0.1477904 -0.17947884 -0.16044126
000300 03 19 de 3e 32 07 05 3e dd ee ad bd 27 f5 d7 3e
       0.43378457 0.12991026 -0.08492825 0.42179224
000310 3a 78 01 be a7 da 3b bd be b3 05 be 1d 70 48 3e
       -0.12643519 -0.04586282 -0.13056847 0.19574018
000320 ce 24 26 be d4 4b d2 3b 05 d5 10 be c4 af 4c 3b
       -0.16224977 0.006417731 -0.1414376 0.0031232694
000330 c6 bf 63 be 44 69 4b be b7 08 3c be 0c 26 3c be
       -0.22241125 -0.19864374 -0.183627 -0.18373889
000340 08 c9 38 be 34 69 3e be 4a 64 99 3c a7 f6 c6 bd
       -0.18045437 -0.1859482 0.01872458 -0.09715014
000350 16 70 d1 bd 57 a7 19 be 5a e2 09 3f 27 47 eb bd
       -0.10226457 -0.15005241 0.5386101 -0.114881806
000360 ff 2c 29 be 69 12 28 be f6 64 5a be 59 50 58 be
       -0.16521071 -0.16413273 -0.21327576 -0.211244
000370 d3 8f b5 be 0c a8 21 be 1e 67 fd bd 5e c7 e2 bd
       -0.35461292 -0.15786761 -0.12373184 -0.110731825
000380 e7 d6 59 be f7 e2 0f be b3 73 da 3b d7 cb fe bd
       -0.21273385 -0.14051424 0.0066666245 -0.12441223
000390 c1 33 c3 bd d4 e4 74 3e a9 c4 44 3d a1 84 24 be
       -0.09531356 0.23915416 0.048039112 -0.16066219
0003a0 de 94 ec bd b2 5d 47 be 4c 09 18 be 9a 22 f6 3d
       -0.11551832 -0.19469336 -0.14847296 0.120183185
0003b0 ab 20 d4 3e 47 87 21 bf 7c 71 0a be 14 23 e3 bc
       0.41431174 -0.6309704 -0.13519853 -0.027726687
0003c0 e4 54 01 be 8a 2c 55 be 24 08 65 be d8 e9 19 be
       -0.1263004 -0.20817772 -0.22366387 -0.1503061
0003d0 a9 f5 18 be 1d 21 4c 3f a6 ec 50 bd e6 0d 86 be
       -0.14937462 0.79738027 -0.051006936 -0.2618248
0003e0 c6 b4 64 be 84 18 5b be 5e 8d 58 bd ec 23 d6 be
       -0.22334585 -0.2139607 -0.052869193 -0.4182428
0003f0 1f a7 8d bf 98 db 3d be 4d 62 b1 bd 18 60 ef bd
       -1.1066626 -0.185408 -0.086613275 -0.1168825

linear_relu_stack.6.bias f4 [31]
000000 4c 56 ac 3d 14 f0 95 bd 7f e2 c2 3d da 38 f9 bc
       0.08414897 -0.07321182 0.09515857 -0.030422617
000010 30 6e 90 bd 4c 99 7f 3b 03 43 43 bd ca 90 a1 bd
       -0.070522666 0.0039001284 -0.04767133 -0.078889444
000020 db 33 75 bd 7d 39 dc 3c 4c 07 27 bd ab 6e b2 bc
       -0.059863906 0.026882881 -0.040778443 -0.021781286
000030 26 60 dd 3c 5c e7 37 bd 00 8a ae 3c 48 b0 dd bb
       0.027023386 -0.044898376 0.021306038 -0.006765399
000040 67 24 32 bc a4 d8 74 bd 57 89 a6 3c 7c a0 1d bd
       -0.010872937 -0.059776917 0.02032916 -0.038483128
000050 f4 19 f3 bc b9 09 16 bd 58 08 bb bc f8 c2 c5 bd
       -0.029675461 -0.036630366 -0.022831127 -0.09656328
000060 8d 4b 7e 3b 46 78 6b 3c 0f ef 3e bc 62 ca 82 bd
       0.0038802356 0.014371937 -0.011653676 -0.06386258
000070 99 e4 e1 3c ad 7f 82 bd be 72 4a 3d
       0.027574824 -0.063720085 0.049425833
