DQN_policy_net_Pendulum.pt (torch, 38784 bytes, 8 tensors)

linear_relu_stack.0.weight f4 [64, 3]
00000000: 0c8d 9bbe a7c3 203f 0a03 5e3d 6ae4 cdbe
00000010: f39e ae3e bd2f dc3e 10c9 a33e b72b 34bf
00000020: aae5 1a3e e6ab ecbe aa02 8a3e 4cff 383d
00000030: 3519 ccbe 582c 2bbe 9989 03bf 374b 06bf
00000040: 5204 203f 0ecb 4a3e 6647 d8be 4164 01bf
00000050: 7f89 5a3c bf6a 06bf a498 a7bd 5c5b e63c
00000060: 73d4 ddbe 3220 1dbd 021e aa3e 6531 79be
00000070: 6c9a 55bf 5c5c cbbe e103 ddbe 9a01 653f
00000080: 657b 823e 61fa 313d 278a 67be cbe0 dfbc
00000090: 35dc 09be 4c96 503f 0c8d 323d 3ce6 783f
000000a0: f9bd 8b3f eed1 c83e 672a 60be 7cb6 dabe
000000b0: 982e e9bc f3db 19be fdb3 2f3f 99b7 6d3e
000000c0: b088 7c3d 7bcc 853d 5edc 883e cd16 95be
000000d0: 54b1 09bf 7c92 69be ed05 a1be 4180 d4be
000000e0: 87e6 27be 7cd9 0f3e c5be 173c dbd7 bcbe
000000f0: ee01 46bf dee3 a9be 2449 c8be 8ba0 aebe
00000100: 617b 17bf bbb1 e73c ecc3 ba3e 0493 74be
00000110: 9d29 98be 4a9c 02bf 2fcc 473f 4a20 423e
00000120: d839 01bf fc92 cbbe 8b79 263e e6af 10bf
00000130: 3457 143d 97ad cabe 543d cfbe 7131 c23c
00000140: bde3 403e e7de 57bd 5c70 f8bb dc42 e43e
00000150: 2e62 00be 9922 79bf 1980 73be 5086 273f
00000160: 2b54 1b3f 1353 e63e bd06 64be d497 c53e
00000170: 3ef9 ec3e 56f5 01bf e748 1d3e 4122 c03e
00000180: df93 b5be dbae 48be 18a0 f7bd cb5d 0b3f
00000190: 64b2 8c3f 1d1d 943e 678f a6be b709 39bf
000001a0: aac9 143d bc46 383f 502e 0fbf ba37 92be
000001b0: 6ceb 5bbe fbba 8fbe 63d1 8f3e 9842 223e
000001c0: bbe8 72bf 4265 3abe 4d06 0e3f 4107 ba3e
000001d0: 0828 993d 2e0e 503f 99c9 7e3f cc5f 053f
000001e0: ce71 8fbe c9aa 323f 4fb2 b33e 67f0 f9be
000001f0: a7db 1b3f 63d4 143d 7545 fe3e aeef e5be
00000200: 9295 d6bc c1a8 333f ccfc e8bd d702 9bbe
00000210: c9ab 863d 08b1 2dbe 0523 aa3e 6db3 dbbe
00000220: 0712 d93e e8ed 3a3e 1677 7d3d 4dda 1bbe
00000230: 4c7e dfbe f2cd a0bd b7b3 21bf db14 513e
00000240: 15fa 483f 2c07 bd3e d3d4 b9be b3d7 45be
00000250: 7976 edbe 00a2 eebc 0496 cebe bb2b 1fbf
00000260: 6232 e7be 7d23 eabe 34c0 fb3e 1298 723c
00000270: c965 59be a1f2 4f3f d9db 333e c9d7 313f
00000280: 6863 713f 8aac 4d3e 7f61 9ebe ee23 2ebf
00000290: f986 103c e74a ae3e 635b 5cbe c142 f4bc
000002a0: 5d26 fa3d f597 95bf 0233 79be 08df b9be
000002b0: 6116 3a3f d297 893e 0878 cbbe f7eb 12bf
000002c0: a333 a7be ac67 953e 1774 64bf e52e 49be
000002d0: 9339 d9be 7852 803f 2c75 d13e e47c 42bd
000002e0: 3283 643e 2d58 103b bfd7 b2be 7533 81bf
000002f0: f14a 7dbe f3b9 463f 7d44 f3be 2fae 8ebe
-0.30381048 0.6279854 0.054202117 -0.4021333 0.34105644 0.4300517 0.31989336 -0.70379204
0.15126672 -0.46224898 0.26955158 0.045165345 -0.3986298 -0.16716135 -0.5138183 -0.5245852
0.6250659 0.19804022 -0.42241973 -0.505436 0.013338446 -0.5250663 -0.08183411 0.028119735
-0.43326148 -0.038360782 0.3322602 -0.24335249 -0.83438754 -0.39718902 -0.43167022 0.8945557
0.25484768 0.04345167 -0.22611295 -0.02732887 -0.13462909 0.81479335 0.043591544 0.9722631
1.091735 0.39222664 -0.21891175 -0.4271735 -0.0284646 -0.1502531 0.68634015 0.23214568
0.061653793 0.06533142 0.26730627 -0.29118958 -0.53786206 -0.22809786 -0.31449834 -0.415041
-0.16396533 0.14047807 0.009261792 -0.36883435 -0.77346694 -0.3318166 -0.39118302 -0.3410686
-0.59172636 0.02828299 0.36477602 -0.23884207 -0.29719248 -0.5101973 0.78045934 0.1895763
-0.5047889 -0.39760578 0.16257302 -0.565184 0.036215976 -0.39585564 -0.40476477 0.023705216
0.18836875 -0.05270281 -0.0075817537 0.4458226 -0.12537453 -0.97318417 -0.23779334 0.6543932
0.60675305 0.44985256 -0.22268195 0.38592398 0.46283907 -0.5076498 0.15359841 0.37526134
-0.3546438 -0.19597952 -0.12091082 0.5443999 1.099194 0.28928462 -0.32531282 -0.7228045
0.036325134 0.7198293 -0.5593004 -0.2855814 -0.21476525 -0.28072342 0.28089437 0.15845716
-0.9488637 -0.1820269 0.55478364 0.3633366 0.074783385 0.81271636 0.99526364 0.520993
-0.28016514 0.6979185 0.35096976 -0.48816225 0.6088204 0.03633536 0.49662367 -0.44909424
-0.026194368 0.70179373 -0.11376342 -0.30275604 0.06575734 -0.16962063 0.33229843 -0.42910329
0.42396566 0.18254817 0.061881147 -0.15219994 -0.43651044 -0.07851781 -0.6316485 0.20418112
0.78506595 0.36919534 -0.36295184 -0.19320564 -0.4637945 -0.029129982 -0.40348828 -0.621761
-0.45155627 -0.457302 0.49170077 0.014806764 -0.21230234 0.812296 0.17564334 0.69469887
0.94292307 0.2008535 -0.3093376 -0.68023574 0.0088212425 0.3404152 -0.21519236 -0.029816987
0.122143485 -1.1686999 -0.24335864 -0.36302972 0.726904 0.26873642 -0.39740014 -0.57391304
-0.32656583 0.29180658 -0.8923964 -0.19646795 -0.42426738 1.0025167 0.40909708 -0.047482386
0.22315672 0.0022025213 -0.34930226 -1.0093828 -0.24735619 0.77627486 -0.4751319 -0.27867267

linear_relu_stack.0.bias f4 [64]
00000000: 9bb3 0b3f 9754 e0be 1fbe 253e 075f 9b3e
00000010: 671f aebc 2375 413e 75e6 4c3e 5fa4 2abe
00000020: ee47 423d be2e d8bc a722 a23d f2c0 073f
00000030: f8a6 c83e 61bb 883e 8f66 c93e fa80 bf3e
00000040: 58e5 40be 71a7 b43d 6dec ff3e e7e0 cdbe
00000050: e795 8a3d 1662 213e 640d 353d 39b7 c33d
00000060: 8683 49be 6564 463e 2c23 793e 9fb5 92be
00000070: 0894 e03e ed5d dc3d 34f9 4abe 83be 5f3e
00000080: c09d 803e 29d4 a1bc 7b40 6c3d cfb5 423d
00000090: 29f6 66be 4fa4 9b3e 773b 1abf c5e6 423e
000000a0: 2ac5 d43e 65ab 393e 390e 22bf 8214 36be
000000b0: 1c70 dd3d 4699 903e d034 8b3e a1e6 a63d
000000c0: b907 ae3e 5126 bf3e 4e56 9d3d 46e8 7e3e
000000d0: 9690 09be 446e c13e d86b 7ebd bb3e 1f3f
000000e0: 50ee 7dbe b372 153e 03ae 28be 082d c13e
000000f0: 08cf e7be 5646 7fbe e5f1 d1bd b261 593e
0.5457093 -0.43814537 0.16185807 0.30345938 -0.021255208 0.1889234 0.20009787 -0.16664265
0.04743188 -0.026389476 0.07916766 0.53028786 0.39189887 0.2670546 0.39336058 0.3740309
-0.18837488 0.088209994 0.49985066 -0.4021065 0.06766873 0.15760073 0.044202223 0.09556431
-0.19679078 0.19374235 0.24329823 -0.2865419 0.4386294 0.107601024 -0.19821626 0.21850018
0.25120354 -0.019754486 0.05767868 0.047536667 -0.2255484 0.30398795 -0.60246986 0.19033344
0.41556674 0.18131788 -0.6330295 -0.1778126 0.10812399 0.28241938 0.2718873 0.08149458
0.33990267 0.3733392 0.07682477 0.24893293 -0.13434061 0.37779438 -0.062114567 0.62205094
-0.2479794 0.14594536 -0.1647263 0.3772967 -0.4527514 -0.24929175 -0.10251216 0.21228674

linear_relu_stack.2.weight f4 [64, 64]
00000000: a1b4 033e 07c9 05bd 61c4 8ebd 28e6 053e
00000010: e951 293d 7428 603d f3df 2c3e f672 cb3d
00000020: b7cc c43d a939 053d 83d3 fb3d 78b8 0e3e
00000030: 57e7 483e 98fa edbd 8066 243e d571 2b3e
00000040: eba5 bebd 43cb bc3d c528 203d 3408 16bd
00000050: 80e7 19be 064d ed3d 48fe d9bc 7929 133e
00000060: a360 013e 7141 34bd 0a55 ac3c b202 e33c
00000070: 9570 4a3e 022b 86bd 351c 523d 09eb 2f3d
00000080: 02f6 f23d bf97 bd3d eeba 263e fc77 35be
00000090: b365 40be 9d42 383e b77c b03e 0866 0fbd
000000a0: 235b a73d 5363 163e 20c3 9c3f 0049 aebd
000000b0: 6d11 d1bd 135f eb3d 13c3 963d 5bd9 e5ba
000000c0: 1b40 47bc 56bf 2f3e 7cd5 253d 9d6e 063e
000000d0: 2e00 4a3e 7057 38be ddf9 0b3d 1ef9 c83d
000000e0: 02d3 9e3e dce7 993d 4ebf f1bc d7a8 db3d
000000f0: 7b95 383d f45b 99bd 400b 653e 8959 4fbd
00000100: bc9b 0d3e eabd 2b3c 6727 253d 2458 793e
00000110: 949b 02be d526 463e c83e 913d 623c b73d
00000120: ffaf 0e3c db72 813d 6bc2 e53d 46c9 8c3d
00000130: 86e8 e73d 92d8 87bd d19c 073e 078f e93c
00000140: 84b2 f13c 970f 583d 09cb 893d 3492 14be
00000150: c0a6 49be bc18 a13d b8df c6bd cb7f 413e
00000160: c306 323e ac80 83bd 4270 313d f4f1 983b
00000170: aa3e f53d d214 38be 7c22 4e3d 9670 9e3d
00000180: 2462 0f3e 8b5f c63d decb 153e a67b 02be
00000190: 7a31 96bd 1e7c b13d 8711 cb3e 1361 e2bd
000001a0: c1e3 1d3e a8af 163e 980a 9a3f 5e3e 14be
000001b0: 8946 55bd 0434 1d3d 7a18 653d d7f0 4b3d
000001c0: 24f9 ba3d e680 d23d 3fe5 32be 3272 3d3e
000001d0: 10c4 1a3e 596f 40be e54c 943c a6d9 ce3d
000001e0: bf2b 4a3e cb28 ed3c ec73 2abe f6d7 203d
000001f0: ba76 b9bc 3615 e33c f9ac 043e 190c 5cbd
00000200: dce4 ba3d 560c 173d 0cb4 a33d 9dc0 643e
00000210: 463a 25bd c3e9 a73d 3ea8 373d 549a 293e
00000220: ff6a 973c 2278 2c3d 0ed1 693d 5f06 193d
00000230: bd4c 513e 00f2 a73d b1f6 1e3e 1d71 2f3d
00000240: edaa fbbc bcbb 2b3d 4a6f 3b3e 9578 fcbc
00000250: 3375 78bd 5722 ef3d c9ca 6cbd e27a 593e
00000260: c396 2c3e bf63 37bd 3984 e03d 55c9 403d
00000270: 3da9 123e 94e6 ba3b e9f6 913d 5558 9e3d
00000280: b96e 6a3e b19e 753e 40f0 053e 6b7a 1dbd
00000290: e637 e7bd ec09 173e 666d 1f3f 32ac 913c
000002a0: 83bc 1e3e f8b4 393e 563e a33f 86bc af3c
000002b0: 3755 4f3d 427d 943d e09c 303d c337 3fbd
000002c0: befa 9f3d 2edb 5b3e 7347 d1bc 258a 473e
000002d0: 94e3 673d 9f66 a7bd 5096 d33c efbb 2d3e
000002e0: a631 5e3e 9b37 b33d 54fa a9bd 9565 1fbb
000002f0: c069 323c c619 9dbc ea72 843e c6d5 c1bd
00000300: 6e21 a0bf 8bc3 2b3e 554b f03d e0d1 a83c
00000310: 7e0a bcbd 4f8d d9ba 8ed3 85bd c6d1 ab3e
00000320: 9e55 d83d 9650 d4be a49e 0dbe ea17 f23d
00000330: 8be3 883e 6bd5 33bc daf4 f3bc bf72 8ebe
00000340: 6c05 163e 0fc2 04bf 1679 a7bc 424c d4be
00000350: f8ef 6bbb 7947 0bbd 1cca ba3c 9c1e 893e
00000360: aaae 11be 35ec 163d a31c 08bc c0f3 723e
00000370: 4763 1a3d 509b e23d 0f90 b1ba 0f83 3d3d
00000380: 31cf 42bf 1352 91bf 703c 743c fbe1 923d
00000390: a321 73bd 1978 d63d d84c e83d 6bc3 a4be
000003a0: 7bfc 293d ff04 15be 4d37 90be b1e3 0f3e
000003b0: c653 bf3d 17a9 d4bd cb9b 11bd 88f9 cf3d
000003c0: 78c1 ae3d c27e 153d b858 03bf 3e0d 613e
000003d0: 9f20 003d 470f af3e 0881 73be 8849 a93d
000003e0: 0b13 96bb 6268 d9bd b322 10be 35c1 83bd
000003f0: 1f67 b23e 2546 783d 8c54 80bf 7a25 573d
0.12861873 -0.032662418 -0.0697105 0.13076079 0.04133788 0.05472608 0.16882305 0.099340364
0.09609359 0.032525692 0.12296202 0.13937557 0.19619499 -0.116200626 0.16054726 0.16742642
-0.0930899 0.092184566 0.03910138 -0.036628917 -0.15029716 0.11586957 -0.026610509 0.1437129
0.1263452 -0.044007722 0.021036644 0.027711246 0.19769509 -0.06551172 0.05129643 0.042948756
0.118633285 0.09257459 0.16282246 -0.17721552 -0.18788795 0.17994161 0.3447015 -0.035009414
0.0817168 0.14686327 1.2247047 -0.085100174 -0.10208402 0.11492743 0.07361426 -0.001753609
-0.01216128 0.17162833 0.040486798 0.13128133 0.19726631 -0.18002105 0.034173835 0.0981314
0.3102036 0.07514927 -0.029510166 0.10725563 0.04506443 -0.07488242 0.22367573 -0.050622497
0.13828939 0.010482291 0.04032078 0.24350029 -0.12754661 0.1935075 0.07092053 0.08947064
0.008708953 0.06320735 0.11218723 0.06874327 0.11323647 -0.066331044 0.13243414 0.028510584
0.029504068 0.052749243 0.06728179 -0.14508897 -0.19692516 0.07866046 -0.0971064 0.18896405
0.17385392 -0.064210266 0.043319948 0.004667515 0.11974843 -0.17976692 0.050325856 0.07736318
0.14002281 0.09686192 0.1462855 -0.1274248 -0.07333656 0.086662516 0.3966181 -0.11053672
0.15418912 0.14715445 1.2034483 -0.14476916 -0.05206922 0.038379684 0.055931546 0.04979023
0.09129551 0.10278492 -0.17470263 0.18500593 0.15113854 -0.18792476 0.018103072 0.10100107
0.1974325 0.028950116 -0.16645783 0.039268456 -0.022639621 0.027720075 0.12956609 -0.053722475
0.09125683 0.036877 0.079933256 0.22339101 -0.040338777 0.081988834 0.044838183 0.16562778
0.018483637 0.042106755 0.057084136 0.03735959 0.2043943 0.08200455 0.15523793 0.042832483
-0.030721152 0.041927084 0.18304172 -0.030819217 -0.060658645 0.11676472 -0.05781058 0.21238282
0.16854386 -0.04477286 0.109627195 0.047067005 0.14322372 0.0057037566 0.071271725 0.07731692
0.228938 0.23986317 0.1307993 -0.038446825 -0.11289959 0.14749879 0.62276304 0.017782304
0.15501599 0.1813544 1.2753398 0.0214522 0.050618377 0.072504535 0.043118358 -0.046684038
0.07811497 0.21470329 -0.025546765 0.19486292 0.05661352 -0.0817387 0.02582851 0.16966222
0.21698627 0.0875084 -0.082996994 -0.0024322022 0.010889471 -0.019177329 0.25868922 -0.09464602
-1.2510202 0.16773812 0.117331184 0.020607889 -0.09181689 -0.0016597899 -0.065344915 0.33558482
0.10563205 -0.41467732 -0.13830048 0.118209675 0.26736102 -0.010976176 -0.02977984 -0.2782192
0.14650506 -0.5185861 -0.02044348 -0.4146443 -0.0036001187 -0.03400371 0.022801451 0.26781166
-0.14226785 0.03684636 -0.008307609 0.23725796 0.037692335 0.1106478 -0.0013546961 0.046267565
-0.760974 -1.1353172 0.014906988 0.071720086 -0.05935825 0.104721256 0.11342782 -0.32180342
0.04150055 -0.14552687 -0.2816719 0.14051701 0.093421504 -0.10383814 -0.035548966 0.10155016
0.08532995 0.03649784 -0.5130725 0.21977708 0.03128111 0.34191343 -0.2377969 0.08265978
-0.004579907 -0.106156126 -0.14075737 -0.06433336 0.348443 0.06061377 -1.0025802 0.052525975

linear_relu_stack.2.bias f4 [64]
00000000: b105 c33c 2ba9 393e 8261 273e 5e71 243c
00000010: 9d9a 5c3e 892b cf3d a934 163e 623c 01be
00000020: 3a77 993d a4e0 403e d3b5 813c 0a8d bc3d
00000030: 3cd8 013e d9d5 a43c 42fe 4c3e 7fb9 8e3c
00000040: 541d 413e a9b9 0e3e 9075 45bd cbde 0b3d
00000050: f6b6 5f3d c016 ab3d a34d ac3d 58ab 1c3d
00000060: 74ec 133e 0415 393e d52b 1b3e bc37 05be
00000070: 0906 173d 2358 123d 5bdf 7b3d aa3a 83bc
00000080: 8ae7 e13d 206c 4d3e 41e7 6c3e 300d bbbc
00000090: dbe7 50bd f814 2ebd fb04 173f 6219 ce3c
000000a0: 7333 aa3d 9a8b 2f3e bf59 c93d 311a 083d
000000b0: 4062 3a3e a97c 6b3d 35c4 e63d eb82 113d
000000c0: c8e9 503e a918 d4bd 0f6a 363e 9c58 d2bd
000000d0: 2895 62bd e8c7 093e d8bf e53d 890d c73d
000000e0: 4e4d 063e 7b13 163e 919b 433e 3feb b83d
000000f0: ee93 e43c 54ae 0b3e 0243 1b3c 8e8b bb3d
0.023806425 0.18130939 0.1634579 0.0100367945 0.21543355 0.101157255 0.14668526 -0.1262069
0.07493444 0.18835694 0.01583377 0.092065886 0.12680143 0.020121502 0.20018867 0.017422436
0.18858844 0.13938011 -0.04820782 0.03414802 0.054617845 0.083539486 0.084132455 0.038249344
0.14445668 0.18074423 0.1515344 -0.13009542 0.03687099 0.035728585 0.061492305 -0.016019184
0.11030491 0.20060778 0.23135091 -0.022833437 -0.051002365 -0.042500466 0.58991975 0.025158588
0.083105944 0.17143098 0.09831571 0.033228103 0.18201542 0.057491932 0.11267892 0.035525244
0.2040168 -0.10356266 0.17813896 -0.10270807 -0.055318028 0.13455164 0.11218232 0.097193785
0.13115427 0.14655869 0.19102313 0.09029245 0.02790257 0.1364072 0.009476425 0.09157477

linear_relu_stack.4.weight f4 [64, 64]
00000000: 74d1 f23d 6698 ee3d 29af 433d 621e 54bf
00000010: 2047 143e 5f7a 473e cec9 273e d843 4f3d
00000020: 24e6 f03d 2025 5d3e 4110 2e3e e0ac 873e
00000030: 8fb3 113e 7963 68be 767e c83d 90e9 563d
00000040: dc4a 7c3e 445e 7a3d 1f22 0abf 032b 8f3e
00000050: 9732 3e3e 70d2 213e 9785 aa3d 883d b23e
00000060: 1b29 cabe 59a0 89be 460f b43d 37ea 33bf
00000070: 1429 f2bb c2af 4f3e 51c6 7b3d a022 a3bd
00000080: ee16 073e d455 0e3e bf26 3b3e 9425 d53e
00000090: 6e2b a13d e908 04be 894f 3b3e 3dc3 193e
000000a0: 9ac1 153e 9edf 283e 70f1 763d 2cc9 f13d
000000b0: 310a 5f3d ba33 0e3e 1b45 fa3d 1bcb b83e
000000c0: 6f51 2f3d 74b4 a03d 12db b93d ace2 213f
000000d0: b66c d73d c956 493e cc86 663e 198a 6b3e
000000e0: 7a2f 4c3e 9777 2c3e 107b c33d 9911 203e
000000f0: 9e3e e33d 9a23 39be 17ad bf3e 54f9 493e
00000100: 1ab6 1fba 3586 1f3c 476c 933d d226 433f
00000110: bfad 083e 1e35 09bd 07dc ff3c 3147 8dbc
00000120: 913b d63c bd8b f4bd 5323 7b3d e325 bbbe
00000130: 1813 91bc 876a 633d 8cb0 ca3d 706c 87bd
00000140: 73ee 9fbc 9c5d 653e ed76 ca3e 45cd 813c
00000150: 99c7 62bd e85d 953d 8a29 e3bc 6247 40be
00000160: dc9a bb3e 0156 b53e 20a2 ad3d 6378 db3d
00000170: 98d6 31be c176 96bd f518 68bd 8a87 af3d
00000180: ae04 dabd 2ac5 973d b8b5 fe3d 82ee c7be
00000190: 263a a7bb 5895 b63e deb0 463d 1184 c0bd
000001a0: a68b edbd 14ca 2e3c ce7b 6c3d cc8a 083c
000001b0: c963 693c aa47 2bbd 4cd8 7a3d 887e 03be
000001c0: 1a03 593c e40b 71be 6960 813d 9e37 53bf
000001d0: 3106 d1bc 3635 b13b def7 993d 2b8b f0bc
000001e0: 4109 95bd 59a4 61bd 553b 093d 96af debd
000001f0: 38a3 c0bc f377 4f3e c0f1 66bb d0b6 51bd
00000200: 0aaf 483e 314d 303e 23df 403e 62b6 61bf
00000210: 74c3 d93d c4fa 1b3e d7a9 fc3d 69d4 0f3e
00000220: 9b63 0c3e 5ef4 963e e65e 4b3e d7d3 9c3e
00000230: e0fa 123e 5d19 d4bd 3046 de3d d42d febc
00000240: 700c 8f3e b4ed 36be 24e5 06bf c514 923e
00000250: b113 3c3e 2473 7b3e c362 9a3a 03a6 903e
00000260: 1549 9cbe b056 56be a081 4f3e 3665 febe
00000270: dd03 c33d b8b7 a43e 246d 673d 1cee 33be
00000280: 6464 833e 4739 f23d 7f22 e33d d3eb dc3e
00000290: 969d 923d edb7 96be d14b f13d c667 a83d
000002a0: 7a0a 863e 307b 3f3e 3e8c 183d 6017 553e
000002b0: 0f04 2b3e cff5 c23e 3094 843d f30c a63e
000002c0: 28d3 463d 3422 9d3e 975b 563e bc78 013f
000002d0: a068 bc3d ce5a 093e d032 2c3e 01b6 2f3e
000002e0: 90c8 763e a946 1a3e deca 043e 8ffd a93e
000002f0: 2d39 4d3e bf09 32be 454f 453d ac6e 343e
00000300: 6ff3 3b3c ea31 2cbd 1439 863d 1f4c 67bd
00000310: 7925 64bd bf8f 94bb c1ff edba 2f56 21bd
00000320: c07a 513d ee05 c2bd 2354 1b3d 6c14 08bb
00000330: b43f 06bd 201c 4fbc c0a4 293d 3f6a 8d3c
00000340: 84f2 31bd 6bdc e6bd 6640 27bc df27 fbbc
00000350: b6a2 35bd f8e6 bdbd c0f1 3ebd 7315 0ebd
00000360: d308 1cbd 0aef 543c 7d7f f13c 1dee 283d
00000370: e4b1 adbd 95ca ddbd d257 9e3c 0984 29bd
00000380: cc81 0d3d c6cb bebd 7ab6 98bd 7f87 063d
00000390: 7634 533d 2682 97bd 6374 0b3d a529 51bd
000003a0: e86c e2bd fdd4 453d 9650 513d 8081 1abd
000003b0: 0691 a7bd afc1 743d 56b9 113d 9de8 de3c
000003c0: 0d5b 0c3d 66f2 083d 06ce 883d bb0d 2f3d
000003d0: 4519 73bd 4fa9 743d 0d81 833c 63af e73c
000003e0: 7894 0ebc d11e 89bd de5e c23c 0b17 2a3b
000003f0: 5fff 403d e082 acbd ec53 cd3c c697 2bbd
0.11856356 0.116501614 0.047774468 -0.8285886 0.14480257 0.19480275 0.16385576 0.05060181
0.11762646 0.21596193 0.16998388 0.2649908 0.14228652 -0.22694196 0.097897455 0.052468836
0.24637932 0.061125055 -0.53958315 0.27962503 0.18573986 0.15802932 0.083262615 0.3481257
-0.39484486 -0.26880148 0.08791976 -0.7027926 -0.007390151 0.2028189 0.061468426 -0.079655886
0.1319234 0.13899928 0.18276499 0.41630232 0.07869612 -0.12894024 0.18292059 0.15015884
0.14624634 0.16491553 0.060288846 0.118059486 0.05445308 0.1388692 0.12220212 0.36092457
0.04280227 0.07846919 0.090749875 0.632365 0.10518782 0.19662012 0.22512358 0.23001899
0.19939986 0.16842495 0.09544957 0.15631713 0.11095928 -0.18079987 0.37436745 0.19724017
-0.0006092504 0.009736587 0.07198387 0.7623111 0.13347529 -0.033497922 0.031232847 -0.01724586
0.02615145 -0.119407155 0.061312985 -0.36552343 -0.0177093 0.055521514 0.09896955 -0.0661248
-0.019522881 0.2239899 0.39543858 0.01584495 -0.055366132 0.07293302 -0.027729768 -0.1877723
0.36641586 0.35417178 0.084781885 0.10716321 -0.17367017 -0.07346869 -0.056664426 0.08570774
-0.10645424 0.07410653 0.12437004 -0.39049155 -0.0051033674 0.35660815 0.048508517 -0.0940019
-0.115989015 0.010668296 0.057735257 0.008333873 0.014244982 -0.04181639 0.061241433 -0.12841237
0.013245368 -0.23539692 0.06317217 -0.8250674 -0.025515648 0.0054079546 0.0751798 -0.029363235
-0.07277156 -0.055088375 0.03350385 -0.10873334 -0.023515329 0.20260601 -0.003523931 -0.051199734
0.19598022 0.17216946 0.1883512 -0.8816892 0.10632983 0.15232378 0.12337082 0.14045872
0.13709871 0.29483312 0.1986042 0.3063037 0.14353514 -0.103564 0.10853231 -0.031027712
0.27939177 -0.17864114 -0.5269339 0.2853147 0.18366887 0.24555641 0.0011778701 0.28251657
-0.30524507 -0.20931506 0.20264292 -0.49686593 0.09522221 0.32171416 0.05650057 -0.175713
0.2566253 0.11827331 0.11090564 0.4314867 0.071589634 -0.294372 0.11782039 0.08222918
0.26179868 0.18699336 0.03724312 0.20809698 0.16700767 0.38078162 0.06473577 0.32431754
0.048541218 0.30690157 0.20933376 0.5057485 0.09199643 0.13413545 0.16816258 0.17159273
0.24099946 0.15066017 0.12968013 0.33201262 0.20041342 -0.1738653 0.0481713 0.17620343
0.011471613 -0.04203979 0.065538555 -0.05646908 -0.0556998 -0.0045337374 -0.0018157886 -0.03938883
0.051142454 -0.09473787 0.037922036 -0.0020764126 -0.032775596 -0.012640983 0.041416883 0.017262576
-0.04344417 -0.1127251 -0.010208225 -0.03065866 -0.044344626 -0.092725694 -0.04661727 -0.034688424
-0.038094353 0.0129964445 0.029479736 0.041242708 -0.084811956 -0.10829655 0.019328985 -0.041385684
0.034547612 -0.093162104 -0.0745668 0.032844063 0.051563703 -0.07397871 0.034046542 -0.051065106
-0.110559285 0.048298825 0.051102243 -0.037721157 -0.08181958 0.059755024 0.03557714 0.027210528
0.03426652 0.033434294 0.06679921 0.042737704 -0.05935027 0.059731778 0.016052747 0.028281873
-0.00870239 -0.06695331 0.023726877 0.0025953676 0.04711854 -0.084234 0.025064431 -0.04189279

linear_relu_stack.4.bias f4 [64]
00000000: c139 0d3e d96f a23d 4605 683d 01b1 353c
00000010: 350b c13a f59f 3cbd a5cd 833c 43f8 833d
00000020: 70f2 103e 342e 903d d107 df3d a7a4 c03d
00000030: f367 31bd c787 263e d644 803d 7e3f 583d
00000040: e538 663e f4cc 6eba 3bc0 673d 5a33 42bc
00000050: 06d3 54bc 521e 123e 1f9e 3fbd fa38 023e
00000060: 4b01 6d3e cea4 593d d946 873d e545 933e
00000070: b65b e03d a7c8 7e3d 91df 373c 560e 293d
00000080: 9ca4 9d3c 1977 8dbb 18e8 13bd 530b 423e
00000090: 6be1 123e 588b cb3a 98b4 a03d 9cd4 233e
000000a0: 0ba3 213e ebfa c03b ad14 cbbd bae7 95bd
000000b0: b72e 8e3d da28 b03d dcc3 483d c012 eb3d
000000c0: fc0e 2b3d a1a8 7cbd ca8f 233d efa9 813d
000000d0: f00f 413e 4ac7 cb3d ac9b 853d 9a29 053e
000000e0: a28d 9d3e 1bf7 193e 8443 cc3d 4442 0c3d
000000f0: 4add b03d 109f 8a3c eb77 d33d 3ede 593e
0.13791563 0.079314895 0.056645654 0.011089564 0.0014728071 -0.046050984 0.01608927 0.064438365
0.14154983 0.070400625 0.10890163 0.09406405 -0.043312024 0.16262732 0.062631294 0.052794926
0.22482641 -0.000910952 0.05657981 -0.0118530635 -0.012989765 0.14269379 -0.046781655 0.12717047
0.23145024 0.053135686 0.0660531 0.28764263 0.109549925 0.062203076 0.011222736 0.041273437
0.01924353 -0.004317176 -0.036110014 0.18949632 0.14343803 0.0015529199 0.078469455 0.15999073
0.15784852 0.0058892868 -0.09916053 -0.07319589 0.06942504 0.08601542 0.04901491 0.11478186
0.041762337 -0.061684255 0.03993205 0.063312404 0.18853736 0.09950121 0.06523833 0.13004151
0.3077212 0.1503567 0.09973815 0.034242883 0.086359575 0.01692155 0.10325607 0.21276185

linear_relu_stack.6.weight f4 [3, 64]
00000000: dcc6 3cbe bc04 e83e 8066 8cbe ef1e e63b
00000010: fdae 553e 8892 d43c 1691 71be 7195 84be
00000020: 448e 15be 067a 8cbe 2f6e 2abe 9535 e43e
00000030: 35ac 51be 5c81 74be 83f7 a6bd 3559 f9bd
00000040: 5751 c4be d2a3 83be cb73 45be e43c 063f
00000050: d24c 873d c819 d63e d0d6 a93c 7324 ce3b
00000060: bdda d0be f9dd 7bbe 9512 09be 3211 e3be
00000070: dc2f 18be b70c ffbe b31e 84bd 5dc4 26be
00000080: fa90 bfbe 8dcd d6be 34c4 1bbc 45fb e33e
00000090: 18fd 82be 4e68 3d3e f8c7 58be 94ad 4abe
000000a0: 973a 3bbe 4434 843d 9f6e d1be 4afe 4a3d
000000b0: e552 01be 7273 483f 4d86 a2bc 2aad 143f
000000c0: 04a8 943d f202 88bb 3040 4cbe 99b6 a33e
000000d0: 0dc8 623f 87dc 5dbe 57eb 39bf ba1c 9dbe
000000e0: f8d3 653f b7de 5bbe c3be 84be 0379 1cbe
000000f0: ae48 ebb8 4f6c e3be 85b7 83be 4f6a 303f
00000100: e400 2fbe 2e3e a33e 546e 2abe e5e4 2abc
00000110: d563 f3bb 5fbe f63c 5a69 96be 42e1 72be
00000120: 6583 23be 6430 51be 4075 43be 4eb0 173f
00000130: 5ec4 29bf be60 6dbe ddfa 953d b38c babd
00000140: dd17 e0be d811 1bbe db18 07be c692 283e
00000150: 4e2e ffbc c978 9f3e db93 b5ba 3684 743e
00000160: 850c 16bf 3c96 98bd bf34 2ebe 38f2 ddbe
00000170: 1914 1fbe 4556 4fbe 360a c93b e778 ffbd
00000180: 9475 573e dc47 14bf c741 9c3d 9e40 fa3e
00000190: e8ba 62be 249a bc3e bc02 eabe 0fdd 47be
000001a0: 2416 40be f729 9aba 5153 11be 1700 463d
000001b0: 6bc0 abbd 5a46 b33e 049e 8b3d 231b ab3e
000001c0: 52e0 d93b 912b 93bd c308 3ebe 5dae b33e
000001d0: 8871 0b3f 1dc6 0fbe 5ec0 3abf 2caf 7abe
000001e0: 81f2 8b3f 43d3 73be 9943 2ebe cba4 e0be
000001f0: 558d 053f 2ab4 86bc 9a02 37be ab08 4c3f
00000200: a450 95be e4b8 203e a769 12be cc12 ff3c
00000210: cdec 963d 5ebc c53c ae80 86be b84c 16be
00000220: 8ecf 3abe 9c9f 34be 66fe 58be 0e95 413f
00000230: 1829 ffbe 261f 08be 4ccb 3a3c 9c6d 80be
00000240: b696 eabe f82c 68be 2e20 5dbe 9404 8c3e
00000250: a3a0 d23c a4d9 453f e63a 263d f532 dc3e
00000260: 6ab1 0abf 1cd9 88be 3e07 84be cffc c9be
00000270: be4b 63be 268d 1dbe 17f8 8f3d 0283 3dbe
00000280: 34c3 b83e 7e67 5bbe de15 643d 3644 3f3e
00000290: e09f 86be 0f3d 2d3f cb20 69be 1d31 7dbe
000002a0: 3aec ecbd 3f2c 4dbc 51cc 2dbf 91ce 953d
000002b0: 6d5b 8dbe 6ba8 0f3e 93eb 233d 2717 b03e
000002c0: cac6 be3c 6535 c1bc 5226 15be 55d9 cb3e
000002d0: 17ba b63e c6a9 75be 990a f1be 0502 3ebe
000002e0: 2c31 813f 7f73 39be 3b54 4ebe ec45 7fbe
000002f0: 2ead 093f 7c42 693e c222 bfbd efe1 393f
-0.18435234 0.45316112 -0.2742195 0.0070227305 0.20867534 0.025948778 -0.23590502 -0.25895265
-0.14605051 -0.27436846 -0.16643594 0.4457213 -0.20475848 -0.23877472 -0.08152678 -0.12175218
-0.38343307 -0.25710922 -0.19282453 0.5243666 0.06606449 0.41816545 0.020732313 0.006290966
-0.40791884 -0.24596395 -0.13385995 -0.44349056 -0.14862007 -0.49814388 -0.06451168 -0.16285844
-0.37415296 -0.41953698 -0.009507228 0.4452764 -0.2558372 0.1849682 -0.21170032 -0.19792777
-0.18284069 0.064552814 -0.4090471 0.049558915 -0.12629278 0.78301156 -0.01983943 0.5807673
0.07258609 -0.0041507417 -0.1994636 0.31975248 0.88586503 -0.21666156 -0.72624725 -0.3068598
0.89776564 -0.21471678 -0.2592679 -0.15280537 -0.00011219211 -0.4441857 -0.25725952 0.68912214
-0.17090183 0.31883377 -0.1664365 -0.010430549 -0.0074276724 0.030120073 -0.29377252 -0.23718742
-0.15968092 -0.20428616 -0.19087696 0.59253395 -0.6631526 -0.23181435 0.07323239 -0.091088675
-0.43768206 -0.15143526 -0.13193075 0.1646224 -0.03115001 0.3114684 -0.0013853268 0.2387856
-0.58612853 -0.0745053 -0.17012309 -0.4334886 -0.1553501 -0.20247753 0.0061352504 -0.12474232
0.21040946 -0.5792215 0.076297335 0.48877424 -0.22141612 0.3683635 -0.4570521 -0.19517921
-0.18758446 -0.0011761774 -0.14191939 0.04833993 -0.0838631 0.3501461 0.068172485 0.3341914
0.0066490555 -0.07186044 -0.1855803 0.35093966 0.5447011 -0.14040418 -0.7294978 -0.24480885
1.0933381 -0.23811059 -0.17017974 -0.43875727 0.5216878 -0.01644333 -0.17872086 0.79700726
-0.29163086 0.1569553 -0.14298116 0.031136893 0.07369385 0.024137672 -0.2627005 -0.14677703
-0.18243238 -0.17639011 -0.21190795 0.75618064 -0.4983604 -0.13293132 0.011401009 -0.25083625
-0.45818108 -0.22673404 -0.21594307 0.27347243 0.025711363 0.7728522 0.040583514 0.43007627
-0.5417696 -0.2672814 -0.25786775 -0.3945069 -0.22196862 -0.15385875 0.07029741 -0.18507007
0.36086428 -0.21426198 0.055684917 0.18678364 -0.2629385 0.67671293 -0.22766416 -0.24725766
-0.11568494 -0.012522756 -0.6788989 0.0731479 -0.27608815 0.1402909 0.040019583 0.34392664
0.02328815 -0.02358503 -0.145654 0.3981425 0.3568885 -0.23990545 -0.47078398 -0.18555458
1.0093131 -0.18110465 -0.20149319 -0.24929017 0.53779876 0.22779268 -0.093328014 0.7261037

linear_relu_stack.6.bias f4 [3]
00000000: 7e0d 2dbd 8a64 b63c 5456 45bd
-0.042249195 0.022264738 -0.048178032
