DQN_target_net_Mountaincar.pt (torch, 72006 bytes, 6 tensors)

layer1.weight f4 [128, 2]
0	0xbe6e794a	-0.23288456
1	0xbf2326f9	-0.6373134
2	0xbf454198	-0.77053213
3	0xbf1fa190	-0.623559
4	0xbe29ba03	-0.16574864
5	0xbcd7c841	-0.026340606
6	0xbe8a56a7	-0.27019235
7	0xc048ae75	-3.135648
8	0x3d036966	0.032082938
9	0x3d912afc	0.07088277
10	0x3e41a06e	0.18908855
11	0x3e4e360c	0.20137805
12	0xbdbff2ea	-0.09372504
13	0x3f0d803d	0.552738
14	0x3e5a3e85	0.21312912
15	0x3f3ab5ad	0.72933465
16	0xbec18eaf	-0.3780417
17	0xbf251835	-0.6449006
18	0xbe895ec5	-0.26830116
19	0xbf487c43	-0.7831461
20	0x3e03b075	0.12860282
21	0xbf1f314a	-0.62184584
22	0x3ea9bdda	0.33152658
23	0x3f1df4e9	0.6170183
24	0xbe0193f3	-0.12654094
25	0x3a4948c2	0.0007678383
26	0x3f104869	0.5636049
27	0xbf090d69	-0.5353609
28	0x3ed67549	0.41886356
29	0xbeac4edd	-0.33653918
30	0xbec012ff	-0.37514493
31	0xbe865d68	-0.26243138
32	0x3b88e651	0.0041778465
33	0x40255779	2.583464
34	0xbf2b5083	-0.66919726
35	0xbf06e2c2	-0.52689755
36	0xbe4aa2cc	-0.19788665
37	0xbeb39967	-0.35077974
38	0xbf3828fc	-0.7193754
39	0xbeb60ac1	-0.3555508
40	0x3f29d239	0.663364
41	0xbf1a93c1	-0.60381705
42	0x3ea2a2ae	0.3176474
43	0xbe88e65f	-0.2673826
44	0xbed0f950	-0.4081521
45	0x3ee0c670	0.43901396
46	0xbb270b25	-0.002548882
47	0x3c9e1869	0.019298749
48	0x3f038b57	0.5138449
49	0x3f257472	0.64630806
50	0x3f0da932	0.55336297
51	0x3debdfdb	0.115173064
52	0xbedf4fb6	-0.43615502
53	0x3b294bef	0.0025832613
54	0xbf00f42d	-0.5037258
55	0x3ebd9bd2	0.37032944
56	0xbf29a883	-0.66272753
57	0x3ea44ab4	0.32088244
58	0x3f26a57d	0.65096265
59	0xbf1428c0	-0.5787468
60	0x3f297e3b	0.6620824
61	0x3f244f42	0.6418344
62	0xbc043e71	-0.008071528
63	0x3f0d34f1	0.5515891
64	0x3e09fa4d	0.13474388
65	0xbebfc802	-0.3745728
66	0xbe99d027	-0.3004162
67	0x3e14197f	0.14462851
68	0x3eda994a	0.42695075
69	0xbec28ce9	-0.3799813
70	0x3e5b7bea	0.21433988
71	0xbf04cab8	-0.51871824
72	0xbcc4236f	-0.023942677
73	0xbe5273b0	-0.20551944
74	0xbea949bd	-0.3306407
75	0xbdec715b	-0.11545058
76	0xbe9667de	-0.2937612
77	0x3e77ec82	0.24211314
78	0x3e8b76ab	0.27238974
79	0xbcee72eb	-0.029107532
80	0x3f37ff7d	0.7187422
81	0x3f3a4a93	0.7277004
82	0x3d2ee74c	0.04270105
83	0x3f1ec6f0	0.62022305
84	0xbeb0e449	-0.34549168
85	0xbe867323	-0.26259717
86	0xbdbfba56	-0.09361713
87	0xbf1dd7b1	-0.61657244
88	0x3eaf1d84	0.34202206
89	0xbe9a64eb	-0.3015512
90	0xbe61555e	-0.22005221
91	0xbe2025d3	-0.15639429
92	0xbeda7003	-0.42663583
93	0xbe4daaa8	-0.20084631
94	0x3f4f6802	0.8101808
95	0x3f886d1b	1.0658296
96	0x3e880f6b	0.26574263
97	0x3dab97fc	0.08378598
98	0x3f0d823d	0.5527685
99	0xbe57ee34	-0.21086961
100	0x3d8dab97	0.06917494
101	0xbf3b73dd	-0.7322367
102	0xbeaa3e93	-0.33250865
103	0xbe86e5cb	-0.26347193
104	0x3dfa9b3a	0.12236638
105	0xbf45d224	-0.77273774
106	0x3f32332e	0.69609344
107	0x3f105cd6	0.56391656
108	0xbe8dae86	-0.27672213
109	0xbe054487	-0.13014422
110	0x3f028895	0.5098966
111	0xbf1023f9	-0.5630489
112	0xbf22e1a8	-0.63625574
113	0xc003a9bb	-2.0572345
114	0x3de74813	0.11293044
115	0x3efccd11	0.49375203
116	0xbe7d9bc7	-0.24766456
117	0xbf4ea0f3	-0.8071434
118	0x3eba2770	0.36358213
119	0xbe8dc50f	-0.27689406
120	0x3edfc532	0.43705136
121	0xbeffea9d	-0.49983683
122	0x3f4dccf6	0.8039087
123	0x3faa92f3	1.3326095
124	0xbf289e76	-0.6586679
125	0xc0497367	-3.1476686
126	0x3e7aad1d	0.244801
127	0xbec7c0ca	-0.39014274
128	0xbdf7a326	-0.12091665
129	0xbe20a78a	-0.15688911
130	0xbe7c66c6	-0.2464858
131	0xbf30197d	-0.6878889
132	0xbbd142da	-0.006386143
133	0xbebb93e7	-0.36636278
134	0x3cbe7559	0.023249315
135	0x3f2a2b45	0.66472274
136	0xbdb4b7eb	-0.08824142
137	0xbf077d43	-0.5292551
138	0xbd79b578	-0.060964078
139	0x3cf2374f	0.029567389
140	0xbf1e9768	-0.6194978
141	0xbf084e45	-0.5324443
142	0x3f3867f2	0.7203361
143	0x3e1edc2b	0.15513675
144	0x3ee268d6	0.44220608
145	0xbf0a64fe	-0.5406035
146	0xbf3f02f8	-0.74613905
147	0xbf32eecc	-0.69895625
148	0xbe2f2bd0	-0.17106557
149	0xbe26995b	-0.16269438
150	0xbf226a09	-0.63443047
151	0x3c48c835	0.012254764
152	0x3d7e165a	0.062033035
153	0x3b29ea65	0.0025927064
154	0xbee8d0fa	-0.45471936
155	0x3f456ffa	0.7712399
156	0x3eec984a	0.46209937
157	0xbe5b3c2a	-0.2140967
158	0x3e55aee6	0.208675
159	0x3dd92b1c	0.106039256
160	0x3e8719e2	0.26386935
161	0x3f048b1c	0.51774764
162	0xbd90a377	-0.070624284
163	0x3f076354	0.5288594
164	0xbed117fe	-0.40838617
165	0xbf174559	-0.5909019
166	0x3e9b91e4	0.30384743
167	0xbec46d10	-0.38364458
168	0x3e9c0175	0.30469862
169	0x3f2b09e5	0.6681197
170	0xbccdb1e7	-0.025109245
171	0xbe8856e6	-0.26628798
172	0xbf0ba28f	-0.5454492
173	0x3ef5d88b	0.48016772
174	0xbf1cd8bb	-0.61268204
175	0x3d3ac697	0.045599546
176	0xbefc33e0	-0.49258327
177	0x3eccffde	0.4003896
178	0x3d97288e	0.07380782
179	0x3ed803d1	0.42190412
180	0x3ee611fc	0.44935596
181	0x3e5cc572	0.21559694
182	0xbe8a5a38	-0.27021956
183	0x3f0482d7	0.51762146
184	0xbf1ca0b5	-0.6118272
185	0x3e251c2b	0.16124026
186	0x3eba735a	0.3641613
187	0x3f168a98	0.5880523
188	0x3f0312ed	0.51200753
189	0xbca95f0d	-0.020675207
190	0x3ea235e9	0.31681755
191	0xbe712c8d	-0.23552151
192	0xbf6a9aaf	-0.9164228
193	0x3ed3d523	0.41373548
194	0x3e17731c	0.14790004
195	0x3ea03623	0.31291303
196	0x3e41626e	0.18885204
197	0xbc214bab	-0.009844701
198	0xbd96c482	-0.073617
199	0x3d1d60dc	0.03842245
200	0xbeaf95a6	-0.3429386
201	0xbe8df107	-0.27722952
202	0xbf34ba74	-0.70597005
203	0x3e3ad45c	0.18245071
204	0xbed222a0	-0.41042042
205	0xbf2d0bdd	-0.67596227
206	0xbed0b1c8	-0.40760636
207	0x3efdc82f	0.4956679
208	0x3eaf08c4	0.34186375
209	0x3f9095b9	1.1295692
210	0x3ed069cf	0.40705726
211	0x3ef5b801	0.47991946
212	0x3f00b3dd	0.5027445
213	0xbc26871b	-0.010164048
214	0xbe2d0134	-0.1689499
215	0x3ea2edaa	0.31821948
216	0x3f0b1d6f	0.5434179
217	0x3f59ac3a	0.8502842
218	0x3f44c7e9	0.7686754
219	0x3ef0b506	0.4701311
220	0x3eead0d0	0.45862436
221	0xbeb527f2	-0.35382038
222	0xbdc39f7f	-0.09551906
223	0x3edb7ac8	0.42867112
224	0xbf1e5b52	-0.61858094
225	0x3ee60af7	0.4493024
226	0x3e9a83e5	0.30178753
227	0xbea1c8b7	-0.31598446
228	0x3d2ba4f3	0.041905355
229	0x3f291c23	0.6605856
230	0x3ee3f32c	0.44521463
231	0xbe968b0b	-0.29402956
232	0xbe431b70	-0.19053435
233	0x3e1f673b	0.15566723
234	0x3ed3140a	0.41226226
235	0xbe886e5a	-0.26646692
236	0x3ec3651d	0.3816308
237	0xbe3bb3d3	-0.18330316
238	0x3e88dac0	0.26729393
239	0x3eecda69	0.46260384
240	0xbc6a8e24	-0.0143161155
241	0x3f101df2	0.5629569
242	0xbf2d9b54	-0.67815137
243	0x3d60f5af	0.054921802
244	0x3ddff97c	0.10936257
245	0x3efede39	0.49778917
246	0x3dc89286	0.09793572
247	0x3db1db48	0.08684403
248	0xbe067b14	-0.13132888
249	0xbea08d3e	-0.3135776
250	0x3dbd9c3b	0.09258314
251	0xbf228b51	-0.6349383
252	0xbf395af3	-0.724044
253	0xbee9f6fa	-0.4569624
254	0x3e8c4ba8	0.2740147
255	0x3db51af5	0.08843032

layer1.bias f4 [128]
0	0x3efdda4c	0.4958061
1	0x3f56eb8a	0.83953154
2	0x3f50d8f2	0.8158103
3	0xbcbecb08	-0.023290172
4	0x3f03991d	0.5140551
5	0x3ef09b49	0.46993473
6	0x3f218529	0.6309381
7	0x3f5af043	0.8552286
8	0x3f251304	0.6448214
9	0x3f4ad4a8	0.7923074
10	0x3f39cf02	0.72581494
11	0xbe851090	-0.259892
12	0x3f59f074	0.8513253
13	0x3f5debb1	0.8668776
14	0x3f33b9e8	0.70205545
15	0x3e8357e7	0.25653002
16	0xbcb2b4da	-0.021814752
17	0x3f1603cd	0.5859955
18	0x3f387ace	0.72062385
19	0x3f14619a	0.5796143
20	0xbee99bac	-0.4562658
21	0xbef85552	-0.48502594
22	0xbf20e936	-0.6285585
23	0x3f3d96da	0.74058306
24	0x3f549a85	0.8304828
25	0x3f488090	0.7832117
26	0x3f4dac89	0.8034139
27	0x3f5936af	0.84849066
28	0x3ecf8964	0.40534508
29	0xbee1d416	-0.4410712
30	0xbf06bff1	-0.5263663
31	0xbf1f7d06	-0.62300146
32	0xbecf748a	-0.405186
33	0x3f110604	0.56649804
34	0x3f30a064	0.68994737
35	0xbe495ef5	-0.1966513
36	0xbed213e2	-0.41030794
37	0x3f238f46	0.6389049
38	0xbed1eeae	-0.4100241
39	0x3f54e5f4	0.8316338
40	0xbe02a22b	-0.12757175
41	0xbe4eca4c	-0.20194358
42	0x3f2fc055	0.6865285
43	0x3f4fd4e7	0.8118424
44	0xbee9b7b4	-0.45647967
45	0x3e479ab9	0.19492616
46	0x3e616109	0.22009672
47	0xbde4ceff	-0.11172294
48	0xbefa2ef8	-0.4886396
49	0xbf1725e7	-0.5904221
50	0x3ea8dab6	0.32979363
51	0xbee840d5	-0.45361963
52	0x3f312e5e	0.69211376
53	0xbd602e96	-0.054731928
54	0x3f2feaf9	0.68717915
55	0x3f3de4f9	0.7417751
56	0xbd6b59d1	-0.057458702
57	0xbda2afc0	-0.07943678
58	0x3ea16d06	0.3152849
59	0x3f12c063	0.5732481
60	0x3f46e028	0.77685785
61	0xbd7abbcb	-0.06121425
62	0xbd9b1be9	-0.07573683
63	0xbf1106c2	-0.56650937
64	0x3e1da492	0.1539481
65	0x3e9c510d	0.30530587
66	0xbe07138e	-0.13191053
67	0xbf1f4e07	-0.62228435
68	0x3e9356ae	0.2877707
69	0x3ed371f9	0.41297892
70	0x3f43fddf	0.7655925
71	0xbe317a53	-0.17331819
72	0xbec31a1e	-0.38105863
73	0x3f13b661	0.57700163
74	0x3ebafd8a	0.3652156
75	0x3f14549a	0.5794159
76	0x3f168e73	0.5881111
77	0x3d85d9e4	0.065357
78	0x3f5287b6	0.8223833
79	0x3f3288aa	0.6973978
80	0x3f54dee8	0.8315263
81	0x3f4b0c7e	0.79315937
82	0x3f47a76a	0.7798983
83	0xbe9f8bc0	-0.31161308
84	0xbe7443eb	-0.23854034
85	0x3f54525c	0.8293817
86	0xbf2794c6	-0.65461385
87	0x3f1ff441	0.62482077
88	0x3ec454b0	0.3834586
89	0x3efe095c	0.49616516
90	0xbedf9015	-0.43664613
91	0xbf2a31ec	-0.66482425
92	0x3f365073	0.71216506
93	0xbf2137eb	-0.6297595
94	0x3f3d048f	0.7383508
95	0xbd9d0f10	-0.076688886
96	0x3e493341	0.19648458
97	0x3f269538	0.6507144
98	0x3f4808a1	0.78138167
99	0x3ed604a0	0.41800404
100	0x3f5059bf	0.8138694
101	0x3f1ce9f9	0.61294514
102	0x3f386061	0.7202206
103	0x3f2eb2c9	0.68241554
104	0x3c0dd58e	0.008656872
105	0x3f3c4236	0.7353853
106	0x3f237638	0.6385226
107	0xbf0e8103	-0.55665606
108	0xbd59c50c	-0.053166434
109	0xbd19d267	-0.03755417
110	0x3f796942	0.97426236
111	0xbe3efa10	-0.18650079
112	0x3ede4c8c	0.43417776
113	0xbedc1dcf	-0.42991492
114	0xbdc7989d	-0.097459055
115	0xbdf31889	-0.11869914
116	0x3f572a43	0.8404886
117	0x3f428f72	0.7600013
118	0xbe83afb4	-0.25719988
119	0x3f13c4d7	0.5772223
120	0xbf11a190	-0.5688715
121	0x3ee8eff8	0.45495582
122	0x3f3c8ade	0.73649395
123	0xbf1c780d	-0.6112068
124	0x3e894a42	0.26814467
125	0x3f0d1d9a	0.55123293
126	0x3e803cce	0.2504639
127	0x3effd3d3	0.49966297

layer2.weight f4 [128, 128]
0	0xbcacfa03	-0.021115309
1	0xbb649ee4	-0.0034884745
2	0xbd04be89	-0.03240827
3	0xbd35470b	-0.044257205
4	0x3d73cb1b	0.05951987
5	0xbd6d1b7a	-0.05788753
6	0xbd11ff6e	-0.035643987
7	0xbd3ddb49	-0.046351705
8	0xbcc40372	-0.023927424
9	0xbd3bde0f	-0.04586607
10	0x3d0788f5	0.033089597
11	0xbd9a91d7	-0.07547348
12	0xbc7bc298	-0.015366219
13	0xbc44754e	-0.011990858
14	0xbd8ea8a2	-0.06965758
15	0x3d155eca	0.03646735
16	0x3d2c8c8d	0.042126227
17	0x3d654583	0.055974495
18	0x3d878b33	0.06618347
19	0xbd73f8b3	-0.05956335
20	0x3ca01096	0.019539159
21	0x3d8beb71	0.06832016
22	0x3d7ef94f	0.062249478
23	0xbd5d84cb	-0.05408172
24	0x3c295cf0	0.010337099
25	0x3cd42fbe	0.025901671
26	0xbd1aa2f3	-0.037753057
27	0x3d9b9573	0.075968646
28	0x3c31df84	0.010856513
29	0xbcc180d2	-0.023620997
30	0x3d47d26f	0.04878467
31	0xbd6b0d0c	-0.05738549
32	0x3d36576f	0.044516977
33	0xba25838a	-0.00063138513
34	0xbcc8d567	-0.02451582
35	0xbaa990f4	-0.0012936876
36	0x3d9a5e47	0.07537513
37	0x3c757332	0.014981078
38	0x3d9b7313	0.07590308
39	0xbd1632b4	-0.036669448
40	0x3d6a0e64	0.05714263
41	0xbd01f4d0	-0.031727612
42	0xbb4050e2	-0.0029345085
43	0xbd08abb4	-0.033366874
44	0x3d9063f2	0.07050313
45	0xbd51fcde	-0.051266544
46	0x3d3b90d3	0.045792412
47	0xbcb7ec47	-0.022451533
48	0xbd1c0ef9	-0.038100217
49	0xbd53d730	-0.05171889
50	0x3d144ddc	0.036207065
51	0xbd0d4c93	-0.034496855
52	0xbd8e8832	-0.06959571
53	0x3d892708	0.06696898
54	0xbcde9b79	-0.027173745
55	0xbda6f1f6	-0.08151619
56	0x3bb25fc4	0.005443545
57	0x3cc81e7e	0.024428602
58	0x3d7791ab	0.060441654
59	0x3cc61a59	0.024182485
60	0xbd8e7d4a	-0.06957491
61	0x3d2bf85c	0.0419849
62	0xbd6db682	-0.05803538
63	0x3caa4624	0.020785399
64	0xbbc8e13d	-0.006130366
65	0xbccbfcf6	-0.024900895
66	0xbbd041b6	-0.0063554896
67	0xbd53eaca	-0.051737584
68	0xbd7c20d5	-0.06155475
69	0x3d6f3d32	0.05840797
70	0xbd9349aa	-0.07191785
71	0x3d9c0c8d	0.07619581
72	0xbd595dd0	-0.053067982
73	0x3d2abae2	0.04168213
74	0xbd5eb13b	-0.05436824
75	0x3c5200b6	0.012817552
76	0x3d8aa044	0.067688495
77	0x3d32d418	0.0436593
78	0xbd1396b2	-0.036032386
79	0x3d081ecf	0.033232506
80	0x3d9dc875	0.0770425
81	0x3cc9537d	0.024575943
82	0x3d849293	0.06473269
83	0x3cd994c4	0.026560195
84	0xbd11db88	-0.035609752
85	0xbc8d2554	-0.017229713
86	0x3d04fb0f	0.03246599
87	0xbd592622	-0.053014882
88	0xbc3bd21f	-0.011463671
89	0xbcc0e19f	-0.023545085
90	0x3d853f2d	0.065061904
91	0xbdaa37c4	-0.08311418
92	0x3cf356bb	0.029704442
93	0xbd6dd72a	-0.058066525
94	0x3cc21dc4	0.023695834
95	0xbd880796	-0.06642072
96	0x3d279fe1	0.040923957
97	0xbd2036f7	-0.03911492
98	0xbcbf185b	-0.023327043
99	0x3dabdaae	0.08391319
100	0xbd3fcf93	-0.046828818
101	0xbd34c3bb	-0.044131976
102	0xbd612f66	-0.054976843
103	0xbda0b7d8	-0.078475654
104	0xbd6bd90c	-0.05758004
105	0x3cfa1b0c	0.030530475
106	0xbabc29e8	-0.0014355751
107	0x3bdc81d4	0.006729344
108	0xbbfb8d4b	-0.0076767555
109	0x3d7adcd9	0.061245773
110	0x3d866f19	0.06564159
111	0x3d2dbf78	0.042418927
112	0x3d362217	0.044466104
113	0xbbb1b354	-0.005422989
114	0xbd2dc39c	-0.042422876
115	0x3981c978	0.00024754903
116	0xbd7d32f4	-0.06181617
117	0xbd7583e2	-0.059940226
118	0xbd87b84d	-0.066269495
119	0xbc3a0067	-0.011352635
120	0xbc8a66ce	-0.016894724
121	0x3d2d28a6	0.042275093
122	0x3d73865b	0.059454303
123	0x3c8023ec	0.015642129
124	0xbd485a57	-0.04891428
125	0x3d9232ea	0.07138617
126	0x3d96fa3b	0.073719464
127	0xbda8909f	-0.08230709
128	0x3ef6fe31	0.48240808
129	0x3b98d0f8	0.004663583
130	0xbc80642a	-0.015672762
131	0xbeb12871	-0.34601167
132	0x3dfb9c6e	0.12285696
133	0x3d97ff5a	0.07421751
134	0x3d1ec307	0.03876021
135	0x3f152418	0.582582
136	0xbc251745	-0.010076349
137	0x3d83c7e4	0.064346105
138	0x3daffb05	0.085928
139	0x3da98806	0.082778975
140	0x3da0473f	0.07826089
141	0x3ca4d462	0.020120803
142	0x3dd7a4b8	0.105294645
143	0xbc4bd86f	-0.0124417385
144	0xbef91b37	-0.48653576
145	0x3cc19564	0.023630805
146	0x3db66939	0.089067884
147	0x3d04c51f	0.03241455
148	0xbd7a9938	-0.061181277
149	0xbb94ef1c	-0.0045451056
150	0x3c01cc35	0.007922222
151	0x3f1f9aa0	0.62345314
152	0x3dfb7c7f	0.12279605
153	0xbc6fece0	-0.014643878
154	0x3d53fddf	0.051755782
155	0xbc3d08cd	-0.011537743
156	0x3dfad11d	0.122469164
157	0x3d166d74	0.036725476
158	0xbd2277a2	-0.039664872
159	0xbcd4d906	-0.025982391
160	0x3d95a402	0.07306673
161	0x3d9caef7	0.076505594
162	0x3e344d15	0.1760753
163	0xbd16122a	-0.036638416
164	0x3d60e9e8	0.05491057
165	0x3d9a24c8	0.07526547
166	0x3d95c464	0.07312849
167	0x3db351ff	0.08755874
168	0xbe049797	-0.12948452
169	0x3d45ccf4	0.04829116
170	0x3dab0435	0.08350412
171	0x3b811718	0.0039395206
172	0x3d40e117	0.047089662
173	0x3e48efff	0.19622801
174	0x3d0b4f81	0.034011368
175	0xbe5df6dc	-0.216762
176	0x3d8dcc31	0.06923712
177	0xbd37bb16	-0.044856153
178	0x3e0feeb5	0.14055903
179	0x3d9013a2	0.07034995
180	0x3ef278ef	0.4735789
181	0xbe3cb471	-0.18428208
182	0x3db41ef7	0.087949686
183	0x3d917758	0.07102841
184	0xbde4348e	-0.111428365
185	0xbd47ebc8	-0.048808843
186	0xbc3825ab	-0.0112394495
187	0xbcc7dc06	-0.024396908
188	0x3dd32556	0.10309856
189	0xbe862361	-0.26198867
190	0xbdc4f34e	-0.09616719
191	0xbd98b119	-0.07455654
192	0x3cf85eca	0.030318636
193	0x399e0a9b	0.0003014401
194	0x3cf31eeb	0.029677829
195	0xbda26252	-0.07928909
196	0x3d831039	0.063995786
197	0x3d59f9dd	0.053216804
198	0x3deff341	0.11716319
199	0xbdbca568	-0.09211236
200	0x3cafcf8c	0.02146127
201	0x3de71940	0.11284113
202	0x3e033240	0.12812138
203	0xba3e50de	-0.0007259975
204	0xbccb43eb	-0.02481266
205	0x3e71c612	0.23610714
206	0xbba4c17a	-0.005027947
207	0x3d96b83d	0.073593594
208	0x3e03c138	0.12866676
209	0x3df5f4db	0.12009593
210	0xbc86116a	-0.016365726
211	0xbcb80643	-0.022463923
212	0xbcb18bcc	-0.021673106
213	0x3d8f3793	0.06993022
214	0xbc5359d8	-0.012899838
215	0xbb90097f	-0.0043956633
216	0x3d941d2e	0.07232128
217	0x3e8231d9	0.25428656
218	0x3d4b1515	0.049580652
219	0x3d9bb9db	0.076038085
220	0x3cd560d7	0.026047153
221	0x3d80724a	0.06271799
222	0x3daeced5	0.08535544
223	0xbe1253bc	-0.14289755
224	0x3e865c02	0.2624207
225	0x3d4485ec	0.04797928
226	0x3f064772	0.52452767
227	0x3dd46cbe	0.103723034
228	0xbd0b498c	-0.034005687
229	0xbc9c5557	-0.019083662
230	0x3ca96d94	0.020682134
231	0x3d32f735	0.043692786
232	0xbddfbd3a	-0.10924764
233	0x3dba9fd8	0.09112519
234	0x3ef1bbff	0.47213742
235	0x3ce78253	0.028260386
236	0xbd890885	-0.06691078
237	0xbdd83bb4	-0.105582625
238	0x3e084324	0.13306862
239	0x3d056340	0.032565355
240	0x3dfcf0b5	0.12350599
241	0xbd0c3a42	-0.034235246
242	0xbd0b9d00	-0.034085274
243	0xbe5216cd	-0.2051651
244	0x3da1feb7	0.07909911
245	0xbc2aba96	-0.010420462
246	0xbd60b310	-0.054858267
247	0x3e9badb4	0.30405962
248	0xbcf4c95b	-0.02988117
249	0x3b221e33	0.0024737238
250	0x3dd20350	0.10254538
251	0xbc25aaff	-0.010111569
252	0xbc864ed9	-0.01639502
253	0x3d2b4fa6	0.041824006
254	0x3d5c79f6	0.05382725
255	0x3e4ae042	0.1981211

layer2.bias f4 [128]
0	0x3b83e668	0.0040252693
1	0x3d962de6	0.07332973
2	0xbd6a2174	-0.05716081
3	0x3df196f9	0.11796374
4	0xbd00ab77	-0.03141352
5	0x3d329e00	0.04360771
6	0x3e9020b3	0.28149948
7	0x3c69404d	0.014236522
8	0xbdaa228b	-0.0830737
9	0xbda15454	-0.078774124
10	0x3c523328	0.012829579
11	0xbcf9294b	-0.030415198
12	0x3d8239f2	0.063587084
13	0xbcc4cc87	-0.024023307
14	0xbd051a07	-0.032495525
15	0x3d389c47	0.045070913
16	0x3b3fab23	0.0029246293
17	0xbd059eb3	-0.03262205
18	0x3cde4abe	0.02713525
19	0x3e07f696	0.13277659
20	0xbd4ad92f	-0.04952353
21	0x3c198cd3	0.009371954
22	0xbd6ea21a	-0.05826006
23	0x3b271976	0.0025497354
24	0x3d1dca55	0.038523037
25	0xbd9cc231	-0.076542266
26	0xbb8940f3	-0.0041886508
27	0x3d87b2e9	0.06625921
28	0x3d7c59ef	0.061609205
29	0xbd256ef0	-0.040389
30	0xbd0cd1c9	-0.034379754
31	0xbd87c1b8	-0.06628746
32	0xbcc34e5a	-0.023841072
33	0x3d0c1279	0.034197304
34	0x3cfdb39a	0.03096943
35	0x3dd5855f	0.10425829
36	0x3dcc774a	0.0998369
37	0xbd8980fb	-0.06714054
38	0x3eb9a283	0.362568
39	0xbd24f2a2	-0.040270455
40	0x3d4ffa34	0.05077572
41	0x3cc7579d	0.02433377
42	0xbda8ec10	-0.0824815
43	0xbda539a6	-0.08067636
44	0xbcc4e68a	-0.02403571
45	0x3def7188	0.11691576
46	0x3c400cae	0.011721773
47	0xbbe7715f	-0.0070630754
48	0xbd3f89ba	-0.046762206
49	0x3d1171da	0.035508968
50	0x3d9884cd	0.07447205
51	0x3d12b2da	0.035815097
52	0x3db05e02	0.086116806
53	0x3d02339c	0.0317875
54	0x3de0a190	0.109683156
55	0x3da466f5	0.0802745
56	0x3cd41ac0	0.025891662
57	0xbd351620	-0.044210553
58	0x3d882152	0.0664698
59	0x3d3404cb	0.043949883
60	0x3d896889	0.067093916
61	0x3c628e56	0.013827881
62	0xbd9660ef	-0.07342707
63	0xbd19be29	-0.037534866
64	0xbd7a9439	-0.061176512
65	0x3c93e7dd	0.018054897
66	0x3d15eef8	0.03660485
67	0x3c6da6f3	0.014505136
68	0xbd584fe2	-0.052810557
69	0x3da091c0	0.078402996
70	0x3e020b25	0.12699564
71	0xbd23df65	-0.040007968
72	0x3e615887	0.22006427
73	0xbd0a70a1	-0.033798818
74	0x3d19e2af	0.037569698
75	0xbb6c7554	-0.0036080675
76	0x3cf5ad1f	0.029989777
77	0x3d297555	0.041371662
78	0x3de272c3	0.11057045
79	0x3d15d4f4	0.03658004
80	0xbc125a30	-0.008932635
81	0xbc268bb6	-0.010165146
82	0xbd5dbce7	-0.05413523
83	0x3dee995d	0.116503455
84	0x3cf9856d	0.03045913
85	0x3a9f4489	0.0012151162
86	0x3d57dcb4	0.052700713
87	0xba72aae3	-0.00092570315
88	0xbc15e281	-0.009148241
89	0xbd1a836d	-0.037722994
90	0x3d836d81	0.064173706
91	0x3b6bb90d	0.0035968453
92	0xbd6c0e54	-0.057630852
93	0x3e019f7c	0.12658495
94	0x3a92bc69	0.0011195067
95	0xbd8f46c0	-0.06995916
96	0x3d55b295	0.052172262
97	0x398530a0	0.00025403965
98	0x3c9b9fc8	0.018997088
99	0x3dfa2f79	0.12216086
100	0xbd5e344c	-0.054249093
101	0xbc32c126	-0.010910308
102	0x3baa66be	0.005200236
103	0xbd823fc4	-0.063598186
104	0xbd2d6964	-0.042336836
105	0x3d10785d	0.035271037
106	0xbd1cfa69	-0.038324747
107	0x3f1fe32b	0.62456006
108	0x3ccedb5a	0.02525108
109	0xbd332b44	-0.043742433
110	0xbd1481a8	-0.036256462
111	0x3e114402	0.14186099
112	0x3ee90b85	0.455166
113	0xbc791922	-0.015203746
114	0xbc883733	-0.016627884
115	0xbdac4496	-0.08411519
116	0xb90f2085	-0.00013649657
117	0x3aff3496	0.0019470628
118	0x3d869477	0.06571286
119	0xbd30f5ad	-0.043203045
120	0x3dc634c3	0.09678032
121	0x3d3474df	0.04405677
122	0x3cea4232	0.028596018
123	0xbd116360	-0.035495162
124	0x3ca8894e	0.020573284
125	0x3d028af6	0.031870805
126	0xba9217be	-0.0011145992
127	0x3f2ac16e	0.667014

layer3.weight f4 [3, 128]
0	0x3d1b59b9	0.037927363
1	0xbe4093bd	-0.18806358
2	0x3d347e9a	0.04406605
3	0xbdf98723	-0.121839784
4	0xbda9b60d	-0.082866766
5	0xbd787dbd	-0.06066679
6	0xbe36911f	-0.17828797
7	0xbd86cd5b	-0.06582137
8	0x3da8734e	0.082251176
9	0x3cf6b81d	0.030117089
10	0xbdab6fa8	-0.08370906
11	0xbe07af34	-0.13250428
12	0xbdc7676e	-0.097365245
13	0x3d37591a	0.04476271
14	0xbc60209e	-0.013679652
15	0xbd83ef4b	-0.06442126
16	0xbe1e99b7	-0.15488325
17	0xbdc6498e	-0.09681998
18	0x3cad5c77	0.021162255
19	0xbe34f0a3	-0.1766992
20	0xbcfbf290	-0.030755311
21	0xbda555fe	-0.08073042
22	0x3d7b0cc1	0.06129146
23	0x3cf6ea1b	0.030140927
24	0x3da4cd03	0.080469154
25	0x3d41f945	0.047356863
26	0x3c827a66	0.015927505
27	0x3c00196f	0.007818564
28	0x3da6768c	0.0812808
29	0x3d0867e9	0.03330222
30	0xbe25e6e3	-0.16201358
31	0x3c81c95b	0.015843084
32	0xbc6288a8	-0.013826527
33	0xbcd6632c	-0.026170336
34	0x3cc0ecfa	0.0235505
35	0xbe473180	-0.19452477
36	0xbe0618bb	-0.13095371
37	0x3d0ec50b	0.034855884
38	0xbe9a3537	-0.30118725
39	0x3da74810	0.08168042
40	0x3ccef324	0.025262423
41	0xbde75904	-0.11296275
42	0x3d62a715	0.055335123
43	0xbb03baeb	-0.0020100425
44	0x3e0bfffa	0.13671866
45	0xbe2f8ffb	-0.17144768
46	0xbd8d59d1	-0.06901897
47	0x3d85176b	0.06498607
48	0x3cb54a0b	0.022130033
49	0xbd6b7667	-0.057485964
50	0xbd4fae0c	-0.050703093
51	0xbdae7215	-0.08517853
52	0xbda7d8f5	-0.08195678
53	0xbc1cee4b	-0.009578298
54	0x3e250eb3	0.16118889
55	0xbe23f99f	-0.16013192
56	0xbd331572	-0.043721624
57	0x3e489613	0.19588499
58	0xbd580151	-0.05273563
59	0x3d69d9ec	0.057092592
60	0xbd4c9528	-0.049946934
61	0x3d3e06ba	0.046393134
62	0xbb3ae860	-0.0028519854
63	0x3b477328	0.0030433629
64	0xbd7ba212	-0.06143386
65	0xbda52e4c	-0.08065471
66	0xbc01499d	-0.007891086
67	0xbd6dada7	-0.058026936
68	0x3d3ad906	0.045617126
69	0xbe1b898c	-0.15189189
70	0xbda875fe	-0.0822563
71	0x3d0692c8	0.032854825
72	0xbe5ca38d	-0.21546765
73	0xbde44e18	-0.11147708
74	0xbcc44c4f	-0.023962168
75	0x3d47a6bc	0.048742995
76	0xbe0d76c9	-0.13814844
77	0xbd956118	-0.0729391
78	0xbe1431fd	-0.14472194
79	0x3d2913e2	0.041278727
80	0xbe39be80	-0.18139076
81	0x3c43e55d	0.01195654
82	0xbd892593	-0.0669662
83	0xbdfecbc9	-0.12441213
84	0xbe335260	-0.17511892
85	0x3ced2d14	0.028952159
86	0xbe130cbd	-0.14360328
87	0x3d619483	0.055073272
88	0x3d8506e0	0.06495452
89	0xbc4db520	-0.012555391
90	0xbe072ffd	-0.132019
91	0xbe1ebcde	-0.15501735
92	0x3d7d334d	0.061816502
93	0xbe18fc4e	-0.14939997
94	0x3d05f606	0.03270533
95	0x3d52ceb3	0.051466655
96	0xbd90c612	-0.07069029
97	0x3ce3f999	0.027828978
98	0xbe0a715d	-0.13519807
99	0xbe3f6ce8	-0.18693888
100	0xbd9a962d	-0.07548175
101	0xbdbd04b0	-0.0922941
102	0x3d06a368	0.03287068
103	0xbd0e7672	-0.034780927
104	0xbd5ebc94	-0.05437906
105	0xbdaff8f8	-0.08592409
106	0xbdd39b11	-0.10332311
107	0xbf07cfb2	-0.5305129
108	0x3ca0ec57	0.019643946
109	0x3d2b6c32	0.04185123
110	0x3d6b389a	0.057427026
111	0xbe1ca203	-0.15296178
112	0xbef6846a	-0.481479
113	0x3d16f7c5	0.036857385
114	0x3cb9105b	0.022590807
115	0x3d0f4812	0.03498084
116	0x3d7910e4	0.060807124
117	0xbdca44e6	-0.098764226
118	0x3d675a53	0.056482624
119	0x3d9e2f90	0.077239156
120	0xbdf0024f	-0.1171919
121	0x3d6797f2	0.05654139
122	0xbd81c242	-0.0633588
123	0x3d272076	0.04080244
124	0x3d988865	0.0744789
125	0x3cd5876c	0.02606555
126	0xbe09a7e6	-0.13442954
127	0xbf170579	-0.58992726
128	0x3bb7e90f	0.0056124995
129	0xbcb9d19a	-0.022682954
130	0xbc995231	-0.01871595
131	0xbdebc113	-0.11511435
132	0xbc43cbe7	-0.01195047
133	0x3c8670fd	0.016411299
134	0xbeaf0d70	-0.3418994
135	0xbc465453	-0.012105065
136	0x3b4c084e	0.003113288
137	0x3c204f12	0.009784477
138	0x3d8e09f0	0.06935489
139	0xbde89985	-0.113574065
140	0xbe0c6be6	-0.13713035
141	0x3d3467ea	0.044044413
142	0xba2a0414	-0.0006485593
143	0x3d4506bd	0.04810213
144	0xbe199211	-0.14997126
145	0xbde6c5fe	-0.11268233
146	0x3cca8342	0.024720792
147	0xbd84b64c	-0.06480083
148	0x3d7f3eb2	0.06231565
149	0xbd8d2ae2	-0.06892945
150	0xbcef3f5a	-0.029205013
151	0x3da267d4	0.0792996
152	0xbc904b90	-0.017614156
153	0x3d5ef41b	0.054432016
154	0x3c7efe11	0.015563504
155	0x3cc2e23f	0.023789523
156	0xbc642f5c	-0.013927307
157	0xbb159ac7	-0.002282785
158	0xbe2e42f4	-0.17017728
159	0x3d8bab3b	0.06819769
160	0xbde5ce4e	-0.1122099
161	0x3c78041b	0.015137698
162	0x3d1b4221	0.037904862
163	0xbd84c3fd	-0.06482694
164	0xbdb41a65	-0.08794097
165	0x3c7f1b49	0.01557047
166	0xbec0970d	-0.37615243
167	0x3d27ee40	0.040998697
168	0xbd95048e	-0.07276259
169	0xbe104bf4	-0.14091474
170	0xbd8cdb4b	-0.06877764
171	0x3daa00f4	0.08300963
172	0x3e7643e2	0.24049333
173	0xbe080483	-0.13282971
174	0xbe0c25b7	-0.13686262
175	0x3c064269	0.008194544
176	0x3d1de246	0.03854587
177	0xbddeb39f	-0.10874104
178	0x3b90dfd0	0.004421212
179	0xbe2ee315	-0.17078812
180	0xbd7c0a54	-0.061533287
181	0x3d8e5284	0.06949332
182	0x3dcae684	0.099072486
183	0xbd7330b3	-0.059372615
184	0xbcd45450	-0.02591911
185	0x3e78875d	0.24270387
186	0xbcfe653d	-0.031054134
187	0x3c471af6	0.012152424
188	0x3b97c0bf	0.0046311314
189	0xbd968a3c	-0.07350585
190	0xba8f784c	-0.0010945885
191	0x3d76d1d3	0.060258698
192	0x3d967756	0.0734698
193	0xbe077965	-0.13229902
194	0xbbc39e64	-0.0059698094
195	0xbe23e0ad	-0.16003676
196	0xbd307e67	-0.043089297
197	0xbddbcf8a	-0.10732944
198	0xbdc5877e	-0.09644984
199	0x3c734933	0.014848995
200	0xbe493441	-0.1964884
201	0xbd9f4dfe	-0.07778548
202	0x3ce74446	0.028230797
203	0xbd94d701	-0.07267571
204	0xbcfeb8c1	-0.031093957
205	0x3cec6934	0.028858759
206	0xbe041e4d	-0.12902184
207	0x3d4f2ba8	0.050578743
208	0xbe1bd5d9	-0.15218295
209	0x3d25ea32	0.04050655
210	0xbd5e4c81	-0.05427218
211	0xbde908de	-0.113786444
212	0xbdb83469	-0.089943714
213	0x3d8c352f	0.068460815
214	0xbe25e1c3	-0.16199403
215	0x3c51b052	0.012798386
216	0x3c67cb55	0.014147599
217	0xbd16b702	-0.036795624
218	0xbd7f0db7	-0.06226894
219	0xbc8672d7	-0.016412182
220	0x3bd764e8	0.0065733083
221	0xbd973b60	-0.07384372
222	0x3d1a0d4d	0.03761034
223	0x3d7735e5	0.060354132
224	0xbd07e297	-0.033175077
225	0xbda4a1bc	-0.08038661
226	0xbda0a2ae	-0.07843529
227	0xbe016ac3	-0.12638383
228	0xbd5ff644	-0.054678217
229	0xbda8e97d	-0.08247659
230	0x3d347e9c	0.044066057
231	0x3d44ba0d	0.048028994
232	0x3d6f8ca2	0.058483727
233	0xbe35752a	-0.17720476
234	0xbdfa17f7	-0.12211602
235	0xbf18fbd3	-0.59759253
236	0x3d9dbe39	0.07702298
237	0xbcea6d9c	-0.028616719
238	0xbda26b29	-0.079305954
239	0xbd1e2ec1	-0.038618807
240	0xbf0a2db9	-0.5397602
241	0x3d4534a7	0.048145916
242	0xbce6f072	-0.028190825
243	0x3d8eb594	0.06968227
244	0xbd03ddad	-0.03219383
245	0xbd44b603	-0.048025142
246	0xba1142b8	-0.0005541253
247	0x3d8f1db0	0.06988084
248	0xbdd1f14a	-0.102511
249	0xbd3ce9b6	-0.04612132
250	0x3cb71abf	0.02235162
251	0x3d4fb4fc	0.05070971
252	0x3c4427a9	0.011972346
253	0xbda1ef3d	-0.07906959
254	0xbdef055d	-0.11670945
255	0xbf14e385	-0.5815967

layer3.bias f4 [3]
0	0x3cb3f046	0.021965157
1	0xbd4a6bda	-0.04941926
2	0xbdc22cfb	-0.094812356
