DQN_policy_net_Cartpole.pt (torch, 13056 bytes, 8 tensors)

linear_relu_stack.0.weight f4 [32, 4]
000000 c5 88 c7 3d c5 1c 77 3e ec b5 7f bf da 50 c5 3d
       0.097428836 0.24132068 -0.99886966 0.09634562
000010 47 22 ae bc 4e 49 2f bc 75 f8 87 bf 81 eb 12 be
       -0.02125658 -0.01069863 -1.0622698 -0.1434765
000020 53 d7 d6 bd 05 83 b3 bd a5 6d 3e bf fb db a0 3c
       -0.104902886 -0.08765224 -0.74386054 0.019636145
000030 55 14 8b be fd 13 29 3e 63 7a 99 be 37 48 34 3d
       -0.2716395 0.16511531 -0.29976186 0.044014182
000040 b1 e6 0d 3f 51 e2 7c 3e 0b 70 52 bf 6e 46 b6 bd
       0.5543013 0.24695708 -0.82202214 -0.08900152
000050 a1 a3 02 bf 10 37 b3 3e 5c ed 04 3f 5c d6 e0 3d
       -0.5103093 0.35002947 0.5192468 0.10978386
000060 01 23 25 3e 34 c3 77 be 68 34 48 bf 3d f6 89 be
       0.16126634 -0.24195558 -0.78204966 -0.26945677
000070 88 5a d1 be 7a 3a 4b 3e dd 58 8c 3f 50 91 17 3e
       -0.40889382 0.19846526 1.0964619 0.14801526
000080 f1 cf c3 bd fe 85 7c be c5 8a 53 3f b4 92 ab 3c
       -0.09561146 -0.24660489 0.8263362 0.020943977
000090 6b 1c 93 3e 0a 60 d8 3d 40 d6 83 3f 19 da ba bc
       0.2873262 0.10565193 1.0299759 -0.022809075
0000a0 34 f0 f5 bd 5a ed 77 3d cd 9d 0e 3e 68 61 70 3e
       -0.12008706 0.06052909 0.13927384 0.23474658
0000b0 16 e3 3b 3e 36 49 3b be a4 98 a2 3e 7f fc d2 3b
       0.18348345 -0.18289647 0.3175708 0.0064387913
0000c0 5f 0a 8b be 5f 6f ed bc 47 fd a3 3e 32 b8 33 be
       -0.2715635 -0.02898377 0.32029173 -0.17550734
0000d0 9f 7a ee bd 3a 2e c4 3d cd 4b f4 bd 9d f0 08 3e
       -0.11644482 0.095791295 -0.1192852 0.13373037
0000e0 b6 f9 35 3d 7d 2e 9e 3e be 9f b4 3e 47 21 8f 3d
       0.044427596 0.30894843 0.35278124 0.06988769
0000f0 e2 5d 24 3d b3 2d 92 be a2 c8 8a 3f b2 a8 91 3e
       0.040128596 -0.2855049 1.0842478 0.28449017
000100 f9 8a 05 3d 46 2e 8d bc 83 16 5d 3f c8 ce 2e 3e
       0.032603238 -0.017233979 0.86362475 0.17071068
000110 18 3a 8a 3e 89 79 82 be de 1b 66 bf 61 75 db bd
       0.26997447 -0.2548335 -0.8988627 -0.107157476
000120 b8 db be 3e fe 9a 6d 3d 36 2f 00 bc 62 1e 54 be
       0.37277007 0.05800914 -0.007823756 -0.20714715
000130 57 58 d3 3d 4f 92 e5 3d 92 45 2d 3f a9 d0 11 be
       0.10319584 0.11209547 0.6768428 -0.14239754
000140 b8 ad 9b be 6f 2f 22 3e 5d 9a 0f 3e b1 c8 e6 bd
       -0.30405974 0.15838407 0.14023729 -0.112687476
000150 20 f7 e4 bd 63 f0 d2 be 2c 80 d1 be 4d ef 88 3e
       -0.11179948 -0.41199026 -0.409181 0.26745072
000160 b5 62 72 3e 0c 46 ec bc 3e 2f 69 bf 1d 1e fb bd
       0.23670466 -0.028841995 -0.9108771 -0.12261603
000170 c5 78 79 bd 01 c5 23 bd 37 ea 4e bd 12 9f 2d bd
       -0.06090619 -0.0399828 -0.050516333 -0.04238803
000180 e6 28 f5 3d c6 32 8e 3d 9b 51 2a bf 9c 94 63 3e
       0.119706914 0.06943278 -0.6653077 0.22224659
000190 e8 9a 9b 3e f3 b7 89 3e 97 cb 8e bf 70 6c b9 be
       0.30391622 0.26898155 -1.1155881 -0.36215544
0001a0 3f af 95 bd 67 fc 06 3e 19 09 99 be 29 73 24 3e
       -0.07308816 0.13182221 -0.29889753 0.16059555
0001b0 cd 0f e9 3d de f8 b6 be 31 de 87 be 95 0f 07 be
       0.11379967 -0.35736746 -0.26536706 -0.13189538
0001c0 ad 32 ac bc e4 2c 92 3d 13 8f 8d bf 30 b2 a6 bd
       -0.021020258 0.071374685 -1.1059288 -0.08139455
0001d0 e0 22 66 bd 20 29 bc bd dd 4b a0 3e b8 79 56 bd
       -0.056185603 -0.091875315 0.3130788 -0.052362174
0001e0 be 05 d4 bd 90 7b 97 3e 99 d3 88 3f 6b bf ba 3e
       -0.10352658 0.29586458 1.0689574 0.36474165
0001f0 4a 27 10 be 58 d6 64 bd a3 6c 09 3d e3 d0 1d bd
       -0.14077488 -0.055868477 0.03355087 -0.038529288

linear_relu_stack.0.bias f4 [32]
000000 af e2 b1 3e ab d1 bd 3e a1 bc a3 3e c4 c5 9e 3e
       0.34743258 0.37074026 0.3197985 0.31010258
000010 be ab f2 be 9a 00 88 3e db c1 a9 be 7e 40 90 3e
       -0.47396654 0.2656296 -0.33155712 0.28174204
000020 30 8d aa bd 34 83 90 3e 7e 24 93 be c5 ac ec 3e
       -0.08327711 0.282251 -0.2873878 0.46225563
000030 34 b5 d9 3e 19 79 90 be 97 75 be 3e 01 a6 6c bd
       0.4252106 -0.2821739 0.3719909 -0.0577755
000040 69 7e e5 3e fa d2 97 3e e7 6c 91 be 5e 62 d2 3e
       0.44823006 0.2965315 -0.28403398 0.41090673
000050 64 3c cb 3e 90 2a 4b 3e 5a 74 c9 3e 71 fb d1 3e
       0.39694512 0.19840455 0.39346582 0.41012147
000060 08 d7 e1 3e 77 3b 48 be a1 75 64 3e 96 96 e4 3e
       0.44109368 -0.19553934 0.22310497 0.44646138
000070 97 37 bb 3e 95 b3 75 be 09 bf d8 bd ac 5d c7 be
       0.3656585 -0.23994286 -0.10583312 -0.38938653

linear_relu_stack.2.weight f4 [32, 32]
000000 3f 21 b7 bc 98 d9 f7 bd d8 c8 b0 bc 1b 96 ae bd
       -0.02235472 -0.121020496 -0.021580145 -0.08524724
000010 bd c2 20 bf 30 5a f7 3d 66 bb 93 bb 38 11 09 3e
       -0.6279715 0.12077749 -0.0045084236 0.13385475
000020 ed 9f e1 3d df 66 cd bd d1 fe de 3b 5c 71 b6 bd
       0.110168315 -0.10029387 0.006805279 -0.0890834
000030 81 69 a7 3d 1f 02 27 3d 3b ba 00 3e 68 4c ab 3d
       0.0817442 0.040773507 0.12571041 0.08364183
000040 e9 25 45 3d 21 bf ce bc 7c 5a 93 be d3 46 8c 3d
       0.048131857 -0.025237622 -0.28779972 0.06849446
000050 c7 b8 20 bd 52 09 b6 bd e9 4c 49 3d ed 9a 50 bc
       -0.039238717 -0.088884965 0.049145613 -0.01273225
000060 a5 47 a0 3b 0f a1 c6 bd 06 a3 1c 3d 54 cf ef 3c
       0.004891353 -0.09698688 0.03824141 0.029273666
000070 71 fa ef bc 27 d2 60 3e 14 90 26 3d a1 48 f1 bd
       -0.029294224 0.21955167 0.040664747 -0.11781431
000080 ad 7b 1b 3e 3e 49 89 3d 82 c2 59 bc 05 ba be 3d
       0.15183897 0.06703423 -0.013291003 0.09312824
000090 98 68 cb be 0c 23 4c 3e 29 57 06 bf bc 7b b2 3e
       -0.39728236 0.19935244 -0.52476746 0.34860027
0000a0 7d 6c 14 bd f8 56 b3 3d 72 96 c0 bd 38 94 66 3e
       -0.036236275 0.08756822 -0.09403695 0.22517478
0000b0 91 7d 0c 3c 44 cf 2b 3c 0e 49 4e 3e 76 99 b5 3c
       0.008574859 0.010486428 0.20145056 0.022167902
0000c0 98 af 82 3e 32 c5 5b 3e 73 4f 70 3d 17 85 04 3e
       0.25524592 0.21461943 0.05866952 0.12941395
0000d0 7b 8c 64 3e 1b 37 ab 3d b5 4f 87 3b 1f ea e5 3d
       0.22319214 0.0836012 0.004129375 0.11226296
0000e0 9c ec e4 3d 73 ee 45 be d7 80 7c 3e 1c 07 87 3e
       0.11177942 -0.19329242 0.24658523 0.26372612
0000f0 60 96 13 bd 40 de 75 be e7 5e 2f be 5a de 9c be
       -0.03603208 -0.24010563 -0.17126046 -0.3063839
000100 20 0c e6 bd 39 5b f2 3c 56 17 74 bd 1e d9 44 bb
       -0.112327814 0.029584514 -0.059592567 -0.0030036638
000110 66 45 8e be 6b 75 01 bd f0 63 7c 3c 97 9e f2 3d
       -0.27787322 -0.03160612 0.015404686 0.11846655
000120 e6 33 36 bd dc 89 52 3d 80 cb 82 bd 6f 3d c7 3d
       -0.044483088 0.051401004 -0.06386471 0.097285144
000130 9e 5e ff bd 83 be a8 3d 87 01 a5 bd 4c e9 58 3e
       -0.12469219 0.08239462 -0.08056932 0.21182746
000140 b3 3e 33 bd 6f 7d 5d 3d ac b4 03 be 3a 99 24 bd
       -0.043760967 0.0540747 -0.1286189 -0.04018519
000150 55 5a 2e 3b c1 b0 18 bd c2 7e fe 3c 19 6b 15 bd
       0.0026604135 -0.03727794 0.031066302 -0.03647909
000160 49 4b b2 bc 85 7f be bd ad c8 fa bc 90 86 fc bd
       -0.021764414 -0.09301666 -0.030613268 -0.12330353
000170 45 e7 af 3d ec 20 64 3d d6 e4 68 3e 9c 56 45 bc
       0.08589033 0.05569546 0.22743544 -0.012044575
000180 a1 eb 05 bd be c9 d2 bd ad 07 9d 3d a8 49 98 bd
       -0.032695416 -0.102923855 0.0766748 -0.07435924
000190 7b c5 87 bd db 60 2f bd 43 44 ac bc 6f 2c 01 be
       -0.06629463 -0.042816978 -0.021028643 -0.12614606
0001a0 37 ae c3 bc 8b 4f 81 bc bd d5 75 bd 52 01 05 be
       -0.023886783 -0.015785 -0.06001829 -0.12988785
0001b0 f2 f1 5e 3d b4 ad bb 3d 66 c2 dc bd d0 ff 43 bd
       0.054429956 0.091639906 -0.10779266 -0.047851384
0001c0 25 8d 70 bc cb 1d ae bd 8c d5 3b bd f8 de d5 3d
       -0.014682089 -0.08501776 -0.04585795 0.104429185
0001d0 9c d0 99 3d ad 56 8b bc 20 62 cd 3d 36 f5 24 3d
       0.07510492 -0.017009104 0.100284815 0.040272914
0001e0 6b ab 04 be 8b 48 01 be 24 e1 86 3c 01 00 35 3d
       -0.12956016 -0.12625329 0.016464777 0.044189457
0001f0 ca fb eb bd d2 4d 51 3d 06 3d b4 bd 7e d5 60 39
       -0.11522634 0.051099606 -0.08800702 0.00021441837
000200 01 c5 29 3e f2 33 5a 3e 7c 61 42 3e 21 a5 14 3c
       0.16579057 0.21308878 0.189825 0.009072573
000210 7d eb f3 bd df 59 d8 3d 46 22 f3 be 18 3e 8e 3e
       -0.1191015 0.105640166 -0.47487086 0.2778175
000220 f3 37 ac 3c 77 bc b8 bc 9d d5 94 bc 4e a4 58 3e
       0.021022772 -0.022550805 -0.018168265 0.21156427
000230 25 c5 02 bd db 26 a5 3d ed 09 1f 3d a0 13 48 bc
       -0.031926293 0.08064052 0.038827825 -0.01221171
000240 c2 37 0d 3e 36 6c 4b 3e ea 57 c1 3d 07 85 68 3d
       0.13790801 0.19865498 0.094405964 0.05676749
000250 1e 26 0a 3e bd 98 4e 3d 40 b3 91 3d c3 6e 13 3e
       0.13491103 0.05043863 0.07114267 0.14397721
000260 c1 b7 a9 3d 00 ab ee bc 85 7f 51 3d f2 aa ce 3d
       0.082870014 -0.029134274 0.051147003 0.10091199
000270 17 bc 8f 3d b8 c8 81 be 50 5f 44 be a2 f7 8a be
       0.07018297 -0.2534845 -0.19176984 -0.27142054
000280 c8 a7 59 3e 38 a7 3e 3d 51 a8 a2 3d a0 37 40 3e
       0.2125541 0.04654619 0.0794226 0.18771219
000290 eb e4 2f 3e d4 36 24 3e ec 4d 93 be df 5a ef 3c
       0.17177169 0.1603654 -0.28770387 0.029218135
0002a0 d3 2b 72 bd 1c 84 47 3d 55 de d3 bd 10 1c 45 3e
       -0.059123825 0.048709974 -0.10345141 0.19248986
0002b0 35 4a 5d 3b 04 c4 e4 3d 1d da 38 3e 31 02 dc bb
       0.0033766155 0.111701995 0.18051954 -0.0067141284
0002c0 22 22 8f 3d 3a 28 a2 3e e6 79 44 3e 75 a8 2d 3d
       0.06988932 0.31671315 0.19187126 0.04239698
0002d0 03 92 21 3e 1c 35 20 3e a8 d5 4a 3d 3c 02 1a 3e
       0.15778355 0.1564526 0.049520165 0.15039915
0002e0 8b be 56 3e 0f 1e 41 3e 70 6a 30 3d fd 90 26 3d
       0.20971124 0.18859123 0.043070257 0.040665615
0002f0 13 5f 00 3e 60 e0 1e be 49 f2 10 be 27 05 f3 bd
       0.12536268 -0.1551528 -0.14154924 -0.11866217
000300 98 34 05 bd 3e 1d ca bc 27 4c 13 3e f9 c6 ee 3c
       -0.03252086 -0.024672147 0.14384519 0.029147612
000310 da e3 71 be 7f 55 a1 3c 81 7b 02 bf 0e 69 3b 3e
       -0.23622075 0.019694088 -0.509697 0.18301794
000320 da d3 1b 3e 65 99 06 3e 77 4f b0 bd 40 86 6d 3e
       0.15217534 0.13144453 -0.08608907 0.23195744
000330 87 2b 34 3e 87 83 10 bc 4c ff 5a 3e fd 2a 8c 3d
       0.1759473 -0.008820421 0.2138645 0.06844137
000340 aa 49 7f 3e 12 02 93 3d 24 1c fe 3d 77 1c 71 3e
       0.24930444 0.07178129 0.12407711 0.23546015
000350 67 87 7e 3c 37 af 9d bd 1f 01 b7 3d 2b 8b 81 3e
       0.015535212 -0.07699435 0.08935761 0.2530149
000360 53 03 11 3e 3c 1a bf bd f0 85 ab 3c 79 92 3f 3e
       0.14161424 -0.09331176 0.02093789 0.18708219
000370 9d ea 56 3d 02 85 70 be 1c 0a 8b 3d 69 d5 2f be
       0.05246984 -0.23488238 0.067890376 -0.17171253
000380 d6 87 cb 3d 09 33 2d 3d 46 fc 66 3d a7 58 fe 3d
       0.09938018 0.042285 0.05639293 0.12419253
000390 9a 3a 29 be 08 26 37 3c 75 58 1a bf 7b fa 22 3e
       -0.16526261 0.011178501 -0.60291225 0.15915863
0003a0 0d 15 32 3d e6 f6 9c 3d bc 89 19 be 4c 05 8b 3e
       0.043477107 0.0766428 -0.14993948 0.2715248
0003b0 a5 f0 4c 3e 1a c7 d7 3c a3 8f 48 3e 89 b3 89 bd
       0.20013674 0.026340056 0.19586043 -0.06723697
0003c0 57 f8 64 3e 33 63 7f 3e bb 8e 21 3d 82 df 7b bc
       0.22360359 0.24940185 0.03944276 -0.015373113
0003d0 69 c7 70 3e e4 bd 9f bd ab 28 1f 3e 7d 34 3b 3e
       0.23513569 -0.07799891 0.15542857 0.18281741
0003e0 c5 ee 75 3e 47 8a 69 bd 16 e9 2a 3d 33 bc 1f 3d
       0.24016865 -0.057016637 0.041726194 0.03899784
0003f0 b6 24 12 be 21 19 d6 be fe 3d 28 be ef a7 f9 bd
       -0.14271817 -0.41816047 -0.16429898 -0.12190234

linear_relu_stack.2.bias f4 [32]
000000 da 91 55 3d e8 b6 a7 3d e2 7d de 3d 3d a6 f5 bd
       0.052141048 0.081891835 0.10863854 -0.11994598
000010 2f 04 3f 3e de 73 2d 3e 42 65 e9 3d 47 37 13 3d
       0.1865394 0.16938731 0.113962665 0.03594139
000020 e7 d5 50 3e 61 a5 8d 3d d2 9f 79 bb 1c f7 34 3e
       0.20394097 0.06916309 -0.0038089645 0.1767239
000030 2f a2 a8 3c 9a 2a bd bd 79 2b 69 3e a4 37 bb 35
       0.020585148 -0.09236641 0.2277049 1.3948779e-06
000040 53 a7 29 3e 93 1c 50 3d b7 f3 8e bd a8 82 f3 3c
       0.16567735 0.0508085 -0.06980079 0.029725388
000050 dc 4e 10 3e 02 ec 8e be ce f6 27 3e 05 4b d4 3d
       0.14092582 -0.27914435 0.16402742 0.10365871
000060 cb 6a fd 3d 54 aa 05 3e 3b db 79 3e 81 75 60 3d
       0.12373885 0.13053256 0.24400036 0.05479956
000070 04 ca ed bc 18 73 45 3e 0c 9f 91 3d 87 14 73 3d
       -0.029026993 0.19282186 0.07110414 0.05934575

linear_relu_stack.4.weight f4 [32, 32]
000000 46 6c 2d be ae 3d 22 3e 7d 37 15 be d5 1d f1 bd
       -0.16935834 0.15843841 -0.14571948 -0.11773268
000010 bc 02 f2 3d 67 35 2c 3e 69 fb c5 3d 29 53 13 3e
       0.11816928 0.16817246 0.09667093 0.14387192
000020 ac 36 19 3e 4d 8b b8 3b 5a 58 d6 be 24 36 84 3e
       0.14962262 0.0056318403 -0.41864282 0.25822556
000030 b1 5f cd 3e fe 01 a6 3d 52 5e c7 3d af a8 76 bf
       0.4011207 0.08105849 0.09734787 -0.9635114
000040 55 d2 69 3e c6 0d 32 3e 3c f3 d1 ba fc 22 b0 bd
       0.22834142 0.17388067 -0.0016017924 -0.08600423
000050 a6 27 27 3e b9 e5 24 bf 0e f4 61 3e a7 6b f3 3d
       0.16323718 -0.6441303 0.22065756 0.118857674
000060 f2 ec bd 3c 31 a3 bd 3c 08 8c c7 3d 08 04 7b 3c
       0.023184273 0.023149105 0.09743506 0.015320785
000070 10 64 4e be 64 38 fe 3c 35 2e 9b 3e f2 6f 3c 3e
       -0.20155358 0.031032749 0.3030869 0.18402079
000080 59 23 34 bd 5a 67 d7 3d f3 4a 00 be c8 36 de bd
       -0.043979023 0.105177596 -0.12528591 -0.108502924
000090 f2 aa 67 3d c9 de 89 3d e8 73 b7 bd d5 df a0 bd
       0.05655951 0.06731946 -0.08957654 -0.078551926
0000a0 12 ee 00 be 6d 2d f5 3d 56 e2 cf bd 7f 99 76 bd
       -0.12590817 0.11971555 -0.10150592 -0.06020498
0000b0 8d f3 ec 3d c9 8a 15 bd 5e 79 0b bd 4d 42 c4 bd
       0.11569891 -0.03650931 -0.03405129 -0.09582958
0000c0 22 16 03 be 0f 29 ce bd 68 25 d5 3d ec ec 28 bc
       -0.12801412 -0.10066425 0.10407525 -0.010310393
0000d0 77 c8 ee bd 98 3c 92 3a c3 fe 96 3d 75 30 2f 3d
       -0.116593294 0.0011156974 0.07372811 0.04277082
0000e0 7e e8 b9 3d 19 5b 0a be ba db 89 3d a5 1c 74 bd
       0.090775475 -0.13511313 0.06731363 -0.05959763
0000f0 96 ee 3c 3d e0 e2 59 3d fd a2 34 3c 41 d5 8b 3d
       0.04612597 0.05319488 0.011025188 0.06827784
000100 82 1f 26 3d 1a 07 1f bd 1b fe 2b 3d 91 fa ae 3d
       0.040557392 -0.038825132 0.04199038 0.085438855
000110 a8 87 ca bc d2 e7 74 bd e3 6c 66 bd 11 5e e1 bd
       -0.024722889 -0.059791394 -0.056256186 -0.1100427
000120 f9 1d 6e bd 9e 5e c6 bd 21 05 fd bd d8 47 b1 3d
       -0.058134053 -0.096860155 -0.12354494 0.08656281
000130 52 ea c1 3d 49 ba a4 bd d7 d9 8f 3d 07 a3 53 bc
       0.09468521 -0.080433436 0.070239715 -0.012917287
000140 ad e9 1a 3d 39 71 7d 3d 9b da 8c bd f5 b1 d7 3d
       0.037820507 0.061875556 -0.06877633 0.105319895
000150 ec f4 64 3d b1 a7 d3 3d 35 89 05 be 2c bf ad bb
       0.05589764 0.10334719 -0.13040622 -0.0053023305
000160 e7 a8 c6 3d 0f d7 9f bd 31 75 a5 bc 1c 10 2c bc
       0.09700184 -0.07804691 -0.020197483 -0.010501888
000170 5c 6e 14 3e 0d ad fc bc 99 76 ac 3e 3b 84 1c be
       0.14495224 -0.030844236 0.33684233 -0.15284817
000180 ba de c5 bc 62 86 80 3d 90 85 9e 3d f0 fc 81 3d
       -0.024154056 0.062756315 0.07740319 0.06347072
000190 54 c2 a7 3d 85 ed eb bd f6 51 a5 bd 87 a9 00 be
       0.08191362 -0.11519913 -0.080722734 -0.1256467
0001a0 d0 67 3d 3d b7 93 f3 bc 4c 0f 05 bd 0b c1 af 3c
       0.04624158 -0.029733522 -0.03248529 0.021454355
0001b0 10 e0 7e bd 0a a4 b9 bd 8c 5d 1c 3d f7 68 c0 bd
       -0.0622254 -0.09064491 0.03817515 -0.093950205
0001c0 d4 2e ad bd f8 e4 bd 3c 57 ed 55 bd 57 0d f9 bd
       -0.084561974 0.02318047 -0.052228298 -0.121607475
0001d0 d1 b3 b1 3c d5 b5 20 3d ee 69 c5 bd b2 db e7 3d
       0.021692188 0.03923591 -0.09639345 0.113212004
0001e0 1c 22 31 bd 37 e0 ca bd 0a 06 7c bd 94 aa 90 3d
       -0.04324542 -0.09906047 -0.061529197 0.07063785
0001f0 38 87 b7 3d 18 9b d4 bd 4f 2b 9b 3d 9f d6 19 3d
       0.08961338 -0.10381144 0.0757662 0.037558194
000200 ca 1c cf bc 27 3c 70 3d 97 3d 2e bc 48 b5 a1 3d
       -0.025282282 0.058651116 -0.010634801 0.07895905
000210 ce b2 0e 3e 7d 92 41 3e 27 ea 64 3e 23 4a e1 3d
       0.13935396 0.18903537 0.22354947 0.110004686
000220 55 3a 9e 3d f7 3f 8b bd 16 ee ed be 6f 77 5e 3e
       0.0772597 -0.0679931 -0.46470708 0.21725248
000230 45 d7 16 3e 37 9a f4 3d 79 dd d5 3d 7e 1b 6c bf
       0.14730556 0.11943477 0.10442633 -0.9222945
000240 a1 eb dc 3d 3c 4d af 3e 5c ed 2a 3d fc 1e 89 bd
       0.1078713 0.34238613 0.04173027 -0.06695363
000250 13 80 c9 3e 10 4b 19 bf b1 89 ba 3b 32 5e 31 3e
       0.39355525 -0.5988016 0.0056926836 0.17321089
000260 80 a4 71 3e 7a 51 6f 3e 92 f4 5e 3e 9b 11 46 3e
       0.23597908 0.23370925 0.21772984 0.19342653
000270 e0 95 6a be 77 bc 24 3d 02 a6 a6 3e 1e e6 22 3e
       -0.22908735 0.040218797 0.3254853 0.15908095
000280 73 aa 82 bd e8 09 cc bd 7c ba 89 bd 8a 57 bf bd
       -0.06380167 -0.09962827 -0.06725022 -0.093428686
000290 1e e4 d0 bd 40 73 d0 bd 59 d2 b6 bd a1 bc b1 bd
       -0.1019976 -0.10178232 -0.089268394 -0.08678556
0002a0 92 19 5f bd 78 af e8 bd be 4c d1 bd fd 54 ee 3d
       -0.054467745 -0.11361593 -0.102197155 0.11637304
0002b0 08 34 89 3d 14 30 4c bd f3 39 06 be fd 45 91 bd
       0.06699377 -0.04985054 -0.13108043 -0.07093427
0002c0 50 57 d5 bd ed 28 f6 3c 77 49 72 bc 23 a0 d2 bc
       -0.10417044 0.030048812 -0.014788023 -0.025711125
0002d0 7c 81 ea 3d 25 ce a8 3d 6a 8d 13 3c e0 62 e5 3d
       0.114504784 0.08242444 0.009005884 0.112004995
0002e0 65 02 b1 3d 8c 41 de bd 83 4d 03 3e d6 f5 54 bd
       0.08643035 -0.10852346 0.12822537 -0.05199226
0002f0 a9 bd 37 bb b4 d7 d6 3d 40 31 64 bd a7 8e 12 3b
       -0.002803663 0.10490361 -0.05571103 0.002236286
000300 4d c5 1d be 93 08 3e 3e 25 64 f8 bd 38 9a a5 3c
       -0.15407296 0.18557958 -0.12128476 0.020215139
000310 15 b8 6d 3e 12 0c ee bc 0b b5 bc 3d 0c 1a 6c 3e
       0.23214753 -0.02905849 0.09214219 0.23056811
000320 71 be 07 3e 6a ff 83 3d 92 41 fb be c7 8f 26 3e
       0.13256241 0.06445201 -0.49073464 0.16265784
000330 53 d5 c0 be 52 a8 55 3b 9f 34 07 3d 32 6c 55 bf
       -0.37662753 0.0032601547 0.033009168 -0.8336822
000340 f3 63 48 3e 4c 4f 60 3e 0f 2b ea bd 21 93 3a bd
       0.19569378 0.2190525 -0.11433994 -0.04555047
000350 29 ef c5 3e aa c2 70 bf 30 bc 22 3e 31 12 56 3e
       0.38659027 -0.94047034 0.158921 0.20905377
000360 ac f7 41 3e cd 9d 7e 3e 74 fc 2b 3d c7 e1 6d 3e
       0.18942136 0.24864884 0.041988805 0.23230658
000370 e6 a6 01 3d df f1 29 3c da 1e 29 3e 52 35 d1 3d
       0.031653307 0.010372608 0.16515675 0.10215248
000380 64 ea 1f bd bc 8a 89 3e c6 46 8c bc 03 c1 a6 3d
       -0.03904189 0.26863658 -0.017123591 0.08142283
000390 aa 7f 5a 3c 68 82 31 3e cb db 0d 3c 82 91 19 3e
       0.013336102 0.17334902 0.00865836 0.14996913
0003a0 7e f2 2a 3e f4 64 0e bc a2 f9 08 bf 53 0d 41 3e
       0.16694066 -0.008691061 -0.5350591 0.18852739
0003b0 48 e2 10 be 5a db ec bd 87 45 4d 3e 93 e9 18 bf
       -0.1414882 -0.115652755 0.20046054 -0.59731406
0003c0 4e c5 57 3e 58 04 39 3d 88 1e d0 3b da 78 40 bd
       0.2107136 0.04517016 0.006351296 -0.046990253
0003d0 4b 70 95 3e f7 a6 91 be b2 de 7c 3e 04 56 36 3e
       0.29187235 -0.28447697 0.24694327 0.1780625
0003e0 6a 1e 3f 3e 84 a1 9f 3d 65 29 27 3e 60 2f 76 3e
       0.18663946 0.077944785 0.16324385 0.2404151
0003f0 db 3e 66 3c 74 13 42 3e 9c 82 a9 3d 0e df 97 3e
       0.014053072 0.18952733 0.08276865 0.29662365

linear_relu_stack.4.bias f4 [32]
000000 53 82 02 3e d3 b6 75 bd ac db a4 3d 85 04 1b bc
       0.12745027 -0.059988808 0.080497116 -0.009461527
000010 b1 a3 de 3d 68 15 ab bd 4c 48 15 3e fe f4 d5 3d
       0.108710654 -0.08353692 0.1457836 0.10447119
000020 96 9b 30 3d e7 27 e5 bc aa 0b dc 3d e0 ce 96 3d
       0.04311713 -0.027973128 0.10744412 0.07363677
000030 36 04 c4 bd c8 07 22 3e ec 7c e5 bd e1 93 1f 3d
       -0.09571116 0.15823281 -0.112054676 0.038959388
000040 bb 32 35 3d ba 16 0b 3d a3 0e 6e 3d 10 6a c6 3d
       0.044237833 0.03395722 0.058119427 0.096881986
000050 ed 50 0c be 26 78 6d 3e 69 ed e8 bd ce 1b 3f 3e
       -0.13702746 0.23190364 -0.113734074 0.1866295
000060 51 d9 f2 3d 9c b3 a2 3d d2 ee ba 3d a0 a6 2b bc
       0.11857856 0.07944414 0.091275826 -0.010476738
000070 18 e5 11 3d b8 d2 2b 3d 48 97 0a be 32 b4 c5 bd
       0.03561887 0.041949004 -0.13534272 -0.0965351

linear_relu_stack.6.weight f4 [2, 32]
000000 13 0f a3 3e df b7 41 b9 2a 2b a8 bd 34 fa b4 3d
       0.31847438 -0.00018474412 -0.08211358 0.08836785
000010 75 c9 9f 3e cd 64 b3 bc ad eb 9f 3e fa c4 5e 3e
       0.31208387 -0.021898651 0.31234494 0.21754828
000020 bb 33 9a 3e 45 ec 8e 3d c8 93 24 bd 19 66 77 3e
       0.30117592 0.069786586 -0.040179998 0.24160041
000030 c4 ac d0 3c 14 73 a3 3e dd ad 8f bc 44 62 92 be
       0.025473006 0.31923735 -0.01753896 -0.28590596
000040 9b ec 97 bd 1b 8c 16 bf cf 89 20 be 48 91 f6 bf
       -0.07418176 -0.58807534 -0.1567757 -1.9263086
000050 a2 21 3e 3d cd 39 69 3e 8e 44 78 bf f9 0f 24 3e
       0.046418793 0.22775955 -0.96979606 0.16021718
000060 e6 69 ac 3d 5f 60 8d 3e 63 23 8f 3e 55 fd eb 3d
       0.08418636 0.27612588 0.27956685 0.115229286
000070 2d da 48 3c 61 a2 34 3e fd fd 9a be dc ac 04 bf
       0.012259048 0.17640068 -0.30271903 -0.5182626
000080 52 01 ac 3d cd 1e e6 3d 23 0b 8f bd 74 54 08 3d
       0.08398689 0.112363435 -0.06984546 0.033283666
000090 a3 8a e5 3d bc 90 f1 3d d6 28 ab 3e ae d1 57 3e
       0.112080835 0.11795184 0.33429593 0.2107608
0000a0 5f 8a c7 3e 68 5d 24 c0 30 a1 24 be 6c 0c 5e 3e
       0.38972756 -2.568201 -0.16077113 0.21684426
0000b0 85 cd bf 3c ae d4 18 3e 4e 0a ff bd b0 87 c8 be
       0.023413429 0.14924881 -0.12453137 -0.3916602
0000c0 ec e5 04 bd 27 97 87 bf 0d 16 c1 be 7a 0e 79 be
       -0.032445833 -1.0593003 -0.37712136 -0.24321929
0000d0 16 05 0a 3d 9b 23 34 3e 52 96 6c 3d 5f 26 b9 3e
       0.033696257 0.17591707 0.057760544 0.36162087
0000e0 3a 81 80 3e 20 65 7b 3e 2d f7 aa 3e d5 6b 4f bd
       0.25098592 0.24550295 0.33391705 -0.050639946
0000f0 4c 21 80 bd 11 8d 9a 3e 9d 6a 83 bf b0 0b ac bf
       -0.06256351 0.3018575 -1.0266911 -1.3441067

linear_relu_stack.6.bias f4 [2]
000000 49 f9 28 bc 8c 3e 27 3d
       -0.01031334 0.040831134
