policy_net_Pendulum-v1.pt (torch, 11124 bytes, 8 tensors)

linear1.weight f4 [32, 3]
-0.049471922 0.033869036 0.52502656 -0.24656245 0.17518061 0.325146 0.2802293 0.084328964
-0.24121213 -0.12605132 0.09128959 -0.16535142 -0.28370503 -0.2764766 -0.05969886 0.21344896
0.118043296 -0.19236247 -0.28733099 0.105204515 -0.23005682 0.22344072 0.18120188 0.021956801
0.26489642 0.49366495 -0.15356551 0.46764687 -0.07290792 -0.051877487 -0.08406096 0.16169064
-0.093513526 -0.22821203 -0.016342496 -0.36495143 0.10358857 -0.12923509 -0.2160825 0.20974526
-0.12723725 -0.03798072 -0.2667438 -0.087321825 0.16645057 -0.0065530753 0.03858333 -0.22446147
-0.6434108 -0.2286073 -0.43757096 0.07039307 -0.19322492 -0.23767205 0.34879178 0.39858183
0.4353892 -0.37742946 0.18947183 0.26761767 -0.26985738 -0.39142933 0.26567948 -0.024277652
-0.013476393 -0.6664908 0.030126588 -0.38245305 0.042721882 -0.06274663 0.09009053 -0.027776904
-0.41943663 0.0707417 -0.1112091 0.08511808 0.09347235 0.004567963 0.245834 0.22984914
-0.014829674 -0.05537967 -0.12199889 -0.025858399 0.049683075 0.13024372 -0.4516142 0.31223425
0.14487799 0.15712295 0.12045309 -0.07874619 -0.2171182 0.17747372 -0.17122048 0.2846233
00000000: 12a3 4abd 42ba 0a3d 2468 063f de7a 7cbe
00000010: 8c62 333e 8979 a63e 377a 8f3e aab4 ac3d
00000020: 5000 77be 9913 01be 09f6 ba3d e251 29be
00000030: c941 91be 578e 8dbe cb86 74bd 5d92 5a3e
00000040: afc0 f13d abfa 44be 0c1d 93be 7775 d73d
00000050: 0494 6bbe a5cd 643e fc8c 393e c0de b33c
00000060: 81a0 873e a7c1 fc3e 4740 1dbe 696f ef3e
00000070: bf50 95bd 7d7d 54bd 2728 acbd 3b92 253e
00000080: 0584 bfbd 6ab0 69be b3e0 85bc eada babe
00000090: 3f26 d43d 3456 04be bb44 5dbe 76c7 563e
000000a0: 7b4a 02be ac91 1bbd a592 88be c9d5 b2bd
000000b0: 0572 2a3e 2ebb d6bb 8e09 1e3d 3ad9 65be
000000c0: 92b6 24bf 0818 6abe 4d09 e0be 3e2a 903d
000000d0: c1dc 45be 4d60 73be d694 b23e eb12 cc3e
000000e0: 55eb de3e 6f3e c1be e704 423e 2f05 893e
000000f0: bf2a 8abe 6d69 c8be 2407 883e ede1 c6bc
00000100: 17cc 5cbc 249f 2abf 09cc f63c e3d0 c3be
00000110: 24fd 2e3d 4e81 80bd 6281 b83d 648c e3bc
00000120: 66c0 d6be 06e1 903d 99c1 e3bd 6352 ae3d
00000130: 6e6e bf3d daae 953b e8bb 7b3e 935d 6b3e
00000140: 29f8 72bc cbd5 62bd 8eda f9bd fed4 d3bc
00000150: 7b80 4b3d 9c5e 053e fa39 e7be 2bdd 9f3e
00000160: e55a 143e d7e4 203e 1cb0 f63d af45 a1bd
00000170: 3c54 5ebe acbb 353e 6c54 2fbe 25ba 913e

linear1.bias f4 [32]
-0.42772022 -0.3709819 -0.047353867 0.24566647 -0.37544402 0.19510058 -0.14850208 -0.12935644
0.011787637 0.29949835 -0.015778383 0.50154847 -0.01393357 -0.10699424 -0.106333256 0.5562107
-0.18221627 -0.062872894 -0.010944387 -0.47367677 0.40891194 -0.2620294 0.23066051 0.022194404
-0.17483696 -0.09051258 -0.060916442 -0.3549568 -0.09138701 -0.2066251 -0.23322341 0.2610012
00000000: 25fe dabe 57f1 bdbe 21f6 41bd fe8f 7b3e
00000010: 333a c0be 72c8 473e ee10 18be 0476 04be
00000020: ef20 413c d957 993e ab41 81bc 7b65 003f
00000030: a149 64bc cc1f dbbd 40c5 d9bd d363 0e3f
00000040: e796 3abe 81c3 80bd 1650 33bc c385 f2be
00000050: e85c d13e b828 86be 4532 6c3e 0ad1 b53c
00000060: 7608 33be a95e b9bd 8583 79bd e6bc b5be
00000070: 1d29 bbbd 8895 53be 1ed2 6ebe f3a1 853e

linear2.weight f4 [32, 32]
-0.35322326 0.06806425 -0.041672148 -0.046916995 -0.060926918 -0.06327333 0.09854051 -0.108891055
0.15778229 -0.07364171 0.14281379 0.19326335 0.005905868 -0.01891451 -0.10294225 -0.17551413
0.10935955 -0.050232936 0.1256362 0.074258454 -0.033392582 -0.15448356 -0.37356094 0.14284234
0.107169196 -0.019987578 -0.38290542 0.5350885 -0.09372511 0.19752462 -0.048398174 -0.08196639
0.50548583 -0.22859469 0.028863017 0.02100569 0.11701601 0.31664795 0.120422386 0.0062383516
0.0057102283 -0.11234417 -0.10194566 0.030525535 0.023540964 -0.17447445 0.028651474 -0.059861854
-0.27551663 0.079404704 -0.2144416 0.30570173 0.3730426 -0.012716133 -0.326669 -0.16310693
0.062560156 0.08567255 -0.17138866 -0.06616965 0.30317038 0.215546 -0.085085385 0.31244484
0.1661423 -0.10133099 0.10012977 -0.11100286 0.11857171 -0.06059185 -0.22748615 0.01946066
0.11397623 -0.05260904 -0.022033988 0.20604262 0.14337948 0.03262816 -0.18284321 -0.0630183
0.42457053 -0.15549424 -0.028291553 -0.046066493 -0.045058053 -0.16526847 0.1107503 -0.10986737
-0.11730258 0.09755152 -0.3064681 0.10569286 0.32903326 0.042985167 0.38706446 -0.024036696
0.06483451 0.42470732 0.14143558 0.075243525 0.124691196 -0.007383942 -0.20137054 0.13779096
-0.21546029 0.08073334 -0.034675423 -0.06256669 -0.08726904 -0.096848994 0.13538861 -0.046913788
-0.18679588 -0.10874178 0.2781205 -0.11523483 0.22919229 0.08173182 0.17629191 0.30646437
0.22836469 0.29254955 0.1926589 -0.027303813 -0.07957677 -0.33268338 0.03809119 0.18180744
-0.025955185 0.06662978 -0.00059154886 0.12616093 0.06269862 -0.3660659 -0.045497533 0.04598849
0.048697356 0.340246 -0.15865706 0.10194855 0.19495152 0.065822035 -0.12102075 -0.038852897
0.2523355 -0.21183997 0.05175715 0.018023532 0.32925874 -0.13833699 0.055112146 -0.07212617
0.045560494 0.035623185 0.12567155 0.07807482 -0.31142113 -0.039578486 -0.232212 0.4227066
0.37699237 0.0758639 0.13058858 -0.055206202 0.10265694 -0.29121503 -0.016619371 -0.078830145
0.13608757 0.17555301 -0.03925448 -0.031482317 0.42983082 -0.48761353 0.09060741 0.2767963
-0.06870747 0.10330882 0.1681271 0.0600112 -0.0026468704 -0.25800765 0.07158916 -0.12798321
-0.008694826 -0.18495028 0.12438244 0.060874537 -0.05983165 -0.14786899 0.09041211 0.20490372
-0.08531033 -0.036182825 0.21414392 -0.2991369 -0.075116105 0.16712081 -0.013586492 0.3437686
0.15236287 0.059213657 0.074022524 0.23638387 0.14152254 -0.16279596 -0.35067832 0.30104157
-0.012276599 -0.20927443 0.14338693 0.115521155 0.010607978 0.24023707 -0.23449594 -0.057713885
-0.050150372 -0.2503591 0.11250338 0.10170553 0.18933912 0.06909363 -0.07516198 -0.02236256
0.041057225 0.09605606 0.092797935 0.16183579 0.223589 0.2053528 0.1699591 -0.0800273
0.075887494 -0.09012591 0.11266573 -0.18132111 0.17443946 0.019369962 0.2909325 0.3192481
0.041342195 0.09810238 0.51463073 -0.2937526 -0.01973247 0.043514866 -0.20457526 -0.08501491
0.19861071 0.37031993 -0.1179185 -0.078988664 -0.080182776 -0.01775 -0.15687619 0.028280685
00000000: aed9 b4be 4565 8b3d 6ab0 2abd 092c 40bd
00000010: 818e 79bd 7395 81bd 9bcf c93d 4602 dfbd
00000020: ae91 213e 77d1 96bd c73d 123e d4e6 453e
00000030: 0386 c13b 9af2 9abc 63d3 d2bd fab9 33be
00000040: e6f7 df3d 0dc1 4dbd c7a6 003e d114 983d
00000050: a9c6 08bd f030 1ebe 6143 bfbe 4345 123e
00000060: 867b db3d fdbc a3bc 2e0c c4be 8ffb 083f
00000070: f3f2 bfbd e543 4a3e 2a3d 46bd ffdd a7bd
00000080: 8567 013f ba14 6abe 2272 ec3c 2014 ac3c
00000090: 17a6 ef3d ae1f a23e 03a0 f63d 166b cc3b
000000a0: de1c bb3b b314 e6bd e3c8 d0bd b010 fa3c
000000b0: fbd8 c03c 6ea9 32be 7fb6 ea3c b431 75bd
000000c0: 8410 8dbe ef9e a23d 9496 5bbe f084 9c3e
000000d0: 71ff be3e 5457 50bc 2941 a7be 8105 27be
000000e0: 8a1f 803d 1775 af3d 8280 2fbe f483 87bd
000000f0: 2639 9b3e 17b8 5c3e 3f41 aebd c5f8 9f3e
00000100: 3521 2a3e 9f86 cfbd d610 cd3d 7855 e3bd
00000110: bad5 f23d 292f 78bd 21f2 68be f66b 9f3c
00000120: 5f6c e93d 947c 57bd 9f80 b4bc d6fc 523e
00000130: 12d2 123e 1ba5 053d 403b 3bbe bd0f 81bd
00000140: 4f61 d93e e239 1fbe b0c3 e7bc 38b0 3cbd
00000150: cb8e 38bd 233c 29be 0ed1 e23d 2502 e1bd
00000160: 563c f0bd 17c9 c73d 63e9 9cbe 8075 d83d
00000170: 0c77 a83e 3711 303d 502d c63e 9be8 c4bc
00000180: f5c7 843d 3d73 d93e 7dd4 103e 4719 9a3d
00000190: 195e ff3d fff4 f1bb 1434 4ebe 1319 0d3e
000001a0: 9fa1 5cbe 8557 a53d d107 0ebd f722 80bd
000001b0: 1cba b2bd c458 c6bd 50a3 0a3e ac28 40bd
000001c0: 6b47 3fbe 03b4 debd cf65 8e3e 3d00 ecbd
000001d0: 62b1 6a3e 0363 a73d de85 343e e6e8 9c3e
000001e0: 6fd8 693e 0ec9 953e 6048 453e 3fac dfbc
000001f0: 25f9 a2bd 7a55 aabe 8205 1c3d bb2b 3a3e
00000200: f89f d4bc 3275 883d 2c12 1bba 5530 013e
00000210: 2268 803d fd6c bbbe 9f5b 3abd 6d5e 3c3d
00000220: e176 473d b934 ae3e ff76 22be 67ca d03d
00000230: 5fa1 473e b4cd 863d bad9 f7bd 3724 1fbd
00000240: 1e32 813e 94ec 58be 4eff 533d 16a6 933c
00000250: 9a94 a83e 36a8 0dbe 46bd 613d e3b6 93bd
00000260: a49d 3a3d 9ee9 113d 0bb0 003e b1e5 9f3d
00000270: 9772 9fbe 0d1d 22bd fcc8 6dbe 006d d83e
00000280: 2505 c13e 885e 9b3d 03b9 053e e61f 62bd
00000290: cd3d d23d 231a 95be 5925 88bc b371 a1bd
000002a0: 8a5a 0b3e 2bc4 333e 4ec9 20bd 9af3 00bd
000002b0: c912 dc3e 7ba8 f9be 6190 b93d 3fb8 8d3e
000002c0: 81b6 8cbd 9393 d33d 8329 2c3e 4ece 753d
000002d0: 1e77 2dbb 9419 84be 569d 923d 080e 03be
000002e0: be74 0ebc 9b63 3dbe 38bc fe3d 9457 793d
000002f0: 0812 75bd f86a 17be fc29 b93d 48d2 513e
00000300: 2fb7 aebd 7134 14bd 8b48 5b3e 7928 99be
00000310: 79d6 99bd b821 2b3e e199 5ebc 7002 b03e
00000320: 0305 1c3e 058a 723d 1f99 973d 9d0e 723e
00000330: 49eb 103e fcb3 26be 1c8c b3be 1f22 9a3e
00000340: ca23 49bc 094c 56be 06d4 123e 5b96 ec3d
00000350: 16cd 2d3c b500 763e b41f 70be 6565 6cbd
00000360: 7a6a 4dbd 112f 80be 2c68 e63d fd4a d03d
00000370: 1de2 413e f680 8d3d 86ee 99bd b031 b7bc
00000380: 9f2b 283d 0ab9 c43d d80c be3d 48b8 253e
00000390: 84f4 643e 0148 523e c209 2e3e 5ae5 a3bd
000003a0: e76a 9b3d ef93 b8bd 4abd e63d 3eac 39be
000003b0: 42a0 323e c1ad 9e3c 1bf5 943e 7d74 a33e
000003c0: 6f56 293d e7e9 c83d d7be 033f be66 96be
000003d0: fda5 a1bc a53c 323d 2d7c 51be 4c1c aebd
000003e0: 9b60 4b3e 939a bd3e 417f f1bd cfc4 a1bd
000003f0: de36 a4bd 7368 91bc 27a4 20be e5ac e73c

linear2.bias f4 [32]
-0.10779816 -0.118437864 -0.13208336 0.074733846 0.17267066 0.11212365 -0.07164754 -0.13120751
-0.10527947 0.06424183 -0.07864353 0.12895742 0.078190364 0.15642475 -0.07377199 -0.066780314
0.077324905 0.11313098 0.10267545 0.11388061 -0.18845692 0.11337456 0.12148454 -0.12508951
0.068825044 -0.06472961 0.13494614 0.06670895 -0.065208934 -0.036070317 -0.12275585 0.062049165
00000000: 48c5 dcbd 8d8f f2bd dc40 07be 0f0e 993d
00000010: 94d0 303e 16a1 e53d f2bb 92bd 435b 06be
00000020: c39c d7bd 3891 833d dc0f a1bd 6a0d 043e
00000030: 4522 a03d cf2d 203e c515 97bd 1ec4 88bd
00000040: 855c 9e3d 37b1 e73d 8247 d23d 3d3a e93d
00000050: dafa 40be ec30 e83d e3cc f83d 7717 00be
00000060: 25f4 8c3d f590 84bd 522f 0a3e b49e 883d
00000070: 438c 85bd 78be 13bd 6b67 fbbd 4427 7e3d

linear3.weight f4 [16, 32]
-0.21149679 -0.21537569 -0.31741145 0.0610701 0.103666246 0.44078568 -0.089304276 0.44311163
0.033533942 -0.33693698 0.0055150553 0.12255816 0.08295216 -0.16239032 0.0067483927 0.3864319
0.06796185 -0.24880585 -0.097931154 -0.16025886 -0.11766004 -0.11256962 -0.22788909 -0.14685164
-0.019228166 0.20172124 -0.08711958 -0.3528071 -0.18726219 0.28485888 -0.422543 -0.09693565
0.009545598 0.31152844 0.10953559 -0.30776536 0.20045486 0.18630897 -0.14717983 -0.029049516
0.28035685 0.07182558 0.18740705 -0.17753834 -0.6656559 -0.3848888 -0.13609093 -0.45134848
0.04999111 0.24597263 0.08333189 -0.0072091 -0.055612598 -0.07600957 0.2643879 0.2795774
-0.432684 -0.2788466 -0.12386112 -0.02398999 -0.42856392 0.24043114 -0.10541308 0.19949733
-0.32558775 -0.05803751 -0.13786618 0.052933745 -0.5328208 0.30941364 0.136755 -0.042557415
0.02727484 0.06445656 -0.047863226 0.21980794 0.12895733 -0.15496704 -0.025133243 -0.054646514
0.037174568 0.043539867 -0.1553333 0.10774354 0.20453906 0.02736822 0.083534144 -0.12688585
0.44248673 0.09398585 -0.20266001 -0.4655624 0.13981628 0.2546934 0.006174179 0.065483056
-0.017701292 0.08506226 -0.26655346 -0.26839793 0.088262275 -0.23267448 0.0028921808 -0.5693085
-0.18179235 0.0483009 -0.24153963 -0.48343962 -0.14334938 0.15486525 -0.0039168154 -0.03608693
-0.31649047 -0.0042696195 -0.3634159 0.11840936 -0.025243388 -0.17170122 -0.20862451 -0.5025706
0.0973865 -0.1895197 0.24385388 -0.22275655 -0.1126835 -0.1384251 -0.033243984 -0.13034546
-0.14631234 0.47745258 0.05040274 0.15165623 -0.23857807 0.0063810083 -0.078155085 0.32631764
-0.15417302 0.14760081 0.17710681 0.23717289 0.15960403 -0.1163544 0.055218946 -0.21210058
-0.40083528 0.18455815 0.2358405 0.056308124 0.12994933 -0.096838646 0.0784152 0.278374
0.30611813 -0.36402547 -0.12924556 0.29911926 -0.062496945 -0.14062394 0.42084253 -0.023452409
0.063804954 0.17665495 -0.14792296 0.4921364 0.008812038 0.21137105 -0.1570321 -0.10883365
0.14443184 0.07803111 0.4369248 0.1874386 -0.057543125 0.11290759 0.078436874 0.16406572
-0.17289905 0.23951936 -0.17969728 0.33682975 -0.21916947 0.21805668 -0.13828188 0.0198918
-0.05428882 0.43233386 -0.14329487 0.24564669 -0.073244914 0.16146293 -0.02713356 0.44412547
-0.25838417 0.13028225 0.08162432 0.05016393 -0.24914025 0.0696251 0.12824625 0.31991547
-0.040023375 0.20470455 -0.027112912 0.08662613 -0.038053636 -0.052857645 -0.07577373 -0.25208724
-0.13142486 -0.13607898 -0.16713731 0.032810062 -0.047076248 -0.3787555 0.00019293968 -0.3355979
-0.14954071 -0.015923146 -0.34784356 -0.10957242 0.14312947 -0.08031373 -0.21761595 -0.14443317
0.46365258 0.15113291 0.015429499 0.13383727 0.1716635 -0.27559268 0.36890486 -0.16164558
0.062454015 0.038398895 0.25625283 0.12547474 0.17738971 0.15442036 0.09956783 -0.11697969
-0.03941529 0.096798174 0.27002054 -0.37971458 0.083336994 0.035768088 -0.054788113 -0.55340016
0.052545756 -0.17122218 0.19894563 0.3244826 -0.18706456 0.2948753 0.044693775 -0.039333437
00000000: 9d92 58be 728b 5cbe c183 a2be a424 7a3d
00000010: f84e d43d a9ae e13e 29e5 b6bd 87df e23e
00000020: e35a 093d 0183 acbe a3b7 b43b c6ff fa3d
00000030: d2e2 a93d a649 26be 9f21 dd3b 67da c53e
00000040: 952f 8b3d f6c6 7ebe 2190 c8bd e61a 24be
00000050: bff7 f0bd e78a e6bd c25b 69be 4760 16be
00000060: 6384 9dbc 0390 4e3e c06b b2bd 22a3 b4be
00000070: a9c1 3fbe 06d9 913e 8e57 d8be 3386 c6bd
00000080: 2465 1c3c a880 9f3e 3254 e03d 6c93 9dbe
00000090: 0a44 4d3e c7c7 3e3e 4fb6 16be 40f9 edbc
000000a0: ef8a 8f3e 4a19 933d a2e7 3f3e 9ccc 35be
000000b0: 6d68 2abf 2510 c5be 6c5b 0bbe 2617 e7be
000000c0: 7ac3 4c3d 40e0 7b3e e9a9 aa3d 503a ecbb
000000d0: 09ca 63bd e8aa 9bbd da5d 873e c524 8f3e
000000e0: c288 ddbe fbc4 8ebe e6aa fdbd a886 c4bc
000000f0: bb6c dbbe 9533 763e d0e2 d7bd 0749 4c3e
00000100: 70b3 a6be bdb8 6dbd cb2c 0dbe 0ed1 583d
00000110: f266 08bf 776b 9e3e 8109 0c3e af50 2ebd
00000120: 7c6f df3c cd01 843d 3b0c 44bd 5515 613e
00000130: 640d 043e aeaf 1ebe 3be4 cdbc 06d5 5fbd
00000140: 5c44 183d dc56 323d b10f 1fbe a5a8 dc3d
00000150: b072 513e 5133 e03c f313 ab3d 5dee 01be
00000160: 9f8d e23e a77b c03d 1b86 4fbe 325e eebe
00000170: 002c 0f3e 2c67 823e c450 ca3b fb1b 863d
00000180: 4d02 91bc 1f35 ae3d b279 88be 746b 89be
00000190: dac2 b43d 3842 6ebe be8a 3d3b 34be 11bf
000001a0: c627 3abe 2ad7 453d 2a56 77be 6685 f7be
000001b0: 2eca 12be ff94 1e3e a158 80bb e4cf 13bd
000001c0: 0a0b a2be 2ae8 8bbb a611 babe 9b80 f23d
000001d0: 39cb cebc 72d2 2fbe aaa1 55be 78a8 00bf
000001e0: 9372 c73d 7411 42be d5b4 793e 4b1a 64be
000001f0: 9bc6 e6bd 4fbf 0dbe d82a 08bd 4879 05be
00000200: e7d2 15be aa74 f43e 1a73 4e3d c54b 1b3e
00000210: cf4d 74be c717 d13b c60f a0bd 1b13 a73e
00000220: 88df 1dbe ab24 173e 7d5b 353e 73dd 723e
00000230: 3d6f 233e 374b eebd 432d 623d e530 59be
00000240: 483a cdbe d0fc 3c3e 2c80 713e 59a3 663d
00000250: 7011 053e 5753 c6bd 2698 a03d 0987 8e3e
00000260: 84bb 9c3e 8c61 babe f358 04be 2926 993e
00000270: ccfc 7fbd b9ff 0fbe ac78 d73e 441f c0bc
00000280: 2cac 823d 09e5 343e 1e79 17be 4df9 fb3e
00000290: 5e60 103c a771 583e 06cd 20be 2de4 debd
000002a0: f1e5 133e c6ce 9f3d 9bb4 df3e e8ef 3f3e
000002b0: 57b2 6bbd 183c e73d 83a3 a03d d800 283e
000002c0: 730c 31be 9044 753e 9002 38be f374 ac3e
000002d0: f66d 60be 404a 5f3e c499 0dbe 21f4 a23c
000002e0: f45d 5ebd dd5a dd3e e4bb 12be ce8a 7b3e
000002f0: 6e01 96bd 8a56 253e 3347 debc 6a64 e33e
00000300: ee4a 84be b668 053e a72a a73d b178 4d3d
00000310: 9f1e 7fbe 9b97 8e3d fc52 033e f6cb a33e
00000320: 8def 23bd 129e 513e e61b debc 0a69 b13d
00000330: 21de 1bbd 4281 58bd 422f 9bbd 9411 81be
00000340: 3d94 06be 4a58 0bbe 0b26 2bbe d863 063d
00000350: 06d3 40bd 3eec c1be da4f 4a39 7dd3 abbe
00000360: 3321 19be 4271 82bc 8d18 b2be 8167 e0bd
00000370: 8890 123e 867b a4bd b7d6 5ebe 4ae6 13be
00000380: df63 ed3e 96c2 1a3e 02cc 7c3c a30c 093e
00000390: 8ec8 2f3e 7c1a 8dbe 19e1 bc3e 6b86 25be
000003a0: c8cf 7f3d 2948 1d3d 9233 833e 737c 003e
000003b0: a6a5 353e 5f20 1e3e 38ea cb3d 0c93 efbd
000003c0: ed71 21bd 1f3e c63d 2240 8a3e f369 c2be
000003d0: 96ac aa3d 8f81 123d 8069 60bd a2ab 0dbf
000003e0: 383a 573d de54 2fbe 67b8 4b3e 9522 a63e
000003f0: da8d 3fbe e5f9 963e d210 373d 191c 21bd

linear3.bias f4 [16]
0.084839106 0.11773086 0.029872268 -0.11239852 -0.015055552 0.16546433 0.036242276 -0.023264444
-0.076309524 -0.07795915 0.088059574 -0.0045870864 0.1916296 -0.16240123 0.11153922 0.109585926
00000000: 20c0 ad3d e11c f13d b0b6 f43c 3231 e6bd
00000010: 90ab 76bc 7b6f 293e c872 143d 1395 bebc
00000020: 2b48 9cbd 0ca9 9fbd 9458 b43d 454f 96bb
00000030: 8d3a 443e 824c 26be ad6e e43d 966e e03d

output_layer.weight f4 [11, 16]
-0.090765476 -0.19861107 0.5620328 0.34149352 -0.07118644 0.19772395 -0.012339412 0.022454718
0.06625762 0.20907322 0.045375433 0.065837815 -0.40952834 0.22179118 0.09367714 -0.28038242
0.046222433 0.31433967 0.09232328 -0.11386631 -0.3905326 0.2996263 -0.44831875 -0.19796298
0.028800422 0.026122278 0.11097524 0.5159086 0.1748885 0.07296526 -0.10077513 -0.6184299
-0.15715875 0.30199635 0.4013015 0.35921293 0.37514374 0.09643049 0.15611684 -0.37046918
-0.24002506 0.47000706 -0.19611761 0.41455814 0.10034269 0.16831255 -0.17424953 0.13384339
-0.30652636 0.32822692 0.2641824 0.29254162 -0.011031479 0.36018398 0.38928604 -0.116279215
0.17600685 -0.081865266 0.51223123 -0.06968065 -0.11013883 -0.21181542 0.2585437 0.16221601
0.3403454 -0.19516204 0.04148458 -0.32495335 0.49027127 -0.3931172 0.03262608 -0.0246819
0.6627446 -0.25234488 -0.08220788 -0.033718217 -0.24792594 -0.061534397 -0.4494455 0.12134024
-0.54108447 0.48342916 0.034936033 0.11871372 0.112454176 0.09558354 -0.16699079 0.27874798
0.9016834 -0.3888029 0.15605384 0.23871195 0.057662982 0.0135507975 0.022925938 -0.20316811
-0.21777397 0.12426583 -0.56022847 0.61495286 0.42345908 -0.16813275 -0.4994943 0.20915915
-0.15241733 -0.32720742 -0.5609842 0.18867403 -0.34315157 -0.32954356 0.8551419 -0.16088891
0.2988943 -0.46515727 -0.546768 0.81414753 0.043797158 0.26861784 -0.3956747 0.023150176
-0.29875714 -0.34242937 0.10247755 -0.2390458 -0.34564924 0.38859016 -0.50774777 0.12868041
0.0787836 -0.21495213 0.25951344 0.12633173 -0.061439965 -0.1523854 0.28415018 0.14189477
0.25936788 -0.31374624 0.19008027 0.44543824 0.3227846 -0.013786157 0.59777844 0.15882261
-0.35970107 -0.099715695 -0.3246708 0.061995294 -0.21882987 0.30909762 0.35919273 0.102043934
0.33814242 0.56691 -0.20937696 -0.31768975 0.0866675 0.083679594 0.1992939 -0.008651456
-0.18789797 0.110861205 -0.34544012 -0.2441686 -0.007843944 -0.26639962 0.08865761 -0.09612082
0.10826391 0.24065602 0.23887433 -0.06844169 -0.69761884 -0.06845377 -0.35302398 -0.33235785
00000000: 40e3 b9bd b360 4bbe 62e1 0f3f 3dd8 ae3e
00000010: 32ca 91bd 2678 4a3e 3f2b 4abc f5f2 b73c
00000020: 13b2 873d 4a17 563e 97db 393d fad5 863d
00000030: b3ad d1be 3a1d 633e cdd9 bf3d 498e 8fbe
00000040: bc53 3d3d 21f1 a03e fd13 bd3d bd32 e9bd
00000050: e4f3 c7be 9e68 993e 098a e5be cfb6 4abe
00000060: ddee eb3c 63fe d53c fd46 e33d 9612 043f
00000070: f915 333e cf6e 953d 3163 cebd 6c51 1ebf
00000080: 39ee 20be 449f 9a3e 6477 cd3e c2ea b73e
00000090: d712 c03e 597d c53d 18dd 1f3e 23ae bdbe
000000a0: 21c9 75be c4a4 f03e 0ed3 48be f740 d43e
000000b0: 7880 cd3d 205a 2c3e 786e 32be 3e0e 093e
000000c0: 06f1 9cbe 5c0d a83e ea42 873e 04c8 953e
000000d0: 60bd 34bc 096a b83e 8050 c73e cc23 eebd
000000e0: 243b 343e faa8 a7bd 9621 033f bbb4 8ebd
000000f0: 7890 e1bd 24e6 58be d75f 843e f41b 263e
00000100: c141 ae3e 8fd8 47be bceb 293d 4960 a6be
00000110: d604 fb3e a846 c9be eda2 053d b231 cabc
00000120: a1a9 293f 5933 81be 9b5c a8bd 1d1c 0abd
00000130: 4ce0 7dbe 7e0b 7cbd b81d e6be 3b81 f83d
00000140: 8384 0abf 0784 f73e 1619 0f3d 2e20 f33d
00000150: 604e e63d 4ec1 c33d a2ff 2abe 0eb8 8e3e
00000160: b9d4 663f 2c11 c7be 94cc 1f3e e870 743e
00000170: 0530 6c3d 2a04 5e3c 2dcf bb3c 4d0b 50be
00000180: 2400 5fbe 157f fe3d 226b 0fbf 8d6d 1d3f
00000190: a1cf d83e fe2a 2cbe b8bd ffbe d12d 563e
000001a0: 4a13 1cbe bb87 a7be a99c 0fbf c433 413e
000001b0: 90b1 afbe efb9 a8be 94ea 5a3f 10c0 24be
000001c0: ac08 993e 1829 eebe fdf8 0bbf f96b 503f
000001d0: a664 333d 4788 893e e095 cabe 70a5 bd3c
000001e0: b2f6 98be e752 afbe c0df d13d 6cc8 74be
000001f0: f0f8 b0be 4af5 c63e c2fb 01bf ccc4 033e
00000200: 4c59 a13d 691c 5cbe f2de 843e 1b5d 013e
00000210: 79a8 7bbd eb0a 1cbe 227c 913e dd4c 113e
00000220: decb 843e 59a3 a0be 67a4 423e 7b10 e43e
00000230: 0644 a53e 55df 61bc 0208 193f 65a2 223e
00000240: bd2a b8be be37 ccbd 403b a6be c7ee 7d3d
00000250: f014 60be 0b42 9e3e 1ce8 b73e 69fc d03d
00000260: 0121 ad3e 0421 113f ea66 56be 3ba8 a2be
00000270: bb7e b13d 3560 ab3d b313 4c3e d6be 0dbc
00000280: 5368 40be 330b e33d 87dd b0be 5507 7abe
00000290: e383 00bc 8865 88be 1f92 b53d feda c4bd
000002a0: 78b9 dd3d 886e 763e 799b 743e 282b 8cbd
000002b0: 2697 32bf 7d31 8cbd 8fbf b4be cf2a aabe

output_layer.bias f4 [11]
-0.1341572 0.14701816 0.051613122 0.113601044 0.051179837 0.15236966 0.13191538 0.015421916
0.013247557 -0.06715199 -0.27678058
00000000: 8160 09be ee8b 163e 4868 533d aaa7 e83d
00000010: f3a1 513d cb06 1c3e d314 073e 34ac 7c3c
00000020: 480c 593c fc86 89bd 2fb6 8dbe
