policy_net_CartPole-v0.pt (torch, 10676 bytes, 8 tensors)

linear1.weight f4 [32, 4]
0.589914 -0.42693603 -0.16656077 -0.58802056 -0.011404193 0.2036968 0.20942007 -0.11007244
-0.061463833 0.21634565 0.06790261 0.023845376 0.041844945 0.06532527 -0.16565299 -0.31781706
-0.11304442 -0.41285837 -0.13856737 0.43275097 -0.08131981 0.021850219 0.10498179 0.34622368
0.22631866 0.14795563 0.29414803 -0.13147001 -0.011224299 -0.1904229 0.10254394 -0.22216648
-0.29291964 0.16217552 -0.019031936 -0.01593444 0.14681415 0.19467667 0.003963205 -0.13091221
0.4235931 0.02290248 -0.60326105 0.17670326 -0.17638908 -0.25701672 -0.27565375 0.17808962
-0.0025467866 0.026175985 0.2114984 0.24048313 -0.09524955 0.1391541 -0.27968016 0.15731028
-0.02445761 0.2826316 -0.08417386 0.34161013 0.2543548 0.15487558 0.16015822 0.078755945
-0.077897646 -0.067976765 0.25402775 0.5297554 -0.09200757 -0.017109342 0.40976653 -0.13518663
0.23138213 0.33279848 0.23154627 -0.10546152 0.028131073 -0.11953007 0.40430945 0.023573026
-0.09549386 -0.0064941123 -0.2991652 -0.20207503 0.13081466 -0.16637155 -0.16722012 -0.10243143
0.2608858 -0.162447 -0.21890596 0.16183658 -0.012518473 -0.10236188 -0.111554414 -0.47083563
-0.11292202 0.09017663 0.023479592 -0.44181603 0.3657873 -0.03572662 0.334433 0.18665609
-0.032812845 0.26757413 0.22914223 0.48382282 0.09992746 0.21083918 0.45148566 -0.16035944
-0.1876198 0.07808181 -0.38924474 -0.09295344 0.33897084 0.12702641 0.31342742 0.51702595
-0.19370092 0.06524494 -0.11038588 0.43392813 0.00917539 -0.12003024 0.30512813 0.33329308
00000000: 9b04 173f 5c97 dabe e88e 2abe 8488 16bf
00000010: a7d8 3abc e595 503e 3772 563e a96d e1bd
00000020: 80c1 7bbd b789 5d3e 8610 8b3d 6157 c33c
00000030: 9b65 2b3d 41c9 853d f0a0 29be ebb8 a2be
00000040: d583 e7bd 2c62 d3be 9be4 0dbe 8991 dd3e
00000050: 008b a6bd 3bff b23c b100 d73d 3b44 b13e
00000060: 14c0 673e ae81 173e 929a 963e 13a0 06be
00000070: 1fe6 37bc 38fe 42be 8f02 d23d 9c7f 63be
00000080: 90f9 95be 5711 263e dde8 9bbc f188 82bc
00000090: 7356 163e 5259 473e c6dd 813b da0d 06be
000000a0: 32e1 d83e fb9d bb3c 516f 1abf b3f1 343e
000000b0: 579f 34be b297 83be 7d22 8dbe 205d 363e
000000c0: fde7 26bb 056f d63c 0993 583e 3641 763e
000000d0: 3212 c3bd 6a7e 0e3e 3d32 8fbe f215 213e
000000e0: 535b c8bc 17b5 903e 5863 acbd 86e7 ae3e
000000f0: cb3a 823e b497 1e3e 8400 243e cc4a a13d
00000100: cd88 9fbd 6737 8bbd ed0f 823e 0d9e 073f
00000110: 776e bcbd e428 8cbc ebcc d13e 5d6e 0abe
00000120: 70ef 6c3e 9064 aa3e 771a 6d3e 36fc d7bd
00000130: 2373 e63c 2ecc f4bd a601 cf3e 381c c13c
00000140: 4992 c3bd 90cc d4bb 2e2c 99be c2ec 4ebe
00000150: 47f4 053e 4e5d 2abe c03b 2bbe 92c7 d1bd
00000160: d392 853e 8258 26be e228 60be 7db8 253e
00000170: 481a 4dbc 1ba3 d1bd a476 e4bd 5e11 f1be
00000180: a943 e7bd 86ae b83d 4658 c03c b635 e2be
00000190: 7948 bb3e 1456 12bd cd3a ab3e c622 3f3e
000001a0: c366 06bd 7aff 883e 43a4 6a3e a0b7 f73e
000001b0: c5a6 cc3d 3ae6 573e 2129 e73e 4435 24be
000001c0: 681f 40be 5be9 9f3d 164b c7be 605e bebd
000001d0: 968d ad3e 3613 023e 8f79 a03e d05b 043f
000001e0: 8959 46be 249f 853d fe11 e2bd d42b de3e
000001f0: 6054 163c 6ad2 f5bd c139 9c3e 64a5 aa3e

linear1.bias f4 [32]
0.34027252 -0.114479326 0.27068344 0.06358698 -0.1519199 0.21475963 -0.4360263 -0.04953546
-0.44294634 -0.25246775 -0.3248068 -0.14654376 -0.43782255 -0.4498275 -0.2624221 0.18867072
0.19017124 -0.13212986 -0.29924923 0.32451805 0.15339407 -0.23891146 -0.1879664 0.54966897
-0.3223582 -0.016465802 0.27490437 0.14592104 0.3632534 -0.09932586 0.3993964 0.19391887
00000000: 3338 ae3e 2374 eabd 0597 8a3e e439 823d
00000010: e490 1bbe f3e9 5b3e d73e dfbe b2e5 4abd
00000020: ddc9 e2be 7443 81be 144d a6be 910f 16be
00000030: 472a e0be ca4f e6be 315c 86be e632 413e
00000040: 40bc 423e 0d4d 07be 3237 99be 3b27 a63e
00000050: 5613 1d3e 35a5 74be 447a 40be 1bb7 0c3f
00000060: 220c a5be 4ae3 86bc 44c0 8c3e 536c 153e
00000070: 5afc b93e 5b6b cbbd af7d cc3e ab92 463e

linear2.weight f4 [32, 32]
-0.29651114 0.13579887 -0.09690891 -0.13183722 0.15229681 0.19647999 0.058139544 -0.06627531
-0.16098985 -0.36508474 0.023502799 -0.27574068 0.027460255 0.099505864 0.0013309134 -0.011126318
-0.03388367 0.13722005 0.24140649 -0.06830605 -0.05993584 0.17576839 0.046185713 -0.007820187
-0.06192158 0.50662756 0.31145707 -0.05147525 0.05633788 0.13026388 0.46670574 0.14958833
0.09792066 0.101980716 0.0972678 -0.37504876 -0.17314813 -0.107665524 0.16396713 -0.078876756
0.1249435 0.17021388 -0.031823605 -0.33089116 0.059669938 -0.14310463 0.06342226 0.059959237
-0.042186573 -0.28324813 0.197025 -0.1031425 0.4698437 0.10482119 -0.13554199 0.028087258
0.022391574 0.12562276 -0.01523807 -0.04678348 -0.16637236 -0.06679431 0.020657934 -0.03099761
0.11971112 -0.25178948 -0.21449023 0.31146574 0.008939969 -0.25293556 -0.13641195 0.06639149
-0.09709369 0.22762953 -0.09548823 0.05114507 0.0630926 -0.014691791 -0.09846471 0.048970018
-0.16771063 0.16000019 0.037173245 0.07046363 0.34832934 0.17289625 0.22748324 0.10378371
0.062392 0.27228433 -0.1272346 -0.21914881 0.30677783 0.06494464 -0.16310851 0.17765507
0.03687792 0.00801854 -0.15463325 0.071526505 0.3909748 0.15778545 -0.13605742 0.0014556615
-0.046906833 0.20367402 -0.016121011 0.0028309783 -0.038684346 -0.08530166 -0.47977793 0.12218572
0.114868775 0.2939622 0.12307015 -0.09761805 -0.041134696 -0.06703318 -0.033786006 -0.02783439
0.12727645 0.112124614 0.22060545 0.2705177 -0.058826704 0.2999498 -0.16750504 0.2470961
0.22560439 -0.11168609 -0.2952751 0.22516844 0.1867762 0.018676756 -0.1136175 0.06704037
0.27472717 0.11561345 0.026667453 0.070439585 -0.07590078 -0.21887627 -0.009962724 0.40946993
-0.08313975 0.42226923 -0.07613185 -0.19258219 0.2922992 -0.021819366 -0.31875336 0.1969278
0.2456621 0.15894657 -0.28244215 0.24730848 0.19960819 -0.166123 0.11264342 0.0019223777
-0.41693348 0.067550994 0.031921443 0.008538021 -0.06498735 0.12937409 -0.16706237 -0.18050309
-0.026816152 0.085055314 -0.17157409 -0.26203838 -0.042654753 -0.009800635 -0.0593026 0.25505862
0.0648463 0.0037976385 -0.1402991 -0.15893018 -0.176583 -0.0426601 -0.025229417 0.1337339
0.1230718 -0.2735298 0.018932309 0.20533155 0.15119871 0.07037446 0.2325999 -0.14591232
0.09822808 0.12264737 0.10855675 -0.24993674 0.013967545 0.15922232 0.15896983 0.16918653
-0.27842656 -0.1108665 -0.13559985 -0.026853494 0.34239802 0.16410644 0.23292027 0.2764131
0.19952072 0.0891595 0.17373845 0.07287892 0.08139752 0.21850725 -0.0044536465 -0.39773393
0.29918405 -0.100702226 0.3660784 0.066246144 0.10239489 0.1273296 0.011194504 0.22551687
0.069505185 -0.22580905 -0.27869043 0.051539328 0.0046349033 -0.1525816 0.021126777 0.20469886
0.13242047 -0.33687404 0.17501406 -0.029828172 0.30957064 0.044386867 -0.40943432 -0.2917159
-0.033806443 0.12896837 0.14371902 0.0032166324 0.122841835 0.05582099 -0.15605773 0.26530623
0.47166643 0.12408718 0.10380416 -0.27726406 0.11954535 0.079265036 -0.20493875 0.2261688
00000000: 4fd0 97be dc0e 0b3e 2e78 c6bd 5600 07be
00000010: b2f3 1b3e 0d32 493e bb23 6e3d 5abb 87bd
00000020: 86da 24be 63ec babe f188 c03c e22d 8dbe
00000030: 54f4 e03c bbc9 cb3d 0b72 ae3a 294b 36bc
00000040: 9ac9 0abd 6a83 0c3e 4333 773e 0be4 8bbd
00000050: 497f 75bd a1fc 333e 3b2d 3d3d 3e20 00bc
00000060: 7ca1 7dbd 58b2 013f 4d77 9f3e b6d7 52bd
00000070: 8dc2 663d e563 053e 0ef4 ee3e af2d 193e
00000080: a18a c83d 44db d03d 5734 c73d 6406 c0be
00000090: be4d 31be be7f dcbd 00e7 273e 238a a1bd
000000a0: 61e2 ff3d 8c4c 2e3e 7859 02bd 916a a9be
000000b0: 7768 743d 058a 12be 88e3 813d d197 753d
000000c0: d4cb 2cbd e605 91be ecc0 493e 603c d3bd
000000d0: 5a8f f03e 7eac d63d 85cb 0abe 4017 e63c
000000e0: 896e b73c 41a3 003e 19a9 79bc 09a0 3fbd
000000f0: 845d 2abe 75cb 88bd d43a a93c b3ee fdbc
00000100: 1b2b f53d 8dea 80be 54a3 5bbe 7078 9f3e
00000110: f378 123c c580 81be 93af 0bbe 43f8 873d
00000120: 0ed9 c6bd b717 693e 558f c3bd 7e7d 513d
00000130: b136 813d d6b5 70bc dea7 c9bd c994 483d
00000140: 56bc 2bbe 17d7 233e f942 183d 3c4f 903d
00000150: 3958 b23e b70b 313e 5ef1 683e 8e8c d43d
00000160: c18e 7f3d da68 8b3e c949 02be 8c68 60be
00000170: fc11 9d3e b201 853d eb05 27be 36eb 353e
00000180: 4d0d 173d 3260 033c 2e58 1ebe 7d7c 923d
00000190: d92d c83e 8292 213e a352 0bbe e5cb be3a
000001a0: 6121 40bd ec8f 503e 3610 84bc ef87 393b
000001b0: 7a73 1ebd a3b2 aebd 74a5 f5be 823c fa3d
000001c0: 5240 eb3d 3782 963e 340c fc3d f9eb c7bd
000001d0: db7c 28bd b148 89bd 3263 0abd f204 e4bc
000001e0: c254 023e 97a1 e53d 65e6 613e 4c81 8a3e
000001f0: 45f4 70bd 0593 993e 7186 2bbe c306 7d3e
00000200: d604 673e adbb e4bd 4c2e 97be 8e92 663e
00000210: 4342 3f3e ffff 983c 4bb0 e8bd 764c 893d
00000220: 0aa9 8c3e bfc6 ec3d b475 da3c a142 903d
00000230: de71 9bbd 1a21 60be b13a 23bc 0ba6 d13e
00000240: 2c45 aabd ac33 d83e 04eb 9bbd 4434 45be
00000250: 3ea8 953e 87be b2bc a433 a3be 71a7 493e
00000260: d88e 7b3e e4c2 223e 429c 90be 6f3e 7d3e
00000270: 1766 4c3e 261c 2abe 98b1 e63d 4bf8 fb3a
00000280: 4e78 d5be 2d58 8a3d 0fc0 023d 0ee3 0b3c
00000290: 1618 85bd a47a 043e 6612 2bbe cdd5 38be
000002a0: 8cad dbbc 7b31 ae3d 1eb1 2fbe e529 86be
000002b0: c0b6 2ebd d892 20bc 48e7 72bd 0b97 823e
000002c0: 23ce 843d cde1 783b 91aa 0fbe 98be 22be
000002d0: 2dd2 34be 5bbc 2ebd ecad cebc 8af1 083e
000002e0: 110d fc3d 190c 8cbe ee17 9b3c 6f42 523e
000002f0: d6d3 1a3e 7c20 903d ab2e 6e3e 0a6a 15be
00000300: ce2b c93d 8b2e fb3d 0053 de3d 6bef 7fbe
00000310: 21d8 643c 2d0b 233e fdc8 223e 3c3f 2d3e
00000320: ed8d 8ebe fa0d e3bd b0da 0abe dcfb dbbc
00000330: cb4e af3e 850b 283e a782 6e3e 0586 8d3e
00000340: 294f 4c3e 4299 b63d 7ee8 313e 8b41 953d
00000350: beb3 a63d 5dc0 5f3e e5ef 91bb c8a3 cbbe
00000360: a72e 993e f83c cebd a16e bb3e 0fac 873d
00000370: 69b4 d13d b162 023e 2769 373c e5ed 663e
00000380: bc58 8e3d 7d3a 67be 83b0 8ebe e71a 533d
00000390: 63e0 973b 5a3e 1cbe 1012 ad3c 949c 513e
000003a0: 3b99 073e c17a acbe e336 333e 365a f4bc
000003b0: 0b80 9e3e 01cf 353d 60a1 d1be c95b 95be
000003c0: a078 0abd 4910 043e 142b 133e 23ce 523b
000003d0: 8094 fb3d 8da4 643d 99cd 1fbe 38d6 873e
000003e0: 437e f13e 6b21 fe3d 4797 d43d 8ef5 8dbe
000003f0: 31d4 f43d b555 a23d 77db 51be cb98 673e

linear2.bias f4 [32]
0.1503245 0.051300585 0.09851247 0.14208321 0.0029266314 0.06413926 -0.0024956726 -0.029070774
-0.17466846 0.07553675 0.16126527 -0.16226198 0.14981522 -0.02203911 0.1442296 0.19446689
0.05439578 0.08482401 -0.08072684 0.04851411 0.1457152 0.032167546 0.0044873958 0.19779631
-0.019141972 -0.12650156 -0.09712511 -0.16425343 -0.0739709 0.05767655 0.008996712 0.06889943
00000000: aaee 193e 9020 523d e8c0 c93d 437e 113e
00000010: bacc 3f3b 725b 833d 708e 23bb d525 eebc
00000020: 4adc 32be 03b3 9a3d b922 253e 0128 26be
00000030: 2969 193e 5d8b b4bc edb0 133e 5422 473e
00000040: 1cce 5e3d 36b8 ad3d 1d54 a5bd bbb6 463d
00000050: 5e36 153e 1ec2 033d 010b 933b 1e8b 4a3e
00000060: a0cf 9cbc a089 01be 88e9 c6bd 0d32 28be
00000070: 0e7e 97bd 3f3e 6c3d f266 133c 251b 8d3d

linear3.weight f4 [16, 32]
0.0003418174 -0.018686589 -0.35687378 -0.023876077 0.013026094 0.14852224 -0.16047508 0.07463725
0.024417683 -0.09491716 0.031724915 -0.20602356 -0.14010662 0.30495983 -0.2315095 -0.22298686
-0.06001682 0.17886019 -0.31278068 0.07179189 -0.13812199 0.120084524 0.13878576 -0.07364508
-0.14603235 0.058798756 0.012391733 -0.42173028 0.14931473 -0.10946284 -0.15180215 -0.060240537
0.41468722 0.065464 -0.12230571 0.69879425 -0.08392908 0.0035007775 0.07046504 -0.10378642
0.501228 -0.01480187 0.11435929 -0.06600538 0.044595215 -0.2955073 -0.16104504 0.012180108
0.24466491 0.108837366 -0.18391699 0.3085528 -0.22025383 -0.16781701 0.22316982 -0.24934301
-0.039211135 0.026151579 -0.028694492 0.057130888 -0.08669432 0.6368772 0.15237023 -0.26779887
0.21471176 0.21641357 0.16023007 -0.063532144 -0.25956905 0.15948336 0.42432663 0.34128374
-0.13438302 -0.094051294 0.13799773 -0.1844179 -0.34981364 0.14892179 0.042568453 0.03361191
-0.01513018 0.0021197458 -0.4817798 0.2356431 0.03933829 0.093388624 0.024013203 0.04215075
-0.0039302995 -0.09730723 -0.0019280276 -0.33468407 -0.37537947 -0.24737738 0.041528072 -0.06654742
0.3681769 -0.0014022961 0.09917909 -0.12983039 0.20742321 -0.06156778 -0.053669363 0.22203064
-0.0025295992 -0.092296995 -0.08448788 0.0065363757 -0.052069552 0.30437452 0.0926801 -0.102985956
0.14763686 0.6708587 0.1200465 0.055068977 0.42387587 -0.33422828 -0.34023964 -0.23537077
0.23189896 0.2047643 0.38140243 -0.2966442 -0.32573014 0.074132174 0.07250235 0.18088703
0.2069259 0.11503318 0.013399161 0.29464862 -0.23934242 -0.120443135 -0.3554284 -0.03779282
0.07466404 0.21433379 -0.14139399 -0.049289707 0.11944775 0.21364713 -0.046501014 -0.14758694
-0.060210787 0.103089534 -0.016271831 0.07760609 -0.23055828 -0.28249815 -0.18030804 0.018661063
0.12194871 -0.03294019 -0.12202619 -0.3819578 -0.14533685 0.15656534 0.29167876 0.049194045
0.075336374 -0.03337841 -0.032838155 0.23406363 0.25888258 -0.1999285 0.3164868 0.02135388
0.066775136 -0.09302231 0.3474679 -0.05200389 0.28942826 0.10899882 0.34833404 0.2446192
-0.18048406 0.27828375 -0.32093352 0.11292773 0.19435784 0.24655072 0.3210972 0.039138783
-0.18809745 0.13085492 0.06532099 -0.054463066 0.02518188 0.2763398 -0.1432071 -0.1461968
0.42470607 0.060363483 -0.027266374 -0.2600162 -0.30247793 -0.03944071 0.07084956 -0.20052747
0.29571837 -0.25560573 -0.2826901 0.12141565 -0.10547938 -0.0979254 0.034091927 -0.21455993
-0.24414809 -0.20295371 -0.18809777 -0.037332274 -0.2458775 0.083741866 -0.05750393 -0.13711067
0.24068713 0.16019553 0.017540691 -0.10469247 0.13129885 0.07699408 0.2141909 0.4449184
0.3572665 -0.054958764 -0.24875355 0.111464486 0.021893457 -0.012810507 -0.051662263 -0.22405283
-0.08279618 0.3112436 0.016045233 -0.01740327 -0.18115763 -0.31862402 -0.22261064 0.013334576
-0.26033163 -0.12933372 -0.38985774 0.2880319 -0.052966945 0.3480335 0.26204315 0.16353762
0.08061599 0.22547041 0.33107275 -0.22250909 0.0075726537 0.22847456 0.1830407 0.054397523
00000000: f435 b339 9e14 99bc 29b8 b6be c397 c3bc
00000010: 666b 553c 3716 183e 9453 24be 6adb 983d
00000020: 9807 c83c ee63 c2bd fcf1 013d d7f7 52be
00000030: 1c78 0fbe b223 9c3e d410 6dbe ab56 64be
00000040: 32d4 75bd 2027 373e ca24 a0be a007 933d
00000050: da6f 0dbe e0ee f53d db1d 0e3e 3bd3 96bd
00000060: 8189 15be f7d6 703d b206 4b3c 08ed d7be
00000070: f6e5 183e 0e2e e0bd 0672 1bbe c8be 76bd
00000080: e251 d43e fd11 863d 6b7b fabd 2ee4 323f
00000090: 02e3 abbd 4d6d 653b fa4f 903d f98d d4bd
000000a0: 7a50 003f 8b83 72bc 3435 ea3d d42d 87bd
000000b0: 79a9 363d bc4c 97be fee8 24be 138f 473c
000000c0: 7089 7a3e 20e6 de3d bc54 3cbe a2fa 9d3e
000000d0: 388a 61be 39d8 2bbe a186 643e c653 7fbe
000000e0: db9b 20bd d63b d63c b610 ebbc 1402 6a3d
000000f0: cb8c b1bd 620a 233f f106 1c3e ef1c 89be
00000100: 66dd 5b3e 859b 5d3e 5a13 243e 241d 82bd
00000110: 3ce6 84be 9b4f 233e 5741 d93e bebc ae3e
00000120: b49b 09be f79d c0bd 474f 0d3e 0cd8 3cbe
00000130: c61a b3be f47e 183e 425c 2e3d a4ac 093d
00000140: 93e4 77bc 6feb 0a3b d8ab f6be 6d4c 713e
00000150: 3021 213d 8942 bf3d 56b7 c43c 44a6 2c3d
00000160: bec9 80bb 0349 c7bd dfb5 fcba b65b abbe
00000170: bd31 c0be 7f50 7dbe 5719 2a3d 044a 88bd
00000180: af81 bc3e 40cd b7ba 681e cb3d 42f2 04be
00000190: c066 543e 7f2e 7cbd 68d4 5bbd 005c 633e
000001a0: a2c7 25bb 3506 bdbd fb07 adbd 182f d63b
000001b0: e246 55bd fad6 9b3e 10cf bd3d 4dea d2bd
000001c0: 1e2e 173e 65bd 2b3f f0da f53d 0290 613d
000001d0: 4206 d93e f81f abbe e433 aebe 0905 71be
000001e0: ec76 6d3e bcad 513e 2e47 c33e c0e1 97be
000001f0: 1ac6 a6be 9cd2 973d 1d7c 943d 733a 393e
00000200: 62e4 533e 8496 eb3d 2888 5b3c 2fdc 963e
00000210: 2e16 75be e4aa f6bd b6fa b5be a5cc 1abd
00000220: 76e9 983d 517a 5b3e 96c9 10be 01e4 49bd
00000230: 06a1 f43d 50c6 5a3e d977 3ebd 0821 17be
00000240: 969f 76bd 9b20 d33d 814c 85bc f1ef 9e3d
00000250: 7817 6cbe 99a3 90be aca2 38be 16df 983c
00000260: 3fc0 f93d 4bec 06bd dee8 f9bd f98f c3be
00000270: 2fd3 14be aa52 203e eb56 953e b27f 493d
00000280: f549 9a3d cdb7 08bd 4d81 06bd 60ae 6f3e
00000290: 428c 843e 0fba 4cbe 8f0a a23e 55ee ae3c
000002a0: 67c1 883d 7b82 bebd 50e7 b13e 0802 55bd
000002b0: f12f 943e c63a df3d d758 b23e 757d 7a3e
000002c0: d0d0 38be 357b 8e3e 6651 a4be a746 e73d
000002d0: be05 473e cb77 7c3e da66 a43e fd4f 203d
000002e0: 9e9c 40be d5fe 053e 03c7 853d aa14 5fbd
000002f0: 3b4a ce3c 697c 8d3e e2a4 12be 9db4 15be
00000300: 1373 d93e b33f 773d bb5d dfbc d820 85be
00000310: 63de 9abe 958c 21bd 9319 913d 1357 4dbe
00000320: 6668 973e c1de 82be c2bc 90be c5a8 f83d
00000330: 9305 d8bd 1d8d c8bd faa3 0b3d 99b5 5bbe
00000340: f501 7abe 19d3 4fbe b49c 40be bae9 18bd
00000350: 50c7 7bbe db80 ab3d 3e89 6bbd bd66 0cbe
00000360: b076 763e 4c0a 243e 7fb1 8f3c 0169 d6bd
00000370: 3573 063e 12af 9d3d dc54 5b3e 58cc e33e
00000380: a2eb b63e 711c 61bd 40b9 7ebe 7e47 e43d
00000390: e859 b33c 29e3 51bc cf9b 53bd 1b6e 65be
000003a0: 0b91 a9bd 525b 9f3e 4b71 833c 4d91 8ebc
000003b0: 6381 39be b022 a3be 0bf4 63be 4479 5a3c
000003c0: 304a 85be 0f70 04be 6f9b c7be eb78 933e
000003d0: def3 58bd 7231 b23e 852a 863e 6876 273e
000003e0: ff19 a53d b7e1 663e 5e82 a93e 6cd9 63be
000003f0: 0624 f83b 3cf5 693e 056f 3b3e f0cf 5e3d

linear3.bias f4 [16]
0.09860567 0.16642612 0.14653376 0.065921135 0.012562092 -0.12047093 0.096461065 -0.099472135
0.062287513 -0.027805256 0.14047739 0.019697236 -0.04123496 -0.034286972 -0.04496866 -0.13537286
00000000: c5f1 c93d 9c6b 2a3e f20c 163e a901 873d
00000010: 3cd1 4d3c 77b9 f6bd 618d c53d 0cb8 cbbd
00000020: 3121 7f3d d9c7 e3bc 4ed9 0f3e 195c a13c
00000030: fde5 28bd 7f70 0cbd 0f31 38bd 2f9f 0abe

output_layer.weight f4 [2, 16]
-0.13319913 -0.11149336 -0.27128884 0.16492751 0.15531647 0.27692848 0.24773194 -0.85639054
0.15355714 0.5358611 0.962446 0.07854015 0.4760752 -0.60155475 0.5579388 0.41184592
-0.44065097 0.90340036 0.024353415 -0.50654864 0.097821854 0.31634232 -0.2934884 -0.53143805
-0.66597295 -0.061717387 -0.45305955 -0.17115888 -0.17348164 0.17877422 0.287583 0.21428423
00000000: 5a65 08be a156 e4bd 5fe6 8abe c2e2 283e
00000010: 480b 1f3e 92c9 8d3e 71ad 7d3e 693c 5bbf
00000020: 153e 1d3e 312e 093f dc62 763f a8d9 a03d
00000030: 21c0 f33e 7eff 19bf 14d5 0e3f 78dd d23e
00000040: 019d e1be 3f45 673f d080 c73c 2cad 01bf
00000050: d356 c83d 9ff7 a13e 1d44 96be 530c 08bf
00000060: 347d 2abf 5fcb 7cbd 6cf7 e7be 4644 2fbe
00000070: 2ca5 31be 9710 373e 143e 933e 536d 5b3e

output_layer.bias f4 [2]
0.10255515 -0.033326734
00000000: 6f08 d23d 9d81 08bd
