policy_net_Pendulum-v1.pt (torch, 3614 bytes, 4 tensors)

hidden.weight f4 [32, 3]
00000000: 3bf5 bd3e 3fc3 b4be edbf 893e 7d1c 71be
00000010: 4d81 ef3e 3de3 2bbe 5ec3 a9be 3f21 96be
00000020: 45d1 093f 8449 c2be a13b 1fbe 08da 973e
00000030: 3a35 98be ccbc babd 1237 1b3f fbe5 18be
00000040: 9610 973e bc27 8e3c a1f2 1e3e 78ee 7c3e
00000050: 0ff0 ddbe a117 24be 3a5f ce3e 3afb 7cbe
00000060: d1a3 033f 0557 b6be c1b2 993e 56d0 93be
00000070: 61a7 803e d578 5e3e 2cff 26bb deac 103e
00000080: 8b36 843e 098a 20bf be1b 213f f2ce 06be
00000090: b964 d8bd 9767 06bf bd89 023f e641 a83c
000000a0: 73b6 42be 6ca0 753e 1ba5 cd3e 432f 103f
000000b0: a4d9 cf3d 9f06 0b3f 4246 32bf 5c2d 95be
000000c0: 6000 073e ce84 18bf c9d8 223e bd9b 44be
000000d0: 90a7 8d3e de90 05bf ae55 b4be a43f a83e
000000e0: bceb 32be c063 673e 9ea9 a03e 5468 9cbd
000000f0: e8c0 1fbe a104 a23e 8294 c2bc 9e2f 1cbf
00000100: 9d54 253f b5e3 56be 09ad 48be 1448 e23e
00000110: cdd5 393e 43ab 91be c4d6 6d3e 5fdd bc3e
00000120: a36e 44be 8c46 283f d989 99be 5913 07be
00000130: a0da 15bf 46d7 bb3e f3e2 273e 6dc7 013f
00000140: f2bb 09bf 30d9 c1be 6a87 06bf dbca ed3c
00000150: 51ad 8ebd e8de 9a3e bf4b 12bf 5879 913e
00000160: b452 45be 20fb bf3c 347e 9dbc f99d cf3e
00000170: 1832 e33e 4455 123e 4315 c13e fb4e 1d3c
0.37101158 -0.3530521 0.2690424 -0.23546024 0.46778336 -0.16785903 -0.33156866 -0.2932224
0.53834945 -0.37946713 -0.1555009 0.29658532 -0.2972811 -0.091180414 0.60630906 -0.1493148
0.29504842 0.017352931 0.15522243 0.24700344 -0.43347213 -0.16024639 0.40307027 -0.2470521
0.5142184 -0.35613266 0.3001919 -0.28869885 0.251277 0.21725781 -0.0025481684 0.14128444
0.25822863 -0.62710625 0.62932956 -0.13164881 -0.10566086 -0.52501816 0.5099142 0.020539235
-0.19014911 0.23986977 0.40165028 0.56322116 0.101489335 0.5430698 -0.69638455 -0.2913617
0.13183737 -0.59577644 0.1590301 -0.19200034 0.27666903 -0.52174175 -0.35221618 0.32861054
-0.17472738 0.22596645 0.31379408 -0.076370865 -0.15600932 0.31644157 -0.023752455 -0.6101016
0.64582235 -0.20985301 -0.19597258 0.44195616 0.18147965 -0.28450975 0.23226458 0.36887643
-0.1918283 0.65732646 -0.29987982 -0.13190974 -0.5853672 0.36687678 0.16395168 0.50694925
-0.53802407 -0.37861013 -0.52550375 0.029027393 -0.06966651 0.3024819 -0.5714683 0.2841289
-0.1926983 0.023435175 -0.019225217 0.4055021 0.44374156 0.14290339 0.37711534 0.00960135

hidden.bias f4 [32]
00000000: 2c8a 5f3c d5ad 3dbe 54c5 a3be 336c 0cbf
00000010: 8538 5f3e 484e cdbe afe2 ef3e d264 c0be
00000020: f33a f93d 59a0 b03c 8be0 6d3e 6002 b1be
00000030: d7a9 3ebc 9aba 90bd f47e 28be 0c84 ff3e
00000040: fb9b b13e 88b5 ecbe 834e 3b3e 0a80 67be
00000050: eca1 e73e f8f4 b5bd a58d eb3d 29c1 0fbe
00000060: 12c6 f83e a052 48bd 98b1 03bf ce38 ad3d
00000070: 49b9 863e d7eb f2be 3e4b f93e 3f3c ab3e
0.013643783 -0.18523343 -0.31986487 -0.548526 0.21798904 -0.40098786 0.46852633 -0.3757692
0.12169447 0.021560835 0.23230188 -0.34572124 -0.011637173 -0.070668414 -0.16454679 0.4990543
0.34689316 -0.46232247 0.18291669 -0.22607437 0.45240724 -0.08884615 0.11501626 -0.14038529
0.48588616 -0.048906922 -0.5144286 0.084581 0.26313236 -0.47445557 0.48690218 0.33444402

mu_layer.weight f4 [1, 32]
00000000: eb24 20be 391d 49bb 7773 753d de5f be3d
00000010: 5d28 3ebe a045 1abe cf88 a5bd 4a68 aebd
00000020: 60c5 d3bb 010a 293d 713f bc3d c586 6ebe
00000030: 9f70 bfbb 2748 d63d 33c2 94be b960 5b3e
00000040: b30a 023e ddd1 e33d 9d5f 51be 8e5d 05be
00000050: b620 fdbd 70cd 62be ce33 2cbd 54e1 03be
00000060: 8523 bbbd e254 a03d d58b 333d 7dfd 773e
00000070: 2d86 e23d b4ac 97bd 8286 f33d 5f70 13be
-0.15639083 -0.0030687584 0.05992457 0.09295629 -0.18570085 -0.15065622 -0.08082735 -0.08515985
-0.006462738 0.041269306 0.09191788 -0.23293598 -0.005842283 0.10462981 -0.29054412 0.21423616
0.12699394 0.111240126 -0.2044663 -0.1302397 -0.12359755 -0.2214868 -0.042041592 -0.12878925
-0.09137634 0.0782869 0.043834526 0.24217792 0.11060748 -0.074059874 0.1189089 -0.14398335

log_std_layer.weight f4 [1, 32]
00000000: cfb2 783d 933d a0bd 8585 b73c c21b e1bd
00000010: 2049 14be 45ec be3d eae4 a13a e2b1 23be
00000020: 38bc a73d f8f6 dd3d b8b4 883d 6882 0fbe
00000030: b92e abbd e71b 1fbe 6b9a 2d3e 9cfe 9abc
00000040: 2c07 11be 1456 cdbd 279a babd 8f11 aa3d
00000050: bcf3 c1bd b408 61bd d12d 82bd ec7d 1bbd
00000060: cdc6 383d 7f5f 0bbd 7231 34be f9ec ab3d
00000070: 4ca2 e93d e02d e1bb a650 98bd 716f c03d
0.0607174 -0.07824244 0.022402534 -0.109916225 -0.1448102 0.093224086 0.0012351547 -0.15985826
0.08190197 0.10838121 0.06675094 -0.1401459 -0.08358521 -0.15537988 0.16953437 -0.018920235
-0.14162892 -0.10026184 -0.091114335 0.0830413 -0.09470317 -0.05493994 -0.06356395 -0.037961885
0.045111466 -0.03402662 -0.17596987 0.08394808 0.11407909 -0.006871924 -0.074372575 0.09396256
