PPO_cartpole_discrete_policy_net.pt (torch, 10796 bytes, 8 tensors)

linear1.weight f4 [32, 4]
000000 26 1d 0d 3e 21 97 50 be 9c c0 f8 be c3 07 c5 bd
       0.1378065 -0.20370151 -0.4858445 -0.09620621
000010 ee 33 33 3e 0e 80 e5 bd 1d 29 1c 3e ee 83 d4 3a
       0.17500278 -0.11206065 0.15250058 0.0016213635
000020 8c ca c8 be f7 5d a8 bd bd df 58 be a9 93 a7 be
       -0.3921703 -0.08221047 -0.211791 -0.32729843
000030 c6 50 f9 3d 6c f7 f7 3d db eb 07 be 01 42 ae bd
       0.121736094 0.12107739 -0.13273565 -0.08508683
000040 41 36 4b bc d2 2a 93 bb a6 3f c3 3e b3 1d 52 3e
       -0.012403072 -0.0044911886 0.38134497 0.20519142
000050 20 f4 00 3e 42 c5 b2 3d 32 6d 97 3f ce c8 73 3e
       0.12593126 0.0872903 1.1830199 0.2380707
000060 49 ef c7 3e dc be 8b be f3 27 3f be 80 0c 05 3f
       0.39049748 -0.27294052 -0.18667583 0.519722
000070 63 17 97 3d 75 15 88 be 31 38 97 3d c5 78 4c bc
       0.073775075 -0.2657887 0.073837645 -0.012479966
000080 8f 8c b5 be 59 0f 48 be de 28 b1 3e a2 c8 8d 3e
       -0.354588 -0.19537105 0.34601492 0.27692133
000090 f2 67 01 3d 74 1f c7 3d bf bb d7 be 7f 19 41 be
       0.03159327 0.09722796 -0.42135426 -0.18857382
0000a0 b0 a6 46 3d 43 cf d2 3d 80 10 d7 be 82 c3 45 be
       0.04849881 0.10293438 -0.42004776 -0.19312862
0000b0 58 4c f3 3d 6c fd 86 be fd a8 a6 be d0 e3 58 be
       0.11879796 -0.2636522 -0.32550803 -0.21180654
0000c0 7b f4 c1 be 49 e3 99 be 85 56 bb be 9c 28 ec be
       -0.37881836 -0.30056217 -0.36589447 -0.46124732
0000d0 a8 3d b2 be 17 2d cd 3c 88 70 7e 3e 40 cf 41 bd
       -0.34812665 0.025045915 0.24847615 -0.04731679
0000e0 69 f8 24 3e d7 2a 8e 3d 49 28 d8 be bb d0 2a bd
       0.16110386 0.06941765 -0.42218235 -0.041702967
0000f0 6d 3f d9 bd 32 ca 03 be e6 4b 8d bd 98 08 63 be
       -0.10607801 -0.128701 -0.06899242 -0.22171247
000100 0d a2 66 bd 30 c2 41 3e b5 e2 54 3e 7a 33 5b 3e
       -0.056306887 0.18921733 0.20789607 0.21406356
000110 fa c9 2c be 5c 76 00 3e d7 41 b0 3e 18 59 39 3e
       -0.16873923 0.1254515 0.34425232 0.18100393
000120 05 f5 36 3e 78 85 cf 3d 78 54 13 3f 98 22 24 3e
       0.17866905 0.10132879 0.57550764 0.16028821
000130 70 8f 2e be eb e6 fa bd 17 15 5c be 39 67 58 3d
       -0.17046905 -0.12251075 -0.2149242 0.052832816
000140 1a 52 1c bd 02 6c a0 bc 60 9d ba 3c 1f 2f 8b bd
       -0.038164236 -0.019582752 0.02278012 -0.06796097
000150 5a 67 be 3e d9 30 be 3e 25 1e b5 be 72 71 a1 be
       0.37188226 0.37146643 -0.3537456 -0.31531864
000160 3b d6 b6 bd d8 75 51 be 5a a8 a7 be 01 d2 f2 bd
       -0.0892758 -0.2045511 -0.3274563 -0.11856461
000170 74 2c 0a bd 27 e6 52 3d 69 b7 ca 3e c1 45 29 3e
       -0.0337338 0.05148902 0.39593056 0.16530515
000180 52 c9 02 be 48 e3 a6 bd a8 fe a6 be 07 2c 2e be
       -0.1277211 -0.08148819 -0.32616162 -0.17008983
000190 ef 56 a0 bd ba 59 c7 be 83 d8 80 be 9a d1 72 3b
       -0.07829081 -0.38935643 -0.25165185 0.0037051202
0001a0 51 94 f3 3d 35 39 27 bd 64 59 4d 3e 64 04 8f 3e
       0.118935235 -0.04082604 0.20053631 0.27933037
0001b0 8c 3e f2 3c 66 9f 60 be ac 53 5e bf ed be d1 be
       0.02957084 -0.21935806 -0.86846423 -0.40965977
0001c0 df 91 01 bf 74 77 8d 3e b9 aa b0 3d 49 42 85 3d
       -0.50613207 0.27630198 0.08626313 0.065067835
0001d0 56 1d ee bd 55 df 9e 3e 51 89 52 3f 57 bb 00 be
       -0.11626689 0.31029764 0.8224078 -0.12571464
0001e0 fd 85 17 3f ca db 38 bd 1e 0c 6a be 23 a9 ba be
       0.59188825 -0.045131482 -0.22856185 -0.36457166
0001f0 ee f7 34 3f b9 2a 2f 3d 7b e0 15 3f a0 1e 81 3d
       0.7069081 0.042765353 0.58545655 0.063046694

linear1.bias f4 [32]
000000 a9 d2 b0 3d c8 ed bb 3e 8d 9c a1 3e 83 7b 02 3e
       0.0863393 0.3670485 0.3156475 0.12742428
000010 cf 4a 80 3d 8a 99 01 3f 03 c8 73 be 5e f8 88 3e
       0.062642686 0.50624907 -0.23806767 0.2675199
000020 f5 48 20 3d 3c 38 a4 be 06 4c 05 3f db bb 3a be
       0.039132077 -0.32074153 0.5206913 -0.18235724
000030 62 ab 7d 3d 49 e5 98 be 1e ab de 3d 09 b1 29 3e
       0.06193102 -0.2986243 0.10872482 0.1657144
000040 42 01 74 3e 70 11 35 3e ee 65 71 3e 9b f6 b6 be
       0.23828605 0.17682433 0.2357404 -0.3573502
000050 1d 9b aa 3e e5 7b 82 be 7c d2 5e 3e 8e 42 71 3e
       0.33321467 -0.2548515 0.21759981 0.23560545
000060 2a b2 67 3e f6 e5 a1 3d 8c 15 f0 3e 65 40 cc 3e
       0.22626558 0.0790519 0.4689144 0.3989288
000070 4e 41 94 3e 25 a3 a2 3e 0c 40 6f 3e 08 9a a6 3c
       0.28956074 0.31765094 0.23364276 0.02033712

linear2.weight f4 [32, 32]
000000 ea 25 e1 3e 7c 74 7a bd c4 06 68 3d 62 ef 9e 3d
       0.4397424 -0.061146244 0.056647077 0.077605024
000010 27 ff 17 be 61 ca a3 be 6b c3 23 be 65 46 66 be
       -0.14843427 -0.3199034 -0.15992515 -0.22487791
000020 9b f2 bf bd 3a af 4d be c9 17 e6 3c cc 30 93 be
       -0.09372445 -0.20086375 0.028087514 -0.28748167
000030 8f 48 c2 bc 12 e8 be bd 0b 18 70 be 5e b5 43 3e
       -0.02371624 -0.09321608 -0.23446672 0.19112155
000040 d9 a8 5a 3e ae 29 aa bd 9b 7c d2 3d 1d 8c b6 bc
       0.21353473 -0.08308731 0.10277673 -0.022283608
000050 9b 3e ed 3e 6d 04 21 be c6 71 18 be 14 4f 84 bd
       0.46336827 -0.15724345 -0.14887151 -0.064603955
000060 ac 5d 82 3e 81 2f df bd b7 f5 55 bc d5 29 06 be
       0.2546209 -0.108977325 -0.013059071 -0.13101895
000070 bf fa 7a 3e 9f eb 15 bd 86 3a aa be b2 ef 06 be
       0.24509715 -0.03660166 -0.33247775 -0.13177374
000080 64 c5 0f 3d c6 50 f8 3d 6d 43 67 3e 19 53 dd 3e
       0.035100356 0.12124781 0.22584315 0.4322746
000090 e2 3a 23 3e 8e 28 59 3e c1 64 72 3e 30 c3 1a bd
       0.15940431 0.21206877 0.23671247 -0.0377838
0000a0 f9 d4 30 3e c9 01 16 3f df 5b 91 be b5 6c e2 ba
       0.17268743 0.58596474 -0.28390405 -0.0017274829
0000b0 2e 11 99 3e 3e 65 fa bd 0a 07 40 bd 6c 29 9d bd
       0.2989592 -0.12226342 -0.046881713 -0.07673916
0000c0 cd 27 bd 3d 95 bb 55 3c 3b 1d dd 3c b2 1c 1d 3e
       0.09236107 0.013045211 0.026991477 0.15342978
0000d0 06 e7 bf bd f1 e8 51 3e e0 be 7a 3d 20 f9 61 3e
       -0.09370236 0.20499016 0.06121719 0.2206769
0000e0 3e fa 20 be 8a d2 24 be 1a 40 c5 3e 24 00 46 3d
       -0.1572046 -0.1609594 0.38525468 0.048339978
0000f0 fd 13 d5 3e 16 57 34 3e bd 41 b6 3e 78 3d e7 3e
       0.41616812 0.17611346 0.3559703 0.45164084
000100 63 f4 21 3e e1 89 d8 bd 5c aa 77 bd fa 66 ae 3d
       0.15815882 -0.10573173 -0.0604652 0.08515735
000110 ac d3 5c 3d d1 c9 a2 be c1 82 e3 bc d9 22 87 be
       0.053912804 -0.317946 -0.02777231 -0.26393774
000120 1e ab e4 bd b2 b3 66 3e 21 f3 ef 3d 13 c2 d5 3d
       -0.111654505 0.22529486 0.11716295 0.10437407
000130 6d 1e b2 be 57 0a 2f bd 37 11 8e 3c 4d 4e 76 be
       -0.34788838 -0.04273447 0.017342193 -0.24053307
000140 8b 3a 30 3e 92 c8 51 be 4b 8c 15 3e c7 8a 8e 3c
       0.17209832 -0.20486668 0.14604299 0.017400159
000150 ad 89 9c 3d 17 12 21 be fb c8 68 3e c4 8b d6 3d
       0.07643447 -0.15729557 0.22732918 0.10475877
000160 e1 88 c5 bd 8a 39 16 3e 66 8d 16 be f5 ca f2 be
       -0.09645248 0.14670387 -0.14702377 -0.4742047
000170 5c cc 45 3e 67 c1 ae be 09 0f ef bc 7b a2 9c be
       0.19316238 -0.3413193 -0.029181974 -0.30592713
000180 8f 88 a1 be 35 1d 8f 3e ba 4a 6e be d5 87 a7 bd
       -0.31549498 0.2795197 -0.23270693 -0.08180205
000190 4b 29 0b 3e 2d a9 91 3a 41 8f 4a be 4d ff 1f 3e
       0.13589971 0.001111304 -0.1978121 0.15624733
0001a0 cf a7 5c 3e ef 89 cf 3d f8 64 2d 3e 63 c1 04 bd
       0.21548389 0.101337306 0.16933048 -0.03241099
0001b0 0d ee da be e9 a1 f7 bc 71 e6 11 3e b3 19 f9 3c
       -0.42759743 -0.030228572 0.14248063 0.030407762
0001c0 1d db 10 3e 76 8a e0 bd f3 c9 82 3d ae c8 e0 bd
       0.14146085 -0.10963909 0.06386175 -0.109757766
0001d0 79 fe 61 3e 3e c2 3d bd 8f dd 1a be 4a a4 25 3e
       0.2206973 -0.046327822 -0.1512358 0.16175953
0001e0 43 9b 5a be b0 f2 eb bd e6 a5 bc 3d e8 d4 09 be
       -0.2134829 -0.11520898 0.0921133 -0.13460124
0001f0 90 d6 81 3e 01 31 8a be c4 ac d8 3c fc 49 6c 3e
       0.2535901 -0.26990512 0.026449569 0.23075098
000200 b0 34 f4 3d 7d 1c 6e 3d 26 4c 94 bd fd 96 94 3d
       0.11924112 0.058132637 -0.07241087 0.07255361
000210 9d 6d b9 3e f0 12 c2 3e 77 c8 61 3e 6a cc 73 be
       0.3621644 0.37905073 0.22049128 -0.23808447
000220 27 df b5 3d 62 72 59 bd 6e f4 5f 3d 61 42 81 be
       0.088804536 -0.0530876 0.054676466 -0.25245956
000230 c8 c8 39 bd 03 5c 38 3d b7 44 57 be 6b d1 03 be
       -0.045357496 0.045009624 -0.21022306 -0.12872855
000240 b5 86 14 3e 6d a2 11 3e f4 fe 92 3e d7 20 59 3e
       0.14504512 0.14222117 0.2871014 0.21203934
000250 82 74 0c be 45 72 b0 3d 6e ff 1d be c8 5a 6e 3d
       -0.13716319 0.08615545 -0.1542947 0.058192044
000260 43 8b 99 bd 03 3a 8f be 14 aa ac 3e d2 d7 ce bd
       -0.07497265 -0.27973947 0.3372351 -0.10099758
000270 aa 7d 31 3e 9e 8d 6b 3e d4 90 a9 bd 5e 69 da 3e
       0.17333093 0.23003241 -0.08279577 0.42658514
000280 d4 fb ac bb 22 f1 2a bf e3 93 94 bb 84 12 ab bd
       -0.0052790437 -0.6677419 -0.004534231 -0.08353141
000290 8a ae 28 3d 94 3f 68 be 25 97 12 3e 89 01 80 bc
       0.04118208 -0.22680503 0.1431547 -0.015625732
0002a0 96 50 9f 3c 54 49 06 bd 79 68 48 3d 41 99 69 3d
       0.019447606 -0.032784775 0.048927758 0.05703092
0002b0 7c 79 2d 3e 9a bd 26 3d 89 92 5e be c3 3d 05 be
       0.16940874 0.040708162 -0.21735586 -0.13011841
0002c0 fd 3e 08 be 2d 95 06 be ed 42 8c bd 79 fb 47 3e
       -0.13305278 -0.13142844 -0.068487026 0.19529523
0002d0 47 88 6d be d3 93 77 3e f2 56 81 be d6 31 f6 be
       -0.23196517 0.24177484 -0.25261647 -0.48084897
0002e0 ec a5 d2 3d 29 2e 44 3e 82 24 33 3e 5b 64 b3 3d
       0.10285553 0.19158234 0.17494395 0.08759376
0002f0 75 b0 50 3e 1c 03 b5 bd 3b 70 d9 3e ab 3d 2b be
       0.20379813 -0.08838484 0.42468438 -0.16722743
000300 35 79 f9 3d 99 f8 85 bd af c7 f4 3e 6e d8 61 3e
       0.121813215 -0.06541557 0.47808596 0.22055218
000310 ab 40 85 bc d6 bf 76 be bf 2a d4 3d 80 e9 3a 3e
       -0.016266188 -0.24096617 0.10359716 0.18253136
000320 6a de 13 be 53 35 b7 bb 2c 86 d1 3d 84 63 aa 3d
       -0.14440313 -0.0055910735 0.102306694 0.08319762
000330 c4 5a d9 3e 3f f6 77 be e6 e9 f2 bd c5 1d 7b bc
       0.4245206 -0.24215029 -0.11861019 -0.015326922
000340 eb 9a 3f be 12 32 a8 3d d3 42 a8 be 5c 62 ee bd
       -0.1871144 0.08212675 -0.32863483 -0.11639854
000350 cb 91 3b bd dd 99 75 bd 3b 2f 02 3c 7a 0c 2f 3e
       -0.045793336 -0.05996119 0.007945831 0.17094603
000360 f8 61 86 3e 41 3a ef 3d 94 3b 4c bd 87 b3 01 3e
       0.2624662 0.11681033 -0.049861506 0.1266614
000370 02 f7 bb 3e ba e8 08 3e 04 41 3d 3e 47 5c 0d be
       0.3671189 0.13370028 0.18481833 -0.13804732
000380 39 d1 39 bd 04 de ca 3c 03 ad 9d 3e 35 a7 df 3e
       -0.045365546 0.024764068 0.3079606 0.43682256
000390 9c 75 3c 3e 9d a3 d4 3e 9a 7b f4 bd e8 eb b8 bd
       0.1840424 0.41531077 -0.119376376 -0.090293705
0003a0 e9 d8 77 3e 7f ba 32 be c2 b6 0b 3e 34 84 b1 3c
       0.24203838 -0.17453955 0.13643935 0.021669485
0003b0 40 eb a3 be 25 94 88 3e 8f e1 29 be 7a 35 8d 3e
       -0.3201542 0.26675525 -0.1658995 0.27579862
0003c0 75 89 02 3f e8 83 81 3e 82 57 16 3e ed b1 aa 3b
       0.5099099 0.2529595 0.14681819 0.0052091987
0003d0 01 1e c4 3d 11 20 07 be 6b 87 b5 3c b0 9f bf 3e
       0.09576035 -0.13195826 0.022159299 0.3742652
0003e0 b4 97 19 3e 92 8d a6 3d b9 3d 1d be df 83 ec 3d
       0.14999276 0.08132471 -0.15355577 0.1154859
0003f0 91 22 83 be d5 fa 84 3d 40 0b 6d 3e 3a a0 db 3d
       -0.2561231 0.06493155 0.23148823 0.1072392

linear2.bias f4 [32]
000000 97 9a eb 3d 64 20 a9 3d fe 49 76 bd 07 49 ec 3c
       0.11504095 0.08258131 -0.06012916 0.028843416
000010 7f 7e 2b be f4 d2 d0 bd 9f dd c5 3d 10 d0 16 bd
       -0.16747473 -0.10196486 0.096614115 -0.036819518
000020 48 f7 51 3c c4 fe 30 3e cf e2 f0 bd 47 10 cc bd
       0.012815304 0.17284685 -0.1176201 -0.09964042
000030 c6 60 f8 3d b0 bd 20 bc ca 8e 70 bd d0 98 c6 3b
       0.12127833 -0.00981085 -0.058729924 0.006060697
000040 48 94 ad 3d 50 c6 2d b8 71 90 1a be 97 97 d4 bd
       0.08475548 -4.1431107e-05 -0.15094163 -0.10380476
000050 93 b7 c7 bd 81 af 21 bd 35 f0 c7 bd 02 c9 fa bd
       -0.09751811 -0.039474014 -0.09762613 -0.122453704
000060 23 b0 71 3e 8e d1 93 3d 8f c4 f2 bd 20 cf 36 3d
       0.23602347 0.07217704 -0.11853897 0.044631124
000070 3e 93 d9 bd 1d 1a 09 be 06 c6 f3 bd 40 2b cf 3c
       -0.10623787 -0.13388868 -0.11903004 0.025289178

linear3.weight f4 [16, 32]
000000 6c 55 14 bd 15 bc 8c 3d 2b 68 2b 3d 73 83 22 3e
       -0.036214277 0.06871811 0.04184739 0.15870456
000010 f5 af 95 3e 00 dd 83 3e 08 0d b7 be aa 35 5a 3e
       0.29235807 0.25754547 -0.3575213 0.21309534
000020 99 ab ee bc 7b 90 68 3d b8 42 81 be 38 3e a7 bd
       -0.029134559 0.056778412 -0.25246215 -0.08166164
000030 17 e2 d3 3e 34 14 f5 3e 4b f0 47 bc 9a b8 05 3e
       0.4138343 0.47866976 -0.012203286 0.13058701
000040 31 0b 8f be 65 f8 c5 3d dc 7c d2 bc 83 3a 61 be
       -0.27938226 0.09666518 -0.025694303 -0.21994977
000050 1e b6 78 be 0e 8b b6 3d e6 c7 42 be cd e7 32 3e
       -0.24288222 0.08913241 -0.19021568 0.17471237
000060 39 d5 40 3d 87 88 12 3e c4 d1 21 3e b4 51 1d 3e
       0.047078345 0.14309894 0.15802675 0.15363199
000070 b7 e5 e4 bd 17 c5 1b be 51 ae 69 3d 98 44 87 be
       -0.11176627 -0.15211903 0.057051007 -0.2641952
000080 00 6b 9c bc 85 34 8d be d4 74 84 3d 0e ce ae be
       -0.01909399 -0.27579132 0.06467596 -0.34141582
000090 54 cf 7a 3e 38 fe 9e 3e e5 e3 b7 be bf 5a 4b 3d
       0.24493152 0.3105333 -0.35916057 0.04964709
0000a0 18 2b 4b 3e 64 5d 13 bd 0a 99 4b be 9f 40 32 bd
       0.19840658 -0.035977736 -0.19882599 -0.04351866
0000b0 9e a7 ce be fe dc 73 be 56 19 28 3e f1 c2 a3 3e
       -0.40362257 -0.2381477 0.16415915 0.31984666
0000c0 59 cb 2a 3e 7c d9 77 3a 35 48 7d bd 2d 12 1d 3d
       0.16679133 0.000945471 -0.06183644 0.038347412
0000d0 3c 32 a5 be d5 b7 bd bd c4 8e a9 bd da bc 84 3e
       -0.32264888 -0.09263579 -0.082791835 0.25925332
0000e0 d8 03 81 3d 20 a0 1a 3f c3 62 51 3e c9 d0 97 3b
       0.06299561 0.6040058 0.20447831 0.0046330434
0000f0 cf ca 4e 3d 01 49 4a 3d 88 9f 4c bd ef f9 8d 3c
       0.050486382 0.04938603 -0.04995683 0.017331092
000100 31 55 f1 3d 7e bd a9 3d 22 f2 08 be 75 1f 0a bd
       0.11783827 0.08288096 -0.13373616 -0.033721406
000110 e8 e6 cf bd 83 35 bf 3d 89 35 33 bd 81 e0 43 bd
       -0.10151464 0.093363784 -0.043752227 -0.047821525
000120 b4 df 85 be 45 49 e0 3d 9a e0 0e be 68 94 dc bd
       -0.26147234 0.10951475 -0.13952866 -0.10770494
000130 cc 1b ca bd f2 42 b5 be e0 74 37 be 0e d3 25 bd
       -0.09868583 -0.35402638 -0.17915678 -0.04048448
000140 94 42 58 bc 6a a6 26 be a2 6f 7b 3e 8f 81 19 be
       -0.013199467 -0.1627442 0.24554303 -0.14990829
000150 8b ca 23 3e 92 de 98 3d f9 3f 40 be ff 7a 11 3f
       0.15995233 0.07464327 -0.18774404 0.568283
000160 4d 19 41 be a6 84 07 be d1 1f 6b 3c 0c 48 61 3e
       -0.18857308 -0.13234195 0.014350847 0.2200014
000170 13 32 b9 bc b4 5d 5d be 0f dc ef 3d 1c 2c c8 be
       -0.022606885 -0.21617776 0.11711895 -0.39096153
000180 56 c0 60 b9 6c 27 b9 3c 52 97 8c bd 48 57 3c 3e
       -0.00021433955 0.022601806 -0.068647996 0.1839267
000190 42 62 9c bd 61 f3 8b 3c 0f ed eb 3d 62 64 85 3e
       -0.07635929 0.017083826 0.11519825 0.26053149
0001a0 80 d9 b4 3d 9f 6f 57 3e 68 b3 84 bd 04 78 63 3d
       0.08830547 0.21038674 -0.064795315 0.055534378
0001b0 8b 01 ee 3e 70 7c bb 3e 72 00 b3 3e b9 a3 1b bd
       0.46485552 0.36618376 0.34961277 -0.037997935
0001c0 34 f6 b1 bd ec c5 a5 3e d0 b5 9f 3b 51 a5 53 be
       -0.08689538 0.32377565 0.0048739687 -0.20668532
0001d0 16 d9 68 be ce f7 4f be 33 ad 21 3d a5 1e 8c bc
       -0.22739062 -0.20309374 0.039471816 -0.017104456
0001e0 ce 5d 77 be be 0e b5 3e 93 dd 9c be b7 5d e8 3e
       -0.24156877 0.3536281 -0.30637798 0.45384
0001f0 f7 50 ab be 3e b2 0e be 93 3e 03 bf c4 65 9b 3d
       -0.3346021 -0.13935181 -0.51267356 0.0758777
000200 91 4b 93 be 25 64 66 3e 23 d1 13 be 15 35 b6 bd
       -0.2876859 0.2249914 -0.14435248 -0.08896843
000210 fe 3a 58 3e 2e fe 1c 3d af a3 72 bb 12 dc 5b be
       0.21116254 0.038328342 -0.0037023833 -0.21470669
000220 3d 8f 0a be 4a cf c4 3e b4 dd fd 3d 75 fa fa be
       -0.13531204 0.384394 0.12395802 -0.4901921
000230 e6 a2 97 3c 64 ca 91 3d 4b e0 b9 be cf af df be
       0.018510293 0.07118681 -0.36303934 -0.4368882
000240 06 af 28 3e 2b 16 b0 3e 5b f2 71 3e 22 c5 b4 be
       0.16473016 0.34391913 0.23627608 -0.3530665
000250 a4 18 c2 3d 53 8b 34 3e 31 6e ab bd 06 22 7a be
       0.09477356 0.17631273 -0.08370627 -0.24427041
000260 ad 25 90 3d 5f 9f 0d 3e 03 c6 9e 3e d5 40 a5 3e
       0.07038436 0.13830326 0.31010446 0.32276025
000270 f7 ac fa bc 70 42 ca bc 65 0f bf be af b0 a4 bd
       -0.030600054 -0.024689883 -0.37316433 -0.08041512
000280 e1 9c b1 3d 8d 54 da bd 1a 6e 6d bd 40 fc 8b bd
       0.086725004 -0.10660658 -0.05796633 -0.06835222
000290 2c ef 08 3e 65 45 c2 bd 9d c8 1f 3d 0f f2 e9 bd
       0.13372487 -0.09485892 0.03900968 -0.11423122
0002a0 a2 ef 15 be bd da 1b 3e 9e b7 8b be 5a b7 0c 3d
       -0.14642194 0.15220161 -0.27288526 0.034354545
0002b0 87 b7 6d bd 16 3c c2 3d 28 ff ca 3d ad 63 97 3e
       -0.058036353 0.09484117 0.099119484 0.29568234
0002c0 d2 f4 95 bc f2 a1 85 be c9 75 e2 bd 58 31 34 3e
       -0.018305216 -0.26100117 -0.11057622 0.17596948
0002d0 1d 31 9e be a3 90 2f bd 09 f8 ad 3e 80 52 a7 be
       -0.30896845 -0.042862546 0.33978298 -0.3268013
0002e0 0a 0e ec 3d e4 f2 60 3e be fa c0 3e fd 33 bd 3e
       0.11526115 0.21967655 0.376913 0.36953726
0002f0 99 8b 15 3c 97 6e 25 3d fb 30 8c be c2 7a de be
       0.009127521 0.04038867 -0.2738112 -0.43453032
000300 b5 98 69 bc b8 90 3c 3e cb e6 a0 3c 08 af de bd
       -0.0142576 0.18414581 0.0196413 -0.10873228
000310 77 aa 53 bc 20 1d bd bc 0d 0f ed 3e d8 b7 bb 3e
       -0.01291906 -0.023085177 0.46300545 0.366637
000320 3c 5b 4d be 2f 2f 28 3e 77 ea 9d 3e 36 2f 3a bd
       -0.20054334 0.16424249 0.30842945 -0.04545518
000330 59 7a b4 be 64 a8 24 be fe d6 32 be dd b1 bd 3e
       -0.35249594 -0.16079861 -0.17464826 0.3704976
000340 fc e6 2b 3e 6d 6a 93 be 3f b9 ce bd 68 07 0f 3e
       0.16787332 -0.28792134 -0.10093927 0.13967669
000350 e4 51 bc 3e bd f4 c9 bd 6e 3f bb be 79 a6 69 bd
       0.36781228 -0.09861133 -0.3657183 -0.057043526
000360 56 a8 fd 3d 54 3b ca be 77 a6 a9 3e e6 91 b8 be
       0.12385623 -0.3949839 0.33134815 -0.36048812
000370 7a f9 34 bd e8 91 92 be 87 37 e8 3e cb 19 44 3e
       -0.044183232 -0.28626943 0.45354864 0.19150464
000380 b9 d9 d8 be e6 b1 59 3e 2e 5f 88 be a6 9b 94 3e
       -0.4235361 0.21259269 -0.26635116 0.29025
000390 80 98 b9 3e 61 f3 be be 36 4f 95 be 4a b6 8c 3e
       0.3624916 -0.37295058 -0.29161996 0.27482826
0003a0 54 7a 0e be 5b cf 6b bd fa b9 4a 3e 13 5f 6d be
       -0.13913852 -0.057570796 0.19797507 -0.23180799
0003b0 49 2b 2c bd 38 3f 9f 3e 3e 36 63 3e 4a ff 29 be
       -0.042033467 0.3110292 0.2218866 -0.16601291
0003c0 42 7a 43 3d 9c 2c 7d 3e 75 75 2a 3e 02 30 7b 3e
       0.047724016 0.24724048 0.16646369 0.24530032
0003d0 3f a1 1c 3e 69 01 50 3e a4 cf cf 3e 1d 9a 64 be
       0.15295886 0.20313038 0.40588105 -0.22324415
0003e0 d9 b7 dc 3e 3a cf 68 3e c7 20 91 be 96 cc 93 3d
       0.43109015 0.227353 -0.2834532 0.07216756
0003f0 b7 16 b7 3e d1 ac 3e bd f9 39 c7 be 9d 50 90 be
       0.35759518 -0.04655153 -0.38911417 -0.28186503

linear3.bias f4 [16]
000000 63 63 09 be 54 ea 7c 3d 3d 87 8c 3b 37 27 13 3e
       -0.1341682 0.06174691 0.0042885826 0.14370428
000010 85 27 04 3d 3b fb 1d be 66 15 09 3e f3 c7 97 bd
       0.03226425 -0.15427868 0.13387069 -0.07411184
000020 34 f5 6f bd d0 b7 05 3e f3 24 aa 3d 15 31 0f 3d
       -0.058583453 0.130584 0.08307829 0.034958918
000030 33 dc d5 3a b2 ea 00 3e 71 44 f5 bd 5d 9b 3f 3e
       0.0016316235 0.12589529 -0.11975945 0.1871161

output_layer.weight f4 [2, 16]
000000 6f 23 0a bf cd ab d3 3d 41 2c 0a bf 38 6b 2d bf
       -0.5396032 0.10335503 -0.53973776 -0.6774173
000010 fd db 2b bf 3d fe 9d be 2d b8 1c 3f 5d 50 cf be
       -0.6713255 -0.3085803 0.6121853 -0.40491
000020 0b 01 01 be 47 f9 4a be fa 91 61 be bc c5 d8 3e
       -0.12598054 -0.19821654 -0.22028342 0.4233836
000030 85 2f 8f be 34 ab c5 bd b0 a8 4f be d1 8f f0 3e
       -0.27965942 -0.09651795 -0.20279193 0.46984723
000040 a7 cf 83 bd 38 59 62 3e 27 82 5f 3e 2c 3c 0c bd
       -0.06436091 0.22104347 0.21826993 -0.034237072
000050 c0 13 12 3c 18 52 34 be 62 ea ee bd 53 30 80 3f
       0.008915842 -0.17609441 -0.11665799 1.0014747
000060 9b 88 b3 be f4 cb d9 be e5 fa b2 be 7e 41 46 be
       -0.3506516 -0.42538416 -0.34957042 -0.19360921
000070 92 91 97 be fe a7 2e bf 3c 4f e6 3d 29 e1 f3 be
       -0.2960325 -0.68225086 0.112455815 -0.4763272

output_layer.bias f4 [2]
000000 c9 2f 16 3e 06 49 44 3e
       0.14666666 0.19168481
