PPO_cartpole_discrete_policy_net.pt (torch, 10796 bytes, 8 tensors)

linear1.weight f4 [32, 4]
000000 5a eb d9 bc 10 bf a6 be ca 54 6e 3e 5c 3a e6 3e
       -0.026601482 -0.32567644 0.23274532 0.449664
000010 88 59 44 bc 7c c4 e7 bd 76 5f 9a 3d 4c 47 33 3d
       -0.011984237 -0.11316773 0.07537739 0.043769166
000020 48 94 14 3f 67 af 36 be 8f 23 8f 3d 91 6b 29 be
       0.5803876 -0.17840348 0.06989204 -0.1654494
000030 bd 94 66 be 92 b1 8f 3e d8 9e dd 3e c9 a4 82 bd
       -0.22517677 0.28065163 0.4328525 -0.063790865
000040 a4 e8 2c 3e 71 f1 83 be d2 3d 00 be 7a cb 48 be
       0.1688562 -0.25770143 -0.12523583 -0.1960887
000050 60 94 9c bd 7c a1 1a be e7 01 86 3e 9d 10 9a 3e
       -0.07645488 -0.15100664 0.26173326 0.300908
000060 36 2d 8d be c5 cf f9 bd b1 07 73 be d8 c9 24 3e
       -0.27573556 -0.12197832 -0.23733403 0.16092622
000070 a8 8b 97 3e e1 5e 3b 3e b6 a7 13 be 51 67 7a bd
       0.29598737 0.18297912 -0.14419445 -0.061133686
000080 cc f1 99 be e5 68 ab be 1d 73 b3 3e a5 a3 8f be
       -0.3006729 -0.33478466 0.35048762 -0.28054538
000090 5e b7 4b 3e d7 ae ef 3e 7c cf 82 3b d3 5d 58 bd
       0.19894168 0.4681308 0.003992019 -0.052823853
0000a0 5b 3e 1b 3e 7c 61 8d bc 49 2a b5 bd 45 e0 c1 3c
       0.15160505 -0.017258398 -0.08845956 0.02366651
0000b0 dd e6 cd be d3 48 ec 3c cc 23 14 be 1b 83 7a be
       -0.40215197 0.028843319 -0.1446678 -0.24464075
0000c0 8d d7 ae 3d 45 bb d9 bd 42 75 f5 3d c7 51 81 3a
       0.08537207 -0.10631422 0.11985256 0.000986629
0000d0 1f a7 0e be a1 f4 4d 3e 3a a9 70 3e cb 38 97 bd
       -0.13930939 0.2011285 0.23502055 -0.07383879
0000e0 9f 7d 45 3d de fe 22 3e a9 bb 5c bc 2b 0c 95 bd
       0.048215505 0.15917537 -0.013472476 -0.072777115
0000f0 82 06 7a 3e 27 18 2e 3e b1 ed 19 bd 5c 54 0e be
       0.24416545 0.17001401 -0.037580196 -0.13899368
000100 08 0b 2d 3e 8f 61 ad be eb 9c 50 be f0 bc 01 3e
       0.1689874 -0.33863494 -0.2037236 0.1266973
000110 69 de f5 3e 80 2e 8c 3e a5 c6 61 3d 1b 3c 28 be
       0.48021248 0.27379227 0.055121083 -0.16429178
000120 02 bb 06 be 1b 28 d4 be 7f 1b 9c be c4 c6 1c 3e
       -0.13157275 -0.41436848 -0.30489728 0.15310198
000130 81 ec f0 bd c9 e3 16 bc 0a 82 43 be 84 26 92 3d
       -0.117638595 -0.009209582 -0.19092575 0.071362525
000140 e6 77 80 3e f3 26 0b 3c ac c0 25 be 47 f7 65 3e
       0.25091475 0.008493173 -0.1618678 0.2245761
000150 49 e0 6f be cb 8a 92 bd 80 cf 9a 3d 2f d7 5e be
       -0.23425402 -0.07155379 0.07559109 -0.21761774
000160 a4 4e 6d 3e 3d 0d 74 3d c9 ba 17 bd 19 85 22 3c
       0.2317453 0.059582938 -0.037043367 0.009919428
000170 9f 39 0a be 69 72 40 3c 18 60 4e 3e 5b d5 1b bd
       -0.13498543 0.0117460275 0.20153844 -0.03804527
000180 61 77 21 3d c9 62 6c 3d 7b 3c 68 3d 99 c8 b6 be
       0.03942049 0.057711396 0.056698304 -0.3569992
000190 da 6d 4e be d3 01 c5 be 0f 06 90 be 4e 30 2b 3e
       -0.20159093 -0.38477954 -0.28129622 0.16717646
0001a0 c6 13 bb 3d ca 33 c3 bd 0f 95 60 be 21 18 b7 be
       0.09134631 -0.09531362 -0.21931861 -0.35760596
0001b0 38 64 e2 3d a6 f5 04 3f b4 dc 4f be 0b 73 98 be
       0.110542715 0.5193733 -0.20299035 -0.2977527
0001c0 28 f1 43 3d 1c ce 84 3e d5 73 38 3d b7 fb d9 bc
       0.047837406 0.259385 0.04503234 -0.026609285
0001d0 6f 2b 87 bc d8 d7 88 3d 5f 59 88 be 92 52 65 3c
       -0.016500203 0.06681794 -0.26630685 0.013996737
0001e0 77 d3 81 3d 88 e9 77 3e 5c 8b 2c be 7d 77 20 3e
       0.06339162 0.24210179 -0.16850036 0.15670581
0001f0 73 f6 68 3e 42 2e ea be 7e 9b c3 3d 25 e8 62 be
       0.22750263 -0.45738417 0.09551142 -0.22158869

linear1.bias f4 [32]
000000 8b c1 a6 3e 92 4e 9b 3e 38 f5 f7 be 76 d6 c8 3e
       0.32569537 0.30333382 -0.48429275 0.3922612
000010 f8 bf 95 3e ab 52 98 3d 8a cf 67 be 6e 14 24 3d
       0.29248023 0.07437643 -0.22637764 0.040058546
000020 55 af 42 3e 71 d7 80 3e 54 e1 0f be d9 df 8f be
       0.19012196 0.2516437 -0.140508 -0.2810047
000030 28 b8 1a be 4e 13 8a 3d 72 09 95 3c 97 71 ab 3c
       -0.15109313 0.06741963 0.01819298 0.020928187
000040 86 4f cd be d3 ee 5b 3e 4c 49 c0 3e 54 8d e4 be
       -0.40099734 0.21477823 0.3755592 -0.44639075
000050 11 8a 06 3d 34 9e 45 be 7c 1f c6 be 2f 40 e8 bc
       0.032846514 -0.19298631 -0.38695896 -0.028350918
000060 26 fa b3 be da ee b4 3e 61 5a 98 3e e2 a3 c5 be
       -0.35151786 0.3533848 0.29756454 -0.38601595
000070 7f ee ea 3e eb 48 47 3e b2 a0 af be 1a 35 ac 3d
       0.45885083 0.1946141 -0.34302288 0.08408566

linear2.weight f4 [32, 32]
000000 d3 90 ac bd 60 86 24 3e aa 34 8f be 74 f6 27 3e
       -0.084260605 0.16066885 -0.27969867 0.16402608
000010 d4 a0 4b be 4f d6 3c 3e 9e 17 97 be 9e cd af 3d
       -0.1988557 0.18441127 -0.29510206 0.0858414
000020 72 59 94 be 0b ab 88 bc 32 8e 7c be e3 74 10 be
       -0.2897449 -0.016683122 -0.24663618 -0.14107089
000030 77 ee 2d be 97 1e 91 3e 4d 55 71 bd fb a5 32 be
       -0.16985498 0.2834365 -0.05891924 -0.17446129
000040 53 31 37 3e 62 9d 90 3c c9 0b 59 3e 2f 83 cd 3d
       0.1788991 0.017653171 0.21195902 0.10034787
000050 2d 90 03 3e f9 f8 78 3c 73 ae 16 bc 0f 68 90 3d
       0.12847967 0.015196078 -0.009196865 0.070510976
000060 8a 5b b1 ba ee 38 63 3e 13 dd 90 3d bf c6 48 be
       -0.0013531309 0.22189686 0.070734166 -0.19607066
000070 e8 5c f2 3d 55 ea 98 3d 74 fb 8e be 4e a9 02 3d
       0.11834127 0.0746657 -0.27926219 0.031899743
000080 86 bb cf 3d 7c a2 66 3d dd 52 dd 3d 9b 43 a7 bd
       0.10143189 0.0563073 0.108068205 -0.081671916
000090 70 3e 68 be 9e 53 f8 bd 6a 69 e2 3c a9 f8 b7 bc
       -0.22680068 -0.12125324 0.027638156 -0.022457438
0000a0 e2 c8 ac bd b6 0f 8f be 79 fc aa bb 06 f3 c6 bd
       -0.08436753 -0.27941674 -0.0052180854 -0.09714322
0000b0 3f 30 42 bd 31 7a dc 3d e6 0b cb 3d a9 84 73 3e
       -0.047409292 0.10765494 0.09914379 0.23781075
0000c0 fa a6 9c 3e b2 23 fe 3d 63 5d 48 bd 5d 6a 9a be
       0.30596143 0.12409152 -0.048917186 -0.30159274
0000d0 49 51 e3 bc bc 3d 9d bd d6 1a f4 3c cf 3f c9 3a
       -0.02774872 -0.076777905 0.029797953 0.00153541
0000e0 0c 13 cc 3d cc 82 19 bc c5 db 98 be b9 0b 36 3e
       0.099645704 -0.009369563 -0.2985517 0.1777791
0000f0 47 4d 27 3e 2d 21 92 3d e3 be 3f 3d 84 93 fa 3b
       0.16338073 0.07135234 0.046812903 0.0076469798
000100 23 7d 67 bd 1f 56 51 3e 67 19 7a be 6c 64 11 bd
       -0.056515824 0.20443009 -0.24423753 -0.03549616
000110 92 0d 4f 3d 9f 10 6d be 90 eb cc bd d4 66 09 3e
       0.05055005 -0.23150872 -0.100058675 0.13418132
000120 f5 a4 04 3e e6 f5 64 be a1 be aa 3d 2b 73 d5 3e
       0.12953551 -0.22359428 0.08337141 0.4168943
000130 14 1d ee 3d d8 ca ac be 07 3a 9e be 89 4a 34 be
       0.1162664 -0.33748507 -0.30903646 -0.17606558
000140 c4 3b 46 3e 79 ce 9e be 59 40 e4 bd 2e cf bb be
       0.19358736 -0.310169 -0.11145086 -0.36681503
000150 e8 87 9f be 16 67 02 3e 69 05 ad bd 4a 55 ca bd
       -0.31158376 0.12734637 -0.084482975 -0.09879549
000160 db 8e fa bc c6 be dc bc 6e 71 90 3d 9c b1 82 be
       -0.030585697 -0.026946437 0.07052885 -0.2552613
000170 49 15 dd bc 5c a7 b4 be 10 21 47 be d3 39 87 3b
       -0.026987689 -0.35283935 -0.19446206 0.004126766
000180 6f 4f 1f 3c 3d 24 dc bc 47 5d 09 bb cf 42 d7 be
       0.009723528 -0.026872749 -0.0020960139 -0.42043158
000190 a2 df 3a be 8d e6 bc bb 03 d4 91 bc c3 27 31 be
       -0.18249372 -0.0057647885 -0.01780129 -0.17300324
0001a0 a2 42 6a 3c 33 73 7c be 1a 97 cf 3d 7b b7 d8 bd
       0.014298113 -0.2465332 0.10136242 -0.10581871
0001b0 ba 0a ee bd 24 ee 62 be 8d 76 4a 3d 03 ed ac 3c
       -0.1162314 -0.22161156 0.049429465 0.02110911
0001c0 cc 3d e3 3d f7 af 0c bd a0 c4 8c bd 62 a2 d5 3d
       0.11095771 -0.0343475 -0.06873441 0.10431363
0001d0 db 74 63 3d 93 6f f7 be 6c 4d ee 3e 1f 0c 15 3e
       0.055531364 -0.48327312 0.46543443 0.14555405
0001e0 80 dd b0 3e ae 14 d1 bd 28 bb dc bd 31 52 ad 3e
       0.3454399 -0.102090225 -0.10777885 0.3385177
0001f0 b7 f5 bf bd ce 8a 06 3d 3b eb bd bd ac f0 d5 bd
       -0.09373038 0.03284722 -0.09273382 -0.10446295
000200 0e 8a 32 be 6b ba d2 3d 2d c8 c5 bd 71 d4 17 3d
       -0.17435476 0.10289463 -0.09657321 0.037067834
000210 6c 5b 5c 3e 1f 57 03 be aa 9f 64 3e bd 22 23 3d
       0.2151925 -0.12826203 0.22326532 0.03982805
000220 30 fa 35 bc 58 6d 8c be 84 17 c1 3d 4c bc 26 be
       -0.011107013 -0.27427173 0.094283134 -0.16282767
000230 47 4f 96 be 6d 68 46 3e a6 be 46 be 66 7b 0b 3e
       -0.2935736 0.19375773 -0.19408664 0.13621292
000240 63 25 ff 3d 35 6b d0 bb de 94 7e be 00 5d ae bd
       0.12458303 -0.0063604363 -0.24861476 -0.08513832
000250 a9 25 22 3d 7c c0 03 be 50 8d 3c be 1c dc 29 be
       0.039586697 -0.12866396 -0.18413281 -0.16587871
000260 3d 6d 00 3d 2e 90 2d bd c1 1f 4f bd e3 5a 07 3e
       0.031354178 -0.04237383 -0.050567392 0.13218264
000270 a0 bc 03 3e d8 33 9c be 46 47 ef bd c2 b4 4b 3e
       0.12864923 -0.30508304 -0.11683516 0.19893172
000280 07 ac b4 bd 3c 61 32 be a0 b0 8b bd da 61 d7 bd
       -0.08821874 -0.17419904 -0.06820798 -0.105167106
000290 f5 f6 9e 3e 67 d8 e8 3d 13 fb 89 3e c2 90 b6 bd
       0.31047788 0.113694005 0.26949367 -0.08914329
0002a0 0a ec 80 3e 2d 4e d1 be f1 ae b7 3d 8f 94 8b 3c
       0.25180084 -0.40879956 0.08968914 0.017038612
0002b0 a4 82 1a 3e ef 02 2f bd 7d 35 0f 3d 3f db 61 3e
       0.15088898 -0.042727407 0.03496312 0.22056292
0002c0 2d ac 12 3e d9 f6 10 be 2e e3 11 3e ae 25 05 bd
       0.14323492 -0.14156665 0.14246818 -0.032506637
0002d0 2c 4f 63 be d3 02 59 be b4 1c ae 3e e8 ed 54 3d
       -0.2219817 -0.21192484 0.34006274 0.051984698
0002e0 17 89 5d be 29 51 e2 3d b8 c4 86 be 46 77 5a be
       -0.21634327 0.11050636 -0.2632196 -0.21334562
0002f0 12 eb cc bd 43 a2 0a 3e d4 b6 ea bd 36 b1 18 3e
       -0.100057736 0.1353846 -0.11460653 0.1491135
000300 df e4 9c bb fb e2 6f 3d e2 3a 50 3a b2 35 ac 3c
       -0.0047880257 0.058566075 0.00079433445 0.021021698
000310 53 77 95 bd 8f 44 6a be cf f7 86 bc 79 2d 25 be
       -0.0729815 -0.22877716 -0.016475586 -0.16130628
000320 93 97 35 be f4 cc e3 3d 52 e0 01 be c1 fd 8d 3b
       -0.17733602 0.11123076 -0.12683228 0.0043332283
000330 82 af 81 bd 22 53 a9 bd d4 24 af bd e2 fc 57 be
       -0.063323036 -0.082678095 -0.08551946 -0.21092561
000340 3b 75 8a 3d ca 04 9c 3c fe d6 bc bd 7d 89 b6 be
       0.06760641 0.019045252 -0.09220694 -0.3565177
000350 43 d3 e1 3d 83 78 00 3e 9f 6b 98 be 6c 33 f9 3c
       0.11026623 0.12545972 -0.29769608 0.030420028
000360 96 6f 52 3e 40 5a dd bb 05 f3 f5 bd 3f f7 52 3c
       0.20550379 -0.0067551434 -0.12009243 0.012876331
000370 70 62 bc 3d af 95 40 be 9d 71 97 bd bb 56 14 be
       0.09198463 -0.188071 -0.07394717 -0.1448621
000380 ba 9b 45 bd a5 20 d4 bd 52 82 43 be 9a 8f 35 bd
       -0.048244216 -0.10357789 -0.19092682 -0.044326402
000390 d8 b0 10 be 48 f3 da 3d 47 f1 2f be f5 94 f8 bd
       -0.1412996 0.106909335 -0.17181884 -0.12137786
0003a0 4b 4a 17 be bf 72 4e be 5a ba 82 bc 93 55 40 be
       -0.14774434 -0.2016096 -0.015958 -0.18782644
0003b0 eb 41 bd bd 98 56 04 3e 4c 07 74 be 47 8a 48 3d
       -0.092410885 0.12923658 -0.23830909 0.048959997
0003c0 86 07 37 3e e9 ea 23 3e df 3b 41 be e8 53 d2 bd
       0.17873964 0.1600758 -0.18870495 -0.1026991
0003d0 64 a2 87 3d fb 5c 3a 3d e5 fd dc bd 4d 62 bf bd
       0.066227704 0.04549883 -0.10790614 -0.09344921
0003e0 5b c5 8e 3d 27 02 de bd 15 92 eb bd 3b c4 fb 3d
       0.06971236 -0.10840254 -0.11502472 0.12293287
0003f0 9b 1b 54 3c 75 22 61 bb e8 bc dd bd 91 f4 4f 3d
       0.012946035 -0.0034352813 -0.10827047 0.050770346

linear2.bias f4 [32]
000000 e0 e0 40 3d df cc 88 bd d8 b4 6f bd fd 12 09 3e
       0.047089458 -0.06679701 -0.058522075 0.1338615
000010 cc bd 55 bd b8 cc 99 3c 66 14 d9 bc 6b 9e 1b be
       -0.052182958 0.018774375 -0.026498985 -0.1519715
000020 7d ca fc bd 0b d1 0d be cf 12 04 3e aa 9f 95 bd
       -0.12343309 -0.13849275 0.128978 -0.07305844
000030 dc 23 50 bd 2b 94 8a bd 5c b6 10 3d c2 97 15 be
       -0.05081545 -0.06766542 0.03533016 -0.14608672
000040 fb 76 dc 3c 3f 8c d7 bd 42 dd 86 3d 65 4c e1 bd
       0.026912203 -0.10524797 0.0658517 -0.11000899
000050 87 9d d5 bd 81 60 34 3d d4 10 d3 bd cb 47 0e bd
       -0.104304366 0.044037346 -0.10305944 -0.034736436
000060 1b b1 46 3c 08 8b e0 3d a8 0d 1b 3d 58 7b a8 bd
       0.012127186 0.10964018 0.03785482 -0.08226651
000070 82 84 5b 3d e9 43 30 bd 38 2e a3 3d a2 50 07 3e
       0.053593166 -0.043033514 0.079678 0.13214353

linear3.weight f4 [16, 32]
000000 26 bf c0 3d be b9 6b bc 26 5b 13 3f 6c ba 8e 3e
       0.09411459 -0.014387546 0.57560956 0.27876604
000010 91 e1 28 3e 69 6b a7 3e 4b 11 b6 bd 4f 53 62 bd
       0.16492297 0.32699135 -0.08890017 -0.05525523
000020 98 d2 29 be 55 2d 40 3d 21 14 65 3d 9e fe 7d be
       -0.16584241 0.046918232 0.0559274 -0.2480416
000030 14 71 f1 3e 44 dd b2 3e 8f 8b 26 3e 7b 35 17 be
       0.47156584 0.34934437 0.16264175 -0.14766495
000040 06 5f 19 ba 49 df 6d bd 62 2c 8b 3e 1a 13 94 3e
       -0.00058506464 -0.05807427 0.271823 0.28920823
000050 a6 3b cc bd 58 79 cc bd c6 12 df bd f9 44 de 3e
       -0.099723145 -0.09984082 -0.108922526 0.43411997
000060 3d a4 df be 51 ec bf be 13 21 7f be d9 3b 93 3d
       -0.4367999 -0.37484983 -0.2491496 0.071891494
000070 b5 1a 72 3e a7 5c 97 3e e2 f8 a6 be 09 90 b8 3d
       0.23643 0.29562876 -0.32611758 0.090118475
000080 d7 41 b4 3d b5 e9 21 3e 8b 86 e4 3e d0 e7 0d be
       0.088016205 0.15811808 0.44633898 -0.1385796
000090 35 6a 87 3e 23 ab 14 bf e5 82 9b 3e a5 ff 91 3e
       0.26448217 -0.58073634 0.30373302 0.28515354
0000a0 9e 4a b7 bd 33 e7 97 3d 9a 3e 08 be 64 8d 83 bd
       -0.08949779 0.074171446 -0.1330513 -0.064234525
0000b0 0d 85 c9 3e 11 d9 3b 3e db 17 59 bd b4 4d f1 bd
       0.39359322 0.18344523 -0.053001266 -0.11782399
0000c0 66 76 a6 3d 56 2a 2b be 55 d7 eb 3e 91 78 51 3d
       0.081280515 -0.16715369 0.46062723 0.05114037
0000d0 2c a5 2e be d5 39 4d be 1e b1 9a 3d 63 21 92 3d
       -0.17055196 -0.20041592 0.07553314 0.07135274
0000e0 7c 05 c1 bc 43 fd 13 be fd e0 6f be 65 de b9 be
       -0.023562185 -0.1445208 -0.2342567 -0.36302486
0000f0 85 fb 06 3f b6 4c 07 3d 94 5c bf 3e ba 49 c7 3c
       0.5272754 0.03303214 0.3737532 0.024327148
000100 78 fe 9e bd c0 81 ee 3d ea 12 46 be 73 09 8c be
       -0.0776338 0.116458416 -0.19343153 -0.2735096
000110 b8 31 53 bd 76 02 b2 bd a6 08 44 3e f0 56 35 be
       -0.051561087 -0.08691876 0.19143924 -0.17708945
000120 b0 44 64 3d cd 36 e8 bb 73 0c de bd 1c 4a af 3e
       0.055729568 -0.007086611 -0.10842218 0.34236228
000130 e1 b2 a4 3b ed e3 85 be ac 8a d8 bd 2e ad f0 3d
       0.005026207 -0.26150456 -0.105733246 0.117517814
000140 68 fb 80 be 18 fa 4c 3d 35 ff d8 bd 2b 49 80 3e
       -0.25191808 0.050043195 -0.10595552 0.25055823
000150 c0 a6 24 be da 81 f5 bb 87 92 25 3e e3 62 4c 3e
       -0.16079235 -0.007492286 0.16169177 0.19959597
000160 60 70 a2 bd 00 0b b0 be 4f d1 ec be 58 26 e6 bd
       -0.0793159 -0.34383392 -0.4625344 -0.11237782
000170 ce 64 66 be b6 dc a3 3e 76 d0 16 3e 25 ce 8f 3e
       -0.22499391 0.32004327 0.14727959 0.28086963
000180 3c e3 e5 3d 30 3e 21 be b9 5b ef 3b 78 2b 46 bd
       0.11224982 -0.15746379 0.0073046354 -0.0483813
000190 21 d0 2a be 87 cb da 3d 03 23 9a bc f4 38 0c 3d
       -0.16680957 0.10683351 -0.018815523 0.034234002
0001a0 a7 00 73 3e 8e 2e 96 3d ef ea 9b 3e 14 c5 82 bd
       0.23730718 0.07333098 0.30452678 -0.06385246
0001b0 f1 5b c2 3d 67 cf 1e bd 01 f4 6e 3e 82 bf 95 3e
       0.09490193 -0.038772013 0.23335268 0.2924767
0001c0 54 ff 8c 3d c4 5d 5d be fd 67 6a be be 50 04 bc
       0.068846375 -0.216178 -0.22891231 -0.008075891
0001d0 ab 1c 3a 3d 3f 88 1a 3c e8 3b 83 3d eb a6 01 3e
       0.045437496 0.009431898 0.064079106 0.1266133
0001e0 ec 0b 8a 3d 8f d3 ca be 97 8e ba 3d dc 9a 92 bd
       0.06740555 -0.3961453 0.09109228 -0.07158443
0001f0 58 bf 4f 3c 54 db 53 3e e6 0a 83 3d 85 b4 3c 3e
       0.012679897 0.20689136 0.06398563 0.18428238
000200 59 a4 87 3e f1 e8 62 3e 94 5a f3 bd fe bb 28 be
       0.26492575 0.22159173 -0.11882511 -0.16477963
000210 7c 6b ac 3e 25 8e 49 3e c3 50 26 3e d7 8b a5 bc
       0.33675754 0.1968313 0.16241746 -0.020208282
000220 4c 71 21 be 95 95 4c 3e 4b 6d 82 3d 14 10 e8 3c
       -0.15765876 0.19978936 0.06368502 0.02832798
000230 95 84 20 3e 37 9d c6 bd 21 3f 89 3e a6 bb 49 be
       0.15675576 -0.09697955 0.26805976 -0.19700488
000240 31 5a 14 3c 78 20 11 be cc 44 0f be d6 b5 e6 be
       0.009054706 -0.14172542 -0.13991088 -0.45060605
000250 cf 87 e8 be a5 22 37 be d7 af be be 0c 34 5a 3e
       -0.45416114 -0.1788431 -0.3724353 0.21308917
000260 65 de 50 3a 4a 59 b2 3d 9d 19 3f 3e e4 aa a5 3e
       0.00079677097 0.08708437 0.18662114 0.32356942
000270 ec 7e 50 be 74 3a 3c 3d c1 0f 62 bc 18 cd f6 3d
       -0.20360917 0.045954183 -0.013797701 0.12050837
000280 b4 47 be bd b1 31 99 be 0a 83 90 be b4 77 71 3e
       -0.0929102 -0.29920724 -0.28224975 0.2358082
000290 82 db 7c be 90 c8 dd 3e b6 e0 0b bc 40 f5 18 bd
       -0.2469311 0.4331708 -0.008537462 -0.037343264
0002a0 4a f9 58 be 37 06 3c be 73 de 05 be e4 52 d1 3d
       -0.21188846 -0.18361746 -0.13073139 0.10220888
0002b0 16 ea 5f be 8d be e7 3e b4 a7 5d be c2 2c 13 be
       -0.2186664 0.45262566 -0.21646005 -0.14372543
0002c0 b9 67 35 be 99 67 c5 be 32 3c b8 3c 0f ad 07 be
       -0.17715348 -0.385556 0.02248964 -0.1324961
0002d0 11 d5 be 3e 32 8b a0 3d b1 0b 05 bd 29 d4 56 be
       0.37271932 0.078390494 -0.032481853 -0.2097937
0002e0 b3 f9 82 3d 4a 92 53 3d ea a9 50 3d 2a 9e 8d 3e
       0.063952826 0.051653184 0.050943293 0.27659732
0002f0 9c 10 8f be 71 35 35 be c2 e9 81 3e ec 09 88 be
       -0.2794236 -0.17696168 0.25373656 -0.2657007
000300 e3 10 84 bd 0e c2 25 3c 67 3d e5 3b fc 60 2e be
       -0.064485334 0.010117067 0.006995845 -0.17029184
000310 90 1a 81 3e 79 0e 35 be 5d 97 eb be c1 12 19 3e
       0.25215578 -0.17681302 -0.4601392 0.1494856
000320 ae 86 ad 3c 71 53 45 3b e4 6f 0b be 77 75 73 be
       0.021182384 0.003010955 -0.13616902 -0.23775278
000330 46 07 8a 3d e7 8e 63 be 64 21 17 3d 61 de 6c 3e
       0.067396685 -0.22222482 0.03689708 0.23131706
000340 18 0f 51 3e 57 39 c9 3d 03 21 94 be 6f c0 dd bd
       0.20415914 0.0982539 -0.28931436 -0.108277194
000350 43 ba 8b 3e 8b 2c 9d be d3 07 80 bd 78 11 3a 3d
       0.27290544 -0.30698046 -0.06251492 0.045426816
000360 a2 f8 a4 3d 3a a2 25 3e cd 85 07 bf c0 89 c2 bb
       0.080552354 0.16175166 -0.5293854 -0.0059368312
000370 bc a7 9a 3e 37 80 85 be 8b 3f 0c bd 5c 85 e1 bd
       0.30206096 -0.26074383 -0.034240287 -0.110117644
000380 b5 e2 9a 3e 25 91 a3 3e 45 f2 1f be 3f 5a 4a 3d
       0.3025109 0.31946674 -0.15619762 0.04940247
000390 52 c4 b8 3d f5 b4 ac 3d 36 51 48 be 98 81 87 bd
       0.0902182 0.08432952 -0.1956223 -0.06616515
0003a0 88 34 52 3e 3a 63 54 bd a8 b0 2e 3e 8e 57 d2 be
       0.20527852 -0.051852442 0.17059577 -0.41082424
0003b0 02 7c 82 be 6b 0b 58 be 85 10 35 3c 95 5a 68 be
       -0.25485235 -0.21098106 0.011051302 -0.22690804
0003c0 fd 89 09 3e 7f 7b 7f 3e 12 db c6 3d 50 0c 03 bf
       0.13431545 0.24949454 0.09709753 -0.5119066
0003d0 6d 0c 8e bd a1 8c 57 be 1e f3 51 3e e5 b9 cc bd
       -0.06935964 -0.2104974 0.20502898 -0.09996394
0003e0 e4 c6 88 3d 62 bd 5e 3e cc e0 03 be 5c c6 6f bb
       0.066785604 0.21751931 -0.12878722 -0.0036586737
0003f0 5f dc 8c be 6b ab d4 bd 5a 90 15 3e 7c 74 86 be
       -0.2751188 -0.10384258 0.14605847 -0.26260746

linear3.bias f4 [16]
000000 1b c7 14 3d 27 a9 33 3e 5a d3 99 bd b8 b4 99 bd
       0.036322694 0.17544995 -0.07511015 -0.075051725
000010 d5 60 4d 3d 79 88 1f 3e 40 c1 2e bc 49 6c f7 3d
       0.050141174 0.15579404 -0.010666192 0.12081201
000020 4e a1 8e 3d 76 ab f8 3d 60 c9 a9 3b 6e 1e e2 bd
       0.0696436 0.121420786 0.0051814765 -0.1104096
000030 df 22 06 be 30 71 59 bc 61 e4 12 3d 9f eb 35 3e
       -0.1309924 -0.013271615 0.03586233 0.17765664

output_layer.weight f4 [2, 16]
000000 96 d4 0d be 2c 2e 99 3e 52 ab 30 3e ba 2a 10 3e
       -0.13850626 0.2991804 0.17252854 0.14078799
000010 bf e0 13 3f 62 99 e7 be e8 b8 4c 3e e1 ec d8 bd
       0.5776481 -0.4523421 0.19992411 -0.10592056
000020 8e 85 04 3e 2e 42 f1 3c 6a 1d 3d bf 95 82 b1 be
       0.12941572 0.029450502 -0.7387301 -0.3466994
000030 e2 84 6b be 96 34 a3 3e ae 6c 31 3e d2 cb b7 3b
       -0.2299991 0.31876057 0.17326614 0.005609014
000040 7f 36 f2 bd 6c 98 c2 3d f6 53 6f bf 7d 86 e3 3e
       -0.118268006 0.095017284 -0.9348749 0.44438544
000050 cb 28 71 3e d3 72 eb 3e 09 fb 02 be 82 db 1d 3a
       0.23550718 0.4598604 -0.12791075 0.0006021784
000060 95 8b 15 3f a7 50 67 be d7 47 3e be 94 4d 38 bd
       0.5841611 -0.2258936 -0.18582092 -0.04499586
000070 5a bb d5 3d 05 d9 07 be f2 1f 28 3e ba f6 d9 be
       0.10436125 -0.1326638 0.16418436 -0.4257105

output_layer.bias f4 [2]
000000 f2 57 52 3d cc 07 1c 3e
       0.051353402 0.1523735
