PPO_pendulum_discretized_policy_net.pt (torch, 11984 bytes, 8 tensors)

linear1.weight f4 [32, 3]
00000000: 4f8a 773e 08a5 9c3e 637a 9a3c 389b 553d
00000010: 27bb d23d 8fd2 793e 806a b63c decb b9be
00000020: d39a 143e 70aa 523e 2cd9 25be d16e fb3e
00000030: 9b5a b33e 0adb cdbe 7652 a2be de97 a63d
00000040: d9cd 26be 2304 32be f51c 2fbe b238 123d
00000050: 9202 6abd e2d4 a6bd b1c3 27be f9d5 86be
00000060: 9782 a53e 5636 503d 76b8 4f3e 09ee c73e
00000070: c2b9 3b3e a8e2 953d 222c 143f f4fc 1dbe
00000080: 596c 86be cdb4 13be 0af9 ccba 9634 eebe
00000090: 03bf 033c 8b9c 823c fcff 733e 51a7 893e
000000a0: f833 0b3f 0c02 093f 392a cd3d 27b7 e13d
000000b0: c1fb 5cbd 3149 ae3e 81d3 dd3e 7fb8 9f3e
000000c0: b71d c83d afee ae3d 996e c7bc 5f25 9dbd
000000d0: 4b8d c4be e692 73bb d269 ee3d 3797 c1be
000000e0: 67cb 223f df30 d43d a0b1 bebe 640b 92bd
000000f0: 597f a5bd b856 323e 9333 243e c789 52be
00000100: 69d4 84be 3146 60be 8d41 613c 10e3 0abd
00000110: 8007 343c 46b1 0a3e c490 08be 49ba b03d
00000120: ab97 13bd 0a8d 82be ba87 ce3d a77a 55be
00000130: 35d7 cabe 79be ab3e c582 003e 4c4d 023f
00000140: 5aef 83be 9501 03ba 51e4 f93d 605a 963e
00000150: 1106 03bf 3d4c 393e d659 1fbe 350e c8be
00000160: b68d 643d d95a cebd f628 d4be 50df e93c
00000170: 9bdc 933e f46c 83bd 51b5 babe f75f 96be
0.24173854 0.3059466 0.018857187 0.05214998 0.10289603 0.24396728 0.02226758 -0.3628835
0.14512186 0.20572829 -0.16196126 0.49107984 0.35030064 -0.40206176 -0.31703538 0.08134435
-0.16289462 -0.1738439 -0.1710089 0.0356986 -0.057131357 -0.08146073 -0.16383244 -0.26335123
0.32326195 0.05083307 0.2028521 0.39048794 0.1833258 0.07318622 0.5787984 -0.15428525
-0.26254538 -0.14424439 -0.0015638184 -0.46524495 0.008041146 0.015943786 0.23828119 0.26885465
0.54376173 0.5351875 0.10017819 0.11021262 -0.05395103 0.34040216 0.43325427 0.31195447
0.09771293 0.08541619 -0.02434473 -0.076731436 -0.38389048 -0.0037166416 0.116412774 -0.3781068
0.6359162 0.10360884 -0.37244892 -0.07131079 -0.0808093 0.17415893 0.16035299 -0.2056037
-0.25943306 -0.21901776 0.013748539 -0.03390795 0.010988116 0.13544187 -0.13336474 0.08629281
-0.036033314 -0.2549823 0.100844815 -0.2084757 -0.39617315 0.33543757 0.12549885 0.50899196
-0.25768548 -0.0004997489 0.12201751 0.29365826 -0.5118113 0.18095489 -0.15561613 -0.3907334
0.05579921 -0.100759216 -0.414375 0.028548867 0.28879246 -0.064172655 -0.36466458 -0.2937009

linear1.bias f4 [32]
00000000: d186 443d 3ce2 fb3e d9bd d1bd 63ab 12be
00000010: 6705 113f 7f22 88be 479f a8be a74f f03e
00000020: c9d3 efbe 882e fa3d 8dff c63e 2895 ccbe
00000030: b016 253e fcd7 f5be 561f 4fbe 51db c13e
00000040: f028 7d3e ee41 c3be 97dc 01bf f3d8 113f
00000050: e626 233e a43e 8b3e a718 653d 843a 3f3e
00000060: f14c dabe 8f2c 1a3e 4ab7 74be 72a8 b33e
00000070: 81d8 cd3e 5200 993d 268c b93e 21bc fcbe
0.047980133 0.4919604 -0.10241289 -0.14323191 0.5664887 -0.26588818 -0.3293402 0.4693577
-0.46841267 0.122159064 0.38866845 -0.39957547 0.16121936 -0.48016346 -0.20226797 0.37862638
0.24722648 -0.38136238 -0.5072722 0.56971663 0.15932807 0.27196229 0.055931713 0.18674666
-0.42636827 0.1505606 -0.23898044 0.3508945 0.40204242 0.07470764 0.36239737 -0.4936228

linear2.weight f4 [32, 32]
00000000: c6f7 3f3e 5a0d 033e fd85 c33d a569 e5bb
00000010: 54b6 7b3e a5cd dbbd e76b 443d 50f3 c23e
00000020: 1e8b 44be 45e5 2c3e e951 b33d cc36 babd
00000030: effe afbd 1480 553e 888b f5bd b253 ce3e
00000040: 7029 97bd c319 ee3d 8743 88be adc2 9f3d
00000050: 251f d63d 22f1 c1bd 3df3 c8bd 43fc be3d
00000060: dbba e13c 2002 07be 5229 ca3c c7c9 13be
00000070: bbb6 873d 74c9 503e 2070 afbe 59b2 b5be
00000080: dac7 8dbb 7770 c1bd 503d 0bbe 8be5 aa3c
00000090: e355 57bd 6ccc a3bd 0f77 86be 9d1b 21be
000000a0: 4e1b e1be 74c6 bb3e 3810 8d3e c2e2 a8bc
000000b0: caec 70be 2215 523e 04a7 353e 7be6 a83d
000000c0: 31c2 e93d 71ee 073e 91d7 e23d f2b3 463c
000000d0: 43f5 05be 8494 07be d76a d4bd b2ed 87bd
000000e0: 5dd0 4abe 5c2c 0a3e 0ea5 1f3d 389d eb3d
000000f0: f66b 4bbd 4894 043e 3c47 84bc 8ffc 32be
00000100: d5d4 cfbd c864 bdbb e8cb 36bc b0f7 b5bc
00000110: da11 c5bd 8b8a d53d ccff 8abe b104 c83e
00000120: 2982 efbd 3f76 6abe a74b 80bc 9ff0 dd3d
00000130: c7bb f73d 3afc 26bc 38d3 b93e a042 b63e
00000140: 969f 64bd 5e89 ffbd 26bc febd 69c9 2fbd
00000150: 8275 a83e 4a18 c33e 87e1 0b3e f43a 53be
00000160: b3c0 a6bd de3e 3cbd fe3e 4bbe 91bc a0be
00000170: f310 093e 8bca c5bd 6b58 9abd b2ca a83d
00000180: c4c8 7cbe f4d9 99be 6751 25be 50b6 63be
00000190: a8e0 4cbd 77c8 a6be 912c 3c3d f41e 12bf
000001a0: 5a88 22bd df5e 153c bbd3 a2be d983 91be
000001b0: 3cf3 b6be ad02 ffbc 263d 37bd d2d5 9ebb
000001c0: 39a9 8bbe ae30 84be 72a4 23be 173c 3ebe
000001d0: a0f0 0fbe 79f8 90bd 1b72 2d3e 4e51 563e
000001e0: 8ad0 073e 691e a4bd 7dde acbc 22f4 963e
000001f0: b9ea b13e 9fa9 143e 1b33 a1be 3d76 b0be
00000200: afac 133e 2190 c13c 66b3 0b3d 2905 a5bd
00000210: b2fb 8e3e 95be c3bd 2b77 12be 8964 adbd
00000220: d753 ffbd 3175 d7be 669f 62be 75e4 db3c
00000230: 772f d8be 6f29 c1bd ca2a e23d ead0 a9bd
00000240: 0032 1abe 5b20 933d 8ae3 fe3b f279 01be
00000250: f722 cf3e b030 e9bd 59c5 abbd 2838 94bd
00000260: 551e 35be 2c72 f93d ab91 3c3e 6193 01be
00000270: c302 273e 9c3e bb3d 0325 71bd b0e8 453e
00000280: 0f10 f33d c1a4 9ebd 5a5b 30be 111b 8e3d
00000290: 8c2a 0e3d 4dc3 2dbd 6afa 833e 5885 b6be
000002a0: ad45 24be 8c32 343c 39f8 0ebe 7754 af3d
000002b0: d062 5cbd d01b adbd 997d 233d 2f77 be3c
000002c0: cb7f 61be 9338 ba39 dc07 ff3c c429 0cbd
000002d0: 0ba0 8cbd a75b ed3d 298d 38bd ce20 45bd
000002e0: 2d87 2e3e 1435 963b 955e 55bd 4ef7 503d
000002f0: 702f aebd 9a61 f93d 5dc2 3c3e f91a 313d
00000300: fe80 c53c d1fa 88be 446d 88bd 2c5a 48be
00000310: 525e 32bd 4f05 bebe 6726 1c3e 9cfd 9cbd
00000320: d80d 86be 9900 26be 16a1 ecbd 2f73 e8bd
00000330: c4b4 8b3c 1856 1bbe c0c0 57be 0ff4 f53d
00000340: f383 4e3d 58c9 4abe 9976 c4bd 3324 de3e
00000350: 8056 57be afd5 023d 8efa 8bbe eb02 66be
00000360: 5f00 a33e ed09 2ebe e36e 1cbe 8cb6 2d3e
00000370: 4c47 a33d 89f9 e0bc 8338 8c3d 13aa 333e
00000380: c1c2 993d 08f1 f53b cb5d a5be 57ba 81bd
00000390: 5dc5 5e3c 2603 493d 28a6 82bd b5be d5bd
000003a0: 1e7f 693e 7495 4c3d f166 31be bf3c 0dbc
000003b0: 55a7 2f3e 05dc 33bc fa13 35be 06b4 ee3d
000003c0: 8701 e5bd 6d6e 17be d932 cebd d8a9 adbb
000003d0: 0c5d f63c 41cc a13e be43 703c 1ba4 e73c
000003e0: 56d2 4fbe 9cf2 053e 78bc 43be 3a2a d5bd
000003f0: 05f4 85be 87dc 103e 4457 57be bd44 9bbd
0.18746862 0.12798062 0.095470406 -0.007001119 0.24581271 -0.10732583 0.047954466 0.38076258
-0.19193694 0.16884334 0.087558575 -0.09092483 -0.085935466 0.20849639 -0.11989504 0.4029823
-0.073809505 0.116260074 -0.2661402 0.07800803 0.10455159 -0.094698206 -0.09812019 0.09325459
0.02755492 -0.13184404 0.024677906 -0.1443244 0.0662665 0.20389348 -0.34265232 -0.3548763
-0.0043268027 -0.09445279 -0.13597608 0.020861408 -0.052572142 -0.07997975 -0.2626271 -0.1573319
-0.43966144 0.36674845 0.27551436 -0.020615939 -0.23527828 0.20515874 0.17739493 0.08247086
0.11413992 0.13274552 0.11076272 0.012127863 -0.13081841 -0.13240248 -0.103719406 -0.06637134
-0.19806047 0.13493484 0.038975768 0.115045965 -0.049663506 0.1294719 -0.016147248 -0.17479156
-0.10148016 -0.0057798363 -0.0111570135 -0.022212833 -0.096225455 0.104268156 -0.27148283 0.3906608
-0.11694748 -0.2289667 -0.015661074 0.108369105 0.120963626 -0.010191971 0.3629396 0.35597706
-0.055816256 -0.124773726 -0.1243823 -0.04291669 0.3290215 0.3810447 0.1366025 -0.20627958
-0.08142223 -0.045958392 -0.19848248 -0.31393865 0.13385372 -0.09657773 -0.07536396 0.08241786
-0.24685961 -0.30049098 -0.16144334 -0.22237515 -0.050018936 -0.32574818 0.04594094 -0.5707848
-0.039680816 0.009116857 -0.31802163 -0.28420904 -0.35732448 -0.031129206 -0.04473605 -0.0048472667
-0.27277544 -0.2581839 -0.159807 -0.1857761 -0.14056635 -0.070786424 0.16938059 0.20929453
0.13263145 -0.08013613 -0.021102184 0.29483134 0.34749392 0.1451783 -0.31484303 -0.3446521
0.14421342 0.023628296 0.034106635 -0.08057625 0.27926403 -0.09557835 -0.14303271 -0.08466441
-0.12467163 -0.42081597 -0.22131118 0.026842335 -0.42223713 -0.09431731 0.110433176 -0.082918
-0.15058136 0.07183906 0.0077785896 -0.12644175 0.40456364 -0.113862395 -0.083872505 -0.072372735
-0.17687352 0.1217998 0.18414943 -0.12653877 0.16309647 0.09142801 -0.058873188 0.19327044
0.11868297 -0.07746268 -0.17222348 0.06938756 0.034708545 -0.04242258 0.25776988 -0.35648608
-0.16042204 0.010998379 -0.13961877 0.08561032 -0.053805172 -0.084525704 0.0399147 0.02325019
-0.22021405 0.00035518836 0.031131677 -0.03421952 -0.06866463 0.11589747 -0.045056496 -0.048126988
0.17043753 0.004583964 -0.052092154 0.051017098 -0.08505142 0.12176819 0.18433519 0.043238614
0.02410936 -0.26753858 -0.06661466 -0.19565648 -0.043546982 -0.37113425 0.15249024 -0.0766556
-0.26182437 -0.16211165 -0.11554162 -0.113500945 0.01705397 -0.15169561 -0.21069622 0.12009441
0.050418805 -0.19803369 -0.09592933 0.43386993 -0.21029091 0.031942066 -0.27339596 -0.2246205
0.3183622 -0.16995974 -0.15276675 0.16964167 0.07972583 -0.027462738 0.06846716 0.17545347
0.075078495 0.00750554 -0.3229812 -0.0633437 0.01359686 0.04907527 -0.06379348 -0.10436765
0.22802398 0.049947217 -0.17324425 -0.00862044 0.17153676 -0.01097775 -0.17683402 0.116554305
-0.11181932 -0.14788218 -0.10068292 -0.005299788 0.030073665 0.31601146 0.0146645885 0.028276494
-0.2029508 0.1308083 -0.19114864 -0.10408445 -0.26162735 0.14146625 -0.21029383 -0.0758147

linear2.bias f4 [32]
00000000: e533 0cbd e746 49bd fa7e 6839 82ac 58bd
00000010: bfa2 a13d a33b d3bd c616 3c3b 7c42 fdbd
00000020: 7980 01bd 8ad9 10bc 7b1a 19bd d70b 7f3c
00000030: b54a 1dbe 0763 0f3e 5c2f 7fbd 558b 623d
00000040: 6826 80bd 1229 58bd 620c 16bd 8a96 debd
00000050: be1d 6abb 9365 d7bd 1527 bd3c e81a b0bd
00000060: 419d 0c3d 6383 863b 3766 33bd 2f1e f8bc
00000070: 2d42 b33c 3ba1 0bbe 930a 5ebb e25a 733d
-0.034229178 -0.049139883 0.00022172547 -0.05289889 0.078923695 -0.10314109 0.0028700097 -0.123661965
-0.03161666 -0.008840928 -0.03737877 0.015566788 -0.1536053 0.1400262 -0.062301025 0.05530866
-0.062573254 -0.052773543 -0.036632903 -0.10868557 -0.0035723294 -0.105174206 0.023089925 -0.08598882
0.034329657 0.004105018 -0.04379865 -0.03028783 0.021882141 -0.13635723 -0.0033880814 0.059412844

linear3.weight f4 [16, 32]
00000000: 561a 9dbe 3b1c ad3e 43ef 543c 9b07 56be
00000010: 2d79 53be 176c 6bbe fb95 9d3d a983 b73e
00000020: 03fc 883a 4955 40bc c771 933d afb4 113e
00000030: 4572 4e3e fe17 e4bc 559a b43e 2f19 893e
00000040: 510d a83e 61bd bf3e 390d 593e 17ef 3e3e
00000050: af27 bb3d d472 80bd f6c7 a93d 91c3 8abd
00000060: a16a b6be 71bc 96be 19d2 2ebe dda0 b9be
00000070: 9e93 13be afbf 9fbe 936c 943e 8f3f 4f3e
00000080: b81b 43be 99ae 22bf 6645 dcbd 262b f43c
00000090: 6f87 69be efae ad3d 683d 0c3d ecbf 083e
000000a0: b192 f1bd 20f0 033b f275 133e c5bb 76bd
000000b0: 6895 37bd f1fc 963d cc84 103e ab4b 83be
000000c0: ca68 1dbe c79e 03bd 8bc1 84be 3f38 c93e
000000d0: 4c34 a3bd daf4 863e d97c 323e 589a c6bd
000000e0: b738 ed3c 2206 74be db6a 97be 25c2 b23d
000000f0: d254 ba3e c04c 843d c318 69be bd87 86be
00000100: 891a 1e3e 0ffb 50be 64de 1abe fe7d 8dbe
00000110: 1b1b 713e e5af 53ba f2e3 3d3e 8b6e fa3d
00000120: b092 9bbe 6da3 af3e f05d 483e e6fb 36be
00000130: 588c 85bd 5f81 1c3d 31e8 0bbf 9e83 19be
00000140: 97d7 563e f457 213d 7d04 90bc 5508 e2bd
00000150: ad3d 61bd f93a 8bbe 3efa ac3d 8ff9 a6bd
00000160: b79e 913e 4370 b63e bc2d e83d bb6d 253e
00000170: 3e57 9cbd 9d2d 5cbd c490 31be 61bf 6a3e
00000180: f14a 05be 6510 21bf 814c a2be a255 a4be
00000190: ee1f a73d 43ac 9e3d 6424 743e 9d7d ccbc
000001a0: 8c9a b1be afcc f13d 6b00 ae3d 53a4 673e
000001b0: f4bc cebe 940f 053e b1d5 85bb 42ae c63d
000001c0: 8d0e 8cbc 25bd a13e 328c c23d 5a68 56bd
000001d0: d218 233e 8586 3fbe 85e3 dabe f36f 3c3e
000001e0: 1de2 753d 95e7 ff3e 706a 0cbf e5a8 01bd
000001f0: 7f69 0c3e f185 1a3e f0ca 5ebe 9072 953e
00000200: c347 443e 444b 803e 2e6f f53e a3a0 6cbe
00000210: 1f2c 8dbe a022 543e e226 863d 9300 4abc
00000220: ecd5 bd3d 8714 96bd 507a 5dbe 2105 713e
00000230: d364 173e 65d0 f43c c922 58be 1f72 b63d
00000240: c6a6 983d f35e 9a3e 09ed c1bd 2885 98bc
00000250: fa64 103d 9c43 12bd 1bbf 8b3e 66d3 01be
00000260: d40e 7abe e73f ebbd c7d3 013e cec9 a2be
00000270: 6da4 0f3f 7672 693d 047a 293e 6f9a 3a3e
00000280: 6a45 92bb 0f73 8dbe 6300 473e ed7a b7be
00000290: 985e 0a3e 4089 44be 8d41 b13e 1169 7bbd
000002a0: edf8 103e 64cc 473e 00a4 04be 2d7c af3a
000002b0: 480d 683e b569 e63d f316 9c3e 719c 8f3d
000002c0: 7c3c 3a3e 14d2 ef3d 2112 a4be b8db ca3d
000002d0: ef11 bcbe 55fc 493e c5b3 a8be ce75 7ebe
000002e0: 2e55 8f3e 5fb2 43be c93c 193e 286d 423d
000002f0: 3e83 1c3e bc68 2d3e f82d a53e 46b9 283d
00000300: 23ad 41be 22ef 8f3d 84c5 883e 16f4 083e
00000310: 5755 323d faca a5bd 7d65 18be 4ca4 65bb
00000320: 2280 263e 4c89 37be 9827 763e 1d33 153d
00000330: 4d14 c33e bfb4 2fbd 98dd c13d f67b 473d
00000340: fdd5 25be 1e60 56be 0236 75be f739 2e3e
00000350: f8a1 983c e49a 823c 1cae 6b3d 01ac 8cbd
00000360: aafa a0bd 00bc 66be 2ea3 91bd 703d 0dbe
00000370: 023f a7bd 5836 1fbe c876 3bbc 0768 28bd
00000380: 0049 8abd b935 0b3e a1d3 733d 029e c4be
00000390: b1c6 9dbd 83bd bebe 9089 ed3e 741a 31bc
000003a0: e042 dfbd e1d4 f5bd df9b 863c 1123 8bbe
000003b0: fac9 a3be aafa 8d3e ebce 663d 81a6 40bd
000003c0: a74f 7bbe cf84 5fbd 2df8 bdbd 571e 9a3d
000003d0: 78d1 9ebe faa9 74bd f984 a3be fc36 f6bd
000003e0: bec8 b13e 7a90 fcbe de5f 1fbf a03a c1be
000003f0: 4129 dbbd 7d4f 493d 6de6 b9bd 0627 95be
-0.30684155 0.338106 0.012996498 -0.20901339 -0.20651694 -0.22990452 0.07694622 0.35842636
0.0010451082 -0.011739084 0.07199436 0.14229082 0.20160778 -0.027843472 0.35273996 0.26777026
0.3282266 0.37449172 0.2119645 0.18645893 0.091384284 -0.06271902 0.08290093 -0.067755826
-0.35628226 -0.29440644 -0.17072333 -0.3625554 -0.1441178 -0.3120093 0.28989086 0.2023909
-0.19053543 -0.63547665 -0.10755424 0.029805731 -0.2280557 0.084806316 0.03423825 0.13354462
-0.11795557 0.002013214 0.14400461 -0.060237665 -0.04482022 0.073724635 0.14113158 -0.25643668
-0.15372005 -0.032133844 -0.25928912 0.39300725 -0.07968959 0.26358682 0.17430438 -0.096974075
0.028957708 -0.23830464 -0.29573712 0.087284364 0.36392838 0.064599514 -0.22763352 -0.26275435
0.1543981 -0.20408271 -0.15123898 -0.27635187 0.23545496 -0.00080752216 0.18543985 0.12228116
-0.3038535 0.3430437 0.19567084 -0.17869529 -0.06520909 0.038209315 -0.5465117 -0.14991614
0.20980678 0.03939052 -0.017580265 -0.110367455 -0.05499046 -0.2719343 0.084461674 -0.08153068
0.28441402 0.35632524 0.11336848 0.1615514 -0.076338276 -0.053754438 -0.1734038 0.22924568
-0.13016869 -0.6291564 -0.31698993 -0.32096583 0.08160387 0.077477 0.23842007 -0.02496224
-0.34688222 0.118066184 0.084961735 0.22621278 -0.40378535 0.12994224 -0.004084312 0.09701206
-0.017096782 0.31589618 0.094993964 -0.05234561 0.15927437 -0.18703659 -0.4275171 0.1840208
0.06003009 0.4998137 -0.5484991 -0.03165521 0.13712119 0.15090157 -0.21757102 0.29188967
0.19168 0.25057423 0.47936386 -0.23108153 -0.27572724 0.20716333 0.06550385 -0.0123292385
0.09269318 -0.07328134 -0.2162869 0.23537113 0.14784555 0.029884527 -0.2110702 0.089084856
0.074536845 0.30150566 -0.09469039 -0.018618181 0.03525255 -0.03570901 0.2729424 -0.12678298
-0.24419719 -0.11486798 0.12678443 -0.3179459 0.5611027 0.056993924 0.16550452 0.18222974
-0.004463841 -0.27626845 0.19433741 -0.35835972 0.13512647 -0.19192982 0.34620324 -0.061379496
0.14157458 0.19511563 -0.12953186 0.0013388448 0.22661316 0.11250631 0.3048626 0.07012261
0.18187135 0.11709991 -0.3204508 0.09905189 -0.36732432 0.19725163 -0.32949653 -0.24849626
0.27994674 -0.19111012 0.14964594 0.04746738 0.1528444 0.16934484 0.32261634 0.041192316
-0.18913703 0.07028033 0.26713192 0.13374361 0.043538418 -0.08095355 -0.14882465 -0.0035040556
0.16259816 -0.17923468 0.24038541 0.0364257 0.38101426 -0.042896982 0.09466094 0.048702203
-0.16194911 -0.20935103 -0.23946384 0.170143 0.01863192 0.015942998 0.05753909 -0.06868745
-0.078603104 -0.22532654 -0.07111202 -0.13792968 -0.08166315 -0.15548074 -0.011441894 -0.041114833
-0.06752205 0.13594712 0.059527997 -0.384018 -0.07703913 -0.3725396 0.46394014 -0.01080953
-0.10901427 -0.12003494 0.016431747 -0.2717519 -0.31990033 0.27730304 0.056349676 -0.04703379
-0.24542104 -0.054570016 -0.092758514 0.07525318 -0.31019187 -0.059732415 -0.31937388 -0.12022206
0.34723467 -0.49328977 -0.62255657 -0.3774004 -0.10701228 0.04914807 -0.09077153 -0.29131335

linear3.bias f4 [16]
00000000: ff3c 4b3b ccaa 2d3d 2a84 643c 8356 483d
00000010: 8aab 93bd 4ca1 c53d b32e 2fbe 786a 023d
00000020: 2cf1 df3d f877 1dbe ba09 1e3e 70ab d13d
00000030: 2efb 80bd 8bad 5cbd 590a 203e c317 eabd
0.0031011698 0.042399213 0.013947526 0.04891063 -0.07210453 0.096499056 -0.17107658 0.031839818
0.10934672 -0.15377796 0.15433398 0.10237777 -0.06297909 -0.05387644 0.15628947 -0.114303134

output_layer.weight f4 [21, 16]
00000000: bfd8 8fbd c9d2 d7be 0b7f 11be 8726 89be
00000010: 1427 3e3e c9b6 5a3c 4432 83be 9049 76bd
00000020: 88f0 603e 7bcb 05be 7b3e 61be 1b25 3c3e
00000030: 6963 f23d 86d8 ecbd 301f 753e e99f 95bd
00000040: c700 febd af3a b73d a30a a83e 5683 253c
00000050: 06af c03e 98b9 04be 2b0f 2fbe 50d5 e9bd
00000060: 14cd 5e3d c05e 013e fdd5 0f3e d8a1 b53b
00000070: 5709 92be a061 de3d fd94 e3bd 11c4 df3e
00000080: ae9d 15be 3c62 32be eb31 1bbe 4218 9e3d
00000090: 0297 703e 9073 61be 4c2a edbc f728 e8bd
000000a0: a850 c6bd 55e7 343e 7f0b 08be 207b cebc
000000b0: ee85 e9be 7dc6 ba3e e077 bb3c 80d7 f6bd
000000c0: 9d4c 943e d3f3 04bd 71f3 d0bd 419c 06bf
000000d0: 2296 a8bd 7b30 773e 34f7 f6bd 8175 bc3d
000000e0: e15d c2be f347 c63d 296c 453e fc8f 14bd
000000f0: 4f28 0b3e d0bb 35be 9513 28be ea1a 383e
00000100: ce2b dbbe ef51 6ebc ebc4 db3d 582b c53d
00000110: 1440 8d3e 0637 c93d 52e4 cebd 31ea 6b3e
00000120: fa22 42be 1235 4e3d f301 78be 68ac 1a3e
00000130: e1e4 61be f7fb 85be f099 6bbd 6649 b1bd
00000140: 5c09 52be 5644 663e 6198 713e 0766 1f3e
00000150: f1eb 733d 6228 2c3e c5e0 11be 1732 553c
00000160: 19a9 773e 76e8 dcbd e248 a8be ee66 a4be
00000170: 7f9b b6bc 5e80 63bd ce78 23bf 9ef3 be3e
00000180: 9b62 0cbc f676 863d 2fd7 f23d ff24 033e
00000190: f228 b53d d5a0 d4bc 9925 d8be 7e96 d03e
000001a0: 3974 403e 942c 43be ff56 8bbe 88df 92bd
000001b0: 473a a93d 7c0e a93d 57b3 e43e 9150 833d
000001c0: 328a a1bb ab34 22be 2143 60bd 73ac 90be
000001d0: 1538 053f 7078 9a3e a154 92bc dd51 9f3e
000001e0: 6573 f6bc c6f3 403f 153d bc3e 0bf8 5dbd
000001f0: 2ac3 c03e 9665 943e 1a6e 9ebd 596b 08be
00000200: 183a 17be 26ff afbe 9a6c a3bd 6c1d 8fbd
00000210: 4e28 94be 09c9 3dbe 9559 bebe 7e40 abbd
00000220: 4d91 abbd 33b1 c5bc a0e0 abbe b456 703e
00000230: 7207 07bd 58ed 0d3d 9039 19bf 1490 743e
00000240: 6047 de3d 6349 5dbe c4e1 fabd f60b 61be
00000250: a747 9dbd 84cd 00bf 8320 093e 44ef 143e
00000260: 7d9d b9be 83e4 60be 9d8d 953d 7e9e ae3c
00000270: 04e5 313e 39ad 993d d799 1f3d 2021 91be
00000280: 8d0c 013e 1995 25bf e5e0 73bd f24c 02be
00000290: 9dee 3f3d 8544 873e 67ae 78be 7c15 4d3e
000002a0: b6bc cbbe af61 c83e c938 723e 3fdd 773d
000002b0: 576a d83d 3346 8ebe 7fa3 f43d 6a34 ffbd
000002c0: 82b1 d63d fead 37be 874b 933e 0bf4 3cbe
000002d0: 4304 76be f05b 5d3e e6cf 633e 24bc 893e
000002e0: 144c 063c 4880 cbbd 9767 ebbd 2d6d c73d
000002f0: 3b3c 4f3c 16eb 663d 89db e93e c40c 7f3e
00000300: 884b 33bb 102b a03e fa90 cfbd 4970 dfbe
00000310: 1c26 82be 1f4a bebc 5577 22be 7614 073f
00000320: 9ad8 d43e c117 eb3d 07b6 d53d 5a85 763c
00000330: 878c b6bd 3469 76be e5bf 96be 7ebf 52bc
00000340: 6387 e4bd da49 583d b517 863d 7caf 763e
00000350: 245c 64be cfb9 a83e b4c4 5abd 3a2c cf3e
00000360: ae3f 51be a92d 55be eb16 dfbe 9dc4 4fbe
00000370: 6915 4cbe d66d 813b 3c64 173e f6c0 843d
00000380: c375 2e3d c132 6dbd 5161 963e a4f4 92be
00000390: 13e3 d8bc 7c52 05be 8776 dabd 21e6 433e
000003a0: 905a b23d 5e42 94be 179d 373e 5837 8a3d
000003b0: fe4b c4bd 54c4 d73e 9780 97bd 7d92 b2bc
000003c0: 5423 93bd f4d0 903e 12e6 85bd fc1c d7be
000003d0: 2975 8d3d 26f8 40bd 1706 d2be e591 abbe
000003e0: 8ede d3be ed4f cd3e fe15 493d f0de 6a3d
000003f0: b47f 3abe 91c3 debe 25ed a33e 5dda 593e
-0.07023763 -0.42153004 -0.1420862 -0.26787207 0.18569595 0.013349243 -0.25624287 -0.06012875
0.21966755 -0.13065903 -0.2199649 0.1837353 0.11835367 -0.11564736 0.23937678 -0.07305891
-0.12402492 0.0894674 0.32820615 0.010102114 0.37633532 -0.12961423 -0.1709563 -0.11417639
0.054394796 0.126338 0.14046474 0.005542975 -0.2852275 0.10858464 -0.11112402 0.43704274
-0.14610931 -0.17420286 -0.15155761 0.077194706 0.23495105 -0.2201674 -0.028950833 -0.113359384
-0.09683353 0.17666371 -0.13285635 -0.025205195 -0.45609993 0.3647956 0.02288431 -0.12052822
0.289647 -0.03245909 -0.10202683 -0.52582175 -0.082317606 0.24139588 -0.12058869 0.092020996
-0.3796225 0.09681692 0.19279541 -0.036270127 0.13589595 -0.17747426 -0.1641372 0.17979017
-0.42806858 -0.014545902 0.107309185 0.09627408 0.2758795 0.09824948 -0.101021424 0.23038556
-0.18958655 0.05034358 -0.24219494 0.1510483 -0.22059967 -0.26168796 -0.057519853 -0.08656578
-0.20511383 0.22487006 0.23593284 0.15566264 0.059551183 0.1681228 -0.14245899 0.013012431
0.241856 -0.10786526 -0.32868105 -0.3210978 -0.022290943 -0.055542342 -0.6385621 0.3729524
-0.008568431 0.06565659 0.11857449 0.12807082 0.088457 -0.025955597 -0.42216185 0.40739816
0.18794335 -0.19059974 -0.2721481 -0.071715415 0.08263069 0.08254716 0.44668075 0.06411851
-0.0049298042 -0.15840404 -0.05475152 -0.28256568 0.520387 0.30170012 -0.01786262 0.31117144
-0.030084321 0.7537197 0.36765352 -0.05419163 0.37648898 0.28983754 -0.07735844 -0.133222
-0.14768255 -0.3437435 -0.079796985 -0.06988034 -0.28937 -0.1853372 -0.3717772 -0.0836191
-0.08377323 -0.024132347 -0.33569813 0.23470575 -0.032966085 0.034650177 -0.5985346 0.23883086
0.108534575 -0.21610026 -0.122500926 -0.21977219 -0.07679682 -0.5031359 0.13391308 0.14544398
-0.36252967 -0.2196217 0.07302401 0.02131581 0.17372519 0.07503743 0.038965072 -0.28345585
0.12602444 -0.6468063 -0.059540648 -0.12724665 0.04685842 0.26419464 -0.24285279 0.20027727
-0.39792413 0.39137027 0.23654474 0.06051373 0.10567158 -0.27787933 0.11945247 -0.12461169
0.10483076 -0.17937467 0.2876856 -0.1845247 -0.24025063 0.21617103 0.22247276 0.26901352
0.008196849 -0.09936577 -0.114943676 0.097376205 0.012648637 0.05637654 0.45675305 0.24907213
-0.0027358253 0.31282854 -0.10135074 -0.43640354 -0.254197 -0.023228703 -0.15865834 0.52765596
0.41571504 0.1147914 0.104351096 0.015046442 -0.08913522 -0.2406357 -0.2944328 -0.012863038
-0.111586355 0.052804805 0.065474905 0.2409038 -0.22300774 0.3295426 -0.053410247 0.4046343
-0.20434448 -0.20818199 -0.43572173 -0.20289846 -0.19930042 0.003949861 0.1478433 0.06482117
0.042592775 -0.05790973 0.29371122 -0.2870227 -0.026475465 -0.13019747 -0.106671385 0.19130756
0.0870868 -0.28956884 0.17931019 0.06748837 -0.09584807 0.42141974 -0.073975734 -0.021798367
-0.07184473 0.2828442 -0.06538023 -0.420143 0.06907112 -0.047111653 -0.4102027 -0.33509746
-0.41380733 0.4010004 0.04909324 0.057341516 -0.18212777 -0.4350858 0.32016864 0.21274705

output_layer.bias f4 [21]
00000000: 09ee 723c c6a9 2fbd dac0 c83d 2e71 483c
00000010: 29fc 533d de31 32be 1d47 3ebe 693c b3bd
00000020: 4904 67be 459f e3bd 3437 3dbe 5d96 1bbe
00000030: 262b 323c daf2 8cbd f418 313e 075f ec3d
00000040: a532 41be b200 983d bec1 533e d649 863e
00000050: a805 89bd
0.01482726 -0.042886518 0.098024085 0.012234015 0.05175415 -0.17401835 -0.18581815 -0.08751757
-0.22560228 -0.111143626 -0.1847809 -0.15194078 0.010874545 -0.06882258 0.17294675 0.115415625
-0.18866976 0.074220076 0.20679376 0.26228207 -0.06690532
