PPO_pendulum_discretized_policy_net.pt (torch, 10768 bytes, 8 tensors)

linear1.weight f4 [32, 3]
-0.28026325 -0.28815123 0.24181966 0.026000783 -0.6761877 0.5111462 -0.49216196 -0.19196057
-0.1867842 0.7576626 0.5335477 -0.011971765 0.2343688 -0.41731697 0.1653478 0.18689683
0.14955857 0.29686412 -0.22118083 -0.42355812 -0.086330265 0.5490214 0.62745374 -0.0018224925
0.38648888 -0.40115297 -0.43362895 0.48378935 0.5699034 0.15448634 0.43013337 -0.59954727
-0.49611023 -0.12675211 0.4326119 -0.5458675 0.28302136 -0.22910331 -0.22165324 -0.07113128
0.29704735 -0.3320783 0.07719164 -0.6480806 0.05000886 0.1692297 0.19920342 -0.26061004
-0.26716772 0.21121019 -0.14440016 -0.29143155 -0.18544205 0.103677526 -0.4621064 -0.26885122
-0.15376846 -0.36197886 -0.29336482 -0.08216642 0.120464794 -0.10776882 -0.025232114 -0.27572402
-0.1953618 0.23201828 -0.7282927 0.30212525 0.10939716 -0.43169552 -0.229668 -0.04258061
-0.33430293 -0.10029686 -0.033911854 -0.1593791 0.64126414 -0.2953539 0.4390686 0.66617066
0.7707473 -0.31305936 -0.14460024 -0.101061225 -0.659534 0.41162783 0.18745553 0.54413575
0.36051223 -0.3342373 0.70472103 0.03496024 0.0895753 0.3271947 -0.44332722 -0.5312737
00000000: aa7e 8fbe 8f88 93be 939f 773e 98ff d43c
00000010: a31a 2dbf 7ada 023f a7fc fbbe 5091 44be
00000020: 5b44 3fbe 2df6 413f 9596 083f 3925 44bc
00000030: 60fe 6f3e 92aa d5be ef50 293e e261 3f3e
00000040: e225 193e 93fe 973e 3a7d 62be 9cdc d8be
00000050: eccd b0bd ab8c 0c3f cfa0 203f b3e0 eeba
00000060: dfe1 c53e ec63 cdbe 9d04 debe 3db3 f73e
00000070: 30e5 113f ab31 1e3e 713a dc3e ee7b 19bf
00000080: 2902 febe 4ecb 01be 4f7f dd3e f9bd 0bbf
00000090: 2de8 903e 0f9a 6abe 11f9 62be 47ad 91bd
000000a0: 9716 983e 2b06 aabe a716 9e3d 9ce8 25bf
000000b0: 17d6 4c3d 8d4a 2d3e fbfb 4b3e ae6e 85be
000000c0: 35ca 88be 7c47 583e a3dd 13be 8436 95be
000000d0: 85e4 3dbe e254 d43d 3699 ecbe dea6 89be
000000e0: 7b75 1dbe 4b55 b9be ea33 96be de46 a8bd
000000f0: 3fb6 f63d e6b5 dcbd 94b3 cebc b32b 8dbe
00000100: ec0c 48be 3396 6d3e 6471 3abf 29b0 9a3e
00000110: 9e0b e03d 3207 ddbe 172e 6bbe 0169 2ebd
00000120: c129 abbe 7168 cdbd 28e7 0abd 4634 23be
00000130: e329 243f a038 97be 99cd e03e 298a 2a3f
00000140: b24f 453f 5149 a0be 1612 14be 30f9 cebd
00000150: 38d7 28bf e2c0 d23e 58f4 3f3e 7b4c 0b3f
00000160: 0f95 b83e 2721 abbe 9968 343f 7832 0f3d
00000170: 4173 b73d 1086 a73e c9fb e2be 8e01 08bf

linear1.bias f4 [32]
-0.18027139 0.31031644 -0.059341013 0.065455146 -0.1720697 0.11388994 0.34191602 0.0593205
0.128054 -0.2777785 0.23362383 0.27772832 -0.15770626 0.3369605 0.48453796 -0.45244548
0.22748275 -0.5080549 -0.32820278 -0.11162146 -0.3230892 0.2337324 -0.19230317 0.03587636
0.07227638 0.2698437 -0.108996496 0.5576648 -0.34232017 0.09572264 0.38814795 -0.52196395
00000000: 1099 38be cce1 9e3e 900f 73bd 590d 863d
00000010: 0a33 30be 213f e93d 9e0f af3e 0dfa 723d
00000020: 9620 033e fc38 8ebe 163b 6f3e 6832 8e3e
00000030: c07d 21be 1686 ac3e 5c15 f83e efa6 e7be
00000040: 3df1 683e e30f 02bf 320a a8be cb99 e4bd
00000050: f36b a5be 8c57 6f3e 1feb 44be 17f3 123d
00000060: a405 943d f428 8a3e 8e39 dfbd 1fc3 0e3f
00000070: 9744 afbe 3b0a c43d 54bb c63e 6e9f 05bf

linear2.weight f4 [32, 32]
0.20618142 -0.19397876 0.069239765 0.08768077 0.20459592 -0.433544 0.3882093 0.06615945
-0.04048292 -0.37373012 0.2912276 0.16961285 0.12096948 0.01513173 0.1048512 0.25589907
0.2872007 -0.16958578 0.04266966 0.17753711 -0.38895404 -0.16773282 -0.13911766 0.20136093
0.054048 -0.09799178 -0.18245295 0.09982587 -0.17652257 0.035566784 0.12197174 0.44168243
-0.017110307 0.01984913 0.14152084 0.24305521 0.041848987 -0.04806027 -0.09553765 0.06117953
-0.19605274 0.10752977 -0.11900594 0.32497957 -0.52136034 0.5736161 0.044050973 0.056187954
0.107139245 -0.14248316 -0.028660227 -0.14118652 -0.11543712 -0.034954228 -0.421517 0.28015688
0.19752678 0.25399575 0.1426738 -0.059411332 -0.4216371 -0.12813015 -0.04253706 -0.3795319
-0.2519201 -0.12496758 -0.10658322 -0.2152605 -0.3739344 -0.003092885 0.10320034 -0.3016616
0.09129493 0.015301666 -0.15160942 -0.022311531 -0.1581773 -0.037514273 0.45787027 -0.076381
0.22370252 -0.2625707 0.25341147 0.17745443 -0.026251514 -0.012836016 0.058122076 0.24249658
0.368887 0.09227373 -0.2719366 0.041690744 -0.26662007 -0.0691732 0.15878567 0.23009261
0.03571946 0.23713286 -0.2531793 0.09510464 -0.15641332 0.026013242 0.20613244 0.16204256
0.16754033 -0.014885024 0.31018242 0.055953532 -0.0060348394 0.20257062 0.1888261 0.14808849
0.3379149 0.14894623 0.19421278 -0.38144243 0.022897553 0.29396555 0.0749147 -0.07460623
-0.009873476 0.2473925 -0.24812704 0.27984345 0.19102705 0.049609486 -0.10895418 0.016880928
-0.06189655 -0.09577372 -0.25038305 -0.08892125 0.03067583 0.28842497 -0.111519545 0.1323311
0.0022854996 0.43537927 -0.2676968 0.29807204 -0.08445554 0.029409869 -0.20087838 -0.3727107
0.21000363 0.0049556824 0.4601677 0.07167966 -0.20242484 -0.087715276 -0.27635232 -0.12993427
-0.08485392 0.14113288 0.19382389 0.004684715 -0.19120349 0.08728328 0.316715 -0.1654809
-0.13558216 0.19849066 -0.010000744 0.3087218 -0.106778 -0.015823599 -0.5834755 0.4407248
-0.28900772 0.38000548 -0.047973555 -0.05469991 0.27919602 -0.1981026 0.032080445 0.07403942
0.050045475 0.03975456 -0.024513548 -0.09866167 -0.18338993 -0.072207704 -0.07832025 -0.22678734
-0.13773145 0.20379157 0.21902138 -0.7312712 -0.21788111 0.3614936 0.13626564 -0.09626477
0.24885663 -0.012676021 0.086190805 -0.1626597 -0.0034964355 -0.11942641 0.22481705 -0.14025447
0.1857862 0.1357947 0.05893098 -0.124949336 -0.19440538 0.14410383 -0.11703592 0.18802537
0.10298094 0.10465596 0.06629158 0.3523794 -0.07902942 0.043080598 -0.056865532 0.40036747
0.3272024 -0.017059498 0.14373298 0.32053939 -0.05254564 -0.11595079 -0.049434625 -0.081575826
0.025710877 0.029681837 -0.17167422 -0.14098758 -0.039602946 0.020394783 0.43984628 -0.121887654
-0.07097693 -0.037086863 0.026293308 0.013949481 -0.009135391 0.23469128 0.2621549 0.13192338
0.25098404 -0.06761781 0.037268862 -0.027618645 0.08103832 -0.12858376 0.31537685 -0.062300984
0.40716344 -0.0024278383 0.20616186 0.2380981 -0.21919438 0.16090505 -0.106793165 0.4067184
00000000: 3921 533e 5ea2 46be 94cd 8d3d fa91 b33d
00000010: 9881 513e 7bf9 ddbe 5fc3 c63e 9b7e 873d
00000020: 6bd1 25bd 8e59 bfbe c91b 953e feae 2d3e
00000030: d9be f73d 13eb 773c 3abc d63d 3405 833e
00000040: f80b 933e e5a7 2dbe 62c6 2e3d 4acc 353e
00000050: fc24 c7be 27c2 2bbe dc74 0ebe 8f31 4e3e
00000060: 7061 5d3d eaaf c8bd f2d4 3abe 8171 cc3d
00000070: 55c2 34be 7aae 113d 52cc f93d 3324 e23e
00000080: ea2a 8cbc a59a a23c d7ea 103e 77e3 783e
00000090: d869 2b3d d8da 44bd 3ea9 c3bd 6397 7a3d
000000a0: 0dc2 48be 9138 dc3d 63b9 f3bd b963 a63e
000000b0: df77 05bf 81d8 123f cb6e 343d 5725 663d
000000c0: d26b db3d 1be7 11be dac8 eabc 3393 10be
000000d0: 4c6a ecbd 2a2c 0fbd 14d1 d7be b970 8f3e
000000e0: 7644 4a3e bb0b 823e 1519 123e 4c59 73bd
000000f0: d1e0 d7be 8d34 03be 573b 2ebd 0152 c2be
00000100: acfb 80be 01ef ffbd 4e48 dabd 406d 5cbe
00000110: 5474 bfbe 00b2 4abb b35a d33d 6473 9abe
00000120: d6f8 ba3d d7b3 7a3c 803f 1bbe acc6 b6bc
00000130: 3bf9 21be 91a8 19bd f96d ea3e a46d 9cbd
00000140: 4612 653e ab6f 86be 26bf 813e 9db6 353e
00000150: 6a0d d7bc 274e 52bc 6a11 6e3d 0651 783e
00000160: c2de bc3e 02fa bc3d 463b 8bbe eac3 2a3d
00000170: 6d82 88be aeaa 8dbd b698 223e 669d 6b3e
00000180: 924e 123d f5d2 723e b8a0 81be 39c6 c23d
00000190: d02a 20be b919 d53c 6214 533e 7cee 253e
000001a0: b18f 2b3e 51e0 73bc 3bd0 9e3e 882f 653d
000001b0: e7bf c5bb ac6e 4f3e a15b 413e 82a4 173e
000001c0: 2f03 ad3e 5c85 183e b7df 463e 6c4c c3be
000001d0: a693 bb3c a782 963e e16c 993d 27cb 98bd
000001e0: 5cc4 21bc 7654 7d3e 0415 7ebe a447 8f3e
000001f0: 989c 433e 5133 4b3d 5e23 dfbd df49 8a3c
00000200: 3d87 7dbd 0325 c4bd 3532 80be 581c b6bd
00000210: e14b fb3c 70ac 933e 5c64 e4bd ce81 073e
00000220: 52c8 153b 08ea de3e 8e0f 89be e69c 983e
00000230: 07f7 acbd f7ec f03c 10b3 4dbe f0d3 bebe
00000240: 310b 573e 4763 a23b 1a9b eb3e c9cc 923d
00000250: 7548 4fbe 11a4 b3bd 0d7e 8dbe 7d0d 05be
00000260: e4c7 adbd 2385 103e c579 463e 3d82 993b
00000270: d9ca 43be 94c1 b23d 7828 a23e d373 29be
00000280: 0dd6 0abe 2341 4b3e 29da 23bc c910 9e3e
00000290: 6dae dabd 7ea0 81bc a65e 15bf aea6 e13e
000002a0: d2f8 93be 1490 c23e eb7f 44bd 030d 60bd
000002b0: c8f2 8e3e 68db 4abe c966 033d fba1 973d
000002c0: 7cfc 4c3d add5 223d a3d0 c8bc 210f cabd
000002d0: 92ca 3bbe a2e1 93bd 5e66 a0bd f13a 68be
000002e0: 7909 0dbe bdae 503e 2447 603e 9734 3bbf
000002f0: 3a1c 5fbe b015 b93e 3889 0b3e 7726 c5bd
00000300: 46d4 7e3e 16af 4fbc ce84 b03d 4490 26be
00000310: 7424 65bb d595 f4bd 7136 663e de9e 0fbe
00000320: bd3e 3e3e c40d 0b3e 9c61 713d 70e5 ffbd
00000330: 3412 47be f48f 133e 87b0 efbd b989 403e
00000340: ace7 d23d dd55 d63d e1c3 873d 136b b43e
00000350: 2dda a1bd 4875 303d d5eb 68bd f7fc cc3e
00000360: 1387 a73e 5cc0 8bbc bd2e 133e bd1d a43e
00000370: 193a 57bd 9c77 edbd f67b 4abd 3a11 a7bd
00000380: 9e9f d23c 5327 f33c 5ecb 2fbe 0c5f 10be
00000390: b336 22bd f612 a73c 8833 e13e 3ca0 f9bd
000003a0: 5a5c 91bd 65e8 17bd 1065 d73c 5d8c 643c
000003b0: 9bac 15bc e952 703e 2b39 863e ec16 073e
000003c0: fb80 803e 357b 8abd 3ca7 183d 7f40 e2bc
000003d0: 6bf7 a53d 76ab 03be 1379 a13e 512f 7fbd
000003e0: ba77 d03e 5e1c 1fbb 181c 533e fdcf 733e
000003f0: 7e74 60be 4bc4 243e 60b6 dabd 653d d03e

linear2.bias f4 [32]
0.2576763 0.11410788 -0.028551187 0.07098379 -0.033620924 -0.18805674 0.12795298 -0.097601324
0.12849593 0.16790284 0.16580687 -0.05002292 -0.16455717 -0.07419039 0.20300126 0.25263858
-0.17018814 0.11133719 -0.14560913 0.03746196 0.09223717 -0.1811623 -0.027691746 0.07162671
-0.11394804 -0.124595165 -0.071123354 0.008809514 0.024314828 -0.0056470567 0.045886643 -0.013262838
00000000: 26ee 833e 64b1 e93d 2ee4 e9bc f35f 913d
00000010: 18b6 09bd f291 40be 1b06 033e 34e3 c7bd
00000020: 7094 033e b9ee 2b3e 47c9 293e d5e4 4cbd
00000030: ad81 28be 22f1 97bd 90df 4f3e d859 813e
00000040: cd45 2ebe c104 e43d 8f1a 15be b671 193d
00000050: d7e6 bc3d 9c82 39be cdd9 e2bc 06b1 923d
00000060: 975d e9bd c02b ffbd 1fa9 91bd c855 103c
00000070: e42f c73c f20a b9bb a2f3 3b3d 604c 59bc

linear3.weight f4 [16, 32]
0.28356594 -0.47120005 0.020974366 0.15097463 -0.4959287 -0.2317542 0.1153775 0.27232245
0.5147517 -0.58362246 -0.16218328 0.20977367 0.13390358 0.22303195 0.4425425 0.021151029
-0.15879484 -0.2617737 -0.16255392 0.07015075 -0.38374847 0.13330066 0.20529003 0.10417128
-0.23671602 0.63100564 -0.19196998 0.26854 -0.3575217 0.34371495 -0.099395595 0.1969386
0.16700587 0.7945018 -0.06391367 0.01737373 0.44345266 0.051602986 0.2187032 0.07614601
-0.116160855 0.16817266 0.27165115 -0.2437965 -0.12878472 0.24130118 0.26658413 -0.05174902
0.3117228 0.085484296 0.29378927 -0.027140317 0.6787917 -0.033258118 -0.42206118 -0.40035564
0.25322944 -0.17463955 -0.13419405 -0.032058977 0.36712712 0.13179216 0.20688723 -0.18821906
-0.010657981 -0.21317656 -0.010026581 0.25695258 -0.27596202 -0.57407033 0.13878818 -0.19125041
0.3248421 -0.2230231 -0.41603768 0.17119884 0.29700965 0.2029905 0.1652872 0.021249587
0.28249782 -0.13093789 -0.1687164 -0.1004178 0.09516673 -0.17652845 0.19118837 -0.006258452
0.056624297 -0.015921948 0.00058788125 0.37382293 -0.1375481 0.24328779 -0.44273877 0.0674409
-0.11922194 0.34544683 0.20768254 -0.060948145 0.6160903 0.34577128 0.42698112 -0.101264805
0.38957766 0.5451987 -0.17165801 -0.10409936 0.05464826 -0.2830044 -0.1961082 -0.18412338
0.08515984 0.35716414 0.117901996 0.15340377 0.35254198 0.05790218 -0.027832393 -0.3204443
0.3317303 -0.37882787 0.23496188 -0.070494205 0.30163303 -0.11131627 0.33085066 -0.44744655
0.033551272 -0.54447365 0.052941777 0.031514037 -0.29922113 -0.06713989 -0.043563362 0.0518195
0.5841653 -0.34582695 -0.38366106 0.17078255 -0.06716991 0.13356765 0.5532996 0.41969624
-0.06590381 -0.2524236 -0.0820739 0.315641 -0.1856374 -0.121214055 -0.149803 -0.022763807
-0.11537495 0.16962515 0.056737933 0.06998863 -0.0628149 -0.28949648 0.0061557987 0.048352927
-0.19533563 -0.270815 0.090195164 0.035325974 0.11770409 0.08542135 -0.050112866 -0.073763944
-0.54802287 -0.09993686 -0.09794869 0.03740137 -0.22839703 -0.23914845 0.30617508 -0.23747455
-0.048517805 -0.13805406 -0.07525703 0.13498633 -0.112210646 0.10800329 0.034398917 0.1287595
0.45295772 -0.6063092 0.27393806 -0.2287306 0.12585182 0.08133958 -0.007524456 0.3324299
0.2824588 -0.06377553 -0.37419832 0.25403082 -0.06992493 0.26953223 0.2003783 0.08412298
-0.06474672 -0.017582806 0.008847739 0.04442702 0.4645549 0.29361722 0.09837594 0.22288041
0.21171623 -0.061564267 0.16432436 0.0020309659 0.080826506 -0.37498355 -0.11930792 0.18270852
-0.1263607 0.007545609 0.09541756 0.33063936 -0.15444863 0.010759682 -0.019807732 0.011330914
-0.16915898 -0.010700623 -0.4071818 0.32473183 -0.06860576 -0.28119096 0.10980635 0.25473085
0.04842722 0.1616116 0.24591118 -0.03460868 -0.096591204 0.22400443 0.51116765 0.13214844
0.07821595 0.10739686 -0.21200937 -0.21376577 -0.03373754 -0.28895402 0.27164277 0.16403133
0.012974964 0.08012585 -0.30706903 -0.081693605 0.13794386 0.13120845 -0.29297522 -0.04763979
00000000: 8e2f 913e 2241 f1be 6fd2 ab3c 1899 1a3e
00000010: 5eea fdbe f950 6dbe 0a4b ec3d d96d 8b3e
00000020: c4c6 033f 4868 15bf 6013 26be e9ce 563e
00000030: 051e 093e 7d62 643e ee94 e23e ec44 ad3c
00000040: 1d9b 22be 3407 86be 8974 26be 32ab 8f3d
00000050: ae7a c4be f87f 083e 8d37 523e c157 d53d
00000060: af65 72be 9689 213f c793 44be 137e 893e
00000070: 160d b7be 68fb af3e eb8f cbbd 46aa 493e
00000080: 9603 2b3e 7864 4b3f 2ce5 82bd 5a53 8e3c
00000090: 3a0c e33e a75d 533d bbf3 5f3e 70f2 9b3d
000000a0: bee5 edbd 7435 2c3e dc15 8b3e caa5 79be
000000b0: 24e0 03be a817 773e b77d 883e c8f6 53bd
000000c0: 219a 9f3e 6412 af3d 8c6b 963e 5f55 debc
000000d0: 4bc5 2d3f aa39 08bd 6718 d8be 6afb ccbe
000000e0: 4aa7 813e b6d4 32be 2a6a 09be 4650 03bd
000000f0: 16f8 bb3e 86f4 063e 3fda 533e 7fbc 40be
00000100: d09e 2ebc f54a 5abe 8746 24bc 4a8f 833e
00000110: e54a 8dbe 46f6 12bf 7d1e 0e3e 26d7 43be
00000120: b451 a63e 2b60 64be e402 d5be c04e 2f3e
00000130: a611 983e bedc 4f3e 0c41 293e 9d13 ae3c
00000140: 8ea3 903e 9514 06be fec3 2cbe d9a7 cdbd
00000150: c6e6 c23d e0c3 34be e2c6 433e b313 cdbb
00000160: e1ee 673d bf6e 82bc 0b1c 1a3a b865 bf3e
00000170: 69d9 0cbe 6f20 793e a8ae e2be 741e 8a3d
00000180: a22a f4bd 68de b03e bbaa 543e c3a4 79bd
00000190: 18b8 1d3f ef08 b13e 459d da3e ec63 cfbd
000001a0: b976 c73e 2492 0b3f 1ec7 2fbe 0c32 d5bd
000001b0: dbd6 5f3d f4e5 90be 97d0 48be d78a 3cbe
000001c0: 4868 ae3d 38de b63e 9a76 f13d e115 1d3e
000001d0: 6280 b43e d62a 6d3d c200 e4bc 4611 a4be
000001e0: 8ed8 a93e baf5 c1be d999 703e 445f 90bd
000001f0: a56f 9a3e c9f9 e3bd 4265 a93e b717 e5be
00000200: 0f6d 093d a062 0bbf 7ad9 583d dd14 013d
00000210: 8333 99be a380 89bd 7f6f 32bd af40 543d
00000220: db8b 153f 3b10 b1be 396f c4be 9fe1 2e3e
00000230: 6190 89bd f5c5 083e 0ba5 0d3f 6de2 d63e
00000240: 94f8 86bd ab3d 81be 5c16 a8bd b29b a13e
00000250: bb17 3ebe 133f f8bd f565 19be 2a7b babc
00000260: b449 ecbd 37b2 2d3e 0966 683d 3356 8f3d
00000270: 19a5 80bd e238 94be 95b6 c93b b80d 463d
00000280: 1006 48be 44a8 8abe 3eb8 b83d f8b1 103d
00000290: d80e f13d 64f1 ae3d 2643 4dbd 8d11 97bd
000002a0: 3a4b 0cbf b2ab ccbd 5399 c8bd 2e32 193d
000002b0: e9e0 69be 55e3 74be fbc2 9c3e 872c 73be
000002c0: 9bba 46bd 0b5e 0dbe 5c20 9abd db39 0a3e
000002d0: b2ce e5bd d430 dd3d e1e5 0c3d 88d9 033e
000002e0: 13ea e73e 1437 1bbf 9c41 8c3e 5b38 6abe
000002f0: 4ddf 003e 5e95 a63d b68f f6bb 4034 aa3e
00000300: 719e 903e bf9c 82bd ec96 bfbe 5410 823e
00000310: cd34 8fbd 2100 8a3e f82f 4d3e ab48 ac3d
00000320: ee99 84bd d109 90bc 1bf6 103c 1bf9 353d
00000330: 24da ed3e ff54 963e 5379 c93d c33a 643e
00000340: 24cc 583e d02a 7cbd a544 283e f419 053b
00000350: 5e88 a53d d8fd bfbe b657 f4bd f117 3b3e
00000360: b364 01be 2841 f73b 486a c33d 9049 a93e
00000370: c827 1ebe 6149 303c d343 a2bc 4ca5 393c
00000380: 0338 2dbe aa51 2fbc 227a d0be 4043 a63e
00000390: 2d81 8cbd 43f8 8fbe 27e2 e03d 156c 823e
000003a0: 9f5b 463d 837d 253e 24d0 7b3e d5c1 0dbd
000003b0: 9cd1 c5bd 6b61 653e e2db 023f ec51 073e
000003c0: af2f a03d e3f2 db3d fc18 59be 6ae5 5abe
000003d0: 6030 0abd c8f1 93be c314 8b3e d4f7 273e
000003e0: f294 543c 0619 a43d 2738 9dbe fa4e a7bd
000003f0: 2841 0d3e 825b 063e d900 96be f121 43bd

linear3.bias f4 [16]
0.08361211 0.01957719 0.09699106 0.18401526 0.11359852 0.07881409 0.002169257 0.2528604
0.059271365 -0.12544039 -0.10318966 0.07107605 0.14884585 0.18706922 0.008608012 0.0067039155
00000000: d33c ab3d 5860 a03c 40a3 c63d 7f6e 3c3e
00000010: 57a6 e83d 4869 a13d 182a 0e3b eb76 813e
00000020: 88c6 723d 7273 00be 1a55 d3bd 5290 913d
00000030: 0c6b 183e 138f 3f3e 9f08 0d3c 85ac db3b

output_layer.weight f4 [3, 16]
0.081306845 0.21432409 -0.24625307 0.31234053 -0.8247254 -0.13693504 0.19252136 -0.20653348
0.19549799 -0.055112556 0.5772025 -0.025445476 -0.45772097 0.25409716 0.42471242 -0.25616923
0.18016924 -0.13433848 0.038796965 -0.25775045 -0.17781043 0.16248551 -0.29474428 -0.49272752
-0.22648968 0.19054759 0.18517534 0.30646554 -0.5567993 -0.19974214 0.26210248 -0.24126187
0.58508307 -0.5450118 0.50327694 -0.70697033 0.49430746 -0.12840116 0.4726813 0.39912903
0.2712187 0.16152021 -0.712549 -0.7590521 0.18970011 -0.4762102 -0.2570487 -0.04284646
00000000: 3484 a63d c677 5b3e c429 7cbe 19eb 9f3e
00000010: 3421 53bf b338 0cbe 5224 453e 837d 53be
00000020: a030 483e b4bd 61bd 8bc3 133f 0873 d0bc
00000030: 675a eabe 0619 823e e873 d93e 9d28 83be
00000040: 497e 383e 0790 09be 91e9 1e3d def7 83be
00000050: f013 36be 9a62 263e b9e8 96be c846 fcbe
00000060: e9ec 67be e81e 433e 9b9e 3d3e 0de9 9c3e
00000070: 668a 0ebf 3489 4cbe 4c32 863e 5a0d 77be
00000080: 01c8 153f e585 0bbf c2d6 003f 02fc 34bf
00000090: de15 fd3e 987b 03be 4903 f23e a45a cc3e
000000a0: 2ddd 8a3e 8e65 253e 9c69 36bf 3d51 42bf
000000b0: bf40 423e d3d1 f3be e39b 83be c57f 2fbd

output_layer.bias f4 [3]
-0.0044586086 -0.19217485 -0.002743163
00000000: 8519 92bb 7cc9 44be a3c6 33bb
