ANDY_image_rapport/PPO_policy_net_CartPole-v1.pt (torch, 10724 bytes, 8 tensors)

linear1.weight f4 [32, 4]
00000000: 8df5 c53e bc35 6a3d c876 993e 5ab3 713e
00000010: de06 ecbc f767 8c3e 8497 353f 5547 b43d
00000020: 1cb5 4c3e 6045 fe3d c135 e33d e9b2 0abd
00000030: 8907 7ebe 7a49 f2bd 550d 6d3e 56d4 7a3e
00000040: 60b3 aabe 9692 3abe 96e7 13bf 1d97 9d3c
00000050: 866b 453e c34a a83e 9441 12be 6c12 e1bc
00000060: bbad 5f3d d70a 6cbe c8f7 583e da42 2dbb
00000070: 694a a5bd 6cea 98bd f2c4 ca3e 9e0b d9bd
00000080: ac25 d0bc 787c e2be 3696 74bf f87a 283e
00000090: 6d6e 443d 2438 323c 4c1e c43e a733 183f
000000a0: 04c7 143e 0258 eabc bdd7 3f3f 6212 b93e
000000b0: d1af f73e 3a9c 6ebd ff56 45bf 9f21 9fbe
000000c0: 2170 81bc 38eb de3b df32 963e e87e ab3e
000000d0: 3fd4 1ebe 0873 773e c018 553f f425 053f
000000e0: 2515 28be fee6 e23e b735 b83e edaf 4f3e
000000f0: de0e 02bd 0227 17be c281 e03d 836c 923e
00000100: fe76 cdbc 6836 1e3d 2410 b03e d075 2cbe
00000110: cc57 0ebd 4d15 7ebe 77e1 0cbf ed8e 35bd
00000120: b859 7b3e a702 913e c704 0cbf c6ad b8be
00000130: 6695 e93d b581 65bd 2e60 21bd 0cf4 ce3c
00000140: 05ea 803e 29c9 ba3e 4f3b 5b3e 7828 0e3f
00000150: 18bf dabd 0633 d7bc 4038 633e 8553 333e
00000160: 55aa 1dbe 4e17 c53e 7437 f43d 0c8d 88be
00000170: 9598 303e 1d07 d83e 3a17 503e cad4 35be
00000180: 8bfc b03e cc76 dcbd 2d9e 2cbe f7ba 8e3c
00000190: d9c7 263e b9b6 043e d99a 4dbe bbe5 1b3d
000001a0: 38f5 b8be 0a13 db3e 00a2 dabe 0831 293d
000001b0: bd07 b73e a293 04be d7e5 b2bd eed0 27be
000001c0: 73a5 95be 79e0 a43d 52c4 06be a461 bb3e
000001d0: 2c26 093e dd97 c6bd 81e9 ce3e ec00 bdbd
000001e0: e73c 94bd ddd7 acbc ce9d bdbe d037 66be
000001f0: c486 25be e256 08bf ff34 bfbd 6bec 8dbe
0.38663903 0.05718015 0.29973435 0.23603573 -0.028811868 0.2742307 0.7093432 0.08802668
0.19990963 0.12415576 0.11094237 -0.03386203 -0.24807562 -0.11830421 0.23149617 0.24495062
-0.33339977 -0.1821998 -0.5777525 0.019237095 0.19279298 0.3286954 -0.14282829 -0.027474605
0.05460904 -0.2305101 0.21188271 -0.0026437552 -0.08070833 -0.074665874 0.39603382 -0.10597919
-0.025408588 -0.44235587 -0.95541704 0.16453159 0.047956873 0.010877643 0.38304365 0.59453815
0.14529043 -0.028606419 0.74938565 0.36146837 0.48376325 -0.058254458 -0.7708587 -0.31080338
-0.015800538 0.0068029426 0.29335687 0.3349526 -0.15510653 0.24164975 0.8324089 0.52011037
-0.16414316 0.44316858 0.3597848 0.20281954 -0.03175246 -0.14760974 0.10962249 0.28598413
-0.025081154 0.038626105 0.34387314 -0.16841817 -0.0347517 -0.24812813 -0.5503153 -0.044325758
0.24545944 0.28322336 -0.5469479 -0.3607008 0.114054486 -0.0560319 -0.039398365 0.025262855
0.25178543 0.36481598 0.21409343 0.555305 -0.106809795 -0.026269447 0.22189426 0.17512329
-0.15397008 0.38494343 0.11924639 -0.2667011 0.17245705 0.42192927 0.2032136 -0.17756954
0.34567675 -0.10764846 -0.16857214 0.017423136 0.16287173 0.12960328 -0.20078601 0.038060885
-0.36124587 0.42787963 -0.4270172 0.041306525 0.3574809 -0.12946942 -0.08735245 -0.16388294
-0.2922779 0.08050627 -0.13160828 0.3659793 0.13393468 -0.09696934 0.40412524 -0.092286915
-0.07238179 -0.021099025 -0.37034458 -0.22482228 -0.1616469 -0.5325757 -0.0933628 -0.27719435

linear1.bias f4 [32]
00000000: 287d d13e 97be af3e 7f21 c0bd 1143 07be
00000010: 94ed 1c3f c402 943e 4247 efbe 4ef0 c6bc
00000020: 53d7 c5be ff8c a33e 3529 983e 98e3 6c3e
00000030: f441 7abe f5b1 f13d ff53 4dbe 03d4 b83d
00000040: d8c7 843d 1e16 5b3e 1888 323d 94ee 333e
00000050: 6840 323e 6e85 ff3e e816 71be 2b9c a4be
00000060: 5037 85be b45e 18be 3525 b13e bf59 09bf
00000070: 0ab2 82be 3c27 52bd 47a9 843e c4df 61be
0.409158 0.34325096 -0.09381389 -0.13209178 0.61300015 0.2890836 -0.46734053 -0.024284508
-0.38640842 0.3194351 0.29718938 0.23133695 -0.24439222 0.11801521 -0.20051573 0.09024813
0.0648343 0.21395156 0.04358682 0.17571479 0.17407382 0.49906486 -0.23543894 -0.32150397
-0.26018763 -0.14879876 0.345987 -0.53652567 -0.25526458 -0.051306948 0.25910398 -0.22058016

linear2.weight f4 [32, 32]
00000000: b969 9f3e daff aebd c0eb 1cbe d2cf 8f3d
00000010: 5a83 383e 3e51 de3c 70de be3d 5c4b 803d
00000020: d420 f53d 9317 2f3e a972 5b3d 9635 46be
00000030: 381a 9bbd cc7e 673e c822 673e 487d 8f3e
00000040: 08dd 5a3d 605d b2be d33b d63c 7fbe 29be
00000050: 947c bc3e 0ca6 183e 3338 0abe 1b00 203e
00000060: 0ebe 953e a1ad 8d3e abe6 8cbd 39d7 923c
00000070: 0793 b6be c946 903e 0ef3 72be cb09 fb3c
00000080: f21c e43c f989 76bd 22d7 21be f2da d5bb
00000090: 6be5 eb3d 52e6 ccbc 8ca2 71be 84b8 d1bd
000000a0: 89b7 833c 46c0 60be f891 15be 7a61 993c
000000b0: aa59 53be c863 e83d d8cc 953d 2197 8c3e
000000c0: 95c1 413e d771 89be cf8a 383e 9d7c c9bc
000000d0: 8fa6 98be 1023 923e 2f9d 9f3d a1e2 043e
000000e0: 7ae7 1cbe a0b1 02bf 65b3 77be 564c b43e
000000f0: bd10 03bd b2ed 27be 5b1c 833e b27b 1bbe
00000100: 6046 2abd 641c e1bd 15a0 2c3e d717 8dbe
00000110: 8b70 253c 9908 5e3e 6361 44be 6147 273e
00000120: fb03 81bd 8557 87bd 0f89 283e 2f8e 583d
00000130: 625a 36bd fca8 c23e 908d 543e de43 a03e
00000140: f2ff 5fbd 1324 b4bd 77a4 2bbe 14a9 a43d
00000150: 4958 2d3e abd1 b5bd 605c 6dbe ab9f 5d3e
00000160: 2a38 973e 5448 eebd 0625 bebd 2365 1a3e
00000170: 615c 51bd 2b2a 4abe 5374 c5bd 6d71 093d
00000180: 471b c5bd 1e78 78be 8fd3 d33d 8e92 d63c
00000190: 31e4 2f3c 556e 82bd f66d bbbc 7460 e2bd
000001a0: 6217 b73e ad11 08bc d052 783b cc73 823d
000001b0: 9309 84bd d10f dabd 4d8c e33d 56ac bc3d
000001c0: 27a6 353d bada 083e 0d64 5abd 6020 523e
000001d0: 3539 653d 6aca a73d 6d7c 4d3e 59a4 403d
000001e0: 415f a33d 67ce 90bd e4b0 c03e c628 2fbd
000001f0: f41d 203e 255f 4b3d de58 2a3e 18a9 91bc
00000200: f108 083e 80d1 62bd 2910 e53d 095b 6e3e
00000210: 5e3d 3bbd 0d4b adbb ed9b aabd 1138 5f3c
00000220: 69f5 db3d 9ff4 75be 027a 153e e710 df3e
00000230: 810f 2539 8f30 62be 41c9 01be 028c c03d
00000240: 45cc 913e 29e8 2abc a296 bdbc c0b4 133e
00000250: f8f3 35bd 3c3a 203e d2cf a5be 97e0 89bd
00000260: 0c06 783e 7722 f6bd 5315 07be ed50 84be
00000270: 08a0 21be b77f 71be 4798 763c cfcd 67be
00000280: ecd4 8c3e 854e a13e 0d86 de3d 29db 44be
00000290: d11a 3d3c d8dc db3d bccb 8a3e 7e5b 82bd
000002a0: e4bc c7be 6b92 3fbc 0c58 f53d e4cf b93c
000002b0: 49f2 68bb 2193 d6bd 130c 1a3e fbe3 66bd
000002c0: adef 453c 8b6a 22be f824 dfbe e4a0 533d
000002d0: 6be6 813e 504b 0c3e c6e8 593c de84 07bd
000002e0: 4900 813e ca47 06bd 08bb 963c c050 ecbc
000002f0: 215e 43be a474 debd 55ea 0fbe 999f 8fbe
00000300: 208b 903c ef6a 103d f9f1 42be b340 6c3e
00000310: 0c4e 5d3e 827d 4bbe 41e5 89bd 8b91 5fbe
00000320: 0707 c4bd a2f4 cebe ea77 42bd 8f6f ae3e
00000330: 9c8f 9f3e 756e 1fbf cb7c 2ebe 275d 043e
00000340: 23bb 983c f220 623e 9000 aa3e 95f8 0b3d
00000350: e2c9 3ebe 9e55 22bd 1b53 943e 4e81 633c
00000360: 73be 05be 266e 02bd 1983 ae3e be51 8a3c
00000370: c2be 073d d47d f5bd be6b cd3a 00f9 7d3d
00000380: 8bb8 9e3d acf5 fc3c f6bb ddbe ae27 98bb
00000390: 990b 4a3e 77f0 9e3d edfb 94be 2861 2e3e
000003a0: c448 c13e 8c91 43be 31f9 21be ef17 473e
000003b0: 9ff4 283e 0e06 45be 8a28 033e 1530 f7bd
000003c0: ad73 0d3e 1aa2 823e b363 dd3d 3e9e bbbd
000003d0: 788b 5abc 505a 0cbe 68c7 2dbd 07b1 28be
000003e0: 5f3b 32bd 5a32 e3bc 8a11 1dbe 46cf b13e
000003f0: ad43 1abe 01ce 703b 55fe 6abc 788d 173e
0.31135347 -0.085448936 -0.15324306 0.070220605 0.18018857 0.027138349 0.0931977 0.06264374
0.11969152 0.17098837 0.053576145 -0.19356379 -0.0757336 0.22606963 0.22571862 0.2802527
0.053433448 -0.34836864 0.026151573 -0.16576575 0.36813796 0.14907092 -0.13498001 0.1562504
0.29246563 0.2767153 -0.06879934 0.017924892 -0.35659048 0.28179005 -0.2372553 0.030644318
0.027845833 -0.060190175 -0.15804723 -0.0065263445 0.115183674 -0.025012169 -0.23597163 -0.10240272
0.016078727 -0.21948346 -0.14606464 0.018723238 -0.20639673 0.11347157 0.073144615 0.27459052
0.18921502 -0.26844665 0.18021701 -0.024595553 -0.29814574 0.28542376 0.07793652 0.12977077
-0.15322676 -0.51052284 -0.24189527 0.3521449 -0.031998385 -0.16399267 0.2560757 -0.15183905
-0.04157102 -0.10991743 0.16857941 -0.2755725 0.010097633 0.21682967 -0.19177775 0.16335823
-0.06299587 -0.0660849 0.16458534 0.05286997 -0.04451979 0.3801955 0.20757127 0.3130178
-0.054687448 -0.08795943 -0.16761957 0.080400616 0.1692821 -0.088778816 -0.2317977 0.2164294
0.29535037 -0.11634889 -0.092844054 0.15077643 -0.05111349 -0.19742648 -0.09641328 0.033555437
-0.09624343 -0.24264571 0.10343086 0.02619293 0.010735557 -0.063687004 -0.022879582 -0.11053553
0.35760027 -0.0083049955 0.0037891157 0.06369743 -0.06447139 -0.10647548 0.111107446 0.09212558
0.04434791 0.13364688 -0.053318072 0.20520163 0.05596276 0.08192904 0.20066996 0.047031734
0.079771526 -0.07070618 0.37634957 -0.042763494 0.15636426 0.049651284 0.16635463 -0.017780825
0.13284661 -0.055375576 0.11184723 0.23276915 -0.04571282 -0.0052884878 -0.08330522 0.013624207
0.10740168 -0.24019097 0.14597324 0.43567583 0.00015741402 -0.22088836 -0.12674429 0.09401704
0.28476158 -0.010431328 -0.023143116 0.1442442 -0.04442212 0.15647215 -0.32385117 -0.0673229
0.24221057 -0.120182924 -0.13191728 -0.2584299 -0.15783703 -0.23583876 0.015050954 -0.22637103
0.27506196 0.31505218 0.10865412 -0.19224228 0.011542038 0.10735482 0.27108562 -0.06365107
-0.390113 -0.011692624 0.11979684 0.022682138 -0.0035544804 -0.10477281 0.15043668 -0.056369763
0.012081069 -0.15860955 -0.43582892 0.05166711 0.25371107 0.13700604 0.013300126 -0.033085696
0.2519553 -0.032783307 0.01839973 -0.028847098 -0.19078876 -0.10862091 -0.14054234 -0.2805145
0.017644465 0.03525823 -0.19037618 0.23071556 0.21611804 -0.19872096 -0.0673318 -0.21832864
-0.09571653 -0.40421015 -0.04747764 0.34069487 0.31164253 -0.6227792 -0.17039792 0.1292616
0.018643921 0.2208288 0.33203554 0.034172613 -0.186317 -0.039632432 0.28969654 0.013885809
-0.13060932 -0.031843327 0.34084395 0.01688468 0.033140905 -0.119868904 0.0015672368 0.062005043
0.077500425 0.030878864 -0.43307465 -0.004643402 0.19730987 0.07760709 -0.29098454 0.1702925
0.37750828 -0.1909849 -0.15817715 0.19442724 0.16499566 -0.19240591 0.12808433 -0.12069718
0.13813658 0.255143 0.10810032 -0.09161042 -0.013338916 -0.13706326 -0.042426497 -0.1647378
-0.043513652 -0.02773397 -0.15338722 0.3472845 -0.15064879 0.0036743882 -0.014342864 0.1480006

linear2.bias f4 [32]
00000000: 4378 1e3d 0899 2e3d 5b3e 233e db6f 8dbd
00000010: 4522 8c3d 1f79 91bd 2c50 5c3e 267c 2f3e
00000020: 4fdf 1c3e 745c a4bc c324 56bd 7100 163e
00000030: 81f1 703e d633 653d a16b 0e3e 021b 0b3d
00000040: 9d03 9c3d dda5 1b3d 73c8 c43d ac9f db3d
00000050: d1c1 97bc 8b57 0b3e a28f f63c 1efa 17be
00000060: 0fa0 cdbc 7dc9 c33d 4e7d 6e3e ff95 903a
00000070: feee a7bd 36d6 8bbd 0793 f43d 6cfe 3bbd
0.03868891 0.04262641 0.15941755 -0.069061 0.06842474 -0.0710318 0.21514958 0.17137203
0.1531956 -0.020063616 -0.052281152 0.14648606 0.23529626 0.055957638 0.13908245 0.033961304
0.07617877 0.037999976 0.09608545 0.10723814 -0.018525036 0.13607614 0.030097786 -0.14841506
-0.025100736 0.09559915 0.23289987 0.001103103 -0.08199881 -0.06827967 0.11942106 -0.045896932

linear3.weight f4 [16, 32]
00000000: b4d6 e8bd d56b ae3c 7e2e c5be a172 1bbd
00000010: 1b14 953c 2e29 923e 418c fa3c 0930 febc
00000020: b32f 06ba 9bdb 973d 5498 55bd d939 dd3e
00000030: af4a 573d e7da 2bbe a53a abbe e61e 6c3d
00000040: 0b14 753e da07 b73d 75d6 a53e b825 883e
00000050: 237b 09bb 6c54 223d f069 603d b4ec 0e3e
00000060: fb2c 613e 70e9 953e e583 7dbe 9f26 9a3e
00000070: f584 db3d c275 34bd 46cd 40be 7d62 78be
00000080: 84bc 56be ec1d 35be ceac 39ba 1be8 013e
00000090: 67c8 88bd ffc9 a7bd f4ad 4a3d a1b5 473e
000000a0: 7b17 b8be 9a42 853e e336 d6bd ac27 ba3e
000000b0: d6da 8fbe 712c db3d 00aa 65be 9c20 a33e
000000c0: 19c7 f2bd 04f6 1e3e 8f4a b33d 27f5 a03d
000000d0: f621 4bbe f44d dabc eac2 623d 7fb0 873d
000000e0: 13b5 933d c2b4 f7ba 0425 80be 837e 41be
000000f0: d00d e13e aef7 30be 6d3f 16be 4de5 28be
00000100: c4c5 bd3e f729 423d 90d5 30be 6de2 b7bc
00000110: 4292 443e 59c0 9f3e 34e2 b13d 8262 3cbe
00000120: 9401 aa3e 9c21 693d 5716 9c3d d000 d3bd
00000130: c4a3 04be 3fa6 ce3e cf71 efbd 9591 adbd
00000140: 1ac1 bdbd e8a3 073e f91a 8cbe 85d2 96be
00000150: 0987 c03c 5263 a9bd 43bb f8bd 445e 0bbe
00000160: c4c6 bdbe 8cb1 05be 3f96 e9be 544a ac3d
00000170: 4115 523d b5f5 cd3d 95ca 29be cd37 eebe
00000180: 29be eabd df6a 99bc ec20 3abe f543 973e
00000190: 9c06 283d 68e6 f0be 212b 153d 7d3b 0f3f
000001a0: 43b4 463e 1e9c 56be f5b9 9b3c f98c 093e
000001b0: 9874 e63e 9a61 d5bd e3d2 a03e 579b fdbc
000001c0: a88a b0be 7610 273c 431d 87bc 613d c1bd
000001d0: 2999 ebbd f4b9 f83d 8737 c5bd 3b4e cf3e
000001e0: ee6d 8b3e 7ae0 eabe c961 283e 2cc9 9f3d
000001f0: c614 39be 7a4c be3d 6d8e 683e 7186 233e
00000200: 9ae3 583d a3d0 8a3d 32a9 1e3f 9ccd e33e
00000210: 98c6 7d3e ea90 b63d f611 4ebe ea11 17be
00000220: 6b6e 73be e5d6 0c3f ac1e 5abe 8589 b4be
00000230: 5793 d4bd d389 9fbe 3fd6 423e b8fb bdbc
00000240: 01b9 043e 3f28 65be b997 e53c 05ea 6fbe
00000250: eb1d 16be a483 febd e7e9 e53d 351b e3bc
00000260: c1b0 b4be 9fed 713e 8c4b 0c3f 05ce 0fbe
00000270: 8710 603e a781 493d e209 bb3d ec0b a73d
00000280: e473 9c3e ecdc 413d 5fc8 7a3e 3c2f 36bd
00000290: f6cf 7a3a b7a3 85bd 5a3c ab3d 8376 36be
000002a0: 79da eabd 13d2 24be 3700 6f3d 66c3 9e3d
000002b0: 6a20 183e a250 b2bd 2166 ee3d 2d87 56bd
000002c0: c16c 2fbe bc1a 08be 2bd5 973b 51a2 e8bd
000002d0: da28 4c3e be9e a8be 5558 55be d1bb 8c3d
000002e0: d7f2 7e3e 8b96 75be 9a07 7c3d 0145 733e
000002f0: 803d 3abd cd6d 2e3e 96cc f3bd 72bf 5ebe
00000300: db9e ee3e 697a 9cbe 5162 0d3d 6d66 b2be
00000310: 39e1 4dbe be15 633e c724 333d 2287 543e
00000320: dae6 813e c4ee 553e d8cc 483e 787a b9be
00000330: d36b c0be 1c63 e2be eb81 0abd 9994 823e
00000340: d8b1 b53d 1472 203d 9220 e7be 2d65 873e
00000350: eec2 e0bd 2eec 743e 4833 323e 3927 ff3d
00000360: 2f40 35be 1936 8f3e 5f4a 243d 98ea 813a
00000370: bd23 a3bd e26d 59bd 0bb6 d6bd a58e f8bd
00000380: a977 633e b18e 463e fd7d 333e 1c2d 91bd
00000390: 3f70 cebe ca62 773e 31ec 473d 865c acbd
000003a0: 1acd 6b3e 6667 8abd 4c6c 25be e9bb c03d
000003b0: ccac 87be 57a3 43be 0978 283e dcbb 5f3e
000003c0: f59b ca3d b370 bfbd 1d27 b23e 7a3a 8d3b
000003d0: c74c a0bd 426b 8d3e 3336 a23d cdf2 403e
000003e0: e4a7 85be cae2 523e e2da 1bbe a830 47be
000003f0: b558 acbc fe11 9dbe ffd3 4a3e e592 a7bd
-0.11369076 0.021291653 -0.38512033 -0.037951116 0.018198064 0.28547043 0.030584456 -0.031028764
-0.0005118802 0.07414933 -0.052147225 0.43208197 0.05256146 -0.16782723 -0.3344318 0.057646655
0.23933427 0.089370444 0.3239018 0.26591277 -0.0020977936 0.039631292 0.05478853 0.13957483
0.21989815 0.2927966 -0.24757345 0.3010759 0.10718719 -0.044057615 -0.18828306 -0.2425632
-0.2097035 -0.17687196 -0.000708294 0.12686197 -0.06678849 -0.081928246 0.0494823 0.1950288
-0.35955414 0.26027375 -0.104596876 0.36358392 -0.28096646 0.10701836 -0.22428131 0.31860816
-0.11854381 0.15523535 0.08754455 0.07859259 -0.19837174 -0.0266485 0.055361666 0.06625461
0.072122715 -0.0018898475 -0.2502824 -0.18895917 0.4395585 -0.17281982 -0.14672633 -0.16493721
0.37064946 0.047403302 -0.17268968 -0.022446835 0.19196418 0.31201437 0.08685723 -0.18396953
0.3320433 0.056916818 0.076214485 -0.10302889 -0.12953097 0.4036121 -0.11691629 -0.08475033
-0.09265347 0.13246119 -0.27364329 -0.2945749 0.02350189 -0.08270897 -0.12145092 -0.13610178
-0.3706571 -0.1305601 -0.4562244 0.084126145 0.0512898 0.100566305 -0.16581185 -0.46526948
-0.114620514 -0.018727718 -0.18176621 0.29544035 0.04102193 -0.47050786 0.036418084 0.55950147
0.19404702 -0.20957991 0.01900957 0.13432683 0.4501083 -0.10419007 0.31410894 -0.03095786
-0.34480786 0.010196796 -0.016493445 -0.09435535 -0.11503822 0.12144843 -0.096297316 0.40489373
0.27232307 -0.45874387 0.16443552 0.07802042 -0.1807433 0.092919305 0.22710581 0.15969254
0.052951433 0.067780755 0.6197692 0.44492805 0.24782789 0.08914359 -0.20124039 -0.14752927
-0.2377259 0.55015403 -0.21300763 -0.3526117 -0.10379665 -0.3115984 0.19027041 -0.023191318
0.12961198 -0.22378634 0.028026449 -0.23429115 -0.1465985 -0.12427452 0.11226254 -0.027722934
-0.35291103 0.23625802 0.54802775 -0.14043434 0.21881305 0.04919591 0.09132744 0.08156571
0.30557168 0.04732983 0.24490498 -0.04447864 0.0009567732 -0.06525367 0.083611205 -0.17818646
-0.114674516 -0.16095762 0.058349814 0.07752113 0.14856115 -0.08706786 0.11640573 -0.052375007
-0.1713133 -0.13291448 0.004633566 -0.113590844 0.19937459 -0.3293361 -0.20834477 0.06871761
0.24897324 -0.23983209 0.061530687 0.23756792 -0.045468807 0.17034073 -0.11904256 -0.21752718
0.46605572 -0.30562142 0.03451759 -0.3484377 -0.20105447 0.22176263 0.043736245 0.20754674
0.25371438 0.20891863 0.19609392 -0.3622625 -0.37582263 -0.4421624 -0.033815306 0.25503996
0.08871812 0.039171293 -0.45142037 0.26444378 -0.1097468 0.2391822 0.17402375 0.12458653
-0.17700265 0.2797096 0.04010999 0.0009911833 -0.07965801 -0.053083308 -0.10483941 -0.12136582
0.22213615 0.1939037 0.1752853 -0.07088682 -0.40320012 0.24158779 0.048809234 -0.08416085
0.23027459 -0.06758003 -0.16154593 0.09410841 -0.2649902 -0.19105278 0.1645204 0.21849006
0.09893028 -0.093476675 0.34795466 0.0043099495 -0.07827144 0.27620894 0.07920494 0.18842621
-0.26104653 0.20594326 -0.15220216 -0.19452155 -0.021038393 -0.3067779 0.19807433 -0.08182315

linear3.bias f4 [16]
00000000: 634f cfbd 8aba e93d 2a04 7bbd 197e 2b3e
00000010: e841 1cbd 36bc d5bd 9e79 1d3d 9c94 c8bc
00000020: db36 313e 9b4f cbbd af7f d13d e9ad 25be
00000030: 4183 1cbc 39eb 6a3e eefd 6b3d fa57 2e3e
-0.10122564 0.11412533 -0.061283268 0.16747321 -0.03814879 -0.10436289 0.03844606 -0.024484925
0.17306082 -0.09927293 0.10229432 -0.16179623 -0.009552778 0.22941293 0.057615213 0.17025748

output_layer.weight f4 [2, 16]
00000000: 36bc 90be fa5d 983e e711 5a3d 6c52 993e
00000010: c3dc 12be 7c6d 8ebe ea4f 8a3d c46d fabe
00000020: 53b8 b93d 9c03 56bf bdd1 4b3f 74e6 173e
00000030: 5f9b e23d b21d 2a3e a5f1 11bf 442b 4dbe
00000040: 1b8c 993d 9fbf ccbe 0f80 c2bd 0ea5 aabe
00000050: d584 a43e 0c36 833e a617 f83e 1a18 a13d
00000060: 9921 cbbe 50f4 7e3d ce79 82bd b832 a5be
00000070: b233 01be 303c dfbd 885e 443e 45cf d53e
-0.28268594 0.29759198 0.05323973 0.29945695 -0.14342026 -0.27817905 0.06753524 -0.4891187
0.0906836 -0.8359926 0.7961691 0.14834005 0.11064791 0.1661289 -0.57009345 -0.20036036
0.07497426 -0.39989945 -0.094970815 -0.33329052 0.32132593 0.25627172 0.48455542 0.07865925
-0.3967407 0.062244713 -0.06370889 -0.32265258 -0.12617376 -0.10900152 0.19176686 0.41759697

output_layer.bias f4 [2]
00000000: a8f0 0ebe 1d74 d1bc
-0.1395899 -0.025568062
