Trained_Models/Nicely_Trained_V1/DQN_target_net_Pendulum.pt (torch, 76072 bytes, 6 tensors)

layer1.weight f4 [128, 3]
00000000: d7cb f9be ae03 3ebf 8076 02be d9f5 47bf
00000010: 83fb 66bf e15b 5ebe 4e5b 07bf 04f5 883f
00000020: 7661 753e 962e 10bf 0791 00bf f044 49bf
00000030: 1ce3 38bf 5a7d 92bf b444 9abe 59b4 63bf
00000040: 10ab 8abf 8953 f4be 623e 10bf 4e86 46bf
00000050: 616c c7be 65ec 66bf 4c38 9b3e 50fc 01be
00000060: 1f62 9abe 9ed1 613f 8996 693e b3f8 4b3f
00000070: 2192 acbe 2ab1 93be 889c 41bf 964c 863f
00000080: 114a 543d 880e 363e f13f d1bd 460c 4d3c
00000090: db8c b2be 16f0 253d eb7a 273f da1c 21bf
000000a0: 16df 533f bb21 6c3e 0b20 3dbe 3cfe 6e3d
000000b0: 0209 3dbc 35ab 463f ff0f 78bf f78d 80be
000000c0: 62f1 14bf 502c 30bf 3ca8 04be 74b7 553e
000000d0: dd7c cb3e d44f 15bf 9062 8abe 1a1b 0a3f
000000e0: e380 f2bd 89c3 283f 21f7 1f3f 7df1 5c3e
000000f0: ab0b 02bf 0766 a53f 6bf2 863e cbaa cc3e
00000100: ce7d 123f 5595 2b3f 6abb 1fbf f880 4b3f
00000110: f0ee 5b3e 1747 303e a7db 143d 5b5d c43e
00000120: 7cf2 023e ec1e b9be 7da3 c4be 57c0 9bbe
00000130: e83f ccbe 7a4f d1be f246 51bf 8d8e 95bf
00000140: a0cc 1bbf 6b00 6f3f 54ca e7be c06e 55be
00000150: 7692 0abe cec5 0abf 8f9f 003f daef 2c3f
00000160: f433 06bf 56a7 f6be 3cf1 b1be 7b00 993f
00000170: 881b a13e 3705 d1be 7ad7 363e 770a 1b3f
00000180: a47a 073f 059e a6bf 4ed1 92be acd3 af3f
00000190: db65 083e ac80 723e 3035 99be 758b d33f
000001a0: 56d1 ac3e 2edf 083f 0cbe 823e b012 333d
000001b0: 7489 64bf 52db 253f c710 8c3e e3f9 6cbf
000001c0: 7750 05bf 5d40 213e a312 ffbe 395e 973e
000001d0: 9401 0c3f 84d0 78bf 57b1 abbf ef16 c9be
000001e0: 32e0 2bbf 9399 663f 940b 693e fcdd fa3e
000001f0: 89dd d6bc ead9 20be 405b 9cbe 8d3d 233f
00000200: f411 8cbe 0c94 5cbe fd3d 0fbe d1e9 9e3e
00000210: 69d8 b5be 29a2 993f 973f e13e 9fd2 39bf
00000220: 47d6 04bf 8a36 0d3e 8af2 0bbf fb0e 893f
00000230: c460 723e 18bf 87bf ece9 f1be 7b79 2bbe
00000240: 49ce bfbc 7108 ff3e 9d48 5e3e a062 fdbe
00000250: 35c1 823f a6f7 563e d99c 34be 341f b53f
00000260: cc35 983e 7b14 be3e a4e5 ee3e 14b1 00bf
00000270: 869d 173f af85 c43f 136d c03e a773 8ebf
00000280: 53a0 99be b35e e33d 2e31 e7be 31a4 52bf
00000290: aeb7 febe b45f 48bf 858a 70bf 6652 febe
000002a0: 56f7 f9be b569 15be b072 1ebe 4fc3 443f
000002b0: 5d21 a0bc 9810 afbe 595b 2fbf ef75 19bf
000002c0: d1d0 e1be 3e93 fcbe 4f7a e6bf 169c 29be
000002d0: 7090 4cbf cf0d 07bf 3e89 5dbe c453 22bf
000002e0: 7abd 9ebd a51d 45be 8753 69bf 3d81 8cbf
000002f0: 86f1 8fbe a9df 4dbf a027 d43e ed84 08be
00000300: ae77 7cbe e12c 823f 7bcf 583e 5ca6 4abf
00000310: ab75 d2be 13a5 ec3e 579d f2be 4b83 d43f
00000320: fb13 8e3e b052 68bf de7c 71bf 631d aebe
00000330: 0138 6abf 5e60 a03f f432 a33e 265c 06bf
00000340: 2f86 163d eebc c93e 0886 09be 8dbf 1d3f
00000350: 1c15 a3be 1a36 ff3e 894e 3cbf 8637 2f3f
00000360: 8990 5a3f 884a 4cbf fe8c 57be a547 1ebf
00000370: 82a0 e4bd 0118 46be 280f f7be 6ccc 8bbf
00000380: 5648 d3be cf1a 49bf 441d c33e 6a60 f33d
00000390: dca8 c1be 4697 8fbf 6884 99be c915 1ebf
000003a0: bdbe 853f 5aec d73e 3ab8 13bf 223d 44bf
000003b0: 881e 2cbf cbb1 cb3c 5ea5 e63d 89e6 15bf
000003c0: 2875 0abf 65fd b73f f7d7 9f3e 1e4e dbbe
000003d0: 99b4 4bbf 1210 aabd cc55 6ebf 8f84 12bf
000003e0: a764 84be f48d 26bf 2d1d a43f 0c86 7f3e
000003f0: 21ca d8be 13b2 42bf 0eab 18bf 5cf1 65bf
-0.4878833 -0.74224365 -0.12740517 -0.7810951 -0.90227526 -0.21714737 -0.52873695 1.0699773
0.2396296 -0.56321084 -0.50221294 -0.78620815 -0.7222154 -1.1444504 -0.3013054 -0.88947064
-1.0833454 -0.47719982 -0.5634519 -0.7754868 -0.38949874 -0.9020446 0.3031639 -0.12693906
-0.30152985 0.88210475 0.22811331 0.7967636 -0.33705238 -0.28846103 -0.7562947 1.0492122
0.051828448 0.1777898 -0.10217274 0.012515133 -0.3487309 0.040512167 0.6542193 -0.6293465
0.8276228 0.23059742 -0.18469255 0.058347926 -0.011537792 0.7760499 -0.9689941 -0.2510831
-0.5818082 -0.68817616 -0.12954801 0.20870763 0.397437 -0.58324933 -0.27028322 0.53947604
-0.118409894 0.6592336 0.62486464 0.21576495 -0.50799054 1.2921761 0.26356825 0.39974055
0.5722321 0.6702474 -0.62395346 0.79493666 0.21477866 0.17214619 0.03634229 0.38352475
0.12787813 -0.36156404 -0.38405982 -0.3042018 -0.39892507 -0.40880948 -0.8174888 -1.1684128
-0.6085911 0.9336001 -0.45271552 -0.20843029 -0.13532433 -0.54208076 0.5024347 0.67553484
-0.52423024 -0.48174542 -0.3475436 1.1953272 0.31466317 -0.4082429 0.17855635 0.60562843
0.5292151 -1.3016974 -0.28675312 1.3736472 0.13320105 0.23681897 -0.2992339 1.6526934
0.3375346 0.53465545 0.2553562 0.043718994 -0.89272237 0.6478778 0.2735655 -0.92568797
-0.52075905 0.15747209 -0.49818906 0.29564074 0.5468991 -0.9719317 -1.3413495 -0.3927531
-0.6713897 0.90078086 0.22758323 0.48997486 -0.026228683 -0.15708128 -0.30538368 0.63765794
-0.27357447 -0.2154085 -0.1398849 0.31037763 -0.3551667 1.2002612 0.43993828 -0.7258701
-0.5188946 0.13790336 -0.5466696 1.0707697 0.23669726 -1.0605192 -0.4724878 -0.1674556
-0.023413794 0.49811128 0.21707387 -0.49489307 1.0215212 0.20992908 -0.17637958 1.4150147
0.29728544 0.37125 0.46659577 -0.502702 0.59224737 1.5353297 0.37583217 -1.1129044
-0.3000513 0.11102047 -0.4515471 -0.82281786 -0.4974951 -0.7827103 -0.93961364 -0.4967224
-0.48821515 -0.14591105 -0.15473437 0.7686052 -0.019547159 -0.34192348 -0.6849876 -0.5994558
-0.44104627 -0.49331087 -1.8006076 -0.16563448 -0.79907894 -0.52755445 -0.21634385 -0.63409066
-0.077509835 -0.1924959 -0.9114308 -1.097694 -0.28113955 -0.80419403 0.4143648 -0.13331957
-0.24655029 1.0169946 0.21172898 -0.79160094 -0.411054 0.46219692 -0.47385666 1.6602567
0.2774962 -0.9075117 -0.9433116 -0.34006795 -0.91491705 1.2529409 0.31874812 -0.5248436
0.03674906 0.39401954 -0.13430035 0.6162041 -0.31852043 0.49845964 -0.73557335 0.684441
0.85376793 -0.79801226 -0.21049878 -0.6182807 -0.11163427 -0.19345094 -0.4825375 -1.092176
-0.41266125 -0.7855653 0.38108265 0.11883624 -0.37824142 -1.121804 -0.2998383 -0.6175199
1.0448834 0.4217251 -0.5770298 -0.7665578 -0.67234087 0.024865052 0.1126201 -0.58554894
-0.54085016 1.4374205 0.31219456 -0.42833036 -0.79572445 -0.083038464 -0.93099666 -0.5723352
-0.25858042 -0.65060353 1.2821404 0.24953479 -0.42341712 -0.7605297 -0.5963601 -0.8982141

layer1.bias f4 [128]
00000000: e181 c33e d7a7 ee3e 56c1 ae3e a0ed 083e
00000010: 0488 b03e 8a6b 07be eb5c 033f 5f8a 443e
00000020: f8db e93e daf4 03be e217 e43e e518 a2be
00000030: 1f31 9f3e 250f 263f 16e9 d3be 087d 14bf
00000040: 3e61 d43e bab7 163d c8ca db3e 5dff d7be
00000050: 0d3d 9d3e f8d9 2ebf bc4a 823d ef49 23bf
00000060: 0e45 613e 8a76 70bd 1d44 953e cbaf 94bf
00000070: b15a c1be 8cf9 5e3e d537 103f 972d db3d
00000080: 96b2 9dbe e10a 2c3f 8415 9d3d e3e7 743f
00000090: 468a 6b3f 2777 ce3e 16d9 0d3f 0817 72be
000000a0: 879e fe3e b42f 49bf 0ab7 8c3e 6253 3dbf
000000b0: 9960 a5be 92a8 003f ab26 b83e 37cb 4f3f
000000c0: d6f0 5dbe 3825 fd3e 04a2 5dbc ad78 e83d
000000d0: b2fc 15be 2da1 3f3d 5593 ad3e ac1c 503d
000000e0: 3a82 013f 29d3 183f 31e4 433f a82e 26bf
000000f0: 8bb0 143f e212 313f 7f99 033f da4b ce3e
00000100: 2e81 cd3d 944c 743e bd27 17bf a9a2 89bc
00000110: ac33 893c e7e1 f23e 1061 72be 1569 313f
00000120: f2ff 32bf ece7 2d3f ef19 bd3e 35a6 333f
00000130: 3521 113f 9a62 a43d 6829 6bbe 98cd 93be
00000140: b42b 9b3e 02c2 023f b34d 3c3f 6edb 85be
00000150: ec88 86be d62c a53e 6178 fabe 90b0 533e
00000160: e2b9 f83e c424 58be 4030 8abd feb3 11bf
00000170: e86f 0f3f 045d 5b3e afc8 3f3f 4a85 4d3f
00000180: cbf4 f4be 1d1d b0be 8931 993d a3ff 1fbf
00000190: 74cf 29bf 2f63 d8ba fb1f b83e 36c8 9f3e
000001a0: b235 d23e a8e7 ef3c 239a 7b3e 4a7e be3e
000001b0: e201 993e 533e 2fbf cb3c 50be 5043 cf3e
000001c0: d547 29be 6071 353f 337f 8f3e f75f f4bd
000001d0: f940 4c3f aa8d b0bd 4733 233f 47c4 b53d
000001e0: 27c0 503e dbee 1a3f cf55 a3be 2270 d13e
000001f0: a544 9a3e de01 083f 932b 443e d9bb c73e
0.38185027 0.46612427 0.3413188 0.13371897 0.34478772 -0.13224617 0.51313657 0.1919341
0.45675635 -0.12886372 0.4454947 -0.31659618 0.31092164 0.6486686 -0.41388768 -0.5800328
0.4148044 0.03679631 0.42928147 -0.42187014 0.3071064 -0.68301344 0.06361911 -0.6378469
0.21998999 -0.058706798 0.2915353 -1.1616148 -0.37764505 0.21774882 0.5633519 0.10702055
-0.30800313 0.672041 0.076701194 0.9566633 0.92007864 0.4032528 0.5540937 -0.23641598
0.49730322 -0.78588414 0.27483398 -0.7395536 -0.3230026 0.5025722 0.35967 0.81169456
-0.21673903 0.49442458 -0.013527397 0.11351142 -0.14647177 0.04678457 0.33901468 0.050808594
0.50589335 0.59697205 0.7652007 -0.6491494 0.58081883 0.6916944 0.5140609 0.40292245
0.10034405 0.23857337 -0.5904501 -0.016801195 0.016748272 0.47437975 -0.23669839 0.6930097
-0.6992179 0.6793201 0.36933848 0.70175487 0.56691295 0.08026619 -0.22965014 -0.28867793
0.3030678 0.5107728 0.7355606 -0.26143974 -0.26276338 0.3226077 -0.48919967 0.20672822
0.48579317 -0.21107775 -0.06747484 -0.5691527 0.5603013 0.21422201 0.74915594 0.8028151
-0.47843012 -0.34397212 0.07480151 -0.62499446 -0.66332173 -0.0016509051 0.359619 0.31207436
0.4105659 0.029285267 0.24570517 0.37205726 0.2988425 -0.68454474 -0.2033569 0.40481043
-0.16531308 0.7087612 0.28026733 -0.11932366 0.7978664 -0.0862077 0.6375012 0.088753276
0.203858 0.60520715 -0.31901404 0.40905863 0.30130497 0.5312785 0.19157247 0.39010504

layer2.weight f4 [128, 128]
00000000: ae64 c3bc 75dc 4bbd f8d1 80bc d802 ba3d
00000010: 49c2 aa3c eaea 0abc 5c0f 9f3c 57c8 103e
00000020: 5372 8d3e d433 1cbd 5465 883e aeaf 9b3d
00000030: d75a 463e 1696 343d 33fd 3c3d f6dc efbe
00000040: af53 8e3c bc2b 2d3e 2f67 a43e 08b5 353f
00000050: a785 d8bd 8de2 d13d 6fed 823d 8af4 9fbb
00000060: 6ec6 dc3d 6a92 083e 22ee be3d 07cb 18bf
00000070: bd29 7bbc 69d9 cd3b cf48 8d3e baf7 ed3c
00000080: dd72 8ebe fd92 c93c ef42 2dbe 8ce2 d73d
00000090: 4366 4f3e 1436 c3be 788d 923e 089c d43d
000000a0: 9d73 2e3e c31e fdbe 0515 a13e 9f78 38bd
000000b0: 2b0a ac3c a03a c4be 554a 68bc 1de3 f73c
000000c0: 621f 293e 7eed 463e 24e2 88be efc7 403e
000000d0: b853 0e3f 8607 8bbe d206 df3d e256 67bc
000000e0: d88a 123e aa9e cc3d 0117 0d3e 3b63 f8bc
000000f0: e207 8ebb 8e29 1a3e 79d1 ddbc dd49 903e
00000100: 37fe 93bd d8d9 913c 0c40 13bd 11af 9f3a
00000110: c15e 933d 1579 d23d 8d6a ec3d 2558 873d
00000120: 7883 b9be bf01 033e 5278 0ebc 1f2a 7c3c
00000130: 1e7e ffbd d449 443d 44f3 423c 6c7c c23d
00000140: 30d8 afbe 97f0 473c e67f b6bb 9b2d 563d
00000150: e68c cd3d 917d 103e 9374 463e 0907 a1bb
00000160: ef8c 813e 236f 113c b018 0e3e 9cf1 7c3e
00000170: 7112 7f3e 39d6 dd3d 8e41 e8bd bd36 d73d
00000180: cfb8 67bd 6c5a 213d 9706 ae3d 14c9 d9be
00000190: 60f5 50bc fa37 3f3e 2daa 9bbb 4a57 b83d
000001a0: b6dc 92bd 583d a8bc c0c3 903d 6b7d a6bb
000001b0: 44f3 24be 8ee8 2e3f 6632 d03a 6593 bdbb
000001c0: 0d9b 603e f743 1e3d a3cc eb3c 9436 a23c
000001d0: cf98 0f3e a908 963c af6f 963e 3424 7a3d
000001e0: fca1 093d 32c7 d4bd 4ab6 fd3d 0f02 d0bd
000001f0: dc19 3c3e fa2f b73d 663c 013e 06c7 9c3e
00000200: ec04 a13e 1301 ed3e 52ed b23e 6969 f9bc
00000210: 1c70 033f 8549 a9be 7ba9 163e ed58 343e
00000220: 695d 913e 5b58 95be e9a5 973e 647a 86ba
00000230: 30c7 cb3c 2d96 3e3e 05ea 403d d955 533f
00000240: e10b d33e 0c24 5dbd 810a d13d 451f 5b3f
00000250: df5f b13e fc0b 073d 7bea 45be 5afc 2bbd
00000260: 6f8e e3bd 18e5 2ebe f390 9f3c d5a8 583f
00000270: 3f4e 86bc fe42 8ebe 718c ab3e 9541 9cbd
00000280: 9d35 2a3f 86fd 2bbe b229 3d3e 04ca 0cbe
00000290: ca07 3f3e 3efd c33e 4395 c0bc 08b5 a2be
000002a0: 0c1d 873e 2fde 823f b292 18bd 3eef a9be
000002b0: 108e 9cbd 29d0 113e 992d 413e f2d5 c33e
000002c0: 60d8 ddbc 2a27 8c3e 9bd8 f63e 7a3e 92bd
000002d0: e836 333e 6503 5c3e 6ce5 b3bb 8a09 a4bd
000002e0: 6fe2 ee3e 4cfd 8abe 32ab 0a3e a599 1cbf
000002f0: a330 d43e 1c00 933e 7134 ce3e 24c5 813e
00000300: e96d 9d3e 1302 9b3d 53c4 04bf 2bd2 8bbe
00000310: 010b 98be 7f2e 833c 0980 52be 7308 50bd
00000320: d0a9 4a3f dbb6 ba3e bd0f 033e 1c42 683e
00000330: 46a2 d23e f37f 49bc 12ed 89be 8ce7 d7bc
00000340: 3e8c d13d c843 953e f24d 8c3e e26f 1dbf
00000350: 8668 0dbe 77ad c1bd 78e4 e93e 186e 073f
00000360: d925 513e 9f31 bcbe f322 abbd caca a33d
00000370: ff3c a63e b483 54be 0420 4e3e 8238 c83e
00000380: 2aaa d0be c67a 0ebe 3822 69bb 70a5 2c3f
00000390: 7a60 0d3f 72be 8bbe 2e80 113f 91f0 3f3d
000003a0: c88e c339 c661 f33e a305 d5bd 1b35 fa3e
000003b0: 7eb4 0b3e e624 5a3f 2735 b5be 3c4c 923e
000003c0: 9af9 10bf 6254 cb3b b42d e33e 12a1 44be
000003d0: 8136 19be 35da d7bd f6d0 983e aeec 993e
000003e0: 00af db3e 27ad 12be 8f3e acbd 6877 103e
000003f0: b38d 763e dfbf b63e f934 853e 311e 273e
-0.023851719 -0.04977079 -0.01572512 0.09082574 0.020844596 -0.008478859 0.019416504 0.14138924
0.27626285 -0.038135365 0.26639807 0.076018676 0.1937059 0.044088446 0.046139907 -0.46848267
0.017373888 0.16911215 0.32109973 0.70979357 -0.10572367 0.10248289 0.06392943 -0.0048814462
0.10780035 0.13337103 0.09322764 -0.59684795 -0.015329775 0.006282021 0.2759461 0.02904879
-0.2782201 0.024606222 -0.16920064 0.10541257 0.20253853 -0.38127196 0.28623557 0.10381323
0.1703629 -0.49437532 0.3146135 -0.04503691 0.021000942 -0.38325977 -0.014177878 0.030259663
0.16515878 0.19426534 -0.26735032 0.18826269 0.55596495 -0.27154177 0.10889973 -0.014119836
0.14310777 0.099912 0.13778307 -0.030320754 -0.004334436 0.15054914 -0.027077423 0.28181353
-0.07226222 0.017804071 -0.03594975 0.0012182911 0.07195807 0.10277001 0.115437604 0.06608609
-0.36233115 0.12793635 -0.008695679 0.015390902 -0.12475227 0.04792197 0.011898819 0.09496388
-0.34344625 0.012203357 -0.005569446 0.052289587 0.1003664 0.141104 0.19380407 -0.0049141687
0.25302836 0.008876595 0.13876605 0.24701542 0.24909379 0.10831875 -0.113406286 0.105084874
-0.05657273 0.039392874 0.08497351 -0.42536223 -0.012753814 0.18673697 -0.004750511 0.09001024
-0.071710035 -0.020537063 0.07068586 -0.005080869 -0.16108423 0.683236 0.001588416 -0.005785393
0.21934147 0.038639035 0.028784102 0.019801416 0.14023136 0.018314676 0.29382083 0.061069682
0.033601746 -0.10389556 0.123882845 -0.10156643 0.1836924 0.08944698 0.12620696 0.30620593
0.31449068 0.46289882 0.34946686 -0.030445771 0.5134294 -0.33063903 0.14713089 0.17612047
0.2839158 -0.29168972 0.29618767 -0.0010259864 0.024875253 0.18611975 0.04709818 0.8255287
0.4122 -0.053989455 0.102070816 0.8559459 0.34643456 0.032970414 -0.19327728 -0.041988708
-0.111111514 -0.1707958 0.019478297 0.8463262 -0.016394733 -0.27785486 0.33505586 -0.07629696
0.6648806 -0.1679593 0.18472937 -0.13748938 0.18655315 0.38279146 -0.023508674 -0.3177874
0.26389349 1.0224055 -0.037249275 -0.3319034 -0.07644284 0.14239563 0.1886505 0.38249165
-0.027080715 0.2737363 0.48212132 -0.07140823 0.17501414 0.2148567 -0.0054899957 -0.08009632
0.4665713 -0.27146375 0.13541868 -0.6117194 0.41443357 0.2871102 0.40274385 0.2534572
0.30747917 0.07568755 -0.51862067 -0.27308783 -0.29695895 0.016013382 -0.20556654 -0.050789308
0.79165363 0.36467633 0.12798972 0.22681469 0.4113943 -0.012298572 -0.26938683 -0.026355527
0.10231827 0.29153275 0.27403218 -0.61498845 -0.13809404 -0.09456914 0.4568212 0.52902365
0.20424594 -0.36756608 -0.083562754 0.07997663 0.3246841 -0.20753366 0.201294 0.39105612
-0.40754825 -0.13914022 -0.0035573374 0.6743994 0.55225337 -0.27293736 0.5683621 0.04686028
0.0003729968 0.47535533 -0.10401466 0.4886864 0.13643071 0.8521255 -0.35392115 0.28573787
-0.5663086 0.0062051276 0.44370806 -0.19202068 -0.14962198 -0.105396666 0.29846925 0.30063385
0.42906952 -0.14323865 -0.084103696 0.1410805 0.24077491 0.3569326 0.26016977 0.16320111

layer2.bias f4 [128]
00000000: 57c6 303c 844b e7bc 38fb a23c 5799 a53d
00000010: c25a 333e b230 74bd 849e 52bd 3969 e9bb
00000020: 86d4 dcbd fb89 e03d d484 6b3e 5640 13be
00000030: 8c12 89bb d6eb 50bd 74b4 8fbd 00db c7bd
00000040: d815 663d 3469 12bc c729 c2bb e30e dfbc
00000050: eca5 483f de36 a5bd defd 173e 4976 b23e
00000060: b538 403e 23f6 7a3e 44c2 5b3f 705a 043d
00000070: c9a9 8d3d dbdf 7fbd 7f39 813e 7c38 993c
00000080: d85c 233d 4229 6abd 3ed8 5ebd 47aa aa3d
00000090: 6f81 c3bd 6ee9 2a3e 4927 87bd cea8 363d
000000a0: 5684 88bd 5ea7 1c3b a13a dfbb 94e9 53bd
000000b0: aa02 aa3e 57f3 9c3e 6faf a0bd d627 44bd
000000c0: 8fec b4bd f99f 643d 81d6 b5bd 61b9 07bd
000000d0: 19c2 153d 0a5d aa3e 3bee 8f3e d2e4 bdbc
000000e0: bc64 70bc 3622 353d 4b38 14be 1c13 953c
000000f0: 07bd c6bc a33b 1cbc 64c2 133d 014d 03be
00000100: 9b9d d8bc 4c79 d1bc 4961 2a3e c44f 423c
00000110: d22d 92bb 4ed2 bfbd b9c2 df3c 9bcb cf3c
00000120: 8e83 dbbc 98c4 c23e c9c1 9a3c 48e2 43bd
00000130: 0205 883e 3e7b 13be 4e19 9bbd 194a fcbd
00000140: 4560 473e 4134 f1bc f7fd eebd 75f1 1fbc
00000150: 419e 7bbd 1adf c23c 38fd 3d3f 9396 98bd
00000160: 0250 063d efbe 78bc cb16 93bb 891d 04bd
00000170: d585 503d 933e e0bc ed43 fc3c c75f 953d
00000180: 880a 0c3e ae03 a4bc 7cbb 0dbd 86f0 163e
00000190: c1d0 f1bc f4b5 183d 5a8b 77bc 2910 2e3e
000001a0: 9a75 43bb 1135 5a3e 279a 8a3d 1441 b6bd
000001b0: 8a86 4ebd 5968 4abd 949f a43c eee7 ec3d
000001c0: 373e 7fbd ac2d 1dbd 3f39 323e 9a94 4b3b
000001d0: 4272 bd3d 9780 23bd b75d ce3c e091 453d
000001e0: 93e5 393e 1d58 0c3d d800 5a3c aa95 733d
000001f0: f067 d4bd b0a0 05be cd5a 833e 4159 3a3c
0.010789475 -0.02823425 0.019895181 0.08085888 0.1751509 -0.059616752 -0.051420704 -0.007123139
-0.10782723 0.10963818 0.22999889 -0.14380011 -0.004183119 -0.05100616 -0.070168406 -0.09758568
0.056173176 -0.008936215 -0.0059253904 -0.027228778 0.78378177 -0.08067106 0.14842936 0.3485587
0.18771632 0.24507956 0.858433 0.03231281 0.069171496 -0.062469345 0.2523918 0.018703692
0.039883465 -0.057168253 -0.054405443 0.08333259 -0.09546172 0.16690609 -0.0659929 0.04459458
-0.06665866 0.002390347 -0.006812409 -0.05173643 0.33205158 0.30654404 -0.07845961 -0.047889553
-0.088341825 0.055816624 -0.08878804 -0.033135775 0.03656206 0.33274108 0.28111443 -0.0231804
-0.014672454 0.04422208 -0.14474599 0.018197589 -0.024260057 -0.009535703 0.036074057 -0.12822343
-0.02644234 -0.025570534 0.16638674 0.011859838 -0.0044610286 -0.09366284 0.02731453 0.025365641
-0.026796129 0.38040614 0.018891232 -0.04782322 0.2656632 -0.14402482 -0.07573186 -0.123188205
0.19470318 -0.029443862 -0.11669534 -0.009762158 -0.06143022 0.023788024 0.74214506 -0.07450595
0.032791145 -0.015182241 -0.004488801 -0.03225473 0.050908882 -0.027373588 0.030794108 0.07293659
0.13675892 -0.020021286 -0.034602627 0.1474019 -0.029518487 0.0372829 -0.015108908 0.16998352
-0.0029824735 0.21309306 0.067676835 -0.088991314 -0.050421275 -0.04941592 0.020095624 0.115676746
-0.062315192 -0.038373634 0.1740465 0.0031063915 0.092503086 -0.039917555 0.025191171 0.04823482
0.18153982 0.03426372 0.013305865 0.059468903 -0.10371387 -0.13049579 0.25655213 0.011373819

layer3.weight f4 [10, 128]
00000000: b82e b73e 7e7e b9bd eaf1 5bbe b0ce a4be
00000010: 074d 6abe 1372 48be 4a02 4cbd eb0f 173d
00000020: 49d8 5f3e 9dce 9bbe ec9b aebe 0938 a03e
00000030: 78c6 71be 8cf6 0dbd 9712 c2be 14b0 93be
00000040: 96a3 d2bd 9c78 a1be 8687 d1be d290 9abe
00000050: 1ebe 8cbe 2dd3 52be 9bab c3be e306 e7be
00000060: cca5 aabe c39f e0be ff65 79be 7917 083d
00000070: 71a1 a3be 776c 70be 1037 40bf ce33 ddbe
00000080: 0808 d5bd 1b6b 86be 9231 81be cb0e 063f
00000090: ed03 b0be 1a00 afbe 2c2f 54be 0449 91be
000000a0: 1bb8 9e3d d25d 60be 9141 553e 1236 063e
000000b0: 8e39 d7be 6a7f e8be 3a4c 06be d3a5 d93e
000000c0: c6ed a9bd e689 85be d0ae afbe dfc2 0abe
000000d0: 9194 9abe 6d4e d8be efd9 8bbf 5cc1 73be
000000e0: 66c6 60be 7a8d b6bd 2934 e8bd c27e 52be
000000f0: ee91 813e 6169 053f 457a c1bc dfd7 10be
00000100: eb91 183f 4831 b83e 8370 abbe ee88 adbe
00000110: 1058 9dbe 3818 ed3e 9ede 62be c588 0bbe
00000120: 2bb9 70be bdde 0dbf b132 a3be 4aba 47be
00000130: 4ccf 2abf 8f04 6fbe 3e90 673d 4049 ad3e
00000140: ada3 a3be 25f2 70be 3c44 cebd 00a5 80be
00000150: 1b3e 90bd 66b2 1bbe bd88 f03e adc3 a0bd
00000160: 1449 09be 035e 43be 39b2 83be a8ec 96be
00000170: 1c9e b8be e09e 4dbe d87f f7be 3c3d 47bd
00000180: 0cb4 f4be adc8 bb3e 02c6 303e a936 b7be
00000190: 87f9 f13d 1402 7ebe f4b3 a53d 7539 14bf
000001a0: 2273 aa3e ca24 85be c9dc 81be 8b29 38be
000001b0: bdd5 91bd 55ec 80be 5573 94be 2c64 8abf
000001c0: 3bfd b3bc dd33 94be 6bd3 1ebf 1f76 57be
000001d0: b780 c7be b54e 51bd 314c 5abe d407 1dbe
000001e0: 7ff7 87be c48d aebe 80e6 9dbe 0d0a 5e3d
000001f0: f490 b6bd df4e 02be ba52 ebbe f2a2 bcbb
00000200: 8a44 61be 3561 2cbe b2b6 bfbe 153e c2be
00000210: 4d3d b1be 531e a1be cf09 b33a eebc 633c
00000220: c1de 113f 4e74 96be 6e26 9bbe 97f9 bd3e
00000230: d59c 9abe ba40 d0bc 154b d6be e163 8abe
00000240: 14b3 89be 1aca 9ebe a394 cebe a51b d0be
00000250: 3ab5 2d3f 8ff4 84be fcf3 b0be dba7 b3be
00000260: 049a 88be 409b 67be 25f8 013f 5b08 81bd
00000270: 35d8 a0be e1be 9abe 2c7f 92be 6ec5 77be
00000280: 857a 68be fa24 65be 51a1 94be 5554 333e
00000290: 2fe5 9abe 821a b3be c053 c7be 0289 0fbe
000002a0: f565 113d f90c 7cbe adc4 a13e 5c12 7c3e
000002b0: 0660 aabe 2b48 a3be 553a b9be 4418 a93e
000002c0: fb0b a8be cade 8ebe 65dc b138 d99f 96be
000002d0: 04df e2be 6f9d 25be c626 8abf 64f8 56be
000002e0: 4c84 b8be 4d2c aebe 9a32 a2be 8d41 cebe
000002f0: c4cb c63e b32e d53e 9640 b73c a473 63be
00000300: af15 093f af7a bb3e 6151 99be 73d0 cabe
00000310: ccc0 b6be 588c ba3e 7c84 ecbd 76bc 83be
00000320: 8408 95be d351 b9be 2d89 1cbe d86f acbe
00000330: 0c54 a2be 365a 57be e30a 3b3d 6d31 df3e
00000340: 25fc b7be e20e 93be c6a4 99be 4936 86be
00000350: 03ed 5ebe 919a 53be 750e ec3e e4a8 493d
00000360: 8e15 a6be 6543 85be 1e2f 86be cd5e c0be
00000370: e0be 9cbe 4d26 9abe 44a4 7cbe 322b 163c
00000380: 9c13 8a3f 0f8e d43e 0d97 a53e fc27 a8be
00000390: 81f2 153f 36e1 9abe 9dc6 4d3d dd1f adbe
000003a0: 5d33 d23e 4f93 97be 1b2b a7be 9ab0 a6be
000003b0: 4458 153d cec7 8fbe 76ef 92be 5dcb ddbe
000003c0: 0a66 013c f80b 83be fcef fabe a4f5 bebe
000003d0: cca4 debe 601a 63bd a0a5 55be 656a 49be
000003e0: db81 87be 8ba4 8dbe 2974 96be 84f5 24bd
000003f0: ffc9 96be f81c 71be 104a a1be 8740 b43c
0.3577783 -0.090573296 -0.21479002 -0.3218894 -0.22880946 -0.19574766 -0.04980687 0.036880415
0.2185985 -0.3043107 -0.34103334 0.3129275 -0.23610866 -0.034658954 -0.37904808 -0.28845274
-0.10285108 -0.3153733 -0.4092371 -0.30188614 -0.27488798 -0.2058837 -0.38216862 -0.45122442
-0.33329618 -0.4387189 -0.24355315 0.03322551 -0.31959108 -0.23478876 -0.7508402 -0.43203586
-0.104019225 -0.2625359 -0.25233132 0.5236632 -0.34377995 -0.34179765 -0.2072112 -0.2837602
0.07749959 -0.2191079 0.20825793 0.13106564 -0.42036098 -0.4540971 -0.13115016 0.42509326
-0.08297305 -0.2608177 -0.3431306 -0.135509 -0.30191472 -0.42247334 -1.0925883 -0.2380423
-0.21950683 -0.08913703 -0.11338074 -0.20556167 0.25306648 0.5211392 -0.023617873 -0.14144848
0.59597653 0.359751 -0.33484277 -0.33893532 -0.3073125 0.4630754 -0.22155234 -0.13626392
-0.23508136 -0.55417997 -0.31874612 -0.19504657 -0.6672256 -0.23341583 0.056534044 0.33844948
-0.31960812 -0.23529871 -0.100716084 -0.25125885 -0.07043096 -0.15204772 0.46979323 -0.07849822
-0.13406783 -0.19078831 -0.2572191 -0.2947743 -0.36058128 -0.20080137 -0.48339725 -0.048642382
-0.47793615 0.3667654 0.17263034 -0.3578389 0.11815172 -0.2480548 0.08090964 -0.5790017
0.33290964 -0.2600463 -0.25363758 -0.17984597 -0.071208455 -0.25180307 -0.2899424 -1.081182
-0.021971336 -0.2894582 -0.6204135 -0.21041153 -0.3896539 -0.05110045 -0.21318127 -0.15335017
-0.26556012 -0.34092534 -0.3083992 0.054208804 -0.08914366 -0.127254 -0.45961553 -0.0057567293
-0.21998802 -0.16833957 -0.37444073 -0.3793799 -0.3461708 -0.31468448 0.0013659539 0.013900025
0.5698052 -0.29385608 -0.30302757 0.37104484 -0.30197778 -0.025421489 -0.41854158 -0.27029327
-0.26894438 -0.31013566 -0.40347776 -0.4064609 0.67854655 -0.25967833 -0.34561145 -0.35089
-0.26680005 -0.22617817 0.50769264 -0.06300422 -0.31414953 -0.30223754 -0.2861265 -0.24196407
-0.22702987 -0.22377387 -0.29029325 0.17512639 -0.30252978 -0.3498116 -0.38931084 -0.14017108
0.035497624 -0.24614324 0.31595364 0.24616379 -0.33276385 -0.31890997 -0.36177316 0.33026326
-0.3282164 -0.2790435 8.4810694e-05 -0.2941883 -0.44310772 -0.16173337 -1.0793083 -0.20993191
-0.36038435 -0.34018174 -0.3167923 -0.40284386 0.38827336 0.4163719 0.022369664 -0.22212082
0.5354871 0.36617038 -0.299449 -0.3961216 -0.35693967 0.364352 -0.11548707 -0.25729722
-0.2910806 -0.3619524 -0.15286703 -0.3367908 -0.31704748 -0.21030506 0.04566468 0.43592396
-0.3593456 -0.28722292 -0.30008525 -0.2621329 -0.217701 -0.20664431 0.4610478 0.049233332
-0.3243832 -0.2602798 -0.26207823 -0.37572327 -0.30614376 -0.30107346 -0.24672037 0.009165572
1.0787234 0.41514632 0.32341805 -0.32843006 0.58573157 -0.30249947 0.05023824 -0.33813372
0.41054812 -0.29604575 -0.32650074 -0.3255661 0.03646113 -0.28082126 -0.2869832 -0.43319216
0.007897863 -0.2559507 -0.4901122 -0.37296784 -0.43485105 -0.055445075 -0.20863962 -0.19669493
-0.2646626 -0.276646 -0.29385498 -0.040273204 -0.29450986 -0.23546207 -0.31501818 0.022003425

layer3.bias f4 [10]
00000000: b54e 64be 3896 9abc 52b2 123e 8cad 233e
00000010: 6c1d 68bc d1ad 3dbd 4987 d0bc 3f27 44bb
00000020: d10a 2bbd 91bb 433e
-0.2229565 -0.018870458 0.14325836 0.15984172 -0.014167171 -0.046308342 -0.025455134 -0.002993062
-0.041758362 0.1911452
