PPO_Nicely_Trained/PPO_policy_net_Pendulum-v1-DEEP.pt (torch, 13314 bytes, 8 tensors)

hidden1.weight f4 [32, 3]
00000000: 5867 263f 01f2 593f daa5 f03e 1f05 003f
00000010: e2a9 43bf 1d36 61bd e1ed 45bd 5777 073f
00000020: 7680 d2be dc32 c83e 9fe8 e8be fda7 77be
00000030: 8e3c a53e b0ea c23e fb58 023f d123 96be
00000040: 6810 c53e 4151 18be eb1f 72be 0ec9 e53e
00000050: 405a c8be 31d9 1d3f 2a1c f4be adf2 16be
00000060: 12bf bd3e 4cd3 f8be 174f bd3e 3c1a bf3d
00000070: 1de4 b73e 4805 753c 0c13 d43e c63c 3b3f
00000080: 200d 30be d1d7 163e c6bd 53bf 07f5 1dbe
00000090: 9cd4 51bd 923d aabe d824 88be 28d8 69be
000000a0: 570c 1fbf 9e75 0dbe 415b 3dbf 50ba ea3d
000000b0: 196b 013e 00ac 1dbf 3cef 68be d4c9 debd
000000c0: 99fd 0c3f f92b eb3e e18a 053e 5e21 0b3f
000000d0: 4913 82be 2251 013f 0f71 8a3e 475a e7be
000000e0: e4d4 1dbe 6aa1 23bf 28ff c03c 9386 e0bd
000000f0: d35f ffbe 2831 533f 859d 323e cd14 73be
00000100: 1943 d9be 2f79 2bbd b7aa 383f 96b9 32bf
00000110: 2696 11bf 0c91 e5be 8124 0abe 240d 09bf
00000120: 4ec0 183f 987f 1cbf 66d4 0ebf a4a6 07bf
00000130: b4fa 1c3f 123c 023f d847 07bf a1a2 60bd
00000140: 8715 0e3f 550c abbe f09f 23be 13d8 dfbe
00000150: e9c9 2c3f 1ffc b93e e8b4 a03e 32bd 67be
00000160: fe98 d5be 4626 783e eec0 ecbe 1f38 55bf
00000170: c62c 2cbe 0df6 4fbd 9957 84be d859 1f3c
0.6500144 0.85134894 0.47001535 0.50007814 -0.76431096 -0.054983247 -0.048322562 0.52916473
-0.41113633 0.39101303 -0.45489976 -0.24185176 0.32272762 0.38069677 0.50917023 -0.293242
0.3848908 -0.14874746 -0.23644988 0.44879955 -0.39131355 0.6165953 -0.47677737 -0.14741011
0.37059838 -0.48598707 0.36974403 0.09331176 0.35916224 0.014954872 0.41420782 0.7313961
-0.17192507 0.14730765 -0.82711446 -0.15425502 -0.05122815 -0.332501 -0.2659061 -0.22836363
-0.62128204 -0.13814399 -0.7396737 0.114613175 0.12638511 -0.61590576 -0.2274751 -0.108783394
0.5507446 0.45931986 0.1304126 0.5434779 -0.25405338 0.50514424 0.27039382 -0.45186064
-0.15413243 -0.63918173 0.023559168 -0.10963168 -0.49877796 0.8249688 0.17442901 -0.23738404
-0.42434004 -0.041863617 0.7213549 -0.6981443 -0.56869733 -0.44837224 -0.13490488 -0.53535676
0.59668434 -0.6113219 -0.55792844 -0.5298865 0.6132004 0.5087291 -0.52844 -0.054842595
0.555016 -0.33407846 -0.1597898 -0.4371954 0.6749559 0.36325166 0.3138802 -0.22630766
-0.41718286 0.2423335 -0.46240944 -0.8328876 -0.16813955 -0.05077176 -0.25848082 0.00972601

hidden1.bias f4 [32]
00000000: 4bcf 56be 5079 08be b71f 193f 50c9 db3e
00000010: 76f5 9fbe 9e7a 98be e74b ac3e 0e67 d1bc
00000020: b1c0 bbbe 1824 f4be e1b4 383e 2e87 6b3d
00000030: bbe3 86be 5194 c23e f3c8 473e 14d3 da3d
00000040: 047c 91bb 7118 303e 8309 313e a31e 4cbe
00000050: aadc 24be 1fe8 1d3f 5fac d5be 70a0 943e
00000060: b14e f8be 93b1 593e 4d08 603e 43bc ad3e
00000070: a0b6 0dbf e134 bf3e 3ecf 81bd da71 a43e
-0.20977513 -0.13327527 0.5981402 0.42927027 -0.3124196 -0.2978105 0.3365166 -0.025561836
-0.3667045 -0.47683787 0.1803775 0.057501964 -0.2634562 0.3800378 0.1951025 0.10684791
-0.0044398326 0.17196824 0.17288785 -0.19933562 -0.16099802 0.61682314 -0.4173307 0.29028654
-0.48497537 0.21259145 0.21878166 0.33932695 -0.5535679 0.3734503 -0.063383564 0.32118112

hidden2.weight f4 [32, 32]
00000000: c921 483e 4d2d 80bc 97bc 353d 32cf c9bd
00000010: 681b 203e 2aa5 4cbe 7d4b ba3d f708 e43d
00000020: dc5b d93d 5263 95bd f4c0 0bbe b994 df3c
00000030: 75aa b63d 26a9 023d 0bcd b2bd bf9c 293d
00000040: 4a86 bb3d 9304 e33c 659c 9fb9 86f2 b0bd
00000050: 2b1a e73b e73e 58bd 96ef fbbc 73ee 8b3c
00000060: 5825 3b3d de11 fdbd c69a dc3c 7df7 193d
00000070: 7d0b da3d a25f 51be 76f3 ea38 bd6a 29be
00000080: ee45 0cbe 40aa 75bd b64d fcbd b3db 95bd
00000090: cba8 14be 2a6c ea3d f023 00be 563b 863d
000000a0: 12bf a3bd 9ac5 fc3d 62e4 083e ba42 273e
000000b0: 1016 f93c 414a 77bd 8859 153e b75b 8cbd
000000c0: bf0f 13be 4819 0fbe 02a7 cd3d 398e 0ebe
000000d0: 0f19 7ebd b431 183e f8f2 103d 2642 ccbd
000000e0: 50e3 633d a3f1 0e3e 86ac 22bd aa4b 0fbd
000000f0: b6e4 b2bd 98b1 2bbe 77e7 cebd fd69 9a3d
00000100: a45b 853e 4f68 80be 1e67 e43c 1a9e de3d
00000110: f86e 663e 6aec 583d ebaa 193d 6ef9 24bd
00000120: 83ab e0bd 29a4 0a3e a3e4 b43c 7a07 463d
00000130: 8daf 1d3e 7da5 bc3d 176a c13d c948 473e
00000140: 4a79 343e 49c4 2bbb 093c 9dbd 7220 803e
00000150: dcd6 5cbe e535 a63c 72d1 0fbe 5e1d 1e3e
00000160: c9ba 2fbe b331 36bd 8f7c 2ebe 217e bfbd
00000170: 20f6 f13d 75df 33bd 63aa 083e ce8a 96bd
00000180: 427f 073e d316 813e 94d3 07be a00b 6d3c
00000190: efd5 d6bd 2ff9 24be af4f f63d 8b3a 4f3e
000001a0: 2831 d83d 2738 c4bc 0f5e 21be 1921 853e
000001b0: 63bb 01be 8920 9b3e 15de 8a3d d5c7 45bc
000001c0: d17c b9bd 0011 ed3d 1da2 ccbd 79e2 9cbe
000001d0: 5166 0ebd 1cf5 293d 1d7b 9ebd a4f8 4fbe
000001e0: 89fd 8cbd ff26 22be 6ab2 1abe 5a31 19bd
000001f0: 6b9c 033e be96 b63d 8281 26be 0c6c 003e
00000200: 62fd 113e 2e56 b0bd 2197 18be 5a48 4cbe
00000210: f725 503c 8f31 a13d b313 013e 52c8 513c
00000220: db0f 06be bad7 bb3d 0f68 023e 5423 0bbe
00000230: b664 e73d bc6d f7bd da14 94be eb42 3a3e
00000240: cc9b 603e 5e1c f53d f21f b13d abec 0abe
00000250: 9cd7 193d 6069 a6bd a874 3d3d b4bd 713d
00000260: 2d53 9c3d 4fa1 0a3c 9107 003e 8635 8c3d
00000270: 8ac0 173e c76a e6bd d927 763e 6616 a23d
00000280: b548 ecbd 0533 7fbb a325 c43d dd9c 273e
00000290: 7510 33bd 18d4 033e eeeb b83d bcc6 013e
000002a0: ec35 60bd 1db1 26be d479 5e3d f0f9 983d
000002b0: ba36 483d 6acf 913d be61 333e cf17 8e3c
000002c0: f7e4 56be 71d0 093e edac 2c3e e09b 97be
000002d0: d090 b33d cc6d 723e a709 46bd fc0e 61bd
000002e0: 6e08 0f3e c3c3 82bd 125e 8f3d dceb 313d
000002f0: d5b8 89be 4ae5 483e 72cc 8cbd c36d 4c3e
00000300: b0b1 993c a023 edbd 92ec f4bd a888 2dbe
00000310: c0f1 8abb eff3 17be ecfd 66bd def5 c73d
00000320: cb77 113e 60d9 313c e964 0a3e ece2 11bd
00000330: d89b b6bd 1a7f a33d c8a8 d5bc b019 1a3d
00000340: 9cb7 0cbe a0dc 613d 0094 e33c 980b 43bd
00000350: f8c1 83bc 9c7c 17bd d852 90bc 0c2b 6a3d
00000360: af29 33be e5f3 05be a8f0 cebc 5947 27be
00000370: 7a17 7fbd 8335 0cbe f052 24bd 9e83 0fbe
00000380: 71b1 b8bd af09 e33c dfac 53be 765c 013c
00000390: ea56 e33d 327f 64bd a5a0 0c3d b4dd 3b3d
000003a0: 5e72 66bd e642 cbbd f927 1ebe 643f 8e3e
000003b0: 98f4 7dbe 7cf7 d53d 9c4a 843e 70f2 2bbe
000003c0: 1f05 47bd 3828 bb3d d53e c6bc 7010 a1bd
000003d0: b818 7d3e c2a7 603e b971 7c3e af8e a8bd
000003e0: a7b7 a3bd 3206 e23d 9118 df3d ddf7 36be
000003f0: cf24 31be 6f63 393e 55b1 40be daf8 3c3d
0.19544138 -0.015646601 0.044369306 -0.098539725 0.15635455 -0.1998488 0.090964295 0.111345224
0.10613224 -0.072943345 -0.13647825 0.027292596 0.08919231 0.031899594 -0.08730515 0.04140925
0.09156473 0.027712142 -0.00030443366 -0.08640008 0.00705268 -0.052794363 -0.030753892 0.017081475
0.04568991 -0.123569235 0.02692927 0.03758954 0.106467225 -0.20446637 0.000112033376 -0.16544624
-0.13698551 -0.059976816 -0.1231951 -0.07317295 -0.14517514 0.11446412 -0.12513709 0.06554286
-0.07995428 0.12342377 0.13368371 0.16334048 0.030406028 -0.06037355 0.14584935 -0.06853431
-0.14361475 -0.13974488 0.1004162 -0.13921441 -0.062035616 0.1486271 0.035387963 -0.09973554
0.055636704 0.13959365 -0.039715312 -0.03498427 -0.087350294 -0.16766965 -0.10102742 0.07539747
0.2604648 -0.2507958 0.027881201 0.10869999 0.22503269 0.052959837 0.037516516 -0.040276937
-0.10970213 0.13539185 0.022081679 0.048346974 0.15398999 0.09211252 0.09444063 0.19461359
0.17624393 -0.0026209524 -0.076774664 0.25024754 -0.21566337 0.02028937 -0.14044741 0.1544089
-0.17161097 -0.04448099 -0.17039703 -0.09350229 0.11814523 -0.043914277 0.13346247 -0.07350694
0.13232139 0.25212726 -0.13264304 0.014468104 -0.10490023 -0.16110681 0.12026917 0.20237176
0.10556251 -0.023952557 -0.15758537 0.26001814 -0.12669139 0.3029826 0.0678064 -0.012071569
-0.0905701 0.11575508 -0.09991858 -0.30641535 -0.034765545 0.04149352 -0.07738326 -0.20309693
-0.068842955 -0.15835188 -0.15107122 -0.03740058 0.12852637 0.089154705 -0.16260341 0.12541217
0.14256814 -0.086101875 -0.14901401 -0.19949475 0.012704364 0.07870781 0.12605171 0.012804108
-0.13091986 0.09172006 0.12735008 -0.13587695 0.11298506 -0.12081477 -0.28922158 0.1818959
0.21934432 0.11968301 0.08648671 -0.13566844 0.037559137 -0.081255674 0.04625383 0.059018806
0.07633052 0.0084613105 0.12502886 0.06846146 0.14819542 -0.11250835 0.24038638 0.079144284
-0.11537305 -0.0038940322 0.09577491 0.16368432 -0.043716867 0.12873876 0.09029375 0.12673467
-0.054738924 -0.16278501 0.054315403 0.07469547 0.048880316 0.07119639 0.17517754 0.017345337
-0.2098578 0.1345842 0.16862841 -0.2961111 0.08767855 0.23674697 -0.04834905 -0.05494593
0.1396806 -0.06384995 0.07000364 0.043437824 -0.26898828 0.19618717 -0.06874932 0.19963746
0.018761486 -0.115790606 -0.11959185 -0.16946661 -0.0042402446 -0.14839147 -0.056394503 0.09763692
0.14205854 0.010855049 0.13515057 -0.0356168 -0.089164436 0.07983227 -0.026081458 0.037622154
-0.13741916 0.055142045 0.027780533 -0.04761848 -0.016083702 -0.03698407 -0.017617628 0.05716996
-0.1749637 -0.1308132 -0.025261238 -0.1633581 -0.06227825 -0.13692288 -0.040118158 -0.14015052
-0.09018219 0.027714578 -0.20671414 0.00789558 0.11100562 -0.055785365 0.03433289 0.04586573
-0.056261413 -0.09924869 -0.15444936 0.27782738 -0.24800336 0.104475945 0.25838172 -0.16791701
-0.04858887 0.091385305 -0.024199883 -0.07864463 0.2471646 0.21938995 0.24652757 -0.0823034
-0.07994013 0.11036338 0.108933575 -0.1786799 -0.17299198 0.18104337 -0.18817647 0.04613576

hidden2.bias f4 [32]
00000000: c5a2 e83d d6b4 e2bd 52c3 7e3d e6ff b7bd
00000010: 9844 6dbd c0b0 a03d d4cf 113d ad8d 283e
00000020: 3031 c1bd d04d abbd 27b1 553e 5e02 9dbd
00000030: 5642 fdbc 83a6 42be 37bd 4d3e 878f 263e
00000040: 473d 63bd cca0 1f3e 4766 c0bd 5f7c 2fbd
00000050: c6af 8cbd 1290 50bc 5d55 e13d 818d 863d
00000060: f1c3 893d d28b 0fbd 73f6 073e a511 6b3e
00000070: 8220 9f3d 2e4c f03d ea77 103e 3ccc 60bd
0.11359171 -0.11069648 0.06219799 -0.08984356 -0.057926744 0.078462124 0.03559859 0.16460295
-0.0943321 -0.08364451 0.2086836 -0.07666467 -0.03091542 -0.19008832 0.20091711 0.16265689
-0.05547836 0.15588683 -0.09394508 -0.04284322 -0.068694636 -0.012729662 0.1100261 0.065699585
0.06726826 -0.035045452 0.13277607 0.2295595 0.07769872 0.1173328 0.14108244 -0.054882273

hidden3.weight f4 [32, 32]
00000000: d279 153e 8ccb d3bd aec5 713e a592 65bd
00000010: d59c 4a3e f7ed fabd 8e8c df3d b4d3 6cbd
00000020: 0d9e 213d 214e 333e 5ac8 3d3e b9fa 9a3e
00000030: 59cb a5bd 1b8f 04be 840a ef3d 16e9 93be
00000040: edd7 943d 97da 00be a1f7 2abe a0b6 0d3e
00000050: dcd3 6b3e e67c 6e3e a061 13bc a5d5 683e
00000060: cca7 13be 158b 57be 3be0 823e 03c8 fb3d
00000070: 6773 813e 71f1 233e 56a8 10be a819 10bd
00000080: 673e 5dbd ddb5 4cbd 1e31 48be f98a c03d
00000090: 82f6 19bd b9c2 e3bd a846 a8bd 7255 f63c
000000a0: edbd aa3d 4536 02be a158 32be 66e2 81bc
000000b0: 0707 333d dd75 403e b2d0 273e 04cf 5c3e
000000c0: 6ead 2d3e 0acc 393e e9b8 813e acf4 7cbd
000000d0: 4506 eebd 8417 dd3c 2fc8 1c3d 66e3 293e
000000e0: 8afc 253e 65aa c53d fb28 253d ca92 763e
000000f0: 54b2 36be 159f adbe ba58 523e 6602 ef3d
00000100: b6e8 f73d 5a71 f6bd 07f0 cf3d 75f5 093e
00000110: 586d 513e 9efd 023c 3eab 95bd 8cfe 2d3e
00000120: 43da 083e edb4 65bd c0b8 5dbd a93c 2bbe
00000130: e581 0e3e 360e 3a3e a006 c8bd f459 e6bd
00000140: 482a 183d f5f1 243e 6dce 16be 0035 92bd
00000150: f456 1b3e 7477 84bc d3d1 c4bd 8a6b a33d
00000160: 45ed 1d3d c647 283e 604d fa3d 2642 1c3e
00000170: 5ef6 dcbd 1dbf 53bd e242 01be b07a 743d
00000180: 61e3 233e 3024 2bbe c64b 12be 4ce5 893e
00000190: 6706 5fbd 97ed 58bd 8079 6abc e155 37bc
000001a0: fec2 59be 7392 53be 61f7 abbd 0044 063c
000001b0: c175 503e b453 563d cb3e 7dbb 387b c4bc
000001c0: e958 2b3d 0ca4 333e 6630 303d bf2a da3a
000001d0: 0c46 15bd 218a e13b 0b93 2f3e 42e8 a1bc
000001e0: e792 bdbd a770 02bd 5c25 133d ae72 983a
000001f0: 6919 483d b2a9 c9bd 9f1b 15bd b62e 79bd
00000200: 5110 f6bd ef54 1bbb 2a78 32bd 152f 603e
00000210: 5b9f 973d b485 90bc 3c8e b6bd 9f73 ac3d
00000220: af8f da3a 7515 08be 79e1 9cbe bba6 b5be
00000230: 7e15 283e 4770 163e f5d6 d0bd dd37 de3d
00000240: 667e f23d 1f3e a23e 13fa 413e 646a 43be
00000250: 4434 8dbc d676 89be 2649 9f3e 2ca1 003e
00000260: f54a 273d 9e47 4b3d 37cf aabc 06d5 1b3e
00000270: a6bf fbbd b42b 44be 56b4 6ebb 2c70 98bd
00000280: 5eab 883b 4146 1abe e6c7 ed3d 87fc c0bc
00000290: e2e2 ae3d 37a9 69be d96d 303e 51e6 033e
000002a0: eb78 193b 631d 02bd 01bc 093d 02b6 1e3d
000002b0: 2563 103e cf68 a43d 47b4 b53d 7df8 65be
000002c0: fc71 70bd ae54 39be 5bda e13c f8e2 733c
000002d0: 4499 983d 53b3 1c3d 6528 30be add7 403e
000002e0: 70d8 203e bbd3 80bd b344 523e d8f6 c03d
000002f0: 4f32 c6bc 4823 253d dc2c 9ebd 57ab 2d3e
00000300: a533 c93c 12af 74bd 9ea9 503d 5531 2ebe
00000310: 5902 b33d 0d68 f9bd 942e 1ebe 2489 8a3c
00000320: 8be5 1c3e be4e 063e 22b6 b23c 7c1f cd3d
00000330: 3cf5 98bd fd2a 8abd 87ea ab3d 6f90 6b3d
00000340: 1995 b5bd b68f eabd ce16 64be c1dc f6bd
00000350: b8bd 7aba 78fa 353e 8eb8 b83d f171 b3bd
00000360: 8eaa 1a3c 29d8 3a3e ea46 1a3d ad17 36bb
00000370: a4df a33d 40cf 033d 5230 d7bc 6fe8 23be
00000380: f7dc f6bd a646 dc3c 47f0 003d 7a55 6dbd
00000390: 441a 31be 17b9 3b3e 1968 d9bd 9ff2 a4be
000003a0: aba4 033e d256 ab3d 7907 4c3d 759b 223e
000003b0: 088c 0d3e 3fe2 aabd 8e22 dc3d 2f53 423d
000003c0: 89c2 21be 9a3a 35be 7e22 36bc a3dd 2c3d
000003d0: 21b3 763d d08d 41bd 5939 52be 7d9d 463c
000003e0: e9b0 b8bb b40c e5bd 313f 2b3e 8cd8 8fbc
000003f0: edbe 7fbc d6ff eb3d 6ad5 cfbd f80e df3c
0.14597252 -0.10341558 0.23610565 -0.056048054 0.19786389 -0.122524194 0.109154806 -0.057819083
0.03945737 0.17510273 0.1853346 0.3026941 -0.08095426 -0.12945215 0.116719276 -0.28888768
0.07267747 -0.12583385 -0.16696025 0.13839197 0.23030037 0.23289832 -0.008995444 0.22737749
-0.14419478 -0.2104915 0.255617 0.122940086 0.25283358 0.16010071 -0.14126715 -0.035180718
-0.05401459 -0.049978126 -0.19549987 0.09401507 -0.037588604 -0.11121125 -0.082166016 0.03007004
0.08337007 -0.12716015 -0.17416622 -0.015855026 0.043707874 0.18794961 0.16388205 0.21563345
0.1696069 0.18144241 0.25336388 -0.061756775 -0.116222896 0.026988752 0.038276847 0.16590652
0.16209617 0.09651641 0.040322285 0.24079433 -0.17841464 -0.33910432 0.20541659 0.11670379
0.12104933 -0.12033339 0.101532035 0.1347254 0.20451868 0.007995037 -0.073080525 0.16991633
0.1336451 -0.056080747 -0.05413127 -0.16722359 0.13916738 0.18169484 -0.097668886 -0.11247626
0.037149698 0.16107924 -0.14727183 -0.07139015 0.15169889 -0.016170241 -0.09610333 0.07979496
0.038556356 0.1643363 0.12221789 0.15259609 -0.10789178 -0.05169593 -0.1262317 0.059687316
0.16004707 -0.16713023 -0.14286718 0.26932752 -0.054449465 -0.05296096 -0.014311194 -0.011189909
-0.2126579 -0.20661335 -0.08396793 0.008194923 0.2035742 0.05232592 -0.0038642164 -0.023984537
0.04183284 0.17543048 0.043014906 0.0016644819 -0.036443755 0.0068829213 0.17145936 -0.01976407
-0.09256535 -0.031845715 0.0359243 0.0011630857 0.048852358 -0.0984682 -0.036403295 -0.060835563
-0.12014831 -0.0023701747 -0.04357163 0.2189296 0.074034415 -0.01764188 -0.08913848 0.084204905
0.0016674901 -0.13289435 -0.30640772 -0.35478768 0.16414449 0.14691268 -0.1019725 0.10850499
0.11840515 0.3168802 0.18943052 -0.19083554 -0.017236836 -0.26848477 0.31110495 0.12561482
0.04084297 0.049628846 -0.02085076 0.1521798 -0.122924134 -0.19157296 -0.0036423407 -0.0744327
0.004170819 -0.15065862 0.11610393 -0.023557914 0.08539368 -0.22818457 0.17229404 0.12880827
0.002341802 -0.031766307 0.03362656 0.038747795 0.1410032 0.08027803 0.08872276 -0.22458072
-0.058702454 -0.18098709 0.02756994 0.014885657 0.07451108 0.038256954 -0.1720291 0.18832274
0.15707564 -0.062903844 0.20534019 0.09422082 -0.02419391 0.04031685 -0.077234 0.16959892
0.024560759 -0.059737273 0.05094301 -0.17011006 0.08740682 -0.12178049 -0.15447456 0.016911097
0.15321939 0.13115975 0.021815363 0.10015771 -0.0746865 -0.067464806 0.08394342 0.05751079
-0.08866329 -0.11453192 -0.22274324 -0.12053824 -0.00095650135 0.17771327 0.09019576 -0.08761967
0.0094400775 0.18246521 0.037665285 -0.0027785108 0.080016404 0.03218007 -0.026268158 -0.16006635
-0.120538644 0.026889157 0.031479146 -0.057942845 -0.17295176 0.18332325 -0.10615558 -0.32216355
0.12855785 0.08366169 0.049811814 0.15879615 0.13822949 -0.08343934 0.10748778 0.04744261
-0.15796866 -0.17698136 -0.011116622 0.042203557 0.060229424 -0.047254384 -0.20529689 0.012122509
-0.0056363237 -0.111840636 0.16723324 -0.017559312 -0.015609485 0.11523406 -0.101481274 0.027228817

hidden3.bias f4 [32]
00000000: f08b 2f3e de3a 94bd 4a5d 763d 7e40 563e
00000010: ff69 d43d 8e48 28be 357b 493d 4f1b 093e
00000020: d131 843e 3204 823e e7a8 6e3e 2cc2 f33c
00000030: fb5c 8a3a ba8c 40be 2252 13be f8eb 9f3d
00000040: 70a5 6b3d 6dfb 62bd 5504 c43c 1643 ca3d
00000050: 33cf 1cbe 25ce 943a 9931 cebd 99e5 72bc
00000060: 6eeb e5bb 0df8 543e 0639 453e 388f 433e
00000070: bea6 2bbe 114b 393c ab5b 23bd 7224 113e
0.17143226 -0.072377905 0.06014756 0.2092304 0.1037178 -0.16433927 0.049189765 0.13389324
0.25819257 0.25393826 0.23306619 0.029755674 0.0010556275 -0.18803683 -0.143868 0.07808679
0.05753082 -0.05541556 0.023927847 0.09876077 -0.15313415 0.001135294 -0.10068054 -0.014825248
-0.007016591 0.20797749 0.19260034 0.19097602 -0.16762826 0.011309401 -0.039882343 0.14174059

mu_layer.weight f4 [1, 32]
00000000: 4aa8 d4be a1fd b83e 19cc aa3c d34e d73d
00000010: 90ef b53e 899c 62be 52c9 f73d eb9d 7dbe
00000020: c7e3 fb3e f91c dbbe 1fcd dcbe fb82 1ebe
00000030: 0673 aa3e 4ae2 623b 9711 a0bd f0ea cebe
00000040: d3e4 cbbe f104 f33e 9f16 053f 2123 943e
00000050: 7b3c 1d3e 9ffc ed3d 4cd3 fa3d 1cae 71be
00000060: 3877 ccbe 05b7 dd3e 3cb6 0c3f 6ab4 b8be
00000070: d394 79be c0a3 823e 5d68 ee3d 4ac6 80be
-0.41534644 0.36131003 0.020849274 0.105130814 0.35534334 -0.22130026 0.12098946 -0.24767272
0.49197218 -0.42795542 -0.43125245 -0.15479653 0.3329088 0.0034619742 -0.07815855 -0.40413618
-0.39823017 0.47464707 0.5198764 0.2893305 0.15355103 0.11620449 0.12247333 -0.23601574
-0.39934707 0.43303695 0.5496557 -0.36075145 -0.24373178 0.25515556 0.116409995 -0.25151283

log_std_layer.weight f4 [1, 32]
00000000: 145a 273d dcdb 183e 52ac 153e 1d53 15be
00000010: 8fc9 443d 235e 5e3e 6c68 0b3e 8f2f d3bd
00000020: 5bde 7bbe e10a 1dbe c2cc 8bbd 0f29 00be
00000030: f80f 593d efc6 983d fbfb 96bd 3946 6d3d
00000040: 8507 cb3c c166 9c3d 5864 c6bd a79b 743d
00000050: d2d7 c5bd 85f3 0dbe c8d4 19be 8567 e03d
00000060: 5af2 ecbd 780b aebd d2f9 0dbe f4d4 15be
00000070: 6162 ce3d b1f5 02bd b81d d53d cf00 86bd
0.04085739 0.1492762 0.14616516 -0.14582486 0.048043784 0.21715598 0.13614053 -0.103118055
-0.2459654 -0.15336181 -0.06826164 -0.12515663 0.052993745 0.074598186 -0.0737228 0.057928298
0.024783859 0.07636786 -0.09687108 0.059718754 -0.09660305 -0.13862427 -0.15022576 0.10957245
-0.115696624 -0.08498281 -0.1386483 -0.14632016 0.10077358 -0.03197259 0.10406059 -0.06543123
