PPO_Nicely_Trained/PPO_policy_net_Pendulum-v1.pt (torch, 3654 bytes, 4 tensors)

hidden.weight f4 [32, 3]
0.6996197 -1.2521378 -0.37277943 -0.7404025 0.54273987 0.43447927 0.28639445 0.38593775
0.26396716 0.15554194 -0.60243803 0.54060555 0.7748586 1.4378651 0.44741857 0.11606404
1.1993549 -0.55263084 0.39733508 0.08669226 -0.60421747 0.61047566 0.9599861 0.4438187
-0.810062 0.30371752 0.26017994 0.7078749 -0.533869 -0.33900225 -0.27893886 1.0956107
-0.39266858 -0.30288363 0.95774966 -0.39093152 -0.7451204 -0.8901396 0.5657168 -0.27120724
0.6104076 -0.17313829 0.9255714 0.7060683 0.47559983 0.7918467 -0.86298615 -0.35665655
-0.20960589 0.8824083 0.09758511 0.28875563 1.3959088 -0.055874903 0.7609882 1.1561799
0.36426234 -1.0595456 0.044035602 -0.34322864 0.13813865 -1.0940166 0.06344332 0.6550956
0.16800499 -0.3905657 -0.11669602 0.35071817 0.075908706 -0.5770779 -0.8823647 0.50334495
0.7650794 -0.51985013 -0.66839445 -0.9186668 -0.18150613 0.37793124 -1.389043 0.4155271
0.5000544 0.46107018 0.876475 0.46226606 -0.16464835 0.4888533 0.15176447 -0.4682715
0.6601924 -0.5892112 -0.3271585 0.6288116 -0.20978107 0.2455563 0.6986396 -0.41428992
00000000: 471a 333f 0d46 a0bf f2dc bebe 058b 3dbf
00000010: 00f1 0a3f 1174 de3e 4ba2 923e a299 c53e
00000020: b426 873e 6346 1f3e 6139 1abf 2065 0a3f
00000030: 225d 463f f70b b83f 0c14 e53e fcb2 ed3d
00000040: 7684 993f 3779 0dbf 816f cb3e b68b b13d
00000050: ffad 1abf 2248 1c3f a6c1 753f 343c e33e
00000060: 3960 4fbf dd80 9b3e 4e36 853e 4a37 353f
00000070: a4ab 08bf b491 adbe 13d1 8ebe f93c 8c3f
00000080: db0b c9be 9013 9bbe 152f 753f 2d28 c8be
00000090: 36c0 3ebf 30e0 63bf d1d2 103f addb 8abe
000000a0: ac43 1c3f 2a4b 31be 3ff2 6c3f e4c0 343f
000000b0: d281 f33e 77b6 4a3f a9ec 5cbf b09b b6be
000000c0: eda2 56be 83e5 613f b4da c73d c7d7 933e
000000d0: 24ad b23f 15dd 64bd 1fd0 423f b4fd 933f
000000e0: 9880 ba3e 319f 87bf ad5e 343d aabb afbe
000000f0: 3874 0d3e bc08 8cbf 92ee 813d 58b4 273f
00000100: 8009 2c3e 3af8 c7be 53fe eebd 5591 b33e
00000110: 0676 9b3d 61bb 13bf a7e2 61bf 37db 003f
00000120: 3edc 433f e614 05bf e61b 2bbf bf2d 6bbf
00000130: bedc 39be 3480 c13e 29cc b1bf f8bf d43e
00000140: 9103 003f 6411 ec3e aa60 603f 23ae ec3e
00000150: 9499 28be fb4a fa3e 2568 1b3e 48c1 efbe
00000160: 5e02 293f 8cd6 16bf 5281 a7be ccf9 203f
00000170: d9d0 56be 1c73 7b3e 0bda 323f cf1d d4be

hidden.bias f4 [32]
0.08129736 0.28963873 0.041302174 -0.10254314 -0.22030225 0.022073139 -0.015788013 0.3054987
-0.009973796 -0.40314457 0.58827126 0.3881076 0.23508826 0.36918914 -0.26856768 -0.11267186
0.56039304 0.25937054 -0.28581446 0.077035554 0.7333848 -0.5791941 -0.66724527 -0.30631766
-0.27775973 -0.29641044 0.06243108 -0.16592026 0.3121658 -0.3260985 0.4249894 0.2700235
00000000: 3b7f a63d 874b 943e 782c 293d 2302 d2bd
00000010: ea96 61be bad2 b43c dd55 81bc 536a 9c3e
00000020: 2269 23bc f768 cebe f298 163f 0ab6 c63e
00000030: faba 703e 5c06 bd3e b481 89be 81c0 e6bd
00000040: eb75 0f3f 37cc 843e 4656 92be d1c4 9d3d
00000050: 1bbf 3b3f 1146 14bf 96d0 2abf abd5 9cbe
00000060: 8636 8ebe 1cc3 97be bbb7 7f3d 00e7 29be
00000070: 32d4 9f3e 62f6 a6be 3698 d93e 8540 8a3e

mu_layer.weight f4 [1, 32]
0.9538983 0.1068957 -0.2441449 0.043099683 -0.62881756 -0.14796345 0.13440683 -0.39874902
0.4767806 0.29954895 -0.23664828 -0.3257978 0.45512563 -0.5486088 -0.4312457 0.6346023
-0.4626392 -0.28903082 -0.6597419 -0.5095502 0.45622212 0.17297652 -0.1414463 0.33285484
0.43016472 0.44403914 0.3981207 -0.33812833 -0.1309167 -0.16371267 -0.46940964 0.011830886
00000000: ae32 743f 22ec da3d 1f01 7abe 4b89 303d
00000010: 30fa 20bf bb83 17be f2a1 093e d528 ccbe
00000020: 961c f43e 7b5e 993e ed53 72be f8ce a6be
00000030: 3a06 e93e a071 0cbf 3dcc dcbe 4c75 223f
00000040: 0cdf ecbe d9fb 93be d8e4 28bf e271 02bf
00000050: f295 e93e c220 313e 4dd7 10be f36b aa3e
00000060: 8d3e dc3e 1959 e33e 7ad6 cb3e 281f adbe
00000070: 070f 06be 4ba4 27be 7656 f0be 55d6 413c

log_std_layer.weight f4 [1, 32]
-0.18674275 0.103038065 -0.26441252 -0.3053057 -0.12143885 -0.37855977 -0.27652833 -0.28827387
0.17153512 0.11648566 0.09465102 -0.07201374 0.030483052 0.2987837 -0.12028939 -0.18504699
-0.03379605 -0.33083525 -0.22853561 0.5057267 -0.08760303 0.2956996 0.08799094 -0.29834893
-0.10485688 -0.027863149 0.14578359 -0.052441165 0.1943296 -0.35738826 0.23186208 -0.2801515
00000000: 7e39 3fbe 9f05 d33d 1461 87be 0751 9cbe
00000010: efb4 f8bd 96d2 c1be 1f95 8dbe a298 93be
00000020: e7a6 2f3e 0990 ee3d 65d8 c13d f17b 93bd
00000030: 98b7 f93c 2dfa 983e 495a f6bd f57c 3dbe
00000040: ba6d 0abd 3d63 a9be 3d05 6abe 4e77 013f
00000050: 3869 b3bd f065 973e 9834 b43d 31c1 98be
00000060: 34bf d6bd 4241 e4bc 4b48 153e 8ccc 56bd
00000070: 57fe 463e 98fb b6be 416d 6d3e 0470 8fbe
