Trained_Models/Cartpole_Trained/DQN_policy_net_Cartpole.pt (torch, 13056 bytes, 8 tensors)

linear_relu_stack.0.weight f4 [32, 4]
00000000: 53ed e03d a0d7 89be 472f 493f 6632 8c3c
00000010: fc2e 0abd f10f 683e ce49 2a3e ab08 fb3d
00000020: 89b8 c0bd 1055 853e e52b 9dbe ac56 14be
00000030: 99fc 2dbe 617e 76be 619d cdbc ce13 89be
00000040: 70bc a5bb 1528 0fbe 5986 e8be ba24 5a3e
00000050: a529 39bd db1b cabe 2ed1 54bf d3ab e1be
00000060: 4d2c 11bf 34da c5be 5efa e33e bfab 05bd
00000070: c0bf 8b3e 50db 653e 805f 2fbe 1ccf 77be
00000080: 0a06 b9be 0b6e b1be b8d0 c03d e4cc 58be
00000090: 5ed6 533e e95f 6fbe 07cc 4abe 21a0 48be
000000a0: 1d75 73be 5a20 84be 5771 5d3e 85f0 11be
000000b0: 339d 023e 4a73 37be ca5f 563e 6461 babb
000000c0: 5510 c03e 3c0b 56be 34cd 123f e6ee 933e
000000d0: 5340 00bc 80c0 1cbe 80cf cbbe 5323 56be
000000e0: e2a0 c63e 441b 9c3d befe 2dbf 591f 4d3c
000000f0: 7c18 5cbe d437 ddbd 73b3 02bf 44fc fdbc
00000100: a5f1 433e aa5d 083d 2884 62be 7f42 02be
00000110: 86ac 303e 4dcc 723e a3a2 913e 2975 2b3e
00000120: 0588 47be 6c01 ce3d 2156 123e 1eaa 963d
00000130: 8d89 c03d 9583 ff3e 3020 2c3d c38f e63e
00000140: f527 943e 3f6a df3e c4b2 203f 5737 ca3e
00000150: 60f3 30be 89e3 c0bd 7f1d 173d f162 f23b
00000160: 55a1 57be 6d31 cc3d 2421 fa3e ac56 c13b
00000170: b5ed 263d 8535 823d 79ea dbbe 47fb 533e
00000180: 878d 973e b088 053d b152 313e 67e2 eb3c
00000190: 9ef4 58be 2ecc af3e 4dd9 b23e dee5 773e
000001a0: 1698 aa3e a09c 89be 805a 00bf 5bc1 8fbe
000001b0: e3b1 793d 65b7 4e3e 8b6b 8e3e a164 59be
000001c0: ecf2 62be e6a5 46be b0dc e13e b266 583e
000001d0: 37f5 a23e 5ff3 823e ab41 073f 3663 5cbe
000001e0: e828 a2bc 3425 80be 7615 74bf f8d9 92be
000001f0: d9fe 84bd 1f1b aebe e636 3bbf 4705 75be
0.10982766 -0.2692232 0.78587765 0.017113876 -0.033736214 0.22662331 0.16629717 0.12257513
-0.09410197 0.2604146 -0.3069755 -0.14486188 -0.1699089 -0.24071647 -0.025099458 -0.26772922
-0.005057864 -0.13980134 -0.45415 0.21303073 -0.04520573 -0.39474377 -0.8313168 -0.44076404
-0.5670822 -0.38643038 0.44526953 -0.032634493 0.2729473 0.22446942 -0.17126274 -0.242001
-0.3613742 -0.3465427 0.0941481 -0.2117191 0.20687243 -0.2337643 -0.19804393 -0.19592334
-0.23775144 -0.25805932 0.21625267 -0.14251907 0.12755279 -0.17915073 0.20934978 -0.0056878794
0.3751246 -0.20902723 0.57344365 0.28893203 -0.007827836 -0.15307808 -0.39806747 -0.20911913
0.3879462 0.07622388 -0.6796683 0.012519681 -0.21493715 -0.10801664 -0.5105507 -0.031004079
0.19135149 0.03329245 -0.22120726 -0.12720679 0.17253312 0.23710747 0.28444394 0.16743912
-0.19485481 0.10058865 0.14290668 0.07356666 0.09401236 0.49905077 0.042022884 0.45031556
0.28936735 0.43635747 0.62772775 0.39495346 -0.1728034 -0.09418399 0.036893364 0.0073970486
-0.21057637 0.09970365 0.4885341 0.0059002247 0.04075404 0.06357864 -0.42952326 0.20701323
0.29600164 0.03260106 0.173167 0.02879448 -0.21187064 0.34335464 0.34931412 0.24208781
0.33319157 -0.26877308 -0.5013809 -0.28077206 0.06096066 0.20187147 0.27816424 -0.21229793
-0.2216298 -0.19399223 0.44113684 0.21132925 0.3182771 0.25576302 0.52834576 -0.21522221
-0.019794896 -0.25028384 -0.95345247 -0.28681922 -0.06493921 -0.34005067 -0.73130643 -0.23927794

linear_relu_stack.0.bias f4 [32]
00000000: 8145 a5be d0db 123f 43b8 dcbe 2aae 183f
00000010: d97f c93e e5bd 543d 5876 97bc 1788 63be
00000020: bf52 9abd 0a19 023f c513 bc3e b971 113f
00000030: acb5 dfbe d979 223f 3a31 c03e e887 e23d
00000040: e412 2b3f 104c 89be 1e94 32be 05d7 7f3d
00000050: 2719 453b 33e4 e63e 9a97 f43e bbb2 d63e
00000060: 89fa afbe 96b7 d03e f78c 3abe 8ace 133f
00000070: 92dd 983b 61f7 733e b9ac 5bbe 3b99 7abe
-0.3227959 0.5736666 -0.4310933 0.59640753 0.39355353 0.05193891 -0.018489048 -0.22219883
-0.07535314 0.50819457 0.36733833 0.5681415 -0.43693292 0.63467175 0.37537557 0.11061078
0.668257 -0.26815844 -0.17439315 0.062460918 0.0030074806 0.45095977 0.47771913 0.41933236
-0.3437083 0.40765065 -0.18217836 0.5773703 0.004665085 0.23824836 -0.21452607 -0.24472515

linear_relu_stack.2.weight f4 [32, 32]
00000000: ae90 1dbe 9404 353e ec4b 57bc 6c2c 8e3e
00000010: 5c8b 243e 032d 13be b471 7d3d cc87 793c
00000020: 3b3a 0dbd b3b7 aa3e 6947 6a3e cb0a 3c3e
00000030: 446d 22be 5cd6 5f3e c854 c63d a8ad 673e
00000040: 0a2f c23e 1a6a 9dbe 0776 98be d3c5 49bd
00000050: 3b45 d23d 96ba 8c3e 29e4 9b3e 3d4d a23e
00000060: cadc d3be a1d6 243e e910 5abe 264a c13d
00000070: 98e7 ec3d 4a89 af3d 5741 8ebe 84ed b0be
00000080: 68fc abbd a9b9 9d3e 057e 82bd 5c50 103e
00000090: ea6f 653e 6a95 c53d 9365 ae3d 3889 173e
000000a0: 4436 c63d 574b 913e 6f04 233e 78a4 b03e
000000b0: d1ee eabd af0c 963e 0f48 633e 2671 623e
000000c0: a1e9 bd3e 9d95 afbe 3886 cebd a8e2 243d
000000d0: d086 003e 4867 643e 49ae 9d3e 8cf3 873e
000000e0: 5c2a d3be 6709 093e ebfb 83be e2d6 1a3e
000000f0: 79c1 033e 65ce 293a d92a a3be 2825 83be
00000100: 5909 4bbd 6bc8 0f3d 1eb8 033d c9c8 203e
00000110: b1b7 c73d b1ea 023f 9b0d cc3d f515 80bd
00000120: 7fcf 473d be85 c33b 0ff8 6ebd b909 5cbd
00000130: b483 453e a052 cb3d fd93 fdbd 8183 d4bc
00000140: 7b6a 8dbd d2dd 123d 319d fbbd de3d 533e
00000150: 337e 993d 7b23 73bc 5772 f0bd 850d 9cbd
00000160: 7f1f cb3e 0b94 a4be dd5a d33e 83dd 053e
00000170: c16c ef3d 3be0 dabb ce9a ef3e 99cc b53e
00000180: a6a5 b8bc 926c 0a3e 9bb6 c9bc 3d20 ac3d
00000190: 5ff0 e73d edf3 acbe cd28 2c3d 6c63 bebc
000001a0: dc8d 03be 680c ca3e bdbc 573e a97f 953e
000001b0: d9ff dcbd ab8f 533e 24fd 123e 9c67 a53c
000001c0: 3bc6 b83e 9fdb 1abe 215f 01be 49cf 64bc
000001d0: 61b1 203e a78c 703e eb5c 063e 3cec 253e
000001e0: fc30 06bf 2402 733e d108 a3be 0d14 bf3d
000001f0: eb6d bebd 01c1 97bb 0b3f cfbe 5c56 d0be
00000200: 8321 ddbc 0fa4 4c3e a75a 1cbe a5a8 1e3e
00000210: b595 863e d3e9 f3bc 15ee fd3d 906c 5e3d
00000220: 3502 733d 5d8f 663e 12b9 5d3e e927 ba3e
00000230: 3377 20be db45 cb3e 64aa 583e 1200 5a3e
00000240: d4e2 7e3e 8489 45be bdd7 80be f207 223e
00000250: e929 033e a966 193e b264 723e 10d7 4c3e
00000260: c12a d6be 6011 3f3e 084a 99be 8135 893d
00000270: 12b8 0a3e 5677 8e3d 3cac 85be 4a04 9cbe
00000280: a1b3 5ebe 20ed a03d 4cd1 37bd 82de 073e
00000290: 61ed 0a3e a70a d5bd 8759 c1bc 2bc7 acbd
000002a0: 3287 d4ba b799 b03e f1e7 8fbd 08ce e53d
000002b0: e44e e1bc f40d 593e e1f8 f73d b22a ddbd
000002c0: b812 ab3e d761 12be 4458 89be e6a5 11be
000002d0: f0bc 693c 4e6b 233e ca49 cf3d 2bf6 c13d
000002e0: c9af bbbe 8949 aebd 79a3 aebd 9371 53bc
000002f0: cfec 1fbe 3dc0 5dbd 5597 c3be a6d5 01bf
00000300: e618 b13e 6a30 f13d a70d 78bd e897 b3bb
00000310: 1b98 fcbb ef78 413f a1f1 643e f3ac cb3b
00000320: e7f2 b33d 8cc4 0abf 5c84 953d caa6 553d
00000330: 1a5c cd3e c71e 20bf 8665 983d fbb0 b63d
00000340: f950 9ebc b570 833e 0e1c e63e 1b40 4a3e
00000350: d0bf 583e b3eb 5b3d 21a5 8fbb 3824 323d
00000360: 2df5 f03e cf10 9e3e ef67 b6bd bd27 383e
00000370: 7200 5f3e c94d b83d e83f a03e 606c 1b3f
00000380: 4c02 1bbe 7cfd 943c da4a 493d 3410 873d
00000390: 71b3 2f3d 127e 3abe 82dc 143d 405a f43d
000003a0: 25e5 083e acec e3bc 3b91 cc3d 4c7e 203e
000003b0: dbee 6dbd 8f61 f43b 3b76 18be 7f08 3f3e
000003c0: d8e0 f93d 5dbd f8bd b8e6 f93c 0ab0 033e
000003d0: ab12 1a3e 1878 4b3e bc82 153e 370f 573e
000003e0: c6ed 2bbc 545d 4e3e ba49 20be f792 cebd
000003f0: d114 6bbc c04d 0b3d 845c 1cbe 6e2a c7be
-0.15387222 0.17677528 -0.01314066 0.27768266 0.16068786 -0.1437264 0.061876014 0.01523013
-0.03447936 0.33343276 0.22878803 0.18363492 -0.15861994 0.21859115 0.096841395 0.22624838
0.37926513 -0.30745012 -0.29777548 -0.049260926 0.10267111 0.27486104 0.3044751 0.31699553
-0.41379386 0.160975 -0.21295513 0.09437971 0.115676105 0.08571108 -0.27784225 -0.3455621
-0.08397752 0.3080571 -0.063716926 0.14093155 0.22405973 0.09647639 0.085154675 0.14798439
0.09678319 0.28377792 0.1591966 0.3450048 -0.11471332 0.29306552 0.22195457 0.22113475
0.37092307 -0.34293833 -0.10084194 0.04025522 0.12551427 0.22305024 0.30797032 0.26553
-0.41243255 0.13382493 -0.25778136 0.15121034 0.12866773 0.00064775936 -0.31868628 -0.25614285
-0.04956946 0.035103243 0.03215801 0.15701593 0.09751833 0.5113936 0.099635325 -0.06254188
0.048781868 0.005966871 -0.058342036 -0.05372021 0.19288522 0.09927869 -0.12381742 -0.025941612
-0.06905075 0.035856076 -0.12285841 0.20629069 0.07494774 -0.014840002 -0.117405586 -0.07619766
0.39672467 -0.32144198 0.4128026 0.13072781 0.11690665 -0.0066795624 0.46797794 0.35507658
-0.022539925 0.13517979 -0.024623206 0.084045865 0.11325144 -0.3377985 0.0420311 -0.023240767
-0.12847084 0.3946259 0.21068092 0.2919896 -0.107909866 0.20660274 0.14354378 0.020191006
0.36088738 -0.15122841 -0.12633945 -0.013965436 0.15692665 0.23491155 0.13121383 0.16203398
-0.52418494 0.23731285 -0.31842664 0.09329996 -0.09298309 -0.004631162 -0.40477785 -0.40690887
-0.026993519 0.19984458 -0.15268956 0.1549402 0.26286092 -0.029774582 0.12398926 0.054302752
0.059328277 0.22515626 0.2165263 0.36358574 -0.15670471 0.39701733 0.21158749 0.2128909
0.24891216 -0.1929074 -0.25164595 0.15823343 0.12808956 0.14980568 0.23671225 0.20003915
-0.41829494 0.18658972 -0.29939294 0.06699658 0.1354678 0.06956355 -0.26107967 -0.30472022
-0.2174821 0.07857728 -0.044877335 0.13268474 0.13567115 -0.104024224 -0.02360226 -0.08436426
-0.0016214608 0.34492275 -0.07026661 0.11220938 -0.027503438 0.21196729 0.12108017 -0.10799159
0.3341272 -0.14295135 -0.26825154 -0.14223441 0.014266238 0.15958902 0.10121496 0.09470781
-0.3665755 -0.085101195 -0.08527274 -0.012905496 -0.15617679 -0.05413841 -0.38201395 -0.50716627
0.34589309 0.117768124 -0.060559895 -0.005480755 -0.007708562 0.75575155 0.22357799 0.0062156855
0.08786564 -0.54206157 0.07300636 0.052161016 0.4010933 -0.6254696 0.07441239 0.08920475
-0.01932572 0.25671926 0.4494328 0.19751017 0.2116692 0.053691577 -0.0043836986 0.043491572
0.47062054 0.308722 -0.089065425 0.17983909 0.21777514 0.08999211 0.31298757 0.6071224
-0.15137595 0.018187277 0.04914365 0.065948874 0.042895738 -0.18212155 0.036343105 0.11931276
0.13368662 -0.027822815 0.09988638 0.15673178 -0.05808912 0.007457919 -0.14888851 0.18655585
0.12201089 -0.12145493 0.030505523 0.12860122 0.15046184 0.19870031 0.14600652 0.21001898
-0.010493701 0.2015279 -0.15653124 -0.10086625 -0.014348225 0.034009695 -0.15269667 -0.3889956

linear_relu_stack.2.bias f4 [32]
00000000: 5021 373e cff5 1c3e 0fcf d0bb 6f43 733e
00000010: b364 833e 9bbd 933d cbbc 31be 04f4 c03d
00000020: b9b7 973e 29b0 973e da5a 9e3e 8b30 a83e
00000030: 5c2d ecbd 4287 ac3e 8e00 643e d315 3b3e
00000040: ab52 583e 385b 823e ca7c 6a3e 1e99 6a3e
00000050: e811 be3d 47ba 923e 74fe ac3e 91df cf3e
00000060: 253c 943e 8b74 9b3e f29e debb e345 a23e
00000070: 51aa 8e3e 8750 773e 8c42 883e 7454 09bc
0.17883801 0.15328144 -0.0063723396 0.23756193 0.25662765 0.07213899 -0.17357175 0.09421542
0.29632357 0.29626587 0.3092869 0.32849535 -0.11532089 0.33696944 0.22265837 0.18270044
0.21125285 0.2546022 0.22899166 0.22909972 0.09280759 0.28657743 0.33787882 0.40600255
0.28952137 0.30362353 -0.00679385 0.31693944 0.27864316 0.24151812 0.2661327 -0.008381952

linear_relu_stack.4.weight f4 [32, 32]
00000000: 1f64 8f3e 7cb4 903e 670b 2bbe ff0a 5e3e
00000010: 70f2 923e 404e 173f 7b40 e6be 8253 093f
00000020: 2996 423e db0a a63e 622b ba3e b9bf 903e
00000030: 0520 ebbd 27ed 913e de2e bb3e d1e1 7a3e
00000040: 6473 9f3e fe8d a03e ea19 8c3e e655 1d3e
00000050: a65b 083f 6470 d83e 0c0c 603e 4aa5 a33e
00000060: 9d31 d53e d11e 813e 83ee 933d 674a e63e
00000070: 9dbb be3e 4939 bc3e 6828 bc3e be45 26bc
00000080: 7b00 3f3e 6dd1 ce3d 1a3e 26be 85d2 783e
00000090: 5e81 683e 8faa ac3d e68c 08bd b7c3 19be
000000a0: f7dd 533d 18ed 6a3d 83ac 963d 7b74 a53e
000000b0: 7209 563d efd0 5c3e 3781 9a3e 0f9b de3d
000000c0: df0e 8f3e 86de 613e bf72 0b3e 61b1 c03d
000000d0: 2552 473e d0fc 883b 728f babc 9272 993d
000000e0: a22d 3a3e 05f9 c63d aa1e 54bd 67e4 893e
000000f0: fa5c 9b3d aefe 4b3e 275f db3c fc82 c3be
00000100: abc1 a73e 80fc 6f3e 075c 23be 0eb6 7f3e
00000110: bbc2 843e 06a3 0f3f b62c 18bf b29e db3e
00000120: bf8e 863e b747 e73e 3752 dd3e 5c24 c43e
00000130: 59fe 00bd 5505 ca3e 0a1b e43d 124a 1a3e
00000140: 3f1a ce3e 27c7 5a3e cbf3 213e 4013 18bd
00000150: 6eaa 063f 12fe d63e a0d4 ac3e 7972 bf3e
00000160: 4067 d43e 4dd7 cb3e 8432 bebd d50b d83e
00000170: b07a 4f3e 9145 b93e 0a1b cb3e 103a a8bb
00000180: 8152 9d3e 157e 393e 573e aebe 3ae2 a53e
00000190: 2541 a43e eb61 fd3e ee33 0bbf d7ee c63e
000001a0: f1d1 123d 1f26 853e 0aa5 903e 4cea 8d3e
000001b0: e819 743d 8b67 463e e552 d83e c09d 923e
000001c0: 6baa af3e 5748 903e c994 8d3e 62f7 403c
000001d0: b6c8 0d3f d286 7a3e 035d 843e 152e 9c3e
000001e0: 0520 ab3e 71af b03e b433 dd3b 34ea 083f
000001f0: a3ab d03d 867d 6f3e 2783 333e 5ba8 5ebd
00000200: 2387 cc3e 5c12 bb3e b1aa fdbd f342 c03e
00000210: 0a05 c83e db90 313f fa33 f4be 20b6 0b3f
00000220: a2f9 1c3e 1d88 a43e 0e4f 013f 6d12 a63e
00000230: e2ce 593d 6f3b ba3e db72 833e a802 bc3e
00000240: b591 b23e 641b cd3e c6a7 ab3e f5d8 b73c
00000250: c7c9 113f c50f d73e 467a 813e bfd5 ed3e
00000260: 1e3c e83e 8138 963e 0ec8 a93d d115 ca3e
00000270: f096 ae3e d9f6 ab3e 47e0 d53e 4f2d 83bb
00000280: c811 523c f3f3 653d e9e9 8d3e 89e9 88be
00000290: 3f3d 22be f138 413d 11f9 1b3d 4c72 a3bd
000002a0: 5f0a 343e 7d62 4abd 6cdc 2fbd 75d6 83be
000002b0: c708 48bc 3bd9 39be 918d bcbe 0fc4 783d
000002c0: 2a6a da3d a831 a8be 4d54 803d 7d0d d7bd
000002d0: 7baa b5be bdcd 6fbe 8b02 3c3d 0516 5c3d
000002e0: a137 fa3c c04e 86be f772 92bd df0b 78be
000002f0: d325 f4bc 984c d3bd 91c4 b5bd 2090 613c
00000300: c4c2 b83c a633 fb3d 2a01 183f 4df7 1b3c
00000310: 302a b33d ed17 27bf 43cb 273f edc5 bfbd
00000320: e206 b93e f40d 08be 3a38 85be eb7b 533d
00000330: e554 f43c 955f 80bd f631 8e3c 9f07 713e
00000340: 962a 1e3d edef 863b 9af9 4d3e 3837 bb3e
00000350: 8ff3 6abf d96a 0cbf 538b 8e3d 4ed0 9f3d
00000360: 5ace 1cbe 8e9d 18be 983e 823c 7128 30bd
00000370: da4f 2e3e 7d05 89be 6c15 38bf 66ed cb3e
00000380: 9271 5d3e ad22 6b3e 8ccb 71be 1e22 d33e
00000390: e771 ac3e 2bf6 aa3e f59e b0be 682d ab3d
000003a0: c783 2d3e 197c 973e 5d66 4e3e 1659 ed3e
000003b0: 36df 1c3d 5eb1 c63e 6167 f73e 27f2 543e
000003c0: 830c 9e3e 4aec f43e 3bc2 6d3e 4114 473e
000003d0: 5b06 333f 316d 9b3e b944 033e 86d1 c23e
000003e0: 273c f03e 5c0c e53e 5183 30bd b7f2 dc3e
000003f0: de34 4f3e 4395 9d3e 0508 b63e 7889 6cbe
0.28006074 0.282627 -0.16703568 0.21683882 0.2870059 0.59103775 -0.4497107 0.5364305
0.19002594 0.32430157 0.36361223 0.28271273 -0.114807166 0.28501245 0.36559194 0.24500205
0.31142724 0.3135833 0.2736352 0.15364799 0.53264844 0.42273247 0.21879596 0.31962043
0.41639414 0.25218824 0.07223227 0.4497864 0.37252513 0.36762455 0.36749578 -0.010148464
0.18652527 0.100985385 -0.16234627 0.24299057 0.227056 0.08430969 -0.033337496 -0.15016066
0.051725354 0.057355016 0.07357123 0.3231543 0.0522551 0.21564077 0.30176708 0.10869419
0.27941033 0.22057542 0.13617991 0.09408832 0.1946493 0.004180528 -0.022773478 0.07492556
0.1818147 0.097154655 -0.051787056 0.2693207 0.07586093 0.19921371 0.02677877 -0.3818587
0.32764944 0.23436165 -0.15953074 0.24971792 0.25929818 0.5610813 -0.59443223 0.42894512
0.26280782 0.45171902 0.43226787 0.3830899 -0.031492565 0.39457193 0.1113797 0.15067318
0.402544 0.21365033 0.15815656 -0.037127733 0.52603805 0.41990715 0.3375597 0.37392023
0.41485023 0.398127 -0.09286979 0.42196527 0.20261645 0.36185887 0.39669067 -0.0051338747
0.30727008 0.18114503 -0.34031937 0.3239916 0.3208095 0.49488768 -0.54376113 0.38854095
0.035844747 0.26005647 0.28250915 0.27717817 0.05959502 0.19375436 0.42250744 0.2863598
0.34309706 0.2818019 0.27652577 0.011777731 0.55384386 0.24465492 0.25852212 0.30503908
0.33422866 0.3450885 0.0067505483 0.53482366 0.10188987 0.23387727 0.175305 -0.054359775
0.3994685 0.36537445 -0.123860724 0.37551078 0.39066344 0.69361657 -0.47695905 0.54574776
0.15329602 0.32135096 0.5051125 0.32435933 0.053175814 0.3637347 0.25673565 0.36720777
0.3487679 0.4005996 0.33526438 0.02244232 0.5694851 0.4200422 0.252886 0.46452138
0.45358366 0.29339984 0.082901105 0.3946977 0.3409953 0.33586767 0.41772673 -0.004003204
0.012821622 0.05614085 0.27717522 -0.26740673 -0.15843676 0.047173444 0.038079325 -0.07980785
0.17582081 -0.049410332 -0.04293482 -0.25749555 -0.012209124 -0.18149273 -0.36826757 0.06073385
0.106647804 -0.32850385 0.06266079 -0.105006196 -0.3548163 -0.23418327 0.045900863 0.053731937
0.030544104 -0.26231956 -0.07150834 -0.24223278 -0.029803192 -0.103173435 -0.08875383 0.013767272
0.022553809 0.122657105 0.59376776 0.00951941 0.08748281 -0.6527088 0.6554453 -0.09363923
0.36138064 -0.13286573 -0.2601946 0.05163185 0.029825637 -0.06268231 0.017357808 0.23538063
0.038614832 0.004117957 0.20114747 0.36565566 -0.9177789 -0.54850537 0.06960168 0.07803403
-0.15313092 -0.14903852 0.015898988 -0.043007318 0.17022648 -0.26762 -0.7190769 0.39829558
0.21625355 0.22962447 -0.23612803 0.41236967 0.3368065 0.33390936 -0.34496275 0.0835827
0.169448 0.29586866 0.20156236 0.4635703 0.038298808 0.38807195 0.4832106 0.20795499
0.3086892 0.47836524 0.23218624 0.1944132 0.6993157 0.30356744 0.12819184 0.3805048
0.46920893 0.44735992 -0.043093983 0.43153927 0.20235011 0.3077794 0.35552993 -0.23099315

linear_relu_stack.4.bias f4 [32]
00000000: 1825 6f3d 15eb a23d 7389 0e3e 4682 273e
00000010: fa38 633e 3a4f 9d3d 2f53 1d3e 2cca 863e
00000020: 4bdb 0e3d b604 213d c9e4 a43d 8960 a33d
00000030: 156b 133e 3641 903e 6f2b a53d bae2 4a3e
00000040: 52b3 93bd cb91 1e3c 3112 253e 9e86 5a3e
00000050: 6c40 07be cfbc eebd 53c4 443e 963c 1c3e
00000060: f905 ac3d 2857 4f3e df58 643e a7ff c73c
00000070: 1f59 79bd 64e8 c43d edfc 3e3e 4782 0c3b
0.058384985 0.079549946 0.1391962 0.16358289 0.22189704 0.07681127 0.15363763 0.2632612
0.034877103 0.039311133 0.0805145 0.07977397 0.14396317 0.28174752 0.08064925 0.19813052
-0.07211937 0.009678314 0.1612022 0.21340415 -0.13208169 -0.11657106 0.19215517 0.15257487
0.08399577 0.20248091 0.22299527 0.024413897 -0.060876008 0.096146375 0.18651171 0.0021439956

linear_relu_stack.6.weight f4 [2, 32]
00000000: 220a d13e f9fb 52bd 8e7c c53e 0628 a13e
00000010: c685 c33e 2302 74be cbdc 5fbf b4d1 463e
00000020: be3c b03e bf29 d43e a3a6 84bf d24b e83e
00000030: 150a b83e 8fae aa3e ef18 9e3e 023e 983e
00000040: 8192 a13d b977 6f3d c11a d43e 34e5 cf3e
00000050: ab42 fcbe 324a bdbc 3228 443e ba81 ab3e
00000060: 7e75 093f 1477 c63d 013e d63e 12b6 5bbf
00000070: 8b4c 4c3e 71eb 89bd 8245 c43e e4a5 44bd
00000080: d180 a73e 5c51 e33e 78a2 713e c447 aa3e
00000090: 7a6f 8f3e 7f64 773c 8e06 4dbf 737d b33e
000000a0: 79c4 eb3e 6142 ce3e fc76 87bf bf38 b53e
000000b0: 8c86 933e 25ad d93e d4c3 b13e 161e 9e3e
000000c0: b4c4 a1bd 055a 0ebe 69fe a93e 0059 c23e
000000d0: f596 3ebe c191 a43d a364 ba3e 473a b23e
000000e0: 1ba5 753e 333b ec3e 8faa 613e 4a8b 80bf
000000f0: 3453 8dbe 8af9 8dbd 55e9 543e 6eb6 c63c
0.40828043 -0.05150983 0.3857159 0.31475848 0.38188 -0.2382894 -0.8744628 0.19415933
0.34421343 0.414381 -1.0363353 0.45370346 0.35945192 0.33336303 0.30878398 0.29734808
0.078892715 0.058463786 0.41426662 0.40604556 -0.49269614 -0.023106668 0.19155958 0.3349741
0.53694904 0.09690681 0.4184418 -0.8582469 0.19951074 -0.0673436 0.3833428 -0.048009768
0.32715467 0.4439801 0.23597133 0.33257878 0.28014737 0.015099644 -0.80088127 0.35056648
0.46048334 0.40285018 -1.0583186 0.35394856 0.2881359 0.4251491 0.34719718 0.3088233
-0.07898846 -0.13901527 0.33201912 0.37958527 -0.18612273 0.08035613 0.36404905 0.34810087
0.23988764 0.46138915 0.22037719 -1.0042508 -0.2760254 -0.069323614 0.20792134 0.024256911

linear_relu_stack.6.bias f4 [2]
00000000: bddc 91bd 7361 093e
-0.071221806 0.1341608
