Trained_Models/Cartpole_Trained/DQN_target_net_Cartpole.pt (torch, 13056 bytes, 8 tensors)

linear_relu_stack.0.weight f4 [32, 4]
0	0x3de1289f	0.10994076
1	0xbe89fb34	-0.26949465
2	0x3f4962ae	0.786662
3	0x3c8c55fc	0.017130844
4	0xbd0a2675	-0.03372808
5	0x3e685e8a	0.22692314
6	0x3e2ae8a6	0.16690311
7	0x3dfb2779	0.12263388
8	0xbdc0ebae	-0.09419952
9	0x3e857662	0.2606688
10	0xbe9d4f64	-0.30724633
11	0xbe147690	-0.14498353
12	0xbe2e2108	-0.17004788
13	0xbe76b791	-0.24093463
14	0xbcccae20	-0.024985373
15	0xbe89394a	-0.2680152
16	0xbba53c39	-0.0050425795
17	0xbe0f4c9d	-0.1399407
18	0xbee8b56d	-0.45450917
19	0x3e5a5d33	0.21324615
20	0xbd395d7d	-0.045255173
21	0xbeca4bf1	-0.39511064
22	0xbf55090e	-0.8321694
23	0xbee1e50e	-0.44120067
24	0xbf115473	-0.56769484
25	0xbec60d46	-0.38682002
26	0x3ee43b2c	0.44576395
27	0xbd05bf4e	-0.032653145
28	0x3e8be2d6	0.273215
29	0x3e6619b5	0.22470744
30	0xbe2f7d85	-0.17137726
31	0xbe781641	-0.24227239
32	0xbeb9355e	-0.36173528
33	0xbeb19d68	-0.34690404
34	0x3dc1103d	0.09426925
35	0xbe590192	-0.21192005
36	0x3e5415d0	0.20711446
37	0xbe6f9cc5	-0.23399647
38	0xbe4aefa4	-0.19817978
39	0xbe48d66f	-0.1961305
40	0xbe73ae53	-0.23796968
41	0xbe844112	-0.25830895
42	0x3e5dd073	0.21661548
43	0xbe121940	-0.14267445
44	0x3e02c584	0.12770659
45	0xbe379f3b	-0.17931835
46	0x3e56aee6	0.20965156
47	0xbbbac437	-0.00569966
48	0x3ec043b4	0.37551653
49	0xbe564294	-0.20923835
50	0x3f12f4b5	0.57404643
51	0x3e941672	0.28923374
52	0xbbffd414	-0.007807264
53	0xbe1ce605	-0.1532212
54	0xbecbffa4	-0.39843476
55	0xbe565d74	-0.20934087
56	0x3ec6c957	0.38825485
57	0x3d9c6d9e	0.07638095
58	0xbf2e2626	-0.6802696
59	0x3c4cdbbc	0.012503561
60	0xbe5c4b52	-0.21513107
61	0xbddd62d0	-0.108098626
62	0xbf02c9ef	-0.51089376
63	0xbcfe4cc4	-0.031042464
64	0x3e442be2	0.19157365
65	0x3d08907c	0.033340916
66	0xbe62a5d4	-0.22133571
67	0xbe0268ea	-0.12735334
68	0x3e30dbf1	0.17271401
69	0x3e730b91	0.23734881
70	0x3e91ca29	0.28474548
71	0x3e2ba0a8	0.16760504
72	0xbe47c87f	-0.19510077
73	0x3dce6574	0.100779444
74	0x3e12bd39	0.14329995
75	0x3d976184	0.073916465
76	0x3dc0c337	0.09412234
77	0x3effc2ef	0.4995341
78	0x3d2cb981	0.042169098
79	0x3ee710e0	0.45130062
80	0x3e9450b8	0.28967834
81	0x3edf9cb5	0.43674245
82	0x3f20e098	0.628427
83	0x3eca741b	0.39541706
84	0xbe311dfc	-0.17296594
85	0xbdc1104d	-0.09426937
86	0x3d17a55a	0.037022926
87	0x3bf268ee	0.0073977625
88	0xbe57d3ba	-0.21076861
89	0x3dcc76e4	0.09983614
90	0x3efa7925	0.4892055
91	0x3bc07f3b	0.005874542
92	0x3d273614	0.040823057
93	0x3d826231	0.06366385
94	0xbedc16e9	-0.4298623
95	0x3e54305d	0.20721574
96	0x3e97b510	0.29630327
97	0x3d05ac40	0.032634974
98	0x3e31821d	0.1733479
99	0x3cec21a3	0.028824633
100	0xbe5929c3	-0.21207337
101	0x3eaffe4a	0.34373695
102	0x3eb31a9c	0.3498124
103	0x3e7824a9	0.24232735
104	0x3eaac21a	0.33351213
105	0xbe89b56c	-0.26896226
106	0xbf006913	-0.5016033
107	0xbe8ff8c5	-0.28119484
108	0x3d7a455d	0.061101306
109	0x3e4f3847	0.20236312
110	0x3e8f0666	0.2793457
111	0xbe59a273	-0.21253376
112	0xbe633459	-0.22187938
113	0xbe46db4c	-0.19419593
114	0x3ee21b5c	0.441615
115	0x3e58a478	0.2115649
116	0x3ea310f4	0.31848872
117	0x3e83415b	0.256358
118	0x3f076567	0.528891
119	0xbe5ce067	-0.21569978
120	0xbca25be2	-0.019819204
121	0xbe80491b	-0.25055775
122	0xbf744651	-0.95419794
123	0xbe92fcb3	-0.2870842
124	0xbd851bab	-0.06499418
125	0xbeae4a2f	-0.34040973
126	0xbf3b6662	-0.732031
127	0xbe754428	-0.23951781

linear_relu_stack.0.bias f4 [32]
0	0xbea570fa	-0.32312757
1	0x3f12d475	0.57355434
2	0xbedcf63d	-0.43156615
3	0x3f18ba78	0.5965953
4	0x3ec9892a	0.3936246
5	0x3d555afd	0.052088726
6	0xbc981004	-0.018562324
7	0xbe63c01c	-0.22241253
8	0xbd9a7ab0	-0.07542932
9	0x3f022b77	0.5084757
10	0x3ebc1702	0.36736304
11	0x3f118658	0.5684562
12	0xbedff0f5	-0.43738523
13	0x3f2295c8	0.635098
14	0x3ec0250c	0.37528265
15	0x3de1f655	0.11033312
16	0x3f2b2842	0.66858304
17	0xbe896fa4	-0.26842988
18	0xbe32d6c7	-0.17464744
19	0x3d8015b5	0.0625414
20	0x3b6b8b48	0.0035941172
21	0x3ee6f91e	0.45111936
22	0x3ef4b08e	0.4779095
23	0x3ed6be3f	0.4194202
24	0xbeb029f4	-0.34407008
25	0x3ed0c050	0.40771723
26	0xbe3ac4f1	-0.1823919
27	0x3f139efe	0.5766448
28	0x3b98dc81	0.004664958
29	0x3e7400e0	0.23828459
30	0xbe5befdc	-0.21478218
31	0xbe7adedc	-0.24499077

linear_relu_stack.2.weight f4 [32, 32]
0	0xbe1db85c	-0.15402359
1	0x3e34b8ed	0.17648669
2	0xbc5758ce	-0.013143731
3	0x3e8e3656	0.2777583
4	0x3e248cf4	0.16069394
5	0xbe137a3f	-0.14402102
6	0x3d7d8f0a	0.06190399
7	0x3c77fdb6	0.015136173
8	0xbd0d60ee	-0.034516267
9	0x3eaab5a3	0.33341703
10	0x3e6a5f71	0.2288797
11	0x3e3bf99d	0.18356939
12	0xbe2298bb	-0.15878575
13	0x3e5fcf00	0.21856308
14	0x3dc56a2f	0.096393935
15	0x3e67c9b4	0.22635537
16	0x3ec22da0	0.37925434
17	0xbe9d91b2	-0.3077522
18	0xbe990eb7	-0.2989404
19	0xbd49a5f1	-0.04923052
20	0x3dd281d7	0.10278671
21	0x3e8cc48f	0.27493712
22	0x3e9befd2	0.30456406
23	0x3ea257a4	0.3170749
24	0xbed41421	-0.41421607
25	0x3e24b9c0	0.16086483
26	0xbe5a2505	-0.21303184
27	0x3dc006aa	0.09376271
28	0x3ded02a6	0.11572771
29	0x3daf99c6	0.08574252
30	0xbe8e5927	-0.27802393
31	0xbeb11c96	-0.34592122
32	0xbdac27e8	-0.08406049
33	0x3e9d97fb	0.30780014
34	0xbd829e23	-0.063778184
35	0x3e10361e	0.14083144
36	0x3e657568	0.22408068
37	0x3dc55135	0.0963463
38	0x3dae7fb9	0.08520455
39	0x3e178f7d	0.1480083
40	0x3dc667ab	0.09687742
41	0x3e913b5e	0.28365606
42	0x3e22fdae	0.15917084
43	0x3eb0ab93	0.345059
44	0xbdeb2e0a	-0.11483391
45	0x3e960ab7	0.2930505
46	0x3e62d600	0.22151947
47	0x3e628357	0.22120415
48	0x3ebddf55	0.3708445
49	0xbeafc508	-0.3433001
50	0xbdd07007	-0.101776175
51	0x3d258032	0.04040546
52	0x3e00ade6	0.12566337
53	0x3e6462cd	0.22303315
54	0x3e9db2d5	0.308005
55	0x3e87ed09	0.2654803
56	0xbed361b2	-0.41285473
57	0x3e08d51f	0.13362549
58	0xbe840939	-0.25788286
59	0x3e1a2540	0.15053272
60	0x3e03d0d5	0.12872632
61	0x3a1b4690	0.00059232954
62	0xbea34853	-0.31891116
63	0xbe834858	-0.2564113
64	0xbd4b3dd1	-0.0496195
65	0x3d10c69f	0.03534567
66	0x3d03d5c2	0.032186277
67	0x3e210551	0.15724684
68	0x3dc80d91	0.097682126
69	0x3f030c5a	0.5119072
70	0x3dcc4cfd	0.09975622
71	0xbd8025c2	-0.06257202
72	0x3d47ffa8	0.048827797
73	0x3bc8d0fc	0.0061284285
74	0xbd6f0403	-0.058353435
75	0xbd5be16f	-0.053681787
76	0x3e45b717	0.19308124
77	0x3dcbbb13	0.09947791
78	0xbdfd602e	-0.123718604
79	0xbcd47084	-0.025932558
80	0xbd8d2236	-0.06891291
81	0x3d13055c	0.035893783
82	0xbdfac332	-0.12244262
83	0x3e537552	0.20650223
84	0x3d99a5bf	0.07502317
85	0xbc722ccc	-0.014781188
86	0xbdf089be	-0.11745022
87	0xbd9bfe2e	-0.0761684
88	0x3ecb548e	0.39712948
89	0xbea4b166	-0.32166594
90	0x3ed38b17	0.41317055
91	0x3e063754	0.13107044
92	0x3defbf0f	0.117063634
93	0xbbda4bff	-0.0066618915
94	0x3eefd3cc	0.46841276
95	0x3eb5fbdc	0.35543716
96	0xbcb8d517	-0.022562547
97	0x3e0a16b6	0.13485226
98	0xbcc9d0c5	-0.024635682
99	0x3dabe596	0.083933994
100	0x3de7dce9	0.11321432
101	0xbead3721	-0.33831123
102	0x3d2c33f5	0.042041738
103	0xbcbf458f	-0.023348598
104	0xbe03b1e1	-0.12860824
105	0x3eca1045	0.39465538
106	0x3e57cdc3	0.21074586
107	0x3e958858	0.29205585
108	0xbddd3b1f	-0.10802292
109	0x3e538465	0.20655973
110	0x3e129d83	0.14317898
111	0x3ca4a305	0.020097265
112	0x3eb8bd22	0.36081797
113	0xbe1b032a	-0.15137926
114	0xbe02307a	-0.12713805
115	0xbc63a505	-0.013894324
116	0x3e20df87	0.15710269
117	0x3e709a23	0.23496298
118	0x3e064aac	0.13114423
119	0x3e25d928	0.1619612
120	0xbf06548c	-0.5247276
121	0x3e72fe85	0.23729904
122	0xbea323ae	-0.3186316
123	0x3dbdd3eb	0.09268936
124	0xbdbebd7d	-0.09313486
125	0xbb99296c	-0.0046741273
126	0xbecf6aab	-0.4051107
127	0xbed08d44	-0.40732777
128	0xbcdd5ccb	-0.027021786
129	0x3e4c605d	0.19958635
130	0xbe1c7fe1	-0.15283157
131	0x3e1e9daf	0.15489839
132	0x3e86a16a	0.26295024
133	0xbcf5a4bf	-0.029985784
134	0x3dfe1d71	0.12407959
135	0x3d5e4d45	0.05427291
136	0x3d733b57	0.059382763
137	0x3e666bea	0.22502103
138	0x3e5dcab1	0.21659352
139	0x3eba3455	0.3636805
140	0xbe20a2a8	-0.15687048
141	0x3ecb5a2a	0.39717227
142	0x3e5861e3	0.21131091
143	0x3e5a14fd	0.21297069
144	0x3e7ebd4a	0.24876896
145	0xbe45bce7	-0.19310342
146	0xbe816921	-0.2527552
147	0x3e2248c0	0.15848064
148	0x3e035002	0.1282349
149	0x3e1958cb	0.14975278
150	0x3e726a3e	0.2367334
151	0x3e4cc520	0.19997072
152	0xbed6621a	-0.4187172
153	0x3e3efbb7	0.18650709
154	0xbe995ece	-0.29955143
155	0x3d87f70b	0.066389166
156	0x3e0ac86e	0.1355302
157	0x3d8e87f3	0.06959524
158	0xbe85c373	-0.26125678
159	0xbe9c2b90	-0.30501986
160	0xbe5eeee9	-0.21770824
161	0x3da0851c	0.078378886
162	0xbd37f15b	-0.04490791
163	0x3e07e935	0.13272555
164	0x3e0b008b	0.13574426
165	0xbdd54140	-0.10412836
166	0xbcc1b6e7	-0.023646785
167	0xbdad1a45	-0.08452276
168	0xbad44065	-0.0016193507
169	0x3eb0b143	0.3451024
170	0xbd90346a	-0.07041247
171	0x3de5d481	0.112221725
172	0xbce18a2f	-0.027531711
173	0x3e592211	0.21204402
174	0x3df7898e	0.12086783
175	0xbddd7ff3	-0.1081542
176	0x3eab1afc	0.33419025
177	0xbe12895f	-0.14310215
178	0xbe89d69b	-0.26921543
179	0xbe11c35c	-0.1423468
180	0x3c6a11c5	0.014286463
181	0x3e237e08	0.15966046
182	0x3dcf45e2	0.10120751
183	0x3dc1f0f5	0.09469787
184	0xbebbdf71	-0.3669391
185	0xbdaec93d	-0.08534477
186	0xbdaeafeb	-0.085296474
187	0xbc592da9	-0.013255515
188	0xbe20217f	-0.15637778
189	0xbd5e2fc0	-0.054244757
190	0xbec3c476	-0.38235825
191	0xbf01f90c	-0.5077064
192	0x3eb14851	0.34625486
193	0x3df19f5e	0.11797975
194	0xbd784da4	-0.06062092
195	0xbbb34164	-0.0054704417
196	0xbbfc8c61	-0.007707164
197	0x3f41a1ca	0.75637496
198	0x3e6538b3	0.2238491
199	0x3bcbe444	0.0062222797
200	0x3db4310e	0.08798419
201	0xbf0aedc3	-0.54269046
202	0x3d95bad6	0.07311027
203	0x3d55d6fa	0.05220697
204	0x3ecd936b	0.40151533
205	0xbf204a49	-0.6261335
206	0x3d988a19	0.07448215
207	0x3db6f7a0	0.089339495
208	0xbc9f0bc8	-0.019414797
209	0x3e839443	0.25699052
210	0x3ee6afd4	0.4505602
211	0x3e4a7372	0.19770601
212	0x3e58f72b	0.21188037
213	0x3d5c4b69	0.053782854
214	0xbb8df6b2	-0.004332387
215	0x3d3264b0	0.043553054
216	0x3ef1346f	0.47110316
217	0x3e9e498a	0.3091548
218	0xbdb69762	-0.08915593
219	0x3e385b0b	0.1800348
220	0x3e5f4298	0.21802747
221	0x3db89ede	0.090146765
222	0x3ea06b5d	0.31331912
223	0x3f1b93bb	0.60772294
224	0xbe1b29d6	-0.15152678
225	0x3c91e364	0.017808624
226	0x3d49d5e1	0.049276236
227	0x3d86e4b4	0.065865904
228	0x3d2f66cc	0.042822644
229	0xbe3abdab	-0.18236415
230	0x3d14e2e6	0.0363492
231	0x3df2abb4	0.11849156
232	0x3e09085c	0.13382095
233	0xbce69a6e	-0.02814981
234	0x3dcc8da0	0.0998795
235	0x3e2078bf	0.15671061
236	0xbd6e2e1c	-0.058149442
237	0x3bee21ef	0.007267229
238	0xbe19455f	-0.14967869
239	0x3e3f24ff	0.18666457
240	0x3df95c18	0.121757686
241	0xbdf90088	-0.121583045
242	0x3cf1ceb2	0.029517505
243	0x3e04c8ad	0.12967177
244	0x3e1a5b0b	0.15073793
245	0x3e4b875e	0.19875857
246	0x3e157d04	0.14598471
247	0x3e5712a9	0.21003212
248	0xbc2c1946	-0.0105040725
249	0x3e4e57eb	0.20150726
250	0xbe1fdc99	-0.15611495
251	0xbdd1302b	-0.102142654
252	0xbc6c5a6b	-0.014425854
253	0x3d0a112f	0.033707794
254	0xbe1c73d4	-0.1527856
255	0xbec75d8e	-0.38938564

linear_relu_stack.2.bias f4 [32]
0	0x3e36fd8c	0.17870158
1	0x3e1cb838	0.15304649
2	0xbbccc3b2	-0.0062489146
3	0x3e733040	0.23748875
4	0x3e835e04	0.25657666
5	0x3d9392db	0.07205745
6	0xbe31e689	-0.17373098
7	0x3dc0a139	0.09405751
8	0x3e979e37	0.29612896
9	0x3e97b6f1	0.2963176
10	0x3e9e684b	0.30938944
11	0x3ea837b2	0.32854992
12	0xbdec6c9b	-0.11544152
13	0x3eac92f3	0.33705863
14	0x3e63ebd1	0.22257926
15	0x3e3ad1b7	0.18244062
16	0x3e5830cc	0.21112365
17	0x3e82579e	0.25457472
18	0x3e6a54c7	0.22883902
19	0x3e6a8dda	0.22905675
20	0x3dbde6c9	0.092725344
21	0x3e92c9ff	0.28669736
22	0x3eacf448	0.33780122
23	0x3ecff1d6	0.40614194
24	0x3e9442f7	0.2895734
25	0x3e9b7c54	0.30368292
26	0xbbdeda3a	-0.006800917
27	0x3ea24e6a	0.3170045
28	0x3e8e9f31	0.27855828
29	0x3e775b0b	0.24155824
30	0x3e8853b1	0.2662635
31	0xbc0ddbce	-0.008658363

linear_relu_stack.4.weight f4 [32, 32]
0	0x3e8f6845	0.2800924
1	0x3e90b17f	0.2826042
2	0xbe2b27e3	-0.16714434
3	0x3e5de6ee	0.21670124
4	0x3e92f6e7	0.28703997
5	0x3f17605e	0.5913142
6	0xbee685df	-0.4502401
7	0x3f0967c3	0.5367395
8	0x3e42920e	0.19001028
9	0x3ea60e50	0.32432795
10	0x3eba2f4d	0.36364213
11	0x3e90c11e	0.28272337
12	0xbdeb5f42	-0.11492778
13	0x3e91e7f0	0.28497267
14	0x3ebb3799	0.36565855
15	0x3e7ad7f3	0.2449644
16	0x3e9f72e3	0.3114234
17	0x3ea08c24	0.3135692
18	0x3e8c16a2	0.27361017
19	0x3e1d4bb1	0.15360905
20	0x3f0867e0	0.532835
21	0x3ed87fd0	0.42285013
22	0x3e5ff718	0.21871603
23	0x3ea3ab09	0.31966427
24	0x3ed5422f	0.41652057
25	0x3e811862	0.25213915
26	0x3d94160e	0.07230769
27	0x3ee65e52	0.44993836
28	0x3ebec501	0.37259677
29	0x3ebc3d59	0.36765555
30	0x3ebc2ee5	0.36754528
31	0xbc29b4a4	-0.0103580095
32	0x3e3ef990	0.18649888
33	0x3dce8bf0	0.10085285
34	0xbe268a9a	-0.1626381
35	0x3e78cd2b	0.24297015
36	0x3e68872f	0.22707818
37	0x3dac1cdf	0.08403944
38	0xbd084ef7	-0.03327843
39	0xbe1a196c	-0.1504876
40	0x3d535902	0.051598556
41	0x3d6a2aba	0.057169653
42	0x3d96442c	0.073372215
43	0x3ea58197	0.32325432
44	0x3d5640ca	0.05230788
45	0x3e5cc6af	0.21560167
46	0x3e9a8b1a	0.3018425
47	0x3dde5336	0.10855715
48	0x3e8f0f84	0.27941525
49	0x3e61d983	0.2205563
50	0x3e0b5ec5	0.1361037
51	0x3dc09827	0.09404021
52	0x3e473e4a	0.19457355
53	0x3b813559	0.003943127
54	0xbcbcd51c	-0.023050837
55	0x3d991c35	0.07476083
56	0x3e3a1bd0	0.18174672
57	0x3dc6a33e	0.09699105
58	0xbd545601	-0.051839832
59	0x3e89eaf1	0.2693706
60	0x3d9b01c0	0.07568693
61	0x3e4bed9a	0.19914857
62	0x3cd978de	0.026546892
63	0xbec3e0b0	-0.3825736
64	0x3ea7c79c	0.32769477
65	0x3e6fe832	0.23428419
66	0xbe2373df	-0.1596217
67	0x3e7f98b9	0.24960603
68	0x3e84c2c5	0.25929847
69	0x3f0fb5a7	0.56136554
70	0xbf185a18	-0.5951247
71	0x3edbb9ba	0.42915136
72	0x3e869682	0.26286703
73	0x3ee758d9	0.45184973
74	0x3edd6124	0.43238175
75	0x3ec43142	0.3831883
76	0xbd0121e5	-0.031526465
77	0x3eca0c68	0.3946259
78	0x3de3ba92	0.1111957
79	0x3e1a22bb	0.15052311
80	0x3ece25b7	0.4026315
81	0x3e5aa992	0.21353748
82	0x3e21d11b	0.15802424
83	0xbd18ffcb	-0.03735332
84	0x3f06b601	0.52621466
85	0x3ed70ce3	0.4200202
86	0x3eacd83e	0.3375873
87	0x3ebf7fd1	0.37402204
88	0x3ed476f7	0.41497013
89	0x3ecbe3ca	0.39822227
90	0xbdbe65e1	-0.092967756
91	0x3ed81b4f	0.42208335
92	0x3e4f5aec	0.20249528
93	0x3eb94840	0.36187935
94	0x3ecb2500	0.39676666
95	0xbbade9e2	-0.005307422
96	0x3e9d51da	0.3072651
97	0x3e39550b	0.18098848
98	0xbeae6849	-0.34063938
99	0x3ea5d810	0.32391405
100	0x3ea4471a	0.32085496
101	0x3efd738e	0.49502224
102	0xbf0b5c5b	-0.544378
103	0x3ec7018f	0.38868377
104	0x3d120b6f	0.035655435
105	0x3e851bd0	0.25997782
106	0x3e909b88	0.2824366
107	0x3e8de2b1	0.27712014
108	0x3d74592a	0.059655346
109	0x3e4641df	0.19361065
110	0x3ed85ea7	0.42259714
111	0x3e929a75	0.28633466
112	0x3eafab48	0.34310365
113	0x3e903ec9	0.281729
114	0x3e8d8cf4	0.276466
115	0x3c3d9acd	0.011572552
116	0x3f0dd2d9	0.55399853
117	0x3e7a7357	0.24458061
118	0x3e845508	0.25846124
119	0x3e9c2b08	0.3050158
120	0x3eab211a	0.33423692
121	0x3eb0b101	0.34510043
122	0x3bdd6efa	0.006757614
123	0x3f08f7e6	0.53503263
124	0x3dd02d06	0.101648375
125	0x3e6f6eaf	0.23382066
126	0x3e3355ee	0.17513248
127	0xbd5fed84	-0.054669872
128	0x3ecc995d	0.39960757
129	0x3ebb1825	0.36541858
130	0xbdfdcc3f	-0.123924725
131	0x3ec04627	0.37553522
132	0x3ec814d9	0.39078405
133	0x3f31aad8	0.6940131
134	0xbef47dfa	-0.47752362
135	0x3f0bc9fa	0.54605067
136	0x3e1ce936	0.15323338
137	0x3ea4887b	0.32135376
138	0x3f015c74	0.505317
139	0x3ea6176c	0.32439744
140	0x3d5a068f	0.05322891
141	0x3eba3e59	0.36375692
142	0x3e836f31	0.2567077
143	0x3ebc0b31	0.36727288
144	0x3eb295d7	0.34879944
145	0x3ecd266b	0.40068373
146	0x3eabac67	0.3352997
147	0x3cb6781b	0.022274068
148	0x3f11d989	0.5697256
149	0x3ed71e9d	0.42015544
150	0x3e81747e	0.2528419
151	0x3eedee7b	0.4647101
152	0x3ee84ff5	0.45373502
153	0x3e963517	0.2933738
154	0x3da9f38b	0.08298405
155	0x3eca214b	0.39478526
156	0x3eae9bb8	0.3410318
157	0x3eabf39e	0.33584303
158	0x3ed5ee0e	0.41783184
159	0xbb898eff	-0.0041979547
160	0x3c52491d	0.012834814
161	0x3d662f43	0.056197416
162	0x3e8e0d7f	0.27744672
163	0xbe890d1b	-0.2676781
164	0xbe2268b6	-0.15860257
165	0x3d416c50	0.047222435
166	0x3d1c20a3	0.038117062
167	0xbda39dc4	-0.07989076
168	0x3e3439d0	0.17600179
169	0xbd4a95ef	-0.049459394
170	0xbd300bd8	-0.042980045
171	0xbe83fa03	-0.2577668
172	0xbc483c2c	-0.012221377
173	0xbe3a08b0	-0.18167377
174	0xbebcc0ec	-0.36865938
175	0x3d79073a	0.060797907
176	0x3ddaa56f	0.10676085
177	0xbea85d25	-0.32883564
178	0x3d8077d9	0.06272859
179	0xbdd744d6	-0.10511176
180	0xbeb5d9ec	-0.35517824
181	0xbe700cfe	-0.23442456
182	0x3d3c332e	0.045947246
183	0x3d5c514a	0.05378846
184	0x3cfa7acc	0.030576132
185	0xbe867250	-0.2625909
186	0xbd929a7b	-0.07158371
187	0xbe784bd5	-0.24247678
188	0xbcf4651a	-0.029833365
189	0xbdd383ee	-0.10327898
190	0xbdb5f401	-0.08884431
191	0x3c61cb6b	0.013781409
192	0x3cb86843	0.022510653
193	0x3dfb51f8	0.12271494
194	0x3f182364	0.59429
195	0x3c1a85d5	0.009431322
196	0x3db33e04	0.08752063
197	0xbf27553e	-0.65364444
198	0x3f27faa6	0.65616834
199	0xbdbff1d4	-0.09372297
200	0x3eb93235	0.36171117
201	0xbe084c6d	-0.13310404
202	0xbe856e5b	-0.26060757
203	0x3d536fc2	0.051620252
204	0x3cf4942a	0.029855806
205	0xbd80c7f5	-0.06288139
206	0x3c8df90e	0.017330673
207	0x3e7131f2	0.23554209
208	0x3d1dfffb	0.0385742
209	0x3b84b927	0.004050392
210	0x3e4e24d7	0.20131241
211	0x3ebb64f2	0.36600453
212	0xbf6b3750	-0.91881275
213	0xbf0c956b	-0.54915494
214	0x3d8e83bb	0.06958719
215	0x3d9fcce4	0.07802752
216	0xbe1d0eb9	-0.15337647
217	0xbe18dfd5	-0.14929135
218	0x3c826226	0.015915941
219	0xbd30a0cb	-0.043122094
220	0x3e2e68c2	0.1703215
221	0xbe893aed	-0.2680277
222	0xbf385038	-0.71997404
223	0x3ecc4ef7	0.39903995
224	0x3e5d5c93	0.21617346
225	0x3e6b088d	0.2295248
226	0xbe720bbf	-0.23637293
227	0x3ed321bf	0.41236684
228	0x3eac7756	0.33684796
229	0x3eaae7d6	0.33380002
230	0xbeb0d3c7	-0.34536573
231	0x3daad6e7	0.083417706
232	0x3e2d755d	0.16939302
233	0x3e977564	0.2958175
234	0x3e4e3849	0.20138659
235	0x3eed6cfa	0.46372205
236	0x3d1d06c2	0.038336523
237	0x3ec6b393	0.3880888
238	0x3ef77a38	0.48335433
239	0x3e54d2c3	0.20783524
240	0x3e9e0485	0.30862823
241	0x3ef4fa37	0.4784715
242	0x3e6da910	0.23209023
243	0x3e470934	0.19437104
244	0x3f331c0e	0.69964683
245	0x3e9b68b3	0.30353317
246	0x3e030eb5	0.12798579
247	0x3ec2da49	0.38057163
248	0x3ef04fea	0.4693597
249	0x3ee51973	0.4474598
250	0xbd30b2bd	-0.043139208
251	0x3edd0131	0.4316497
252	0x3e4f0f9d	0.202208
253	0x3e9d89e8	0.30769277
254	0x3eb60836	0.3555314
255	0xbe6d1ac9	-0.23154749

linear_relu_stack.4.bias f4 [32]
0	0x3d6ea01d	0.058258165
1	0x3da2ac90	0.0794307
2	0x3e0e6965	0.13907392
3	0x3e279a2b	0.16367404
4	0x3e632fe8	0.22186244
5	0x3d9d76cb	0.076886736
6	0x3e1d6bb8	0.15373123
7	0x3e86cee0	0.26329708
8	0x3d0e5c57	0.03475603
9	0x3d20e9f4	0.039285615
10	0x3da4fff0	0.08056629
11	0x3da34c4b	0.07973536
12	0x3e135486	0.14387712
13	0x3e9045bf	0.28178212
14	0x3da526d6	0.08064048
15	0x3e4ad438	0.19807518
16	0xbd93dad6	-0.07219474
17	0x3c1f124f	0.009708955
18	0x3e24fab2	0.16111258
19	0x3e5a7d87	0.21336947
20	0xbe0763fe	-0.13221738
21	0xbdeefc0d	-0.116691686
22	0x3e44c5b2	0.1921604
23	0x3e1c5641	0.15267278
24	0x3daa64bb	0.08319994
25	0x3e4f4b7b	0.20243637
26	0x3e6452ea	0.22297254
27	0x3cc6f076	0.024284583
28	0xbd798a59	-0.060922954
29	0x3dc51bc7	0.09624439
30	0x3e3f04eb	0.1865422
31	0x3b0ca5dd	0.0021461167

linear_relu_stack.6.weight f4 [2, 32]
0	0x3ed11fc6	0.40844554
1	0xbd54a06e	-0.05191081
2	0x3ec58dbf	0.38584706
3	0x3ea12d92	0.3148008
4	0x3ec398b1	0.38202432
5	0xbe74416a	-0.23853078
6	0xbf601dc8	-0.8754544
7	0x3e46bebb	0.19408695
8	0x3eb049e1	0.34431365
9	0x3ed43d1c	0.41452873
10	0xbf84ca23	-1.0374187
11	0x3ee8636c	0.45388353
12	0x3eb81830	0.35955954
13	0x3eaab9c9	0.33344868
14	0x3e9e1b21	0.30880073
15	0x3e9842a0	0.2973833
16	0x3da1bdf7	0.07897561
17	0x3d6f81ed	0.058473516
18	0x3ed4314b	0.41443858
19	0x3ecffc89	0.40622357
20	0xbefc85d8	-0.49320865
21	0xbcbd7d8e	-0.023131158
22	0x3e44133b	0.19147961
23	0x3eab8a3e	0.33503908
24	0x3f095aa0	0.5365391
25	0x3dc610cc	0.096711725
26	0x3ed65237	0.418596
27	0xbf5bfa24	-0.8592856
28	0x3e4c7d1f	0.19969605
29	0xbd8a0f05	-0.06741146
30	0x3ec45707	0.38347647
31	0xbd44d947	-0.048058774
32	0x3ea785b9	0.3271921
33	0x3ee35c7a	0.44406492
34	0x3e7191e1	0.23590805
35	0x3eaa4686	0.3325693
36	0x3e8f71d0	0.2801652
37	0x3c77a3ce	0.015114738
38	0xbf4d3a4c	-0.8016708
39	0x3eb38553	0.35062656
40	0x3eebdcab	0.46066794
41	0x3ece50c3	0.4029599
42	0xbf879ab4	-1.0594087
43	0x3eb53fc0	0.354002
44	0x3e938810	0.28814745
45	0x3ed9bfcf	0.4252915
46	0x3eb1c8fe	0.34723657
47	0x3e9e1f09	0.30883053
48	0xbda1f02a	-0.07907136
49	0xbe0e7af2	-0.13914087
50	0x3eaa044a	0.33206397
51	0x3ec267ae	0.37969726
52	0xbe3eca52	-0.18631867
53	0x3da4bd3a	0.080439046
54	0x3eba6bd0	0.3641038
55	0x3eb241fe	0.34815973
56	0x3e74f7fe	0.23922727
57	0x3eec5003	0.46154794
58	0x3e619470	0.2202928
59	0xbf80ac04	-1.0052495
60	0xbe8d8399	-0.27639464
61	0xbd8e1d20	-0.06939149
62	0x3e54d232	0.20783308
63	0x3cc6e9d2	0.024281416

linear_relu_stack.6.bias f4 [2]
0	0xbd9212a2	-0.0713246
1	0x3e097e7f	0.1342716
