models_saved_PPO/PPO_policy_net_MountainCarContinuous-v0.pt (torch, 3720 bytes, 4 tensors)

hidden.weight f4 [32, 2]
000000 97 aa 34 bf b4 6b b7 3e d3 95 97 3e 51 04 1c bf
       -0.705728 0.35824358 0.29606494 -0.60944086
000010 6b 4d 2c bf 9f 07 1c 3e 42 a7 f2 3e 3e 4e a6 3e
       -0.6730563 0.15237282 0.47393233 0.3248157
000020 bd 4d 0f bf 16 74 25 3e 3b c7 8e 3e c2 08 db be
       -0.55977994 0.16157565 0.27886376 -0.4278012
000030 80 86 5f 3e 2b f1 06 3e 0c f5 a8 3e a9 05 f5 be
       0.21828651 0.13177936 0.32999456 -0.4785588
000040 ce e9 0e bf 7d e8 a9 3e d7 8e 17 3f eb 1b 65 be
       -0.5582551 0.33185187 0.5920233 -0.22373931
000050 72 bc eb be 1c 24 63 3e 73 02 13 bf f1 c1 12 bf
       -0.4604221 0.22181743 -0.5742561 -0.5732718
000060 9f 2e 23 3f e8 c3 b8 3d aa c8 e0 3e 20 88 f7 3d
       0.63743013 0.09021741 0.43903095 0.12086511
000070 3c 8e 90 3e 8a 37 9f 3e 80 58 75 3c b6 b0 a9 3e
       0.28233516 0.3109706 0.014974713 0.33142632
000080 8c 48 1d bf 31 9b 02 bd a8 e2 52 3e c7 25 6a bd
       -0.6143882 -0.031886283 0.20594275 -0.057164934
000090 91 2e 07 3f 22 4b 08 bf 3c 30 9e 3e f0 0e c9 3c
       0.5280543 -0.53239644 0.30896175 0.024543256
0000a0 90 62 c3 bd 78 e2 10 3e 72 8e c8 3e be 36 62 be
       -0.09540284 0.14148891 0.39171177 -0.22091195
0000b0 99 d3 2c 3f 13 4e 04 3f 13 bf 1f 3f 1e 63 f8 3e
       0.6751037 0.5168163 0.6240093 0.4851312
0000c0 5e 6d e2 be 27 9b 14 3f 24 44 14 3d 62 cc 17 be
       -0.44224066 0.58049244 0.036197796 -0.1482406
0000d0 3e ec c1 3e c5 ad 19 bf 91 c2 a6 be a4 6e 0e bf
       0.3787555 -0.60030776 -0.32570317 -0.55637574
0000e0 00 bd a5 3b 31 0c 1a bf a5 be 0b 3f 3d 02 2c bf
       0.005057931 -0.6017485 0.54587775 -0.67190915
0000f0 45 3e 0b 3f 48 c4 15 be 2f ed 9d be fd b6 00 bf
       0.5439189 -0.14625657 -0.3084502 -0.5027922

hidden.bias f4 [32]
000000 47 11 09 bf 1f 38 50 3e e6 af c9 3c 37 3b 9f be
       -0.5354199 0.20333908 0.024620008 -0.31099865
000010 c6 84 ff be c1 d4 6b 3e 77 64 07 3e ec 4e 1c 3f
       -0.49905986 0.23030378 0.13221918 0.61057925
000020 37 7f 21 bf 13 c8 0a 3f 14 cf 19 bf af 81 88 3e
       -0.6308474 0.5421154 -0.600816 0.2666144
000030 64 65 3c be d8 92 e8 bd 40 3b 22 be b4 8e 07 bf
       -0.18398052 -0.11356133 -0.15842915 -0.5295212
000040 95 35 22 bf 61 3f e4 3e 06 68 01 bf 6a 76 2b 3f
       -0.6336301 0.44579604 -0.5054935 0.6697756
000050 94 ec 01 bf 0f 41 b6 be 70 76 ba be c6 1f 30 bf
       -0.50751615 -0.3559651 -0.36418486 -0.6879848
000060 28 0d 8f be 87 98 f2 3e b3 2f e5 3e e1 43 8f 3e
       -0.27939725 0.47381994 0.44762954 0.27981475
000070 ab cd d9 be 00 32 00 be 04 02 c3 be d0 5f d2 3e
       -0.42539725 -0.12519073 -0.38087475 0.41088724

mu_layer.weight f4 [1, 32]
000000 76 59 86 3c 50 b5 b3 bc dd d4 98 3d 30 24 44 bc
       0.01640008 -0.021937042 0.074624754 -0.011971518
000010 87 81 b3 bd 28 ac d9 3a f1 fd e2 3d bc 24 da bd
       -0.0876494 0.0016607093 0.11083592 -0.10651538
000020 3d 2c 0a be b6 93 af bd 88 db 8c 3c 77 f8 92 3d
       -0.13493438 -0.085730955 0.017194524 0.07176297
000030 5e 3c c3 3d 70 d8 21 3d 8d 47 03 3e 5c d6 35 3d
       0.095329985 0.03951305 0.12820263 0.044393882
000040 6a 7e b5 bc eb 91 ee 3d 28 bd 34 be a4 70 92 bc
       -0.022155005 0.116489254 -0.17650282 -0.017875977
000050 88 36 a3 bd 90 b0 4e bc 2a b5 01 be 60 6c a9 3b
       -0.079693854 -0.012615338 -0.12666765 0.00517039
000060 27 38 8a bc 95 5f 63 3d 11 36 25 3e 62 c8 07 be
       -0.016872479 0.055511076 0.16133906 -0.13260034
000070 00 13 46 3a 90 9c 3b 3c 1e b0 df 3d 88 29 d4 bb
       0.0007555932 0.011450902 0.109222636 -0.0064746775

log_std_layer.weight f4 [1, 32]
000000 c1 64 35 be 18 fd cc 3b 78 47 f8 bd 08 1b 6f bd
       -0.17714216 0.006255757 -0.121230066 -0.05837539
000010 51 b1 18 3e 0c 26 2e be 1e 97 a5 bd fe 08 80 bb
       0.14911391 -0.17006701 -0.08085464 -0.003907322
000020 70 76 f5 3d fd 9a bc bd 00 0e 12 bb 48 78 05 be
       0.11985481 -0.09209249 -0.0022286177 -0.13034165
000030 bc 88 39 3d 96 e0 80 bd 60 a0 89 bc d2 15 ae 3d
       0.045296416 -0.06292836 -0.016800106 0.08500256
000040 30 30 0b be bf 71 e1 bd c6 5f c9 3d e2 0f 87 3d
       -0.13592601 -0.110080235 0.098327205 0.06594826
000050 bf 2e 03 3e fa e4 28 be 60 54 dd 3c 40 d7 26 3b
       0.12810801 -0.16493598 0.027017772 0.002545789
000060 dc eb f9 bd e9 84 09 3e 75 b0 09 3e f6 7f 70 3d
       -0.1220319 0.13429607 0.1344622 0.058715783
000070 46 a9 34 be 8e ee 11 be a0 8a 04 bc 40 2a 23 3e
       -0.17642698 -0.14251158 -0.008089691 0.15934086
