models_saved_PPO/PPO_policy_net_CartPole-v1.pt (torch, 10724 bytes, 8 tensors)

linear1.weight f4 [32, 4]
-0.09225651 0.24543759 0.08842392 -0.26985848 0.008149365 0.0056232098 -0.0018305525 -0.09972648
-0.112207025 -0.16058697 -0.16876292 0.046401672 -0.026511297 0.108230725 -0.32479712 0.018527525
-0.29250655 0.26512417 -0.38479808 -0.25704774 -0.036360826 -0.3205404 -0.12549242 0.07468315
-0.08788005 0.24948636 0.07203307 -0.4380751 -0.009029493 0.11965619 -0.18916902 -0.27072853
0.19025685 0.2367746 0.58768296 0.23754738 0.010792569 -0.19344175 -0.60115093 -0.3066148
-0.023847783 -0.053445008 -0.8369895 -0.27278945 -0.15731916 0.32775715 0.3250711 0.7107477
-0.10090863 0.44951463 0.16758291 0.6893195 0.0032983318 -0.04117036 0.22180207 -0.17487703
-0.005493796 -0.029714242 0.22448394 0.18305038 0.1310315 0.09373276 -0.30589333 -0.18645877
-0.002473085 0.13927835 -0.18930493 -0.006815477 0.2980542 -0.005733818 0.05520542 -0.28531545
0.009220049 -0.27739334 0.015315963 -0.22813046 -0.06194515 -0.022239558 0.337434 0.20331424
0.01981847 -0.3769722 0.48994538 -0.09657926 -0.13537434 0.35487804 0.13961296 0.05750131
-0.20422982 -0.055846512 -0.057037126 -0.3177591 0.08182698 -0.12419116 0.036247354 -0.025012897
0.04254411 0.117140226 -0.0032305096 0.23037432 -0.21496412 -0.310113 -0.3763062 -0.08545034
-0.32840756 0.33427832 0.42990723 0.26910922 0.20624161 -0.10087275 0.58196217 0.15235585
-0.14059393 0.5397677 -0.59156424 0.031989772 -0.09015049 -0.16680148 0.3347032 0.21263349
-0.34318015 -0.00015920043 -0.4444648 -0.4004511 0.17307681 -0.09259232 -0.6349876 -0.14523886
00000000: fbf0 bcbd fe53 7b3e 9a17 b53d e42a 8abe
00000010: ea84 053c e742 b83b 26ef efba 663d ccbd
00000020: cccc e5bd e970 24be 30d0 2cbe ae0f 3e3d
00000030: 382e d9bc 12a8 dd3d cf4b a6be 09c7 973c
00000040: 6bc3 95be 5bbe 873e 4104 c5be c39b 83be
00000050: 17ef 14bd df1d a4be 1681 00be 7bf3 983d
00000060: 75fa b3bd 5a79 7f3e 1386 933d 614b e0be
00000070: 70f0 13bc 4e0e f53d 86b5 41be ee9c 8abe
00000080: b1d2 423e 0a75 723e 6472 163f 9f3f 733e
00000090: 51d3 303c 9815 46be 07e5 19bf 9dfc 9cbe
000000a0: 6d5c c3bc 27e9 5abd f244 56bf 0fab 8bbe
000000b0: 4618 21be c9cf a73e b86f a63e 90f3 353f
000000c0: 2fa9 cebd c826 e63e db9a 2b3e 3e77 303f
000000d0: d328 583b 40a2 28bd 1520 633e f712 33be
000000e0: 4d05 b4bb 486b f3bc 1edf 653e 8f71 3b3e
000000f0: 1f2d 063e f6f6 bf3d 0d9e 9cbe 0cef 3ebe
00000100: 7b13 22bb fc9e 0e3e 27d9 41be 5d54 dfbb
00000110: 8f9a 983e c0e2 bbbb 141f 623d de14 92be
00000120: b00f 173c 8006 8ebe ceef 7a3c 089b 69be
00000130: 33ba 7dbd bc2f b6bc 26c4 ac3e 9c31 503e
00000140: 585a a23c 8002 c1be 1fda fa3e 59cb c5bd
00000150: 929f 0abe 93b2 b53e b3f6 0e3e 7e86 6b3d
00000160: 9f21 51be 50bf 64bd c39f 69bd 52b1 a2be
00000170: e794 a73d ef57 febd 1b78 143d d9e7 ccbc
00000180: bc42 2e3d 37e7 ef3d f5b6 53bb 3fe7 6b3e
00000190: 8e1f 5cbe 22c7 9ebe 35ab c0be 9600 afbd
000001a0: 0925 a8be 8726 ab3e cd1c dc3e afc8 893e
000001b0: 0031 533e 5f96 cebd 79fb 143f 2c03 1c3e
000001c0: dbf7 0fbe 372e 0a3f c170 17bf b507 033d
000001d0: d2a0 b8bd 02ce 2abe 385e ab3e 98bc 593e
000001e0: 4fb5 afbe 0aef 26b9 e490 e3be ed07 cdbe
000001f0: 0c3b 313e 0ba1 bdbd 8c8e 22bf 7fb9 14be

linear1.bias f4 [32]
-0.4590138 -0.44138706 -0.028292356 0.38999668 -0.13919075 -0.40947574 0.5470625 -0.31904852
-0.042511865 0.10438686 0.16707656 0.10888804 0.21129024 -0.2073075 0.23071864 -0.21129687
-0.099859744 -0.53194815 0.3382709 0.16891228 -0.3398853 -0.08082888 -0.35742033 0.5803423
0.09189083 0.24481732 0.054439824 0.24889474 0.115050375 0.027256772 0.22287612 0.11645127
00000000: db03 ebbe 7cfd e1be 5fc5 e7bc a5ad c73e
00000010: 0588 0ebe cea6 d1be 4a0c 0c3f 545a a3be
00000020: ec20 2ebd c7c8 d53d 1e16 2b3e b100 df3d
00000030: 785c 583e 6b48 54be 8241 6c3e 355e 58be
00000040: 4483 ccbd c12d 08bf d831 ad3e 57f7 2c3e
00000050: 7205 aebe 9d89 a5bd ccff b6be 5091 143f
00000060: 4231 bc3d 64b1 7a3e 4bfc 5e3d 43de 7e3e
00000070: 889f eb3d 9849 df3c a339 643e 017e ee3d

linear2.weight f4 [32, 32]
-0.16443436 -0.18011811 0.03179217 0.1317497 0.19976512 0.2113138 -0.043886796 -0.14627598
0.06673257 -0.47311562 -0.14061882 0.49191406 -0.17076613 -0.16759795 0.25151938 -0.0049598515
0.18960436 -0.26397145 -0.181927 0.19015841 -0.2567053 0.080574214 -0.27989286 0.18286999
0.21984167 -0.06350394 0.22464935 0.039167453 0.19223931 0.057996776 -0.27188736 -0.09897638
-0.112247996 0.2545487 0.09333581 -0.16049556 -0.046088524 0.31599694 0.06319348 0.08591895
0.37391675 -0.25097758 -0.3313827 0.21353754 0.23810926 0.056279812 -0.1932548 0.050613735
-0.15701143 -0.49647385 0.28466347 -0.08905801 -0.07429111 0.2859014 -0.06623212 0.27887726
-0.080306984 -0.065971434 -0.266362 0.1253106 0.15627083 -0.0872673 -0.22380832 -0.37492517
-0.46291548 0.013446313 0.3459694 0.17502032 0.011753719 -0.033353098 0.13414001 -0.046230465
-0.12014415 -0.23693413 -0.18504456 -0.15859984 -0.17108919 -0.00504245 -0.053273056 -0.1978573
0.13373981 -0.055172686 0.083179384 0.090897985 -0.14781122 0.5021239 0.091320686 -0.19642547
0.07809469 0.068053894 0.19377856 -0.059193756 -0.35332084 -0.00073852716 -0.1248786 -0.0881678
0.21209067 -0.19394243 0.0441186 -0.051163092 0.14070377 -0.07881809 0.024466356 0.16449346
-0.11496786 0.15744576 -0.06667876 -0.38242096 -0.113666065 0.1046247 0.123326726 -0.24020538
-0.061612047 -0.07338308 -0.09091327 0.28299323 0.013756294 0.13637555 -0.2873573 -0.3595381
-0.26643163 0.034415264 0.15154713 0.3801552 0.2900724 0.060256142 0.07602309 0.13031523
0.20974106 0.12986405 -0.12217328 -0.21466021 -0.5000557 -0.18840125 -0.27991706 -0.02908838
-0.016500993 -0.19430558 0.21967746 0.13609114 -0.002687329 -0.12177406 0.041566532 0.3458078
0.07970986 0.06512711 -0.31387103 -0.11749039 0.35957485 0.10204427 -0.08032975 -0.23019753
0.05287763 0.19798136 0.019570176 0.056810003 0.042745013 0.2403232 0.18127729 -0.01886793
-0.041394904 -0.09396982 -0.036446188 0.0018543804 0.10396138 0.17712973 0.32836655 0.075166084
-0.25887254 -0.018694578 0.3631972 -0.37648544 -0.29146346 -0.08092296 -0.027899072 -0.10025711
-0.008176341 0.25557694 0.2582105 -0.38598308 -0.011352734 -0.039952602 -0.15289141 0.21574205
-0.099382624 0.37991974 -0.2736362 -0.065822065 -0.08534285 -0.06144071 0.2889028 0.07084839
0.16055666 -0.061603 -0.18224764 0.17841762 -0.33528396 0.17361772 -0.01958826 -0.17859615
0.26939923 -0.42557812 -0.4246938 0.1729776 0.2871957 -0.078910194 -0.0011889116 -0.12147748
-0.21827316 -0.12592521 -0.0148807615 -0.07776151 0.2367185 0.34048808 -0.03103261 0.0542768
-0.02367201 -0.296382 0.0401974 0.37152272 0.12751667 -0.008527906 -0.16295102 -0.10818966
0.07527071 -0.014842504 -0.062080037 0.1445968 -0.05577845 -0.17873688 -0.143008 -0.045249663
0.4839738 -0.25563648 -0.29000476 0.11223184 0.17630988 -0.070199855 0.14662912 0.061203867
-0.011384801 -0.07476463 0.109471984 0.054487344 -0.10617771 -0.0024436093 -0.3037112 0.22498249
-0.049914554 -0.0077535184 0.15872762 0.6176828 -0.06765135 0.2023739 -0.043694858 -0.08104939
00000000: 7b61 28be e270 38be 8238 023d 65e9 063e
00000010: 3a8f 4c3e a562 583e a4c2 33bd 5fc9 15be
00000020: 16ab 883d 363c f2be 61fe 0fbe 29dc fb3e
00000030: 51dd 2ebe cc9e 2bbe 26c7 803e 4086 a2bb
00000040: a527 423e 4427 87be 124b 3abe e3b8 423e
00000050: e16e 83be 1804 a53d 1e4e 8fbe 4542 3b3e
00000060: 2d1e 613e 5b0e 82bd 7b0a 663e 0d6e 203d
00000070: 62da 443e 078e 6d3d d234 8bbe 21b4 cabd
00000080: 47e2 e5bd 3554 823e d826 bf3d f358 24be
00000090: 52c7 3cbd 5aca a13e 956b 813d 46f6 af3d
000000a0: 0472 bf3e 2280 80be feaa a9be 96a9 5a3e
000000b0: ead2 733e a985 663d 96e4 45be 5950 4f3d
000000c0: 9bc7 20be d231 febe 69bf 913e 0c64 b6bd
000000d0: f025 98bd ab61 923e b5a4 87bd 00c9 8e3e
000000e0: fd77 a4bd 081c 87bd 9a60 88be 6c51 003e
000000f0: 7605 203e 33b9 b2bd 022e 65be 31f6 bfbe
00000100: 4203 edbe ed4d 5c3c e722 b13e 8738 333e
00000110: ac92 403c 429d 08bd 005c 093e 285c 3dbd
00000120: 230e f6bd dc9e 72be 527c 3dbe ff67 22be
00000130: 0132 2fbe 233b a5bb d934 5abd 1b9b 4abe
00000140: 17f3 083e c1fc 61bd f459 aa3d b928 ba3d
00000150: d35b 17be 318b 003f 5706 bb3d c223 49be
00000160: 1cf0 9f3d d75f 8b3d e36d 463e 2775 72bd
00000170: 78e6 b4be b899 41ba 5ac0 ffbd 5291 b4bd
00000180: 4c2e 593e d898 46be b5b5 343d 6490 51bd
00000190: a614 103e 616b a1bd ab6d c83c f970 283e
000001a0: 4574 ebbd 7639 213e e08e 88bd aecc c3be
000001b0: c1c9 e8bd 7a45 d63d b992 fc3d 66f8 75be
000001c0: ea5c 7cbd de49 96bd bd30 babd 7de4 903e
000001d0: 1462 613c 08a6 0b3e 7f20 93be 6115 b8be
000001e0: ba69 88be 05f7 0c3d 2c2f 1b3e b4a3 c23e
000001f0: 5f84 943e 25cf 763d feb1 9b3d 5b71 053e
00000200: 5cc6 563e 15fb 043e fc35 fabd e3cf 5bbe
00000210: a603 00bf 42ec 40be 4a51 8fbe c14a eebc
00000220: 172d 87bc 0bf8 46be 21f3 603e 7a5b 0b3e
00000230: e61d 30bb ae64 f9bd ab41 2a3d b80d b13e
00000240: ec3e a33d 5d61 853d b4b3 a0be cd9e f0bd
00000250: 321a b83e 96fc d03d ed83 a4bd e7b8 6bbe
00000260: 3796 583d a0bb 4a3e a251 a03c 9bb1 683d
00000270: 6515 2f3d 4917 763e c1a0 393e eb90 9abc
00000280: b48d 29bd 4073 c0bd 9948 15bd ae0e f33a
00000290: b4e9 d43d 7f61 353e a91f a83e adf0 993d
000002a0: f18a 84be 5f25 99bc fcf4 b93e b3c2 c0be
000002b0: b33a 95be f0ba a5bd 988c e4bc 9a53 cdbd
000002c0: 0ff6 05bc fbda 823e 2b34 843e 939f c5be
000002d0: d100 3abc 57a5 23bd 918f 1cbe 7ceb 5c3e
000002e0: 1e89 cbbd d784 c23e 0b1a 8cbe b8cd 86bd
000002f0: 3bc8 aebd 41a9 7bbd 11eb 933e f618 913d
00000300: f768 243e 6d53 7cbd 209f 3abe 1cb3 363e
00000310: 57aa abbe d8c8 313e 8f77 a0bc e9e1 36be
00000320: b2ee 893e 60e5 d9be 7771 d9be 0a21 313e
00000330: 510b 933e ab9b a1bd 41d5 9bba 2fc9 f8bd
00000340: 0083 5fbe 8af2 00be 70ce 73bc 6d41 9fbd
00000350: 5666 723e 7454 ae3e 1a38 febc 5a51 5e3d
00000360: ceeb c1bc 62bf 97be 07a6 243d 3a38 be3e
00000370: bb93 023e a1b8 0bbc a2dc 26be 8a92 ddbd
00000380: 8827 9a3d f92d 73bc a347 7ebd 2f11 143e
00000390: f277 64bd cd06 37be b070 12be b657 39bd
000003a0: 6acb f73e c9e2 82be 817b 94be cfd9 e53d
000003b0: 948a 343e f1c4 8fbd f225 163e e8b0 7a3d
000003c0: 5187 3abc 331e 99bd d932 e03d 1f2e 5f3d
000003d0: b373 d9bd f624 20bb 0980 9bbe cf61 663e
000003e0: 3473 4cbd 3a11 febb 7e89 223e 7620 1e3f
000003f0: ca8c 8abd 1b3b 4f3e 61f9 32bd 39fd a5bd

linear2.bias f4 [32]
0.07728415 0.04889269 -0.06093866 -0.075815 0.1011773 0.15759936 0.21191554 -0.05766327
-0.1679177 0.09786572 0.025995927 0.29359263 -0.05871808 -0.086574495 -0.11987043 0.0023363717
-0.09200075 0.11080001 0.1071672 -0.010378186 -0.06834593 0.1732437 0.051500946 -0.035130553
-0.032097846 -0.12699156 -0.2072508 0.109492466 0.091812044 -0.12011735 0.066792 -0.0922139
00000000: 2747 9e3d b443 483d d19a 79bd e544 9bbd
00000010: 0b36 cf3d ba61 213e 6300 593e 5230 6cbd
00000020: 9ef2 2bbe d36d c83d 69f5 d43c c651 963e
00000030: 5f82 70bd f84d b1bd a17e f5bd d01d 193b
00000040: e46a bcbd 1eeb e23d 7a7a db3d 4409 2abc
00000050: f3f8 8bbd cc66 313e a8f2 523d 0ee5 0fbd
00000060: 0879 03bd 130a 02be 8e39 54be 963d e03d
00000070: f407 bc3d 1600 f6bd 3eca 883d a4da bcbd

linear3.weight f4 [16, 32]
-0.08347403 -0.33101287 -0.10794257 -0.03185827 -0.043463316 0.10945496 -0.11559108 -0.11254816
-0.095888235 -0.24048582 0.15425222 0.16409115 -0.14688279 0.25305006 -0.10295835 0.10937349
-0.042094953 0.07876917 -0.066661105 0.33464515 -0.01148001 0.33613744 -0.19589898 -0.15929466
-0.07057693 0.0053287833 0.08636298 0.461327 -0.29299337 -0.025834752 -0.2411091 -0.1059754
-0.15196735 -0.31958774 -0.024203021 -0.19917285 0.27293086 0.19403714 -0.006934529 -0.13278633
-0.44275218 -0.07346756 -0.13507223 0.28782064 -0.065795995 0.26249275 0.1342174 -0.61895895
-0.1957618 -0.000847747 0.034600187 0.09367483 0.1369052 -0.35500136 -0.10120835 0.17709696
-0.004609329 -0.13712351 -0.10026683 -0.08243934 -0.11999188 0.43076423 -0.051810708 -0.44197807
0.051035207 0.080564186 -0.039571024 0.05958192 -0.19178534 -0.009408535 -0.11988682 0.18228227
-0.0061243735 0.002981963 -0.30500495 -0.24843676 0.04420982 -0.056988668 -0.29345563 0.17693423
-0.3439729 -0.15298012 -0.30405685 -0.16264032 0.1229409 0.12894556 -0.25333324 0.0390117
-0.10642997 0.14900891 0.34245974 -0.052622415 -0.25021833 -0.00023923152 0.166118 0.17625006
-0.13589749 -0.11350177 -0.01219925 0.07415635 0.08194826 0.36437607 -0.11628592 0.08939703
-0.42951587 0.25622565 -0.26984352 0.1537019 0.16581301 -0.111200005 0.011884765 0.36370024
0.6657874 0.11049395 0.32551175 0.112757266 -0.3669855 0.051754978 0.06492365 -0.61508685
-0.12973407 -0.014556978 -0.09535326 0.16550002 0.14123933 -0.19541219 0.27784 -0.2870676
0.45228475 0.04440127 -0.45212293 0.5173354 -0.09923824 -0.14553894 0.17986473 0.2973022
-0.36890617 -0.05899278 0.32360357 0.32078075 0.36928776 0.049340025 0.18315269 -0.0996726
-0.512146 -0.004382948 -0.5680531 -0.22090337 0.19228156 -0.5336235 0.13788414 0.30173004
0.26829514 -0.019468948 0.027336156 -0.14571705 0.35477605 -0.19584285 -0.0970423 0.2796492
0.16745834 0.16323791 0.24995533 0.06969344 -0.016981205 0.052463036 0.31634787 0.16972847
0.08183408 0.09954219 0.19280629 0.101450205 -0.5565997 -0.27667996 0.14978464 -0.06397793
-0.16655691 0.04322021 -0.14672568 -0.065837614 0.32949474 0.21427463 0.19296376 -0.028707553
0.021314867 -0.29869747 -0.27796015 0.2682329 0.18364389 0.15442804 -0.19560236 0.41406918
-0.06226074 0.5739067 -0.06919631 0.034208626 -0.04346607 0.29396364 0.45726043 0.48979667
0.16653532 0.039039433 -0.06875493 -0.07417755 0.15002051 0.14972119 0.20232989 0.011126385
-0.51274425 -0.008469169 -0.016831715 0.29497194 0.0035659794 -0.29598448 0.5662248 0.39591295
0.26618046 -0.05579718 -0.2447726 -0.15077448 0.017146576 0.19294022 0.35272798 0.15134546
0.4094388 0.34518054 0.07211409 -0.24404451 -0.07183978 0.04791066 0.07229381 0.24756335
-0.19352706 -0.31676173 0.34721595 0.116190836 0.090934604 -0.41439682 0.46941158 -0.028452957
-0.24396761 0.032095633 -0.06831336 0.17557284 -0.177125 -0.12904757 0.24465239 0.23754574
0.3372095 0.014642975 -0.03790498 -0.24579161 0.1964793 -0.25764477 -0.0066137053 0.038117155
00000000: 6ff4 aabd 857a a9be fe10 ddbd d17d 02bd
00000010: 9706 32bd ec29 e03d 04bb ecbd a67f e6bd
00000020: 0d61 c4bd ea41 76be 4bf4 1d3e 8307 283e
00000030: 7168 16be c78f 813e d4db d2bd 35ff df3d
00000040: c26b 2cbd bb51 a13d 9e85 88bd 9c56 ab3e
00000050: a716 3cbc 351a ac3e be99 48be 241e 23be
00000060: a38a 90bd 139d ae3b 13df b03d 0d33 ec3e
00000070: 3a03 96be 67a3 d3bc 4ee5 76be a109 d9bd
00000080: 549d 1bbe 01a1 a3be 6a45 c6bc f8f3 4bbe
00000090: 98bd 8b3e acb1 463e 0c3b e3bb 24f9 07be
000000a0: 6ab0 e2be 2976 96bd 6050 0abe 3a5d 933e
000000b0: 0dc0 86bd 7365 863e 4970 093e 1874 1ebf
000000c0: c875 48be 573b 5eba edb8 0d3d 97d8 bf3d
000000d0: e030 0c3e bdc2 b5be 5346 cfbd e858 353e
000000e0: db09 97bb 1b6a 0cbe b258 cdbd f5d5 a8bd
000000f0: 4ebe f5bd 218d dc3e 7737 54bd f34a e2be
00000100: 4b0a 513d d6fe a43d 3a15 22bd 2c0c 743d
00000110: 6063 44be 4226 1abc 3987 f5bd 34a8 3a3e
00000120: f8ae c8bb 0a6d 433b 9c29 9cbe 3566 7ebe
00000130: 5b15 353d f36c 69bd d13f 96be 3f2e 353e
00000140: 371d b0be d2a6 1cbe 57ad 9bbe 2f8b 26be
00000150: 70c8 fb3d 4e0a 043e e5b4 81be bbca 1f3d
00000160: f5f7 d9bd cb95 183e e256 af3e 9a8a 57bd
00000170: 9e1c 80be 39da 7ab9 d61a 2a3e e57a 343e
00000180: b628 0bbe 9e73 e8bd 5ddf 47bc 49df 973d
00000190: 7dd4 a73d 808f ba3e 5027 eebd ca15 b73d
000001a0: 81e9 dbbe 0230 833e ee28 8abe 0864 1d3e
000001b0: e3ca 293e d4bc e3bd 51b8 423c eb36 ba3e
000001c0: 0b71 2a3f a74a e23d 7aa9 a63e 48ed e63d
000001d0: 86e5 bbbe 07fd 533d b1f6 843d 5576 1dbf
000001e0: 02d9 04be 6480 6ebc 9248 c3bd d678 293e
000001f0: 0ba1 103e 221a 48be 0b41 8e3e 86fa 92be
00000200: de91 e73e 1bde 353d a87c e7be 1870 043f
00000210: 6b3d cbbd 2908 15be 762e 383e fe37 983e
00000220: 45e1 bcbe 6aa2 71bd 5eaf a53e 603d a43e
00000230: 4913 bd3e c418 4a3d 618c 3b3e 2621 ccbd
00000240: 001c 03bf d59e 8fbb ee6b 11bf 7e34 62be
00000250: 75e5 443e 8d9b 08bf 8031 0d3e 5c7c 9a3e
00000260: fb5d 893e 587d 9fbc 13f0 df3c da36 15be
00000270: 35a5 b53e 078b 48be 1dbe c6bd 2e2e 8f3e
00000280: 337a 2b3e d727 273e 4af4 7f3e 6fbb 8e3d
00000290: 2b1c 8bbc 7be3 563d 59f8 a13e 4dcd 2d3e
000002a0: a098 a73d c7dc cb3d 036f 453e 20c5 cf3d
000002b0: 517d 0ebf ffa8 8dbe 2561 193e dc06 83bd
000002c0: e58d 2abe ad07 313d 423f 16be dfd5 86bd
000002d0: 89b3 a83e cf6a 5b3e 4b98 453e 1a2c ebbc
000002e0: 849c ae3c e0ee 98be cb50 8ebe d355 893e
000002f0: 250d 3c3e 6222 1e3e fc4b 48be e000 d43e
00000300: 1e05 7fbd 8deb 123f ccb6 8dbd 581e 0c3d
00000310: 7a09 32bd 6782 963e 0a1e ea3e a1c6 fa3e
00000320: 3c88 2a3e d0e7 1f3d 62cf 8cbd 66ea 97bd
00000330: fa9e 193e 8350 193e 912f 4f3e 714b 363c
00000340: 3543 03bf 45c2 0abc aae2 89bc 9006 973e
00000350: 35b3 693b 478b 97be 1cf4 103f 1ab5 ca3e
00000360: ce48 883e 958b 64bd aba5 7abe a064 1abe
00000370: fa76 8c3c 1f92 453e c398 b43e 4efa 1a3e
00000380: f6a1 d13e 81bb b03e 8db0 933d cee6 79be
00000390: bc20 93bd f83d 443d c70e 943d 3f81 7d3e
000003a0: f52b 46be 982e a2be 4ac6 b13e 76f5 ed3d
000003b0: ec3b ba3d d22b d4be b756 f03e 2d16 e9bc
000003c0: a5d2 79be b676 033d e0e7 8bbd 5ec9 333e
000003d0: 4260 35be 0c25 04be 2886 7a3e 313f 733e
000003e0: b9a6 ac3e 17e9 6f3c 4142 1bbd ccb0 7bbe
000003f0: df31 493e 04ea 83be c8b7 d8bb bc20 1c3d

linear3.bias f4 [16]
0.13305303 -0.13757405 -0.021516465 0.18083486 0.18852466 -0.03173264 0.12696911 0.0041666543
-0.09389582 -0.03894671 0.20728242 -0.08059238 0.19987357 0.009485078 -0.17339145 -0.09290014
00000000: 0e3f 083e 36e0 0cbe 4c43 b0bc c62c 393e
00000010: 9c0c 413e 16fa 01bd 3104 023e 6e88 883b
00000020: 744c c0bd 9686 1fbd d841 543e 9e0d a5bd
00000030: a8ab 4c3e 4d67 1b3c 878d 31be 6e42 bebd

output_layer.weight f4 [2, 16]
-0.27408072 0.030187983 -0.4542701 0.5182474 -0.3079096 -0.29396892 0.16294892 -0.4003429
-0.047382228 0.047502942 -0.17909083 -0.48599672 0.32242993 0.07627073 1.0737561 0.098961435
-0.7461604 0.111205 -0.030313449 -0.7371275 0.29539326 -0.080586 0.46014765 0.4872696
0.33781174 0.6615907 0.21398237 0.2805376 -0.15155241 0.36940476 -0.019721413 -0.111376554
00000000: 4f54 8cbe ca4c f73c 1796 e8be ddab 043f
00000010: 54a6 9dbe 1883 96be 15dc 263e bff9 ccbe
00000020: de13 42bd 7292 423d 9663 37be 90d4 f8be
00000030: 8915 a53e d433 9c3d d770 893f 4bac ca3d
00000040: 5e04 3fbf 72bf e33d e953 f8bc 63b4 3cbf
00000050: c93d 973e 460a a5bd 7998 eb3e 677b f93e
00000060: a9f5 ac3e 025e 293f 321e 5b3e a0a2 8f3e
00000070: 8e30 1bbe 9f22 bd3e cd8e a1bc 6419 e4bd

output_layer.bias f4 [2]
0.051207718 0.06098977
00000000: 2fbf 513d 69d0 793d
