models_saved_PPO/PPO_policy_net_CartPole-v0.pt (torch, 10724 bytes, 8 tensors)

linear1.weight f4 [32, 4]
000000 66 a6 08 be b7 d9 2e bd d0 6b ca be 20 cb 3f 3e
       -0.13344726 -0.042688098 -0.3953538 0.1872983
000010 3f c4 84 be 31 52 95 3e f6 c2 e8 3e 47 0a 8a 3e
       -0.25930974 0.2916427 0.45461243 0.26960966
000020 de 14 8b 3e f9 7a 90 3e a1 bb ea 3d 1e e8 01 3f
       0.27164358 0.2821882 0.114615686 0.5074481
000030 b4 71 5e 3c 57 e7 4c be 11 28 7e be fb 7f 3c bd
       0.013576914 -0.20010124 -0.24819972 -0.04602049
000040 db ca f6 bb 1e e4 4f be a5 9b a8 3c cc 50 fc 3d
       -0.0075315065 -0.20301864 0.02058203 0.12320098
000050 e2 8e e1 3e b7 f8 98 bc 45 52 b3 be 4a 0f 6c be
       0.44054323 -0.018673284 -0.35023704 -0.23052707
000060 db 96 19 3e 6d a2 61 3c 91 b2 95 be 05 a7 bf be
       0.14998953 0.0137716355 -0.29237798 -0.37432113
000070 8f 4b 25 bc 1a 62 e6 bd 40 db 91 be d2 18 82 3c
       -0.010088815 -0.1124918 -0.28487587 0.015880976
000080 e8 36 5e be 3f 99 e1 bd 16 52 1e bf 62 a7 24 be
       -0.21700633 -0.110155575 -0.61844003 -0.16079476
000090 5c d6 a4 3e 28 f7 c5 bd 0d 57 e2 be 3b db 64 3e
       0.32194793 -0.09666282 -0.4420704 0.22349255
0000a0 65 77 a1 be fb b1 a7 3c 6c 93 b7 3e 0c 55 f9 3e
       -0.31536403 0.02047061 0.3585466 0.48697698
0000b0 f0 3e 45 3e 04 70 c4 3e 33 73 82 be 7f 5a a4 bd
       0.1926229 0.3836671 -0.25478515 -0.08025073
0000c0 ce 56 82 3d cb b4 a5 3d eb 99 9c 3e 67 9a ae 3e
       0.06364213 0.08091124 0.3058618 0.34102175
0000d0 67 8f c0 3c cc bf 0a 3e b2 c0 07 3e ab 6f 20 3f
       0.02350588 0.13549727 0.13257101 0.6267039
0000e0 f2 13 54 3d 99 19 f9 3d 8f a3 90 bc 63 28 6f 3d
       0.051776834 0.121630855 -0.017656116 0.058388125
0000f0 7e 06 0d be 0c 4c 71 3e 1b 0c 81 bc 82 7e 49 be
       -0.13772008 0.23564166 -0.015752843 -0.19677165
000100 58 5a b0 be fb 51 68 3d 3c bb 96 3e ef ad 7c 3e
       -0.34443927 0.056718808 0.29439723 0.24675725
000110 b1 f5 32 3e 0e 67 16 3f 41 1c 10 3e a2 19 5f 3e
       0.17476536 0.58751 0.14073278 0.21787122
000120 de 6a 9b 3e 68 a4 99 be 10 db 86 be f6 80 24 3d
       0.3035497 -0.30008245 -0.26339006 0.04016205
000130 44 80 5e be 86 fd 1e bf 09 74 84 be 5b 8f 30 3e
       -0.21728617 -0.62105596 -0.25869778 0.17242186
000140 d0 5d 30 3e 36 97 e0 be c7 3f 89 bd 22 29 cb be
       0.17223287 -0.43865365 -0.06701618 -0.3967982
000150 47 30 9e 3e a8 80 ac bd c4 af 02 be 33 bd 9c 3e
       0.30896208 -0.08422977 -0.12762362 0.30613098
000160 56 48 19 3e e9 ab 3d 3e cd 62 63 be 21 84 03 3d
       0.14969 0.1852261 -0.22205658 0.03210843
000170 a9 2a 32 bc 82 ff c8 3d 43 85 8b be 1b 6b 46 3e
       -0.010874429 0.09814359 -0.27250108 0.19376795
000180 66 27 2a bd 41 47 93 3e ee 2a 5c 3c 33 db 4f 3e
       -0.04154148 0.287653 0.01343797 0.20298462
000190 de b6 4d be 6b ae 18 3e e5 0c cc be 0a 9b 43 be
       -0.2008929 0.14910285 -0.39853588 -0.19102111
0001a0 24 5c 60 3e f6 b2 5a bd 7f 20 e3 bb c6 b9 58 bd
       0.21910149 -0.053393327 -0.006931364 -0.052911542
0001b0 47 ec 29 3e 5f c9 92 bd 41 21 61 3e 38 01 75 3e
       0.16594039 -0.07167315 0.21985342 0.23926246
0001c0 f6 eb 9d 3c fd 6d 72 be 78 ee e6 3c 80 60 12 3f
       0.019277554 -0.2367477 0.028189883 0.571785
0001d0 1e 9a 84 bd 0b 8b 8d 3e a2 e7 44 3e a5 0b 24 3e
       -0.06474708 0.27645144 0.19228986 0.16020067
0001e0 b7 7c 42 3e cc bb 42 3e fb 2e 67 3e 69 67 35 bc
       0.18992887 0.19016951 0.22576515 -0.011072018
0001f0 f9 26 8a 3e c5 01 b5 be 39 bf 36 3e ee e4 25 3f
       0.2698286 -0.35352913 0.17846383 0.64802444

linear1.bias f4 [32]
000000 21 f1 85 bd d0 df 3a 3e f0 d4 29 3e 53 2a ba be
       -0.06540132 0.1824944 0.16585135 -0.36360416
000010 03 aa 16 be 49 d5 a5 be 4f e1 60 3e 23 a6 01 be
       -0.14713292 -0.32389286 0.21960948 -0.12661032
000020 f3 62 cd 3e f8 e3 c8 be f0 0c 19 3c 58 91 2f 3e
       0.40114555 -0.39236426 0.009341463 0.17145288
000030 bc 41 8d 3d 1b 1d 82 3e ae 76 ca 3e 72 3e 34 3e
       0.068973035 0.2541283 0.3954367 0.17601946
000040 5e ec 71 3e b8 39 76 be 68 e8 bc 3e 37 d5 cb bc
       0.23625323 -0.24045455 0.36896062 -0.024881942
000050 3e c0 69 3d 8d 7b a7 bd d3 b2 d1 be e0 5b c1 3e
       0.057068102 -0.08177862 -0.40956745 0.37765408
000060 4a 71 dc bd 7c e2 a6 bd a5 ca dd 3e b7 ae f3 3d
       -0.10763796 -0.08148667 0.43318668 0.118985586
000070 3e f9 bf be e0 0e c7 bd f7 89 9b bc fe 8a 03 3e
       -0.37494844 -0.09719634 -0.018986685 0.1284599

linear2.weight f4 [32, 32]
000000 40 70 5b 3a b1 d4 7c 3e c8 51 d7 bb a4 53 ef 3d
       0.00083709136 0.2469051 -0.0065710284 0.11685875
000010 12 a1 6e 3e 00 97 00 3e f8 ff 61 3d 8d 60 99 be
       0.23303631 0.12557602 0.05517575 -0.29956475
000020 71 99 25 be ca 9d 1b bc bc 4e 8d 3e 58 82 02 be
       -0.16171815 -0.009498069 0.27599132 -0.12745035
000030 31 b7 14 bb 3e 64 16 bd 8e 04 81 bd c9 79 52 3e
       -0.0022692198 -0.036716692 -0.06299697 0.2055427
000040 3f 4b f2 bd 0e 17 17 bd de a8 3a be 3b b0 c6 3d
       -0.11830758 -0.03688722 -0.1822848 0.09701582
000050 d1 28 cd bd 3d f2 2e 3e 63 32 61 3c 14 d9 90 be
       -0.10017551 0.17084594 0.013744923 -0.28290617
000060 83 a4 0f be 60 c5 7f be 02 03 e2 bb c6 1d 1a 3e
       -0.140276 -0.24977636 -0.006897331 0.1505042
000070 66 69 90 3e 1b ea 5a bd 15 42 0c bc 86 f5 06 3e
       0.28205413 -0.053445917 -0.008560677 0.13179597
000080 6c 25 49 3d 9a f8 5d be 78 21 fc bc 85 39 b3 be
       0.049107954 -0.21676865 -0.030777678 -0.3500482
000090 36 bb 05 3e 55 f8 5f be ca d0 d4 3e 03 9c e0 bd
       0.13059697 -0.21872075 0.41565543 -0.10967257
0000a0 ab 3d 9c be 5b 3e ef bd 6c ef 08 bd 15 f6 67 3d
       -0.305158 -0.11681815 -0.033431455 0.056631166
0000b0 8c 7c f9 bd 09 f1 53 bd 8e e1 bf 3c d0 c4 c1 bb
       -0.121819586 -0.05174354 0.023422983 -0.0059133545
0000c0 b1 75 44 be 19 0c 90 3e 74 7e ce 3c ed 81 24 bd
       -0.1918552 0.2813423 0.025206782 -0.04016297
0000d0 f0 60 94 3b e4 1a e5 3d f3 c2 ec 3d 4d a7 c6 3e
       0.0045281574 0.111867696 0.11560621 0.38799515
0000e0 52 ff 2b 3d 86 cc 71 3c df 3c c5 3d b2 c5 f0 3d
       0.04199154 0.014758235 0.09630751 0.117564574
0000f0 3a 61 71 3d b5 cd 4b be bd b5 35 3e 52 93 64 bc
       0.058930613 -0.1990269 0.17745109 -0.0139511395
000100 2c 63 a5 3d 34 11 e5 bd db d6 a2 3d fa a6 09 be
       0.08075556 -0.11184922 0.07951137 -0.13442603
000110 54 f3 30 be 21 3c 0b 3e 38 d7 48 3e 98 7d 84 3e
       -0.17280322 0.13597156 0.1961335 0.2587707
000120 1b 2b d9 3b e0 04 89 3d b3 e4 89 3a b0 fb 07 3e
       0.006627453 0.06690383 0.0010520428 0.13279605
000130 69 69 7f bb 43 24 e2 bc 1c 73 f1 bd da d2 7c bd
       -0.0038972741 -0.027605182 -0.117895335 -0.06172452
000140 bb 01 71 be c0 b1 08 3e ad 27 b7 3d 29 ab 72 3d
       -0.23535816 0.13349056 0.089431144 0.059245262
000150 d1 aa 0a be 81 9b 29 be 9d 71 18 3e da 7d 9e be
       -0.13541724 -0.16563226 0.1488709 -0.30955392
000160 39 be 09 be b0 0f da bd 6e 59 55 be c1 d5 0a 3f
       -0.1345147 -0.106475234 -0.20834896 0.5423241
000170 2c 53 18 3e 7a 1c 8b be 45 1f 1b 3c 60 46 c5 3d
       0.14875478 -0.27170163 0.009467904 0.096325636
000180 41 d9 17 be 6c ac 3d 3e 05 86 92 be ad ef 9d bd
       -0.1482897 0.18522805 -0.28617874 -0.0771173
000190 53 83 b9 bd 98 d6 7a bc 34 a2 a4 bd 55 a4 b8 3e
       -0.09058251 -0.015309952 -0.0803875 0.36062875
0001a0 9b 58 b9 3d 0a e0 3a 3e af b1 49 bc a0 df 27 be
       0.09050103 0.18249527 -0.0123104295 -0.163939
0001b0 9f 4a 81 3e 32 84 83 3d bb 52 4e be a1 05 7e 3d
       0.25252244 0.06421699 -0.20148747 0.062017087
0001c0 44 6b d5 bd fd b0 4f 3d f1 84 26 bd 99 68 a5 3e
       -0.1042085 0.0507059 -0.040654127 0.32306364
0001d0 61 2c 15 be 19 79 ea bd 67 9c 7f 3e 80 63 d6 bd
       -0.1456771 -0.11448879 0.24962007 -0.10468197
0001e0 49 62 47 bd f2 18 c9 bd 26 cb 3e bd fe dc 23 bd
       -0.048677716 -0.09819211 -0.046580456 -0.040005676
0001f0 a9 7d 39 3d 65 58 e6 bd ef f9 8c 3d b0 b1 63 be
       0.045285854 -0.11247329 0.068836085 -0.22235751
000200 c7 5e b3 bd 6f e7 00 3f 04 eb 8e bc e2 ea 3e be
       -0.08758312 0.5035314 -0.017446049 -0.18644288
000210 57 fe be 3c 78 c5 e8 3d 13 a9 02 3f 72 33 d3 bc
       0.023314638 0.11365789 0.51039237 -0.025781367
000220 54 55 af bc ee ae 01 be 82 63 d7 bc 61 76 b7 bd
       -0.021402992 -0.12664387 -0.026292566 -0.08958126
000230 33 c6 7d 3e a4 fd 7b be bb 05 48 bd 04 f9 43 3e
       0.24782638 -0.24608475 -0.04883359 0.1913796
000240 78 1f 1f 3f bf a7 28 be 1d 8d ab 3e db 43 39 3e
       0.6215739 -0.1647024 0.33506098 0.18092291
000250 5c 25 9b 3e 21 e6 c1 3d d5 02 9c 3d 1a 13 67 3d
       0.3030194 0.09467722 0.07617728 0.0564147
000260 75 62 e5 3d 2f b5 a6 3d c4 ba 90 bd 96 79 91 3e
       0.1120042 0.08140027 -0.07066873 0.28413075
000270 4a 87 61 bd c0 00 2e 3e 25 f9 09 3e ad fb 59 be
       -0.055060662 0.16992474 0.13473947 -0.21287413
000280 b0 1f 4f be 66 74 1d bd b9 b4 3d be f1 42 5c be
       -0.20226932 -0.038441084 -0.18525971 -0.21509911
000290 d3 4c 9c be 5b b0 84 3e 39 37 49 3e e3 8f 87 be
       -0.30527362 0.259158 0.19649972 -0.26476964
0002a0 c9 8d 2f 3e ad ed 45 3e c0 7a bf bd ee f8 d7 bc
       0.1714393 0.19328947 -0.093495846 -0.026363816
0002b0 55 32 b3 bd a6 05 56 bd 71 e2 35 be 28 95 14 bd
       -0.087498344 -0.05225148 -0.17762162 -0.03627506
0002c0 be 63 ae 3e 81 5a ac bd 91 36 78 3e 70 b6 cc 3c
       0.34060472 -0.084157 0.24239565 0.024989337
0002d0 69 30 59 3e ac c2 66 3e ad 96 09 3e 05 3c 51 3e
       0.21209873 0.22535199 0.13436384 0.20433052
0002e0 ff 9b ed 3d b8 03 a5 3e 5c 87 0a 3f 5c 42 93 be
       0.116020195 0.322294 0.5411279 -0.28761566
0002f0 73 20 13 be b6 4c 99 bc 88 92 f9 3d c0 e6 34 bd
       -0.14367847 -0.018713336 0.12186152 -0.044165373
000300 80 e1 76 be 64 08 1e 3e c0 e4 5c 3e 0d 00 98 bd
       -0.24109459 0.15432888 0.21571636 -0.07421885
000310 34 3c 5b bd be 29 05 be 39 0c 00 3d 03 43 40 3e
       -0.05352421 -0.13004205 0.031261656 0.18775563
000320 03 b4 45 3d c9 c2 09 3d 37 6b 18 3e 33 8c 2d be
       0.048267376 0.033633027 0.14884649 -0.16948013
000330 b7 f1 c5 3e 78 d1 fe bd 7b ad 65 3e 12 d8 29 bf
       0.38660976 -0.12442297 0.22429459 -0.6634532
000340 cb 31 5f bb 3d 01 a2 3e 49 02 0b bd 90 58 a1 bd
       -0.0034056779 0.3164157 -0.033937726 -0.0787822
000350 0a 3e 5a 3c 0a 44 18 3e af d8 a7 3d c3 0f ae bd
       0.013320455 0.14869705 0.08195626 -0.084991
000360 6d 6d a0 3e 44 b3 a7 3e b0 9f 12 3e 4a 2b a6 3e
       0.31333485 0.32753956 0.14318728 0.32454902
000370 77 09 33 3e 34 9c c7 bd 9d 72 0e 3e c9 e3 86 3e
       0.1748408 -0.0974659 0.13910909 0.2634566
000380 0f 13 9b 3d 0d f0 17 3e fe 7b 4a 3e 3b 52 90 be
       0.075719945 0.14837666 0.19773862 -0.28187737
000390 42 fd e1 bc b8 d2 55 bd 3c cb ad be 21 56 96 3d
       -0.027586583 -0.05220291 -0.33944118 0.073406465
0003a0 83 5e c6 3d 88 90 43 be a7 9f 85 bc 5d ed c2 3d
       0.096859954 -0.19098103 -0.01631148 0.0951793
0003b0 b8 54 04 bc b1 24 d3 3e 52 96 4f 3e 99 fe 19 be
       -0.008076839 0.4123893 0.20272186 -0.15038528
0003c0 8f 56 05 bd f8 e4 23 3e 0a 4b 88 be fa a9 e2 3d
       -0.03255325 0.16005313 -0.2661975 0.11067577
0003d0 e7 b9 bd be d2 fa 32 be 43 26 85 3d 12 88 1a 3e
       -0.37055895 -0.17478493 0.065014385 0.15090969
0003e0 f0 29 00 3f d9 ef 3c be e3 5d 27 3d 66 1b 85 bc
       0.5006399 -0.1845087 0.04086102 -0.016248416
0003f0 ae f3 10 be 36 a4 d5 3d dd 72 24 3e 67 96 9a 3e
       -0.14155456 0.104317114 0.16059442 0.30192873

linear2.bias f4 [32]
000000 3f 8f 13 be 3d 1f f9 bd 03 01 ac bb f1 94 03 bd
       -0.14410113 -0.12164161 -0.005249144 -0.032124463
000010 65 39 3f 3e 16 a4 03 be 3b 06 10 3e 24 ea 2d 3d
       0.18674238 -0.12855563 0.14064877 0.042459622
000020 80 01 d2 3a 44 d0 f9 3d 0c 34 0b bd 5b d3 a4 bd
       0.0016022176 0.12197927 -0.033985183 -0.08048125
000030 80 63 42 be b5 76 8a bd 38 fa ae 3c 10 be 01 3e
       -0.18983269 -0.06760923 0.021359548 0.1267016
000040 2d 0c 82 bc d6 b2 01 3e 57 a1 12 3e ac 53 15 3e
       -0.015874946 0.12665877 0.14319359 0.145827
000050 83 b8 cf 3d f4 a5 33 bd 65 66 0e b9 dd 68 0f 3e
       0.10142615 -0.043859437 -0.0001358032 0.14004846
000060 e6 be 6d bd 88 c5 0d bd 92 4a 3d bd 51 c2 a8 bd
       -0.058043383 -0.03461221 -0.046213694 -0.08240188
000070 7e 63 55 3d d5 88 51 3d 3c c5 82 3d a3 1d d3 bd
       0.052096836 0.051155884 0.06385276 -0.10308387

linear3.weight f4 [16, 32]
000000 41 13 55 3e 71 6a 5d be d8 9b 0c be 03 35 72 3c
       0.20808126 -0.21622635 -0.13731325 0.014783147
000010 19 a6 b0 3e a5 c6 33 be 2d 28 47 3e 59 07 73 3e
       0.34501722 -0.17556246 0.1944892 0.23733272
000020 03 55 b7 bd 07 47 92 bd 3a 25 61 be 30 68 b3 be
       -0.089517616 -0.07142454 -0.21986857 -0.35040426
000030 db 10 4b 3e 7c 6d 97 3e 26 8a dd bc 2d 93 63 3e
       0.19830649 0.29575717 -0.027043413 0.22224112
000040 fc 34 1f 3e 74 f8 82 be de 76 16 be fd 76 4a be
       0.15547556 -0.2558018 -0.14693782 -0.19771953
000050 dc 02 89 3e 37 32 a9 bd ae 5b 83 3e d9 a6 ca 3e
       0.26759994 -0.08261531 0.25655884 0.3958042
000060 b1 be e7 3d c1 e8 d0 3e 6b 4b 15 be 93 98 9a 3e
       0.113156684 0.40802577 -0.14579551 0.3019453
000070 30 c4 8b bc 31 f1 f7 3d 26 35 24 bd a9 8d e5 3c
       -0.017061323 0.121065505 -0.04008975 0.02802165
000080 70 70 27 be a6 42 14 3f f4 ad ea bd 8c 93 1d 3e
       -0.16351485 0.579142 -0.1145896 0.15388316
000090 ff ca bf 3e 51 d0 c0 3e a3 c5 d7 bc d2 fa 40 be
       0.3745956 0.37658933 -0.026339358 -0.1884568
0000a0 8e d6 2b be bd ee 8e 3c 9b c1 09 be 84 3e 34 3e
       -0.16781065 0.017447824 -0.13452761 0.17601973
0000b0 86 ce 1f be 3f 2b 77 3e d0 84 96 3c 91 16 1b be
       -0.15606126 0.24137591 0.018373877 -0.15145327
0000c0 74 ea 28 bd 61 ac a9 3e 5d 5d 9a 3e a9 73 22 3e
       -0.041239217 0.33139327 0.30149356 0.15864433
0000d0 d5 13 80 be 67 8a d6 3e 8d 11 c4 be 09 62 66 3e
       -0.2501513 0.41902468 -0.3829464 0.22498335
0000e0 47 82 9f be ea c0 a7 3d a3 b1 85 3d 2e ad 5a 3e
       -0.3115408 0.08191092 0.06528022 0.21355125
0000f0 99 87 d8 3e 09 f0 df bd 89 ed aa bd cd 17 57 3e
       0.42290953 -0.10934455 -0.083460875 0.21005173
000100 5b 1d 86 3e a3 cf 1c bc 75 fd bf 3e 7a 47 12 be
       0.2619427 -0.009570989 0.3749806 -0.14285079
000110 ff 65 41 bd 86 a0 88 3e 2f e9 29 be 5e 0d 68 3d
       -0.04721641 0.2668497 -0.16592859 0.056653373
000120 6b 27 57 3e 6c 78 c9 bd 96 26 14 be ad db 68 be
       0.2101113 -0.09837422 -0.14467844 -0.2274005
000130 c7 d1 78 3e c3 6d 85 bd 8d f5 75 3d cf f1 ab 3d
       0.24298774 -0.06515076 0.06004863 0.08395731
000140 28 8d 87 3d d4 98 a6 3d 52 e1 19 3e 59 96 b2 3c
       0.0661872 0.081346184 0.15027359 0.021800207
000150 b8 9a 1d be e9 c8 0a 3e 0d 51 4c be 0f ed 30 3d
       -0.15391052 0.13553204 -0.19952793 0.043194827
000160 48 4a b6 3c 2d cf 94 3e e2 45 e2 be 09 e6 e6 3d
       0.022252217 0.29064313 -0.4419394 0.112743445
000170 04 fd 48 be 33 16 34 bd 00 b6 22 3e d7 9a a1 bd
       -0.19627768 -0.043966483 0.1588974 -0.078908615
000180 1b c0 1c bf fe 7f 20 3d 64 d6 80 bd 64 e9 38 bd
       -0.6123063 0.039184563 -0.06290892 -0.045144454
000190 ab f0 8e 3e 03 ca af 3d 9d 41 ab 3c 9f 28 c0 be
       0.2791799 0.085834526 0.02090531 -0.3753099
0001a0 d7 46 94 3e 9a c5 82 3d b6 e6 b2 3e 23 b0 14 3d
       0.28960297 0.06385346 0.34941643 0.03630079
0001b0 8c 15 11 be db 88 bb 3c 25 ce 92 be 8c 9b fd be
       -0.14168376 0.022892406 -0.286729 -0.49532735
0001c0 c1 85 40 bd 19 b2 a6 3e 4c 5b e3 bd bd 7e 0d bd
       -0.047002558 0.32557753 -0.11101398 -0.034544695
0001d0 29 4a b6 3e 76 de ee bd 25 98 2b be 44 04 8c 3e
       0.35603455 -0.11663525 -0.16757257 0.27347004
0001e0 d1 a7 c6 be a6 32 d5 3d f7 e9 bd be 94 96 29 3e
       -0.3879991 0.10410051 -0.37092564 0.16561347
0001f0 30 40 ab bd a6 68 63 bd a1 85 2c be b6 06 74 3e
       -0.08361852 -0.055519722 -0.1684785 0.23830685
000200 ee 2e b6 3e 37 c1 c5 3c ac 0f 9b 3b 9a b1 a6 3e
       0.3558268 0.024139984 0.004732093 0.32557374
000210 aa 78 f6 bd 66 8b 4f 3d 63 a4 3b be f4 e5 09 3f
       -0.120347336 0.05067005 -0.18324427 0.53866506
000220 88 a2 d8 bd b5 08 36 be 2b fb 14 be 9a 95 cd bc
       -0.105778754 -0.17776759 -0.14548938 -0.02509575
000230 eb ae b1 bd 7e ab 76 be 54 fd 2c bd fd 46 b2 be
       -0.08675941 -0.24088857 -0.04223378 -0.34819785
000240 cd ab 75 bd 5e dd aa 3e 35 96 0f 3f 7c ed 03 3f
       -0.059978295 0.33372015 0.5608857 0.5153425
000250 fd 19 ad 3e c1 e9 50 3e 23 4b 04 bd 46 db 89 bc
       0.3380889 0.2040167 -0.03229822 -0.01682819
000260 42 4d 82 3d 71 07 2a 3e 9a c6 ba bd 99 1c 91 be
       0.06362392 0.16604401 -0.091199115 -0.2834213
000270 79 9b 0f bb b4 4f a3 be 4c b3 94 be 4c 55 8b be
       -0.0021912737 -0.31896746 -0.29043043 -0.27213514
000280 b3 45 58 be f6 6f 93 3e bc 1e 82 be 97 0b 5f bd
       -0.21120338 0.28796357 -0.25414073 -0.054454412
000290 98 cf 5d be 92 87 d1 3e 61 cc 6d 3e e5 48 4e be
       -0.21661222 0.40923744 0.23222496 -0.20144995
0002a0 c9 17 35 3b c5 45 5e 3e 6c a8 8e bd ee 53 67 3e
       0.0027632585 0.21706302 -0.06965718 0.2259061
0002b0 65 33 da bc da 5b 8c be 53 66 b1 3d e7 e5 3b 3e
       -0.026635835 -0.27413827 0.08662095 0.1834942
0002c0 e0 79 f1 be 13 de 2a be db b9 b6 3e bb 48 fc 3d
       -0.47163296 -0.16686277 0.3568867 0.1231856
0002d0 1d 46 97 3e 16 da 08 3f 67 2a a7 be 69 cf 44 be
       0.2954568 0.5345777 -0.32649538 -0.19219746
0002e0 eb 0c ed 3d 3b 00 de bd ae 32 7e be 42 dc 64 be
       0.115747295 -0.10839888 -0.2482402 -0.22349647
0002f0 08 86 84 bd d8 86 29 be aa aa 13 be 63 c2 0d bd
       -0.06470877 -0.16555345 -0.14420572 -0.03460921
000300 b1 1e 89 bc 8f 46 d2 3d f5 05 63 be 24 12 a2 3e
       -0.016738268 0.10267364 -0.22170241 0.31654465
000310 ce bf 63 3e 6d 6b db 3c 99 c1 d5 be bb 6f 1e bd
       0.22241136 0.026784623 -0.41749266 -0.038680773
000320 04 86 1e bb 28 be cf 3e a9 e6 3b 3e 7d 9d 80 3e
       -0.0024188766 0.40574765 0.18349709 0.25120154
000330 27 cc 70 bd 85 da 95 3d f2 cf 2e be 91 21 35 3e
       -0.058788445 0.0731707 -0.17071512 0.17688586
000340 c0 b9 a0 bd 6f 9b 7a 3e bb fb 9b 3e 36 f7 05 be
       -0.07847929 0.24473356 0.30465493 -0.13082585
000350 84 c1 f6 bc 55 a1 f9 bd 87 22 48 bd e5 e6 70 3d
       -0.030121572 -0.12188975 -0.048861053 0.05881395
000360 fc c1 f8 3d 4e 73 47 be a7 8d b3 be 62 82 a9 3d
       0.121463746 -0.19477579 -0.3506901 0.08276822
000370 04 1b 04 be b1 cd c7 be 5d 2b 33 be 73 25 ba 3d
       -0.1290093 -0.39024118 -0.1749701 0.09089174
000380 8f d2 f9 3d 9c 82 bb 3e c5 ad a1 3e b9 bf d6 bd
       0.12198364 0.36623085 0.31577888 -0.10485787
000390 c8 63 c9 bd 52 5c 2f 3e 1a 3e 12 bd 83 97 80 bd
       -0.09833485 0.17125061 -0.035703756 -0.062788986
0003a0 c4 9e 6c be e4 c5 b9 be 2d 06 c5 3e ef 43 ff bd
       -0.2310744 -0.3628379 0.38481274 -0.12464129
0003b0 82 c3 16 3d 59 b9 e4 bd 6c 37 49 3c db b4 2e 3e
       0.036807545 -0.11168165 0.01228128 0.17061178
0003c0 96 6e 5a 3d db 39 ec 3d 93 81 ee 3e 5d 15 d2 3e
       0.05332812 0.115344726 0.46583232 0.41031924
0003d0 ef fa 28 be c5 6f b5 3c 57 6b a0 bd b0 07 94 3d
       -0.16501974 0.022148022 -0.078329735 0.07228029
0003e0 9a 70 3e 3e b1 7c 92 3d 78 48 a7 3c 44 95 55 3e
       0.18597642 0.07152689 0.020420298 0.20857722
0003f0 c4 d6 04 3e 40 d8 a8 be 95 c5 13 be f8 6c d3 3c
       0.12972552 -0.32977486 -0.1443084 0.025808796

linear3.bias f4 [16]
000000 3c 53 24 3e 1d 62 85 bd 38 53 89 bd 1f 5c 4f 3e
       0.16047376 -0.06512854 -0.06705326 0.20249985
000010 1b 16 25 3e 8b 75 5a 3e a3 69 c3 bc e2 fe 9b 3d
       0.16121714 0.21333902 -0.023854082 0.076169744
000020 10 63 25 be 10 2f 51 be 54 4e d8 bc e2 f7 fc 3b
       -0.1615107 -0.20428109 -0.026404537 0.0077199796
000030 aa 94 e3 3c 40 5a c3 bd 3a 35 b7 3c 12 32 2b 3d
       0.02778085 -0.09538698 0.022364248 0.041795798

output_layer.weight f4 [2, 16]
000000 07 ac 1b bf 07 56 84 3e 47 02 0b bf c8 53 9a 3e
       -0.6080937 0.25846884 -0.5430035 0.30142045
000010 3a 65 8c 3d c7 04 af 3e 8c ee a4 bc 13 52 1b 3e
       0.06855245 0.34183332 -0.02013328 0.15168028
000020 47 ee 56 be 33 4c b3 3e 72 07 32 be 8d 6d d6 3e
       -0.20989333 0.35019073 -0.17385653 0.41880456
000030 88 0d b9 bc 3c ca cc be e3 21 11 3e 24 a2 27 be
       -0.02258946 -0.39998043 0.14173083 -0.16370445
000040 1f f4 61 3e dd f8 26 be 7a f1 9c 3e 65 41 1c bf
       0.22065781 -0.16305871 0.30652982 -0.61037284
000050 4c 19 10 bf 72 09 c2 be e8 5f 46 be 6c d2 91 be
       -0.562886 -0.3789783 -0.19372523 -0.28480852
000060 f3 f0 1c 3f 5c a8 a0 3e f7 62 2a 3e 93 2e 86 3e
       0.6130516 0.31378448 0.16639315 0.26207408
000070 f9 18 be 3e 19 e6 93 3e 48 31 ff be 05 6d 0b be
       0.37128428 0.28886488 -0.49842286 -0.13615806

output_layer.bias f4 [2]
000000 49 a2 2b 3e 69 2f 8f 3d
       0.16761126 0.06991465
