models_saved_PPO/PPO_discretized_pendulum-v1_3000iter_naction21.pt (torch, 11876 bytes, 8 tensors)

linear1.weight f4 [32, 3]
000000 1c 4c 94 3e 72 82 88 3d 29 98 21 be 94 12 d1 3e
       0.28964317 0.066655055 -0.157807 0.40834486
000010 ee 51 c4 be 53 87 f6 be 56 51 75 be ec a5 fa ba
       -0.38343757 -0.4815012 -0.23956808 -0.0019122935
000020 78 cf 66 3e 0d d8 98 be 13 70 b5 3d 3d 61 1b be
       0.2254008 -0.29852334 0.08859267 -0.15173812
000030 26 90 de bd d7 83 e2 3d b7 0f 0d bf 14 48 e7 be
       -0.10867338 0.11060303 -0.55102104 -0.4517218
000040 db d8 3d 3d 94 8a 60 3e f7 0b 8f be 57 d5 a2 be
       0.046349388 0.21927863 -0.27938816 -0.3180339
000050 97 17 82 3e 24 bf 3f 3e 11 c0 2f 3f 69 1b 75 3e
       0.25408623 0.18725258 0.68652445 0.23936237
000060 8c 43 89 3e b1 ee b6 be a4 53 9a be 2e 6f 14 bf
       0.26809347 -0.35728982 -0.30141938 -0.57982147
000070 fb d2 64 3e 13 d2 4c 3c 9a 25 b8 3e 30 a7 3b 3f
       0.22346108 0.0125012575 0.35966188 0.7330198
000080 c3 f0 6e 3e f5 f0 90 be 8d 18 8a be ff 9a dc 3a
       0.23334031 -0.28308836 -0.26971856 0.001683086
000090 81 f9 1d 3e 13 d9 41 3d 6d aa 93 3e 4f f5 bc 3e
       0.1542721 0.04732616 0.28840962 0.36905906
0000a0 39 30 e4 be ac af d4 be e2 0b c0 3c ba c0 07 3f
       -0.4456804 -0.41540277 0.023443166 0.5302845
0000b0 d6 13 ce bd 9c 90 ac bc 5f 25 93 be fe bf ab bc
       -0.10062377 -0.021065049 -0.2873945 -0.020965572
0000c0 d8 c7 f6 3e 4f 5f 68 3f bd 03 83 3e f4 51 c5 be
       0.48199344 0.9077043 0.2558879 -0.38539088
0000d0 11 84 85 3d 19 50 f2 be e7 4d 39 3e eb 52 36 3d
       0.0651933 -0.47326735 0.18096124 0.04451267
0000e0 2e fe 02 be 5e 9c 9a be 90 b0 ea 3d fe 7e 08 bf
       -0.12792274 -0.30197424 0.11459458 -0.53318775
0000f0 72 45 e7 3e 84 2e 21 bf 3d a6 0d be 90 a4 99 3e
       0.4517017 -0.629616 -0.13832946 0.30008364
000100 0d d0 61 3e 56 cb e5 bb eb 9a 09 3f be cb 01 bf
       0.22052021 -0.007012765 0.5375201 -0.5070151
000110 ac e0 a6 3e da 77 6e be ed b7 37 be c5 9f 02 be
       0.32593286 -0.23287907 -0.17941256 -0.1275626
000120 cf f8 24 be 17 73 bc 3d 2b 51 0e 3f d6 90 26 bf
       -0.16110538 0.09201639 0.555926 -0.6506475
000130 8c bc 5a bd 2f 64 77 bd fa 5a fc bd 5d 6b 78 be
       -0.05340247 -0.060398277 -0.1232204 -0.24259706
000140 aa b8 e4 3e e1 42 89 3e b3 33 28 3e 52 1d ad bc
       0.44672137 0.26808837 0.16425972 -0.021132145
000150 a2 39 33 be 6a 7d 73 be dd 6c aa be 19 6b a5 3e
       -0.17502454 -0.2377831 -0.3328618 0.32308272
000160 29 ef df 3d f6 22 b6 be 70 40 60 3e 19 12 f3 3d
       0.10934288 -0.35573548 0.21899581 0.11868686
000170 03 cb fe be a1 37 49 3f c6 26 4c 3e d3 a8 9b 3e
       -0.4976426 0.7860051 0.19936666 0.3040224

linear1.bias f4 [32]
000000 d1 c7 66 be c8 21 64 be e0 6f 08 3d 85 73 82 3c
       -0.22537161 -0.22278512 0.033309817 0.015924225
000010 f9 4b 91 be 92 6a 8c 3c ea db bb 3d 4d d2 1c 3e
       -0.28378275 0.01714066 0.09172805 0.15314598
000020 cd 14 ec 3e c9 72 18 3f fb 79 f0 3d 69 ad 04 3f
       0.4610962 0.5955015 0.11742016 0.518271
000030 ad ca 8e be c7 7e 23 3f b8 af da 3e 31 4b 21 3f
       -0.27889004 0.6386532 0.42712188 0.6300536
000040 0c 08 10 3e 90 96 6a bc da 15 a7 3e 1c 31 23 be
       0.1406557 -0.014318123 0.3263386 -0.15936702
000050 6a e0 b7 3d db c7 cb 3e a9 21 3c 3f 0c 85 1f 3f
       0.089783505 0.39800915 0.7348886 0.6231239
000060 c5 32 5f be fb 4c c7 3e c3 45 cb 3e e3 01 f7 3e
       -0.21796711 0.3892592 0.3970166 0.48243627
000070 ce 76 26 3f 82 c8 8f be 0b 8c 13 be aa d4 e5 be
       0.6502503 -0.28082663 -0.14408891 -0.44888812

linear2.weight f4 [32, 32]
000000 b4 cf 69 be 21 63 dd bd ba eb f3 bd e3 a3 25 3e
       -0.22833139 -0.10809923 -0.11910196 0.16175799
000010 c9 b7 40 3e cb 16 88 be 8a 2a 4b bd f7 e6 55 3e
       0.18820108 -0.2657989 -0.049601115 0.20888887
000020 4c 4e 06 3f 98 5b a0 be 0b 3b c9 be f5 49 d0 be
       0.5246322 -0.3131988 -0.3930286 -0.40681425
000030 ae b1 d3 3d 89 f3 36 be 81 62 0d 3c 0f f1 9c 3d
       0.10336624 -0.17866339 0.008629442 0.07663166
000040 e7 ac e8 3e aa 45 16 3f 14 29 37 3e 12 21 35 be
       0.45444414 0.5870005 0.17886764 -0.17688397
000050 95 74 0d 3e b5 ec 21 3d 7f 47 96 3e da fa 81 3e
       0.13814004 0.039532382 0.29351422 0.25386697
000060 eb 6e ce 3d 41 36 7b 3d c0 f9 2e bc bc 9f cd 3d
       0.1007975 0.061331037 -0.010679662 0.100402325
000070 c2 2a 80 3e 94 d8 b8 bd de 10 1a 3e a4 56 62 3e
       0.25032622 -0.09025684 0.15045497 0.22103363
000080 04 e5 49 be fb 84 e6 3e 4a e3 b7 bc f9 da 05 3e
       -0.19716269 0.4502333 -0.022447247 0.13071813
000090 98 84 95 be b9 0c 9d 39 2e 0d eb bd fa fe 88 bc
       -0.29202724 0.00029954853 -0.11477123 -0.016723145
0000a0 3d 28 3f be e2 a1 e4 3d cd 71 50 be 87 f9 67 3e
       -0.18667693 0.11163689 -0.20355912 0.22653781
0000b0 12 2e 40 bd 61 02 ae 3e f1 4f 90 bd 43 7e 4c 3e
       -0.046918936 0.3398619 -0.070464976 0.1997004
0000c0 4c 35 b7 be b6 43 28 be 9c e5 67 bd 7a ab ac be
       -0.3578285 -0.1643208 -0.056615457 -0.33724576
0000d0 58 9f ef 3e c9 ed 9d bc b0 9b 2d 3d 0b ac 72 3e
       0.46801257 -0.019278424 0.042384803 0.23698442
0000e0 0a a1 2f bd 05 a9 61 bd af e1 1b 3e 1a 4b a9 3d
       -0.04287819 -0.05509283 0.1522281 0.082662776
0000f0 48 06 c5 3e 79 99 83 be c3 26 0d 3e 33 f7 e1 bd
       0.38481355 -0.25703028 0.13784318 -0.11033478
000100 b4 f1 61 be b2 84 78 bd 7f f9 31 3e fa ea 4f be
       -0.22064859 -0.060673423 0.17380331 -0.2030448
000110 d5 9d e8 3d a0 5f 51 be bf b8 ae bd 30 b6 36 bd
       0.11358229 -0.20446634 -0.08531331 -0.04460734
000120 01 e0 33 be b1 d8 8a bd 45 9b 83 3e 86 c7 6b bd
       -0.1756592 -0.06779612 0.257044 -0.057563327
000130 88 40 04 be 67 c6 92 be ff 0e af be ad 7b 14 be
       -0.12915242 -0.28666994 -0.3419113 -0.14500304
000140 76 ab 1c 3e f9 e2 64 bd f3 f1 78 3c e0 7d 15 be
       0.15299782 -0.05588052 0.015194404 -0.14598799
000150 57 ad 3a be 3d 17 bb bd 2b 67 e0 bd 53 a2 c8 bd
       -0.18230186 -0.09135292 -0.10957178 -0.09796586
000160 56 65 de 3c 9b 9b 7f be 0b fe 9d be 9d 46 30 3e
       0.02714793 -0.24961703 -0.30857882 0.17214437
000170 c1 a3 1c bd a0 7c bf 3e 1c 34 06 3e 9e 95 05 3e
       -0.038242105 0.3739977 0.13105816 0.13045356
000180 87 0e fc 3d 0c e1 2a be 80 d5 11 be 09 9a 48 3e
       0.12307458 -0.16687411 -0.142416 0.1959001
000190 38 ae e3 bd a4 65 82 be 1d c3 e1 be 4a c3 ad 3e
       -0.11117214 -0.2546817 -0.44094172 0.33938056
0001a0 de 39 1a 3e ab a4 04 be 0d dc 30 bd 89 7b a2 3d
       0.15061137 -0.12953441 -0.043178607 0.07933719
0001b0 29 45 ad bc 2f 53 17 3f 0b ca c7 3e 53 36 c4 3e
       -0.021151142 0.59111303 0.39021334 0.38322696
0001c0 a2 5c 62 3e d3 08 97 bd d6 88 08 3d 1f dd c8 bd
       0.22105649 -0.0737473 0.033333622 -0.098078005
0001d0 60 25 9e be ce b3 12 be dc cb 34 be 13 72 13 3e
       -0.3088789 -0.14326403 -0.17655891 0.14398985
0001e0 22 55 3b bd fb ef 82 3e 9e 1b 2c be bb 7f c0 3e
       -0.045735486 0.25573716 -0.1680741 0.3759745
0001f0 34 ef 92 3e cd ec 8c be 41 12 e4 3d 43 7f d9 3d
       0.28698123 -0.27524415 0.11136294 0.10619976
000200 f4 34 9f bc de e5 6a 3e fd 11 a1 3b 51 69 04 3e
       -0.01943443 0.2293925 0.0049154744 0.129308
000210 92 f7 39 be 11 2c d7 bc 46 c4 93 3c 58 94 1f be
       -0.18160847 -0.02626613 0.018037926 -0.15583932
000220 6c 8c 80 be 71 bc 4d be 95 26 3f 3e 32 80 cd bd
       -0.25107133 -0.20091416 0.18667062 -0.10034217
000230 03 24 70 bd a9 b4 02 be da e7 26 bc 22 2d af be
       -0.058628093 -0.12764229 -0.010187114 -0.3421412
000240 cd 4e 5a bc a7 38 9d 3d 2a d4 44 be 21 31 80 bd
       -0.013324452 0.07676821 -0.19221559 -0.062593706
000250 ff 9e 6a bd ab c6 a1 bb 9b 96 1a 3e db 66 34 bd
       -0.057280537 -0.004937013 0.15096514 -0.044043403
000260 0b 77 60 be ef 5a 5b 3e e5 4f 99 3c f7 69 a6 bd
       -0.21920411 0.21421407 0.018714854 -0.0812568
000270 4b 48 c8 3e da bb 68 3d 4c c9 52 bc 66 4f ac 3d
       0.39117655 0.056819774 -0.012865376 0.084135816
000280 fe 85 06 be 89 c7 44 3c 30 95 2f 3d d5 b2 19 3e
       -0.13137051 0.0120104635 0.042866886 0.15009625
000290 ee 5e 8a 3c d3 3a dd 3d fd 95 1d be dc 7c 6b be
       0.01689097 0.108022355 -0.15389247 -0.22996849
0002a0 02 74 ac 3e 47 eb d3 be 20 89 55 be 26 d7 29 bc
       0.33682257 -0.4139044 -0.2085309 -0.010366237
0002b0 35 4b af 3d 47 e3 30 3d c9 bd 6b be b2 32 bb bc
       0.085592665 0.0431855 -0.23021616 -0.022851322
0002c0 dc 41 45 bd e6 d8 42 be e0 9a da bd 02 06 c9 3d
       -0.04815851 -0.19028053 -0.10674071 0.09815599
0002d0 fc e5 d1 3e a2 ca c6 3e ec 09 ab 3d 5f f0 8b bc
       0.40995777 0.38826472 0.08351502 -0.017082391
0002e0 aa b6 95 3c f7 b2 0a be 5b ca ca 3c 0d 98 24 be
       0.018275578 -0.13544832 0.024754694 -0.16073628
0002f0 b6 f5 08 be b9 93 8d 3d 04 88 7b 3e 20 f5 47 3c
       -0.13374981 0.069129415 0.24563605 0.012204438
000300 0c db b8 bb 95 13 99 3e 19 09 da 3d de 64 4c bd
       -0.005641347 0.29897752 0.106462665 -0.049900882
000310 70 0b 9d 3d ee 19 b1 3e ea 71 99 3d e2 f1 2b 3d
       0.07668197 0.34590095 0.074924305 0.041978724
000320 5d 3a d3 3d 7f 84 90 3d bf 38 24 3d 5e 3f 9b bd
       0.10313866 0.070565216 0.04009318 -0.07580446
000330 f1 63 9c 3e 76 db 11 3e c5 9a 09 3f d4 e7 3c 3e
       0.30545 0.14243874 0.53751785 0.1844781
000340 ab 10 cb 3c dd f7 76 bd 52 19 4c be c3 47 b4 bd
       0.024788221 -0.060294975 -0.19931534 -0.0880275
000350 9e 37 ca 3e c9 af 42 3e f3 ba fd 3e d5 b4 71 3e
       0.39495558 0.19012369 0.49556693 0.23604138
000360 be 0a 2a 3e 10 52 e6 bd 05 36 2b 3e 4d 70 c4 3d
       0.1660566 -0.11246121 0.16719826 0.09591732
000370 64 20 a9 3e 7a 77 27 be 2f ff a5 bd aa f3 ee bd
       0.33032525 -0.1635417 -0.08105313 -0.11667569
000380 5c f7 c4 3c f4 8b 25 3e 61 04 0a bc 26 6d 01 3e
       0.024043731 0.16166669 -0.008423896 0.12639293
000390 b3 a3 dc 3d fe f1 36 be 3a a4 d4 bb 40 df 4e be
       0.10773411 -0.1786575 -0.006489304 -0.2020235
0003a0 68 97 dd bc 7a 4d cc 3e 3d 87 d1 3c 28 a4 f5 bd
       -0.027049735 0.3990286 0.025577182 -0.11994201
0003b0 c1 34 87 bd d0 62 a4 3d 23 4e 0c 3e d6 4a 04 be
       -0.06601859 0.080266595 0.13701682 -0.12919173
0003c0 62 a2 46 be c1 00 c3 bc c0 59 4b 3d 08 33 e0 3d
       -0.19397882 -0.02380407 0.04964614 0.109472334
0003d0 0b 29 98 bd 75 9a cd bd a0 1a 52 3d 51 5f a7 3d
       -0.07429703 -0.10039226 0.051294923 0.08172477
0003e0 51 16 22 be 12 82 e4 3d be a5 4d be 82 bf 55 bd
       -0.15828826 0.111576214 -0.20082757 -0.05218459
0003f0 a6 e1 8a 3d 93 71 b2 3e 29 d2 b3 3e e8 7f 15 bd
       0.0678132 0.34852275 0.35121277 -0.036498934

linear2.bias f4 [32]
000000 87 d9 53 bd 4a 0a 8b bd b1 09 1d 3d 34 58 29 bd
       -0.051721122 -0.06789072 0.03833932 -0.041343883
000010 28 fb 43 3c 33 92 24 bd 0b f8 da 3d 23 94 89 bd
       0.011961736 -0.04017849 0.10691842 -0.06717708
000020 92 10 a5 3d e2 cf 23 3e bb dc af 3d c4 e1 d1 3d
       0.08059801 0.1599727 0.08587023 0.102481395
000030 3b 75 cb bd 07 15 ef 3d 8c bd 9d 3d 92 bb cd bd
       -0.09934469 0.116739325 0.07702169 -0.10045542
000040 bb c2 15 3e 93 d3 69 3e 60 c5 ad 3c ca f2 3d 3d
       0.14625065 0.22834615 0.02121228 0.04637412
000050 ea 56 c1 3d 7a 2b 6f 3d 0e d1 11 3e 66 75 6f 3d
       0.09440406 0.05839107 0.14239904 0.05846157
000060 68 34 a5 3c c9 36 b1 bb b5 f0 84 3e 2b 1e 84 3e
       0.02016659 -0.005408142 0.25964895 0.25804266
000070 47 ca 21 bd 79 b1 e6 3c 76 c0 c4 3d e2 30 ab bc
       -0.039499547 0.028160797 0.096070215 -0.020897333

linear3.weight f4 [16, 32]
000000 f7 64 6f be c8 84 07 3f fa ee 37 3e 14 a9 82 bd
       -0.23378359 0.52936983 0.17962256 -0.06379905
000010 10 3a c2 bd 4f 1a 01 3e ff 91 46 3c 5b cf 93 be
       -0.09483731 0.12607692 0.012119769 -0.28869137
000020 f8 45 5a 3e 5b 34 df bd 43 49 91 bd 04 e2 9d 3e
       0.21315753 -0.10898658 -0.07094052 0.308365
000030 e8 32 9a bd 94 aa 91 3e 2b 09 87 be dd 7f 35 3d
       -0.07529241 0.28450453 -0.26374182 0.044311393
000040 3e 41 c8 bd 02 ad cd 3d 17 de 81 be 62 f5 15 3e
       -0.09778069 0.10042764 -0.25364754 0.14644387
000050 b2 3c 2d 3e 00 e5 0f be f4 c9 32 bd f2 69 d9 3d
       0.16917685 -0.140522 -0.04364963 0.106159106
000060 fb 55 8d 3e 76 6f ad bc 37 6d a4 3d 07 e9 ef bc
       0.2760466 -0.021171313 0.080286436 -0.02928592
000070 5b 41 c3 3e a3 6e 9b 3e 17 08 28 be d1 ac a8 be
       0.381358 0.30357847 -0.16409336 -0.32944348
000080 76 43 bb be d4 6a 62 be 01 26 c0 3d 18 ef 9f be
       -0.36574906 -0.22111064 0.09382249 -0.31237102
000090 bc ee 77 3e 23 e1 1f be 18 4b a4 3d 29 c9 ea bc
       0.24212164 -0.15613227 0.080221355 -0.028660374
0000a0 06 8a 3a 3e 0d d9 8a be b0 da 60 bd 03 74 23 bd
       0.18216714 -0.27118722 -0.054896057 -0.03990556
0000b0 39 e5 e0 bd 46 04 4f 3e bf 4c 3e bd 1c 30 2e bd
       -0.10981221 0.20216474 -0.04645991 -0.04252635
0000c0 98 45 7a 3e c0 96 4e 3e 47 c2 cb 3e bd e8 c7 3c
       0.2444061 0.20174694 0.3979666 0.02440297
0000d0 bb 4b 2c bd 46 8d c5 3e 28 69 11 3e 91 b5 25 3e
       -0.04206441 0.38584346 0.1420027 0.16182543
0000e0 e2 de ba bb c9 6f c4 bd a0 a3 65 3c a1 7c bd be
       -0.0057028392 -0.09591634 0.014016062 -0.37009147
0000f0 96 6c 49 3d 66 95 d7 3d e0 53 ca 3e ab 75 2d be
       0.04917582 0.10526542 0.39517117 -0.16939418
000100 62 84 f0 3e d8 d9 ce be 2b 09 82 bd cd bc ba bc
       0.46976 -0.40400577 -0.06349405 -0.022795105
000110 0d 2e 7a bd 15 65 9d bb 58 cf dc 3e ce ca c6 3d
       -0.061079074 -0.0048033097 0.4312694 0.09706651
000120 26 35 5e 3e fa fa 67 3d 0b 45 28 be 3e 3e 20 be
       0.21699962 0.056635834 -0.16432588 -0.15648744
000130 7d 8d a8 3d ae 0b f4 be 7c d3 73 3e da f9 f7 3d
       0.08230112 -0.4766516 0.23811144 0.12108202
000140 5a 7e 1a be be a1 54 3d 12 92 a8 3b 97 cd fc bc
       -0.15087262 0.051912062 0.005144366 -0.030859752
000150 aa e6 84 3d 9a 71 8d be 0c 9d b2 be 55 2e 0e 3d
       0.06489308 -0.27625734 -0.34885442 0.034712154
000160 d5 45 ce be f8 a3 99 3d 0f 72 9e 3e c5 2a d8 be
       -0.40287653 0.07501978 0.30946395 -0.4222013
000170 d9 92 da be 90 5d 81 3e 77 d9 d1 3e 7c 86 04 3e
       -0.4269016 0.25266695 0.40986225 0.12941927
000180 89 65 00 3f 18 01 21 3d c6 82 8d 3c 0a bf ff bb
       0.5015493 0.039307684 0.017274272 -0.007804756
000190 5c 63 57 3e b9 dd da 3e 56 b9 2e bd 30 08 5d 3d
       0.21033996 0.42747286 -0.04265722 0.053962886
0001a0 d5 26 20 be c3 15 fd 3e 8a c5 fc 3d 5c 24 40 bd
       -0.15639813 0.49430665 0.12342365 -0.046909675
0001b0 cc a6 fd 3d b1 d4 e3 3e 92 25 85 be e3 04 92 3c
       0.123853296 0.44498208 -0.26005226 0.017824596
0001c0 65 01 22 bd 60 f4 a2 be eb 09 a2 3d 75 c8 e9 3e
       -0.03955211 -0.31827068 0.07912048 0.4566075
0001d0 0a 0d 9b be 13 fc df be 48 1f 15 be 4e da 0d be
       -0.30283386 -0.43747005 -0.14562714 -0.13852808
0001e0 64 c0 08 3d 06 0a a6 be 12 e7 af 3e 54 81 be 3d
       0.033386603 -0.32429522 0.3435598 0.09302011
0001f0 49 6d ec bd ed be 9c 3c 96 3d 02 bd 3a 28 a3 bc
       -0.11544282 0.01913401 -0.031797014 -0.019916642
000200 e1 8b b7 3e 6d b9 51 be 5e f2 ff bd ba 69 c3 bd
       0.35848907 -0.2048089 -0.124974 -0.0954165
000210 76 fc d1 3c 59 dd 3f be e2 b5 3e be 26 15 7f 3e
       0.025633078 -0.18736781 -0.1862407 0.24910411
000220 f3 c7 81 3d cb e5 dc 3d 75 bc d2 bd 69 6a b0 3e
       0.063369654 0.10786017 -0.102898516 0.34456185
000230 61 af 67 be f8 be 59 be 43 6f 87 3e 51 27 83 be
       -0.22625495 -0.21264255 0.26452073 -0.25615934
000240 c0 6e 87 be 0f a6 08 3e 12 ce 87 bb a6 68 43 bd
       -0.26451683 0.13344596 -0.0041444385 -0.047707222
000250 46 d1 84 3c fc bd 5f be 07 80 75 be 7f c5 17 3e
       0.01621307 -0.21849817 -0.2397462 0.14821433
000260 38 57 4a 3e cb a5 5a 3d 18 65 77 3d c6 ed 89 be
       0.19759834 0.05338077 0.060399145 -0.2693922
000270 66 8d b4 bd 29 56 a1 3e 1e 7e aa bc f9 46 df 3e
       -0.08816032 0.31511047 -0.02081209 0.43608835
000280 39 dd 3b bd 01 77 c5 be 8c ce d4 3e a2 8b 20 3d
       -0.04586527 -0.38567355 0.41563833 0.039195664
000290 56 90 ad be 86 52 6c be ba ae b3 3e 8c dc 81 3e
       -0.33899182 -0.23078355 0.35094243 0.25363576
0002a0 3a 88 a2 bc f5 88 79 be 3d 58 34 3e b2 34 03 be
       -0.019840349 -0.24368651 0.17611785 -0.1281307
0002b0 ee ef 6a be 77 55 a5 3e 42 fe eb 3e cf 65 14 3d
       -0.22943088 0.32291767 0.4609242 0.036229905
0002c0 e8 fc 66 3e 99 78 b7 3e c2 b0 00 bf 36 37 ae be
       0.22557414 0.35834196 -0.5026971 -0.34026498
0002d0 95 bc 71 3e 9f 56 94 3e bd 7b a8 ba f2 82 9b bd
       0.23607095 0.28972337 -0.001285426 -0.07593335
0002e0 93 48 95 be 7e 0d af 3d 3f f4 dd bd b8 79 de 3c
       -0.29156932 0.08547495 -0.10837602 0.02715765
0002f0 86 c4 cf bd 53 08 1c 3f 35 95 ec 3e 09 f3 9a 3e
       -0.10144906 0.609502 0.46207586 0.30263546
000300 2e 80 89 3e 6b 82 8d 3e 68 b8 4e be 64 53 f1 3c
       0.26855606 0.27638564 -0.20187533 0.029458709
000310 aa 9b 15 3c 21 f6 88 3e a2 e4 0e 3c 49 7d 9b bd
       0.0091313515 0.2675028 0.0087215025 -0.075922556
000320 ed ec 2b 3d 37 3f 21 be a0 d7 0f 3e e8 dc b7 3e
       0.041973997 -0.15746771 0.14047098 0.35910726
000330 02 f7 bf 3e 5c 10 86 3e 5a 25 77 3c 3c 2c a4 be
       0.3749314 0.26184356 0.015084589 -0.32064998
000340 9b f3 4e 3f 7e 67 f7 be 48 6b c3 be 25 7c c1 3d
       0.8084046 -0.48321146 -0.38167787 0.09447507
000350 d7 aa ce be af ca 71 3e 8c 85 9f 3d 67 e0 1e be
       -0.40364715 0.23612474 0.07789144 -0.1551529
000360 a3 37 07 3e f8 58 b5 bd 6d 19 b1 3d 5b e7 13 bd
       0.13204817 -0.0885486 0.08647428 -0.03610931
000370 a2 f8 7d be c2 62 b4 be f6 b2 ad be b6 f3 b0 be
       -0.24801877 -0.35231596 -0.339256 -0.34560937
000380 b7 c7 a0 3e df a7 83 bd 98 ee 28 3d 77 6e 34 3d
       0.3140237 -0.06428503 0.041243166 0.04405066
000390 0a 4f d3 be 38 6f 80 be 7d 21 fa bd 75 15 d4 bd
       -0.4127124 -0.25084853 -0.12213419 -0.10355655
0003a0 d4 cc 1d 3e a7 2c 8e 3d c8 cc dc bd 9b e5 9c 3e
       0.15410167 0.069421105 -0.107812464 0.30643925
0003b0 0d b6 aa be 80 b1 1a be a8 3f bf 3e 4a 9e 9d 3e
       -0.3334202 -0.15106773 0.37353253 0.30784827
0003c0 ad 2f 65 bd 9d bf bf 3e 37 01 09 bd e3 e5 93 3d
       -0.05595367 0.37450877 -0.033448424 0.07221582
0003d0 f8 2a 4e 3e 00 a7 21 bd 8d 26 6b bd b4 be e0 bd
       0.20133579 -0.039465904 -0.05740981 -0.10973874
0003e0 51 ed 25 3e d8 bd 7d be 09 3c 89 3e a8 5b f6 bd
       0.1620381 -0.24779451 0.26803616 -0.12029201
0003f0 9c 02 2b bd d8 7f a8 bd 3b 9f 80 3e 07 0b 26 3e
       -0.041750535 -0.08227509 0.25121483 0.16215144

linear3.bias f4 [16]
000000 fc b9 30 3e 1f 5a 2b 3e 2b 8f e0 bc 84 02 4e be
       0.17258447 0.16733597 -0.027412018 -0.20118147
000010 fb e1 cd bd 71 c3 94 bd ef 52 ce bc b3 5d f2 3d
       -0.10052868 -0.0726384 -0.02518603 0.11834278
000020 a9 d0 dc 3e 62 8a 85 3d a0 78 3a 3e b3 d3 4d 3d
       0.43127945 0.06520535 0.18210077 0.05025072
000030 7e 56 d3 bd 88 b7 59 3e 18 db b1 3e 8d 42 7d bd
       -0.103192315 0.21261418 0.34737468 -0.061831046

output_layer.weight f4 [21, 16]
000000 87 ab 20 bf d5 86 f2 bd 61 95 10 3e 40 26 1a 3e
       -0.6276173 -0.118421234 0.14119484 0.15053654
000010 d3 cc f9 3e 2a 2c 49 be 6b 82 c0 be 77 8b 58 be
       0.4878908 -0.19645754 -0.375995 -0.21146952
000020 6b 3f 7c be 14 56 df bd 5b 2a 0d be 5f f3 b2 be
       -0.24633567 -0.1090509 -0.13785689 -0.34951302
000030 c2 c3 4e be f1 bf 51 be f1 ec 0d 3e 6f 2e 9a 3c
       -0.20191863 -0.20483376 0.13859917 0.01882097
000040 c1 ac 3b be 7a d2 e2 bd df 67 0c 3f 19 6a 26 be
       -0.18327619 -0.110753015 0.54845995 -0.1625141
000050 4c d2 fa 3d 2d 3d 9c 3e ef 65 b6 be f5 40 45 3e
       0.12247142 0.30515423 -0.35624644 0.1926306
000060 9e 75 c3 3d 6b 46 ef 3d 5e 59 79 be 47 9f 96 be
       0.09543918 0.11683353 -0.24350497 -0.29418394
000070 29 2d 1f 3e 98 20 0e 3f 71 21 e0 3e a0 e9 21 be
       0.15544571 0.55518484 0.43775514 -0.15811777
000080 6a e2 44 be 59 f2 b3 be f0 32 17 3e d1 a8 33 bf
       -0.19226995 -0.35145834 0.14765525 -0.7017947
000090 14 d9 ab 3e d3 30 68 3e 80 02 0f bf cd 4e 21 3f
       0.33564055 0.22674875 -0.5586319 0.63010865
0000a0 6b b9 d9 3e 06 f2 27 be ed 74 10 bf 97 cc 39 be
       0.42524275 -0.16400918 -0.56428415 -0.18144451
0000b0 64 3d 1d 3f 81 1d b2 3e 67 77 1e 3d 73 0b be 3e
       0.614218 0.34788135 0.03868809 0.3711811
0000c0 dc 6d 33 be fe af e7 3e ba e1 bf bd 9f 04 98 bd
       -0.17522377 0.4525146 -0.09369226 -0.074227564
0000d0 7a 2e 03 be ba 27 91 3d 06 75 c4 be 3e 22 ad be
       -0.12810698 0.07087655 -0.38370532 -0.33815187
0000e0 d9 82 4b be 82 15 64 3e e0 69 c5 be f6 14 b7 3c
       -0.19874133 0.2227383 -0.3855734 0.022348862
0000f0 46 4b c6 bd fa 24 b0 39 8c 88 5d be 4a 5a 89 3d
       -0.09682326 0.00033596886 -0.2163412 0.067066744
000100 d3 5e 8a be 67 44 8e 3e b3 7c 90 3d f5 24 88 3d
       -0.2702547 0.27786562 0.070550345 0.06647674
000110 5b 13 8e 3e 5c 41 a9 bd 39 ad 2d 3c 20 60 c5 be
       0.27749142 -0.082644194 0.0106003815 -0.385499
000120 3e 0b 30 be bd a7 22 be c1 1d 56 be 9a 02 8f 3e
       -0.17191789 -0.158843 -0.20909788 0.27931672
000130 c9 e6 ad 3d d1 c0 2d 3d 43 3d 85 bd b6 6e f3 3c
       0.084912844 0.042420212 -0.06505825 0.029715877
000140 f5 b6 12 3e ce b1 50 bd ed c1 b0 bd a6 f1 3f 3e
       0.14327605 -0.050950818 -0.086307384 0.18744525
000150 3b ed eb be 6b 0c f2 3d d8 6d 76 be a5 06 9d be
       -0.4607943 0.11818775 -0.2406534 -0.30669132
000160 0d a3 c3 be 43 0e d9 bd 95 5e 92 3e b7 ad ab 3e
       -0.38210335 -0.10598423 0.28587785 0.3353097
000170 ab 75 25 3e 50 9e 89 3e c8 b0 3c 3e 8e b3 a3 bb
       0.16158168 0.26878595 0.18426812 -0.00499577
000180 c5 15 30 3e 10 48 2e 3e 1f 46 3e 3e 4c fc 43 3e
       0.17195804 0.17019677 0.18581437 0.19139212
000190 18 d1 80 3d cb e4 89 be 81 64 d3 3e 4a 98 af be
       0.062898815 -0.26932368 0.41287616 -0.34295875
0001a0 48 31 1a bb 08 b9 7a bd ec 8e 9c bd 35 87 90 3e
       -0.002352791 -0.061211616 -0.07644448 0.28228155
0001b0 3d 21 95 3e 8d a6 b6 3d 55 ba 63 be e0 87 6b 3e
       0.2912692 0.08918486 -0.22239049 0.23001051
0001c0 18 a4 7a 3e 8a fc 6a be 66 a5 bb 3e a4 d8 d0 3e
       0.2447666 -0.22947899 0.36649626 0.40790284
0001d0 f6 c4 a5 be ae 26 b4 be 20 31 1a be a7 4f eb be
       -0.32376832 -0.3518576 -0.15057802 -0.45959207
0001e0 7f 5d af 3d 98 81 d0 3e 7d d7 e6 3c 30 aa 5d bb
       0.08562755 0.40723872 0.028178925 -0.0033823363
0001f0 ad 9a 13 3e e8 30 98 be 5d 2f 55 3d 73 fa 24 3c
       0.14414473 -0.29724813 0.052047122 0.010069477
000200 f9 b3 42 be 08 f5 15 3e f2 4f 32 be 82 4a bd be
       -0.19013967 0.14644253 -0.17413309 -0.36970907
000210 18 c5 f1 3d 3c cf a4 3e ac 22 35 3e 00 2c 5a bd
       0.11805171 0.32189357 0.17689008 -0.053264618
000220 c5 ff b8 3e db 95 2d be 33 07 97 be 83 ab 98 3d
       0.36132637 -0.16951697 -0.2949768 0.07454588
000230 87 9e 3a be 04 64 e1 3c 09 dd 1e 3e 52 bd 0b be
       -0.18224536 0.027513511 0.15514006 -0.13646439
000240 6e b0 05 3e 65 ea 95 3e e3 dd b4 3e e2 7a 76 3e
       0.13055584 0.2928039 0.35325536 0.24070314
000250 15 33 fe 3d e1 bc 32 3d 76 13 5b be 33 08 21 3e
       0.12412087 0.04363716 -0.21394143 0.15725784
000260 b1 ac 86 bd 27 16 1a 3b 4e e2 ee 3e 3b df 80 3c
       -0.06575907 0.002351174 0.46657032 0.015731445
000270 95 33 86 3e 62 4a 1d 3e 16 07 de be af 34 58 be
       0.2621123 0.15360406 -0.4336478 -0.21113847
000280 c8 39 8f 3d 43 13 b5 bc 1b 32 10 bf 13 1d 91 3e
       0.06993443 -0.022103911 -0.56326455 0.28342494
000290 c2 70 47 bd 50 b2 6a bd 04 67 69 be 44 bb 9e be
       -0.04869152 -0.05729896 -0.22793204 -0.31002247
0002a0 bb 04 0a 3e 96 6b a8 3e 0b 3a 10 3e f4 79 ac be
       0.13478367 0.32894582 0.14084642 -0.33686793
0002b0 12 e6 7f 3e 9b 87 70 bc 4a 9b da 3d 38 09 72 3d
       0.24990109 -0.014680768 0.1067415 0.059090823
0002c0 a3 fc 37 be 21 16 97 be 0f b1 55 3e 5d 73 18 be
       -0.17967467 -0.2950907 0.20868324 -0.14887758
0002d0 34 35 e7 bc 21 80 0d bf cb 4c 4c bd 4f 40 a6 be
       -0.028223611 -0.55273634 -0.049877923 -0.3247094
0002e0 c7 eb 89 3d 5c ea 8a 3e 76 e6 ad 3e cd 47 43 3d
       0.06734424 0.27131927 0.3396489 0.047675896
0002f0 b8 8e d2 bd 52 71 8c 3e 84 76 d1 3d 44 f7 8a 3e
       -0.10281128 0.27430207 0.10227683 0.27141774
000300 cf 7e 29 be d5 87 b6 bd 6c c5 37 3d b1 ec 5e 3e
       -0.1655228 -0.08912627 0.04486601 0.21769978
000310 f1 96 15 3f 0c 80 b9 be 85 58 94 3e f2 dc a3 bd
       0.58433443 -0.36230505 0.28973785 -0.08001126
000320 e4 bb 10 bd 50 ce 87 3e 52 10 79 be 2f b9 23 3f
       -0.035335436 0.2652459 -0.24322632 0.6395444
000330 2b 62 0d be cf 87 c3 3e 63 28 84 3e e2 b6 93 3d
       -0.1380698 0.3818955 0.25812063 0.072126165
000340 3d 59 e1 3e 56 cb 40 be 56 7c f0 bb 86 ac 49 3e
       0.44013396 -0.18827567 -0.0073390407 0.19694719
000350 01 c0 e2 bc dd 09 16 3f 5e 54 5e be db 53 37 be
       -0.027679445 0.586088 -0.21711871 -0.17903082
000360 e9 6f 80 be c2 2e 1e 3e e0 c6 57 be 2f 37 1b be
       -0.2508538 0.15447524 -0.21071959 -0.1515777
000370 73 29 e4 be e1 4a a2 3e e2 b3 6d be 96 cf 73 3e
       -0.44562873 0.31697753 -0.23213151 0.23809657
000380 6d 35 8a 3e 48 89 17 3e 6e d9 3c be d5 0b d3 3e
       0.26993886 0.14798462 -0.18442318 0.41219965
000390 86 da fa 3c 59 4c f9 3d 4f 4a b1 3d 35 68 53 3d
       0.030621778 0.12172765 0.08656751 0.05161305
0003a0 30 72 26 bc 95 4f 7f 3e d1 b5 42 3e 43 38 a9 3d
       -0.01015906 0.24932702 0.1901467 0.08262684
0003b0 cd be c5 3e e6 a6 dd be 6b 08 01 be 36 76 3e be
       0.38622132 -0.43291396 -0.12600867 -0.18599781
0003c0 24 1b 05 3e 70 cf 64 3e fb 02 80 be fc f1 c0 3e
       0.12998635 0.22344756 -0.25002274 0.3768462
0003d0 b2 70 a8 3c 3d ff 63 bd fa 80 8b be 7b b4 d6 be
       0.02056155 -0.055663336 -0.2724684 -0.4193457
0003e0 a6 62 d1 bc 45 23 30 3e 81 9b c0 bd 46 00 39 be
       -0.025559735 0.17200954 -0.0940466 -0.1806651
0003f0 93 d4 e8 be 91 92 84 3e 8a 1a 89 3e 2c b2 f2 3e
       -0.4547468 0.2589307 0.2677806 0.4740156

output_layer.bias f4 [21]
000000 42 87 89 be 07 05 8d bd 12 15 d9 3e fc 19 52 3e
       -0.26861006 -0.068857245 0.42398888 0.20517725
000010 40 8b 2c be bc d8 98 bd 4d 1b 8d 3d 3d 4c 00 be
       -0.16849995 -0.07463214 0.06889973 -0.12529083
000020 8d 92 34 be e1 51 1b 3c 50 e2 96 be 90 29 dd 3d
       -0.1763403 0.009479971 -0.29469538 0.10798943
000030 21 49 d9 bd 90 13 1f 3e 08 4a 91 be 7e 18 e2 3d
       -0.10609651 0.15534806 -0.28376794 0.11039828
000040 97 59 10 bd d6 4c 1f be 7d 15 02 be 2b c8 50 3e
       -0.03524169 -0.15556654 -0.1270351 0.20388858
000050 e8 51 d6 3d
       0.10464841
